new_models/base+wp_16849288/actor_final.pth (torch, 188274 bytes, 10 tensors)

layers.0.weight f4 [128, 96]
00000000: 0c7b c43d 9568 a83c 34ea 1dbc 70f4 343d
00000010: c57e 18be 827d 7cbd 48ff 963d 9d15 2d3d
00000020: 72f4 953d 537e 243e 5880 973c 2bdb 4abd
00000030: 87d9 e7bd 2b2c 80be 8ca9 53be bbfd 8cbe
00000040: 4108 a6bd 23ca 633d 9679 463e 382f a33c
00000050: 5c68 11bd f372 d0bd 39ed 723c c55d adbc
00000060: 6380 7abd 1dd6 81bc 7226 42bc 112e 54bd
00000070: bb2f d5bc af79 cabd 2606 cabd 6417 1cbe
00000080: 2c28 80be 255d 27bc 47d9 d3bc 1d11 073e
00000090: 302b 663d 32fe f9bc 5b8c 05be 5d62 2bbb
000000a0: 12f8 30bd cf8a 8c3d e60a 64bd 89dc 253e
000000b0: 0312 803d 83d9 b9bd 38d4 7dbd f693 3cbe
000000c0: 9a7d 84bd 9623 2bbe 6dc8 aebd 7c2e afbc
000000d0: 8f6e e83d 9dbf 9d3d e49a 0d3e fd16 99bd
000000e0: 0385 0ebe e38f debc 01e0 36bc 60dc 953c
000000f0: d7f3 3a3c 5a0d 353d 1dff 1b3d f204 a9bd
00000100: f8fc 45be 6124 b2bd fee6 cfbd c9bb d6bd
00000110: ee17 16be 8fc2 3a3e ae35 2abe 3087 35be
00000120: 6436 b83c 3c62 9abd d0d0 633e 069a 20bd
00000130: 0dc7 7d3e 4b3e acbd 43a8 8fbe 7251 21be
00000140: 3a50 59be 5c3f 033e 4499 cd3d 2846 8c3e
00000150: eb64 7a3d 399a 56be 9cd2 05be 3e5f 66be
00000160: aeb4 653e 8166 18bd f46b 543e 62ae 123e
00000170: c1ca 02be 0cba 93bd beb3 72be e226 34bc
00000180: d179 c53c a772 063d 8a8f 6dbb 2913 5fbd
00000190: 54c8 8d3c be5d ac3b 9ea2 fb3c 2a95 f33c
000001a0: 211d ec3c bc33 253d 648e a63d d7f4 a0bd
000001b0: 66b6 67bc a2d5 c73d 9434 3e3d 4c56 99bb
000001c0: 9de2 0ebe 7119 ef3b d910 353c 2588 62bd
000001d0: d352 02bd 5177 44bd 4ee2 19bd 4f5a d7bd
000001e0: f67a a53d 8e78 0abd 8c95 d8bd 21a3 a8bd
000001f0: 8606 db3c 0ac7 823d 6ba9 383d 561c 913d
00000200: 222e 80bc 3118 f1bd 29b5 b3bd 1aaa e83d
00000210: 40de 95bc ef4d 843d 686a efbc 6a4d 1fbe
00000220: 2bfc 09be 9d0d ae3c 1331 573a ff3f dabd
00000230: f6a9 4abc a2be f33c d3a5 8dbb 4801 eabd
00000240: d9a0 8fbd b68b 19be b468 17bd fb02 6e3d
00000250: 5907 3fbd ac74 ce3d 8c02 223d b123 fdbd
00000260: 3375 27be e196 37be 316f d4bd 0d19 8fbd
00000270: 67b8 f3bd 1dea cb3b a7c5 f6bd 5cd9 1fbe
00000280: 944b 29be 0049 15be 02b4 bebb 62eb 46bc
00000290: 5401 b9bc 403f 963d a6e9 04bd 6528 dbbe
000002a0: ecbb e1bd 3329 83bd bdb7 6d3e 8c27 80ba
000002b0: 695d 3fbc 3349 0a39 4d43 07bf f22a 3fbe
000002c0: f891 8dbd 1dc9 cc3d 6dfd f63d 1374 28bd
000002d0: 1c45 8c3b 39ea f8be 226a 1fbe a785 51bd
000002e0: c47e 243e 0495 663e 1e4e 783d 6c98 b93d
000002f0: ab87 07bf 066f a5bd fb18 6e3d 1fe7 4c3e
00000300: b823 383d f83b d0bd 82ce 0bbe 1118 efbc
00000310: 232b 03bd e114 1bbc 1b28 4e3d ff7c 723d
00000320: 3752 2a3d f1b0 22bc f193 b43c 3817 363d
00000330: 6f89 8a3a 2398 cb3d 0d20 67bd 7181 99bc
00000340: b6aa f4bd ef0f 283e 41a1 eebd a2c0 efbd
00000350: c607 72bc 3e3a 40bc bf08 b4bb 09ca 7a3d
00000360: 02e9 513c a016 36bd 9073 5cbd 6d2c 87bc
00000370: 1d91 ae3d b11a c33d 3295 393d ce4d a6bd
00000380: 784f 213d 84f4 f2bd d6cf 103e 86f2 2fbd
00000390: e035 803b 6792 78bd bba0 51bc 8f1a 50bc
000003a0: e8f0 333c 79a0 f2bc e4b7 c5bd 4c18 cbbd
000003b0: 7859 35bc 4c01 cbbb 9b09 b23d 63c2 103e
000003c0: c43e 6ebc 8f2c 823d 1bc3 ebbd 36e7 863e
000003d0: c263 3c3e 5c61 6a3e 4efd aa3d 2052 42bc
000003e0: 0e57 d7bd ac7c 1bbe 9c50 c3be c171 ccbe
000003f0: f826 b0be 87e6 f9bc 61e2 1c3e 94ad 4b3e
0.09593782 0.020557681 -0.009638358 0.044178426 -0.14892109 -0.06164313 0.0737291 0.04225694
0.07322015 0.16063814 0.018493816 -0.04952542 -0.11320787 -0.25033697 -0.20670146 -0.2753733
-0.08107043 0.055612694 0.19382319 0.019919977 -0.035499915 -0.10178175 0.014827066 -0.021162877
-0.061157595 -0.015849167 -0.011849986 -0.051801745 -0.026023736 -0.098864906 -0.09864454 -0.15243298
-0.2503065 -0.0102150785 -0.025860442 0.13190122 0.05619353 -0.030516718 -0.13041823 -0.0026151158
-0.04320533 0.06862413 -0.055674456 0.16197409 0.062534355 -0.0907469 -0.061969966 -0.18415818
-0.06469269 -0.16712794 -0.08534322 -0.02138447 0.113492124 0.07702563 0.13828617 -0.07475088
-0.13917927 -0.02716822 -0.011161805 0.01829356 0.011410675 0.044202186 0.03808509 -0.08252896
-0.19334781 -0.08698345 -0.1015148 -0.10485036 -0.14657566 0.1823828 -0.1662204 -0.17727351
0.022486873 -0.07538268 0.22247624 -0.03920939 0.24782963 -0.08410319 -0.2805806 -0.15753725
-0.2122201 0.12817138 0.10038999 0.27397275 0.0611314 -0.20957269 -0.13068622 -0.2249727
0.22432205 -0.03720713 0.20744306 0.14324334 -0.12772657 -0.0721322 -0.23701379 -0.0109955985
0.024105938 0.032824185 -0.0036248886 -0.054461632 0.017307438 0.0052601984 0.03071719 0.029734213
0.028822483 0.04033254 0.081326276 -0.078591995 -0.014142608 0.09757544 0.04643686 -0.004679477
-0.13953634 0.007296734 0.01105138 -0.05530562 -0.03181727 -0.04796535 -0.037569337 -0.10515272
0.080800936 -0.033806376 -0.10575399 -0.08234239 0.026736509 0.0638562 0.045083445 0.07085483
-0.015646998 -0.11772192 -0.08774788 0.11360569 -0.018294454 0.06460177 -0.029225543 -0.15556875
-0.134751 0.021246726 0.0008208912 -0.106567375 -0.012369623 0.029753987 -0.0043227463 -0.11426026
-0.07013101 -0.14994702 -0.036965087 0.05810831 -0.046637867 0.10080847 0.03955321 -0.12360323
-0.16353302 -0.1792865 -0.103727706 -0.069872 -0.11900406 0.006222977 -0.12049418 -0.1561026
-0.16532737 -0.14578629 -0.0058197984 -0.012141081 -0.022583641 0.07336283 -0.032449387 -0.42804256
-0.110221714 -0.064043425 0.23214622 -0.0009777411 -0.011679986 0.00013187974 -0.5283707 -0.18668726
-0.06912607 0.09999297 0.12060056 -0.041126322 0.0042806994 -0.48616198 -0.1556783 -0.05115285
0.16063982 0.22517782 0.060621373 0.09062275 -0.5294139 -0.08077817 0.058129292 0.2001004
0.04495594 -0.10167688 -0.13652995 -0.02918628 -0.03202356 -0.009465427 0.050331216 0.059201237
0.041582312 -0.009929881 0.0220432 0.044455737 0.0010569523 0.09941127 -0.05642705 -0.01873848
-0.11946623 0.16412328 -0.116518505 -0.11706664 -0.014772361 -0.011732636 -0.0054942067 0.061227832
0.012811901 -0.04445517 -0.053821146 -0.016500676 0.08523772 0.09526575 0.0453083 -0.08120309
0.039382428 -0.11863044 0.14141783 -0.042955898 0.0039126724 -0.060686495 -0.012794669 -0.012701645
0.0109827295 -0.029617535 -0.09654215 -0.09916744 -0.011068694 -0.006195223 0.08693238 0.14136653
-0.014541332 0.06356155 -0.11511823 0.26348275 0.1839743 0.22888702 0.08349095 -0.0118604
-0.10514651 -0.15184277 -0.38147438 -0.39930537 -0.3440473 -0.030505432 0.15320732 0.19890434

layers.0.bias f4 [128]
00000000: feab 063e 83f9 7e3e 3b43 7fbd 1bc6 4e3d
00000010: 410b b63d 97a1 a53e 364b 61be 3e45 36be
00000020: bf13 89bb a204 e73d 8e0b e4bd 24b4 313e
00000030: b17d 9e3d 6e4c 09bd 2369 21be 803c be3c
00000040: 0e33 9c3d 1f41 2c3d 3139 87be 00c9 363d
00000050: b02c 85bd ec74 2b3c 30cd 723e 48f7 e3bc
00000060: 637f 963e c3ee ec3d 8e3e 723e 924f 4c3d
00000070: df08 0b3e 74e3 df3d 37e3 983b 2975 123e
00000080: 3568 163e 11cb 75be 6aaf 983c 3f83 663e
00000090: 5686 adbc c2f7 683e 68ac 143e 3ab0 0bbe
000000a0: a528 8b3e a432 853d ed3a 88bd 49b3 a23d
000000b0: c038 8a3e ab5f 753d 57aa 72bd e5c9 f93d
000000c0: c9c2 44bd b05c 16bc 3c74 c43d 532c 273e
000000d0: a605 4d3e 6cc5 1dbe cd73 2fbe 9c46 67bd
000000e0: 7969 3d3d 3a9a 30bd 6596 a0bc 8698 db3c
000000f0: 15e8 80bb c5df e73d a359 edbd 2ad1 343d
00000100: 9118 b33e 344b 71bc 44c8 eabd bc3b 0abe
00000110: 1423 3cbe 7e95 3b3d 3e32 7d3e b548 34bd
00000120: c21a 893e 6ab3 3fbd 2e97 3fbd a2f9 873d
00000130: f065 66be a5f9 a03e 59db 0b3d aa75 b53e
00000140: 1bcc a83e 6f40 68bd 233f 053b f3c2 743e
00000150: b9f4 ee3c af8e 6a3e 79b2 963d 4f56 debc
00000160: 4562 a3ba 911b 303e 1840 3cbe f19f c13d
00000170: 0766 6a3c 4ad5 a13c 4a48 1d3e f847 0e3e
00000180: 6203 323e 50b6 cdbd d6e9 a63e 9007 d4bb
00000190: fbf8 f43c eae8 e9bb a7d5 cd3d b47b 91bd
000001a0: 8f74 04bd d9e0 22be 4e94 3e3e b607 ab3b
000001b0: a441 7c3e 4617 df3c e71f c33d e90c 2ebd
000001c0: a0ce 05be 70ba 20be 441e 003e ea24 a2bd
000001d0: f797 f0bd 91a3 5abd 6b62 003e 474c d03e
000001e0: 2cb7 f7bd 3a99 8cbe fb83 dabd 8ce5 ec3c
000001f0: 22a2 993e b615 953e 8892 7fbd 2d61 0b3e
0.13151547 0.24899869 -0.062319975 0.050481897 0.08888865 0.32349846 -0.22001347 -0.17799851
-0.004183262 0.112801805 -0.111350164 0.17353874 0.077388175 -0.033520155 -0.15762763 0.023222208
0.076269254 0.04205429 -0.2641082 0.044625282 -0.06502664 0.010464888 0.23711085 -0.027827874
0.29394063 0.11568978 0.23656675 0.04988057 0.13577603 0.10932055 0.004665758 0.14302506
0.1468819 -0.24003245 0.018638331 0.22511004 -0.02118222 0.22750762 0.14518893 -0.13641444
0.27179447 0.065037996 -0.06651864 0.07944352 0.26996422 0.05990569 -0.05924448 0.121967115
-0.048037324 -0.009177372 0.095924824 0.16325502 0.20021686 -0.15407342 -0.17134018 -0.056463823
0.046243165 -0.043115832 -0.019602964 0.026806127 -0.0039339163 0.113219775 -0.115893625 0.044144787
0.3497968 -0.0147274025 -0.11463979 -0.1349935 -0.18372756 0.045796864 0.24726197 -0.04401465
0.26778227 -0.046801962 -0.046775036 0.066394106 -0.22499824 0.31440464 0.034144733 0.35441333
0.3296822 -0.056702074 0.0020331822 0.23902492 0.029169427 0.22905992 0.0735826 -0.027140765
-0.00124652 0.17198016 -0.18383825 0.094543345 0.014306552 0.019755024 0.15359607 0.13894641
0.17384103 -0.10044539 0.32600278 -0.006470628 0.02990388 -0.007138361 0.100505166 -0.071036726
-0.03233772 -0.15906085 0.18611261 0.005219425 0.24634415 0.027232777 0.09527569 -0.04249278
-0.13067102 -0.1569612 0.12511545 -0.07917197 -0.11747735 -0.053378645 0.12537543 0.40683195
-0.12095484 -0.27460653 -0.106697045 0.02891805 0.3000651 0.29118127 -0.062395602 0.13611288

layers.1.weight f4 [128, 128]
00000000: 0392 c7bd 4bb6 3c3d 5796 a5bd 9729 d73c
00000010: 7d07 89bd 807c 99bb edac e9bd 43fb 01bd
00000020: b0ab bfbc 1b00 093d deed 77bd 9e9d a23d
00000030: 602d 6d3c 73d9 45bc ff9f 3fbd e380 8a3d
00000040: fe0e 1ebd da3d c43c 026f d83c 1a2a fc3d
00000050: 4c7f 413d cb7e 523d 080e d1bc c8fb 413c
00000060: 8c86 733d d517 7dbb 5774 44bd f181 903d
00000070: db0c 15bb 65d0 15bc c3af 9cbc a1ea 4cbd
00000080: c8c4 a8bc d19a 8c3c 90f9 133b 40d3 0c3c
00000090: 98fa 3b3b 27c7 c7bd b73a e1ba 59e5 ca3a
000000a0: 5144 00bd ed91 50bc ec31 61bd 16b5 803d
000000b0: eecd a73d e0f4 9abd db0f 993b f17a 4ebd
000000c0: 5302 02be 9df2 4f3c 8f8c cabd fe5d 793c
000000d0: 994b 90bd e6d8 acbd 5f6c 51bd ecea b93d
000000e0: d75d e9bc 541d 85bd e18a a0bb 09a1 30bb
000000f0: d95b 64bd 7a84 7dbd 6bc9 13bd c491 1dbd
00000100: c6fc b1bc dba8 9a3c ea38 0a3d 18e9 c2bc
00000110: f248 5e3d de6c 86bd ec2e 43bd 7475 463d
00000120: f4e5 533d d7ef 50bc 71fb 333d eb35 64bd
00000130: 258c af3d 8884 80bd beab 2abc b7ee c63c
00000140: efff 18bd 7ac2 0bbd 6e1b bebc ad19 b93c
00000150: d1ef dcbd 61e7 30bd a6bf bebd 20fa 48bb
00000160: 72bc 20bc 3feb 31bc 768c a7bd 0520 083d
00000170: 9bbc d8bb 3c1c 80bc 460e 293c 886f 87bd
00000180: 2d35 f33c 2083 9fbd 27e9 6ebd 1969 493d
00000190: 65e1 10bd 4618 27bd b8d1 aabd 28d6 1f3d
000001a0: 3fd5 703d 0472 51bd 3333 a4bb 864c 37bd
000001b0: 04a3 84bb 3972 e8bc 4bdf d8bc c7f5 b43d
000001c0: 70d2 12bc f6d3 b6bd 2d54 0fbc 5796 27bd
000001d0: 82a3 733d 878a f13d d243 b03c a47c a2bd
000001e0: 06fa 9cbd 3785 72bc e9f5 223c a5b0 0a3d
000001f0: 12ff 14bc c88b a7bb bc64 d9bc 27f4 5dbc
00000200: 2589 82be cbeb 033e 6dc8 89be 8047 65be
00000210: f759 e5bd 1872 753d e916 c0bd 3759 36be
00000220: 4f4f 85bd f722 20be 7896 cdbc 4c29 e5bd
00000230: 50b9 803d beb3 18bd c1b8 88bd 7221 3abe
00000240: cfd8 6a3d bc96 9bbd f6be cd3b 43b6 8b3d
00000250: e5d5 ebbd 6222 0abe 121e 81be 6eb8 e53b
00000260: 4314 903b 3f38 e83c c3f6 83ba a9d1 0dbd
00000270: d4e8 9b3d b04a 40be 2e16 143d a304 243d
00000280: d4d2 26bd f47f 5f3c 2e56 ce3c b25c 963c
00000290: 747d f63d a1fe 15be 6640 92be 294a 2c3d
000002a0: 5edc 593d 3f61 1d3d b40c fabd 6fad 1e3e
000002b0: 4482 d6bd d2ea 5abe 875f 92bd 6746 2d3d
000002c0: 4a9f 703d 4ba0 9b3d 12e3 a3bc 9ab3 c1bd
000002d0: 6471 c23c 988a 603a 6998 b73c ed9a b8ba
000002e0: c4ae ebbd c635 38bd 70e4 ab3d 5f4a b7bd
000002f0: 04ea 803c 2e40 643d b438 313e 8b89 993d
00000300: 2236 29bc a85a 17be aad8 d83d c5d9 d1bc
00000310: cc82 86bd cbea 0fbe ea20 d83d affc 11be
00000320: 6ccd 34bd 7d95 a2bd 754b 17be 0ad0 26be
00000330: e128 bd3c a75b ab3b fa51 003d 8914 db3a
00000340: a212 f9bc 4ddc b13d eed1 9b3d e1df 09be
00000350: 43b9 21bd 238d ffbc 6cbf 28bd d3b3 18be
00000360: af99 81bd 4b27 293d 70dd 1abe 355a 1bbd
00000370: f23f b73d 451d 883d ce59 c4bd 675f 11be
00000380: 99c8 63b9 3407 3e3d 0db3 103d fc20 9cbd
00000390: e43c e8bc c755 a1bd a186 02bd b257 febd
000003a0: e664 f1bc 8b24 29bd 406d 0ebe c1bf 253e
000003b0: fe6e cdbd 62f2 44bd 5c4a eabd 16ae 25bd
000003c0: dfbe fd3d ccf7 57bd 1d56 03bb 8a83 2ebe
000003d0: 91a7 ccbd 5ac5 613d 83bc 89bd 34ea 523d
000003e0: e931 b93d cf9a 6a3b 8d84 92bd 5792 96bd
000003f0: 4608 a0be 26c4 c0bd ec8d b83d c608 bdbd
-0.097446464 0.046072286 -0.08085316 0.026264949 -0.066908814 -0.004684031 -0.11409936 -0.031733762
-0.023397297 0.033447366 -0.060529582 0.07940219 0.01447615 -0.01207577 -0.046783444 0.067628644
-0.038588516 0.023955274 0.02642012 0.12312718 0.04724054 0.05139045 -0.025519386 0.0118398145
0.059454486 -0.0038618941 -0.047962513 0.07056034 -0.0022743258 -0.009143923 -0.019126778 -0.050028447
-0.020601645 0.017163666 0.002257917 0.008595288 0.00286833 -0.09754782 -0.0017183636 0.0015479728
-0.03131515 -0.012730104 -0.05497925 0.062845394 0.08193575 -0.075662374 0.0046710796 -0.050410215
-0.12696199 0.012692121 -0.09890091 0.015220163 -0.07045669 -0.084398076 -0.05112874 0.09078011
-0.02848713 -0.064997345 -0.004899368 -0.0026951453 -0.055751655 -0.061893918 -0.03608076 -0.03846909
-0.021726977 0.018879345 0.033745684 -0.023792788 0.054268785 -0.065637335 -0.04765217 0.048451856
0.051732972 -0.012752495 0.043940965 -0.055715483 0.08571652 -0.06275278 -0.010416923 0.02428375
-0.037353452 -0.034121014 -0.023206439 0.022595251 -0.10787929 -0.04318941 -0.09313898 -0.0030666664
-0.009810554 -0.01085931 -0.08181088 0.03323366 -0.0066142804 -0.015638463 0.010318344 -0.0661307
0.029688442 -0.07788682 -0.05832782 0.049172495 -0.035371203 -0.040794633 -0.08340782 0.039022595
0.058797117 -0.051134124 -0.0050109862 -0.044750713 -0.0040477533 -0.028374778 -0.026473662 0.08835941
-0.008961305 -0.08927147 -0.008748096 -0.04091486 0.059482105 0.11794 0.021516714 -0.079339296
-0.07664876 -0.014802269 0.009946325 0.033859868 -0.009094017 -0.005113099 -0.026537292 -0.01354698
-0.25495258 0.12882917 -0.26910725 -0.22390556 -0.111988 0.05992326 -0.0937937 -0.1780747
-0.065092675 -0.15638338 -0.025096163 -0.111895174 0.062853456 -0.03728079 -0.06675864 -0.18176821
0.05733567 -0.0759711 0.006278868 0.06821873 -0.115154065 -0.13489679 -0.25218254 0.007010511
0.0043969466 0.028347133 -0.0010068048 -0.034623776 0.07612768 -0.18778491 0.036153965 0.040043484
-0.040728405 0.013641346 0.025187578 0.018354747 0.12035647 -0.14647914 -0.28564757 0.042062912
0.053188674 0.03842282 -0.12209454 0.15495847 -0.10474065 -0.2137864 -0.07147127 0.04230347
0.05874566 0.07598933 -0.020005737 -0.094580844 0.02373571 0.0008565574 0.022411542 -0.0014084257
-0.11507943 -0.044973157 0.0839318 -0.08949732 0.015736587 0.05572527 0.17306787 0.07496937
-0.010327848 -0.14780676 0.105882004 -0.025616536 -0.06567916 -0.1405441 0.10553153 -0.14256547
-0.044141218 -0.07938669 -0.14774878 -0.16290298 0.023090782 0.0052294317 0.03132818 0.0016714494
-0.030404393 0.08684597 0.076084 -0.1346431 -0.03948332 -0.031195229 -0.04119818 -0.14912347
-0.06328141 0.04129724 -0.15123534 -0.037927825 0.089477435 0.06646208 -0.095874414 -0.1419655
-0.00021723135 0.04639359 0.035327006 -0.07623479 -0.028349347 -0.07877689 -0.031866673 -0.1241907
-0.029467057 -0.041294616 -0.13908863 0.1618643 -0.10030936 -0.048082717 -0.11439964 -0.040449224
0.123899214 -0.052726552 -0.0020040341 -0.17042366 -0.09992898 0.05511985 -0.06725409 0.051492885
0.09042723 0.003579784 -0.07154188 -0.07352131 -0.31256312 -0.09412412 0.090114444 -0.09230189

layers.1.bias f4 [128]
00000000: d568 a8bd 8842 2fbe d5be 793d cfa2 8c3e
00000010: ceb4 943a 502a 95be 1bdb 91bd 2bad 663d
00000020: da28 41be 63cb 093e 94d4 87bb 22fb 3dbe
00000030: f6e1 10be 0731 d2bb 4ba5 88be 9077 423d
00000040: bb50 18be c680 963e 3aba 373e 82cf e6bd
00000050: 6638 7cbc a84b 383d 8c73 563e f889 d4bc
00000060: 31fb 16be 3dd1 af3d c7b6 7b3e 848b 61bd
00000070: e5b4 ba3d d501 9dbe ae83 ea3d a639 7a3d
00000080: f0d7 883e 02da 1a3e 13c5 2cbd f9e5 6abe
00000090: 628f 56be 9a44 093e 490e efbd 2565 e73d
000000a0: afe0 01be 7c4e cfbd 6b61 0f3d dcaa 443e
000000b0: e3ca 723e 7de6 7d3e bc0b cebd bc53 3c3e
000000c0: 3504 aabd cc5a e13c 808f 803d 74a3 a1bd
000000d0: b6e2 de3d bcdf fbbd cc4f e4be b9cf 5ebe
000000e0: 78d9 493e 45ad b93a 67aa 28bd c172 22be
000000f0: 0daa 90bc 1711 ad3e 73ea 203e b611 9c3d
00000100: bc42 81bd 40a2 24be 99b9 b83e cee4 fd3d
00000110: 6079 0c3e 6eed 0d3e 3f23 a73c 3f12 afbb
00000120: 8935 573d 0f7d 04be 09b9 193e 4793 27be
00000130: 3391 be3d 87f0 243c d81d 7e3d b2c7 ddbc
00000140: fc1f b93d cb24 37be 0ff5 113f ac7f ee3d
00000150: e5d3 b7bd ec46 4d3e 1770 503e f93f ec3b
00000160: 7e32 98bd 1b01 15bd 9395 7e3e ff56 303e
00000170: a207 833c d589 33bc 1f52 963d adbd 5b3e
00000180: f09a 493d 01f8 0d3e 06bc 773e 02a7 653e
00000190: ed27 4c3e 9261 d2bd 8929 443e 075d 153e
000001a0: 581e f03c 5b8c 253e 50cb a23e d461 d4bd
000001b0: be7b 5f3d c000 773e 611c fe3c 5f31 57be
000001c0: 05f7 aabd a721 303d 2121 fa3d d2e0 233d
000001d0: b9ff 263e bd22 2f3e 20df 06be 0e86 763d
000001e0: b8c4 debc 3bd9 0fbe 5684 29bd 5d56 2a3d
000001f0: e199 d0bd a895 c1be fe4c 5f3e 3f17 89be
-0.0822312 -0.17115223 0.060973007 0.27467963 0.0011345388 -0.29133844 -0.07121869 0.05631749
-0.1886324 0.13456492 -0.0041452143 -0.18552831 -0.14148697 -0.006414536 -0.2668861 0.047477305
-0.14874546 0.2939512 0.17942134 -0.11270048 -0.015394306 0.044994026 0.20942515 -0.025944695
-0.1474426 0.08584831 0.24581443 -0.055064693 0.09116534 -0.3066546 0.11450897 0.061090134
0.26727247 0.15122226 -0.042180132 -0.2293929 -0.20953134 0.13405076 -0.116726466 0.11298589
-0.12683366 -0.101223916 0.035005014 0.19205803 0.23710208 0.24794956 -0.10060832 0.18391317
-0.08301584 0.027509116 0.062773705 -0.07892504 0.108830854 -0.12298533 -0.4459213 -0.21758927
0.19711864 0.0014166018 -0.041178133 -0.15864088 -0.017659212 0.338021 0.15714435 0.076205656
-0.06311557 -0.16077518 0.360791 0.12397157 0.13718176 0.13860103 0.020402549 -0.0053427513
0.05254129 -0.12938331 0.15011992 -0.16364776 0.09305038 0.010067112 0.06204018 -0.027072761
0.09039304 -0.17885129 0.57014555 0.11645445 -0.089759625 0.20046586 0.20355259 0.0072097746
-0.074315056 -0.036378007 0.24861746 0.17220686 0.01599485 -0.010958155 0.07339882 0.21459074
0.049220026 0.13864137 0.24192819 0.2242699 0.19937105 -0.10272516 0.1915647 0.14586268
0.029311344 0.16166823 0.3179574 -0.10370222 0.05456137 0.2412138 0.031019391 -0.21014927
-0.083478965 0.043000843 0.1221335 0.040009327 0.16308488 0.17103095 -0.13171053 0.06018644
-0.027193412 -0.1404771 -0.04138597 0.04158627 -0.101856 -0.3780949 0.21806714 -0.26775548

layers.2.weight f4 [128, 128]
00000000: 8021 90bd 7da1 cabd afd2 98bd d650 be3d
00000010: a138 5c3d bbe7 acbe 900a 083d 7424 a73d
00000020: 7d6c e1bd d735 0bbe b5dc 91bd 8fd2 f8bd
00000030: 1e13 34bd feba ca3c 205e 33be 6d7f 073e
00000040: 0a65 12be ea91 043d 226c 5f3e c4b6 92be
00000050: b1f8 f0bd b5ed 9f3b 60bc 2c3e 38b1 c2bb
00000060: d2ac 2a3e 4cda 3ebe 1df4 17be 7f8f fa3d
00000070: 28e4 d93d 073e 57be 7a2b a63e 0499 15be
00000080: 8634 b6bd 0360 c8ba d5b0 54bc 6889 24be
00000090: 2e4f 81bd b8f7 9ebd 0d9d c4bd fb78 53be
000000a0: d50e 98be 53a9 b43d 5170 12bc f895 713d
000000b0: 77a3 be3d 02bc c13d ace3 f8bc f155 9f3b
000000c0: ece1 c5bd c1e6 30be 23a4 663d 7a78 eb3d
000000d0: 3ca8 f9bd 0b00 263e af2f 033e 5b27 26bc
000000e0: 00fe f03d 4e43 a8bb b075 773d f128 96be
000000f0: 0bc7 8ebd bac3 953d df2b e6bc 5eda 673d
00000100: d097 e5bc b92b d8be 885c f53d 92f7 11bd
00000110: 61b5 5f3e bb5a ccbd 909d 413d b7b5 b13d
00000120: d455 cd3c ceb9 383e 01f7 a8bd 7ce9 cb3d
00000130: ec9c bebd 96b9 5c3e cb8e 083e 28e4 f33d
00000140: cce0 38be 61ab 5f3e 0aa9 c8bb 5887 153d
00000150: c570 06be e219 4cbe f256 2d3e 22bb 8c3d
00000160: e6fd 52be 9d99 0bbf def7 c53c 0425 023e
00000170: 45ca a43b c187 273e d9f0 ba3d e72a 463e
00000180: 6be9 1b3e 5ed7 ca3d ce84 3a3e 6bb0 5fbe
00000190: 48f5 5a3e 590e a33d 9f2a 073e 86e2 8d3d
000001a0: 1edd a43d 93db 41be 5256 e0bd e74d da3d
000001b0: d28c 6e3c 4f31 303e 4b4b d9bd 219d 42be
000001c0: 614f 033d 2d9f 8bbe 6000 d2be b761 b03d
000001d0: d374 39bd 6267 593e d2db 643e b78c 8b3d
000001e0: f99d 543d 772e 383d 6144 073e 0a1a 8a3e
000001f0: 2dd9 243d 5d0f 90be 8c7c 4cbd fe1d 803d
00000200: eb7e 253d 6adf c53d 7561 a13d c924 693e
00000210: 1836 bf3c 11b0 06be 1627 6d3c 98fe e5ba
00000220: f8f6 14be 56bf d03c 9491 e03d a04b a63d
00000230: fb80 a4bd afb8 8bbe 5e44 cebe 51bf 223e
00000240: 6214 98be 06ce b2bc 13f5 cbbe a3e6 d23d
00000250: d1c9 243b f4a8 783d 48d0 0dbe 06a6 14be
00000260: 9ffd 72bd 7f90 0d3d 5d8a b23c a898 72be
00000270: 8b61 973c dac4 ddbd 5aa3 ebbb 105e be3d
00000280: bac3 623e 1412 f33d 1aab b2bd adc0 94be
00000290: 19c4 85bc 4c3e 723a 9619 5cbe 3883 163d
000002a0: d9c2 3e3d 9a65 b33d 0e0f 74bc 4ff4 713d
000002b0: 65e3 3abe 426b 0abd ac87 fd3c 01f3 00bd
000002c0: a2c2 3abe 2a83 18bd eab9 15bd 3914 713d
000002d0: 934c 74bc 7345 86be f2b3 e9bd ecab b1bc
000002e0: f4b9 afbe b51a 463c 7d8d 43be 1494 a33d
000002f0: 0fae 8a3d b307 91be 930f 00be 055a 89bc
00000300: a75c 623d a2f5 043c 42df b63c 94e4 8abc
00000310: f60a 85be f6f8 94bd 271e 6fbe 9df4 f5bc
00000320: db24 95bd 4286 c9bd 4feb 1fbe f1e3 93bd
00000330: ccea 523e 8e64 4cbd 8f9b 37be 791a dabd
00000340: 3d38 dabd f21f d1ba 1b15 7b3e 093f 153d
00000350: 0db5 863d cc15 21be 5350 50be 7968 0fbe
00000360: 6dac c2bd f9f9 ef3c 1f5d 0f3e 660e 0e3b
00000370: c7f1 54be 0500 aebc b1d2 e9bd d0b0 7ebe
00000380: 606c c2bd c04c abbe 0337 cc3d c7e2 fa3b
00000390: d4c1 69be c80d dabd 7cf3 83be 708d adbd
000003a0: 25c6 80bd 5fb7 923d db7b 803d 6437 84bd
000003b0: 7966 593d c551 803d 2187 9a3d bfd5 1dbd
000003c0: 017b 0e3e 9c40 0cbd c907 ae3d eda1 80be
000003d0: e9bd 18bd 2de2 6abe cdf6 37be 7980 f43d
000003e0: 7997 8cbd 9115 173d ef90 7c3c c442 5b3d
000003f0: 9c2d d23b b015 9ebd 37d4 313e 94e4 25bd
-0.070376396 -0.09894083 -0.0746206 0.09292762 0.053764943 -0.33770546 0.0332132 0.0816125
-0.110070206 -0.13594757 -0.07122175 -0.12149536 -0.043963544 0.024747368 -0.17516375 0.13232203
-0.14296356 0.032365717 0.21818593 -0.28655064 -0.11766184 0.004880632 0.16868734 -0.0059415363
0.16667488 -0.18637961 -0.14839216 0.12234401 0.106392205 -0.21019755 0.32455045 -0.14609152
-0.08896737 -0.0015287403 -0.012981613 -0.16068041 -0.063139305 -0.07762092 -0.096002676 -0.20651619
-0.29698816 0.088213585 -0.008937911 0.058980912 0.09308522 0.09459688 -0.030382 0.00486254
-0.09662232 -0.17275526 0.056308877 0.114975885 -0.12190291 0.16210954 0.12811159 -0.010141219
0.11767197 -0.0051349765 0.06041497 -0.2932811 -0.06971558 0.073127225 -0.028097091 0.056604736
-0.028026491 -0.42220858 0.119805396 -0.035636492 0.21846534 -0.09978243 0.047269404 0.086772375
0.02506534 0.18039629 -0.08250237 0.09956643 -0.09307274 0.2155517 0.13335721 0.11908752
-0.18054503 0.2184272 -0.0061236667 0.036506027 -0.13128956 -0.19931749 0.16927698 0.0687163
-0.20604667 -0.5453127 0.024166044 0.12709433 0.005028995 0.1636038 0.09127969 0.19352303
0.1522576 0.09904359 0.18214723 -0.21844642 0.2138263 0.07961721 0.13199852 0.069279715
0.08049987 -0.18931417 -0.10953964 0.1065939 0.014559941 0.1720631 -0.10610064 -0.19005252
0.032058123 -0.2726988 -0.4101591 0.086123876 -0.045277428 0.21230844 0.2234948 0.068139486
0.051908467 0.044966187 0.13209678 0.2697299 0.040246177 -0.2813672 -0.049923465 0.062557206
0.04040424 0.096617535 0.078799166 0.22767939 0.023341224 -0.13153102 0.014474651 -0.0017547188
-0.14547336 0.025481861 0.10965267 0.08119893 -0.080324136 -0.2728934 -0.40286535 0.15893294
-0.2970305 -0.021826755 -0.39835414 0.10297897 0.0025144706 0.060708 -0.13848984 -0.14516458
-0.059323903 0.03456163 0.021794492 -0.23691046 0.01847913 -0.10828562 -0.007191104 0.09295285
0.22144976 0.118686825 -0.08724041 -0.2905325 -0.016328858 0.00092408503 -0.21494135 0.036746234
0.04657254 0.08759613 -0.014896167 0.05907088 -0.18250807 -0.033793695 0.030948482 -0.031481747
-0.18238309 -0.037234463 -0.036554255 0.058857176 -0.014910835 -0.2622486 -0.11411275 -0.021688424
-0.34321558 0.012091328 -0.19096942 0.07987228 0.0677148 -0.28326187 -0.12505941 -0.016766557
0.05526414 0.008115204 0.022323254 -0.016954698 -0.25984925 -0.07274048 -0.23351346 -0.030023867
-0.0728242 -0.09840061 -0.15617107 -0.07221211 0.2059738 -0.049900584 -0.17930435 -0.106495805
-0.10655258 -0.0015954955 0.2451977 0.036437068 0.065775014 -0.15730971 -0.20343141 -0.14004697
-0.09505544 0.029294001 0.14000367 0.0021676063 -0.20795356 -0.021240244 -0.11417139 -0.24872136
-0.09493327 -0.33456993 0.0997143 0.0076564285 -0.22827846 -0.1064716 -0.257717 -0.08474243
-0.06287793 0.071638815 0.062736236 -0.064558774 0.05307624 0.06265596 0.07545305 -0.038533922
0.1391411 -0.034241304 0.08497579 -0.2512354 -0.037290487 -0.22937842 -0.17965241 0.11938567
-0.068648286 0.0368858 0.015415414 0.05353047 0.0064141285 -0.0771898 0.1736611 -0.040501192

layers.2.bias f4 [128]
00000000: d945 e73d 8716 283e 0a82 643e b626 3b3e
00000010: f92a 81be 0358 0cbe ed4a 6c3e 731e a73d
00000020: 64b9 ffbc a61f 3ebe 078a d1bc ae38 a13d
00000030: 303a 963e f858 c7bd 12df cebd 2d41 493c
00000040: 3a03 263c bdcc 053e 4427 4b3e bf3d 9ebc
00000050: 4b8f 593e 760f 1a3e 0500 3a3c 2bbf c43d
00000060: 01fa 02be c641 223e 252c 003d cdc2 6f3e
00000070: b1a0 793e 9732 4b3e 3462 853e e80e 8ebd
00000080: acaa eb3d 041b 15be 3e90 533c 67c0 3ebe
00000090: 4b3c 123e 5657 1f3d ccaf 603d ac38 9c3d
000000a0: d84b a73c 0923 193e 7396 8c3e 8f7b 663e
000000b0: 0039 53be 04ce 05bd d053 17be aa4a 193d
000000c0: b7aa cbbc 6ebc ba3d 0d7f e23d e1eb 8b3d
000000d0: 62b5 8c3e d89d d33d f8c5 1d3d d0ed 5a3e
000000e0: f6ae 963e b720 77bd 3986 2a3e 2942 093e
000000f0: b740 103e 9760 053e 5d0b 113e 29f7 063e
00000100: 9224 95bd 4fe7 a2be 7261 ea3d e59d 443d
00000110: d87c 253e ada4 f4bc 38e4 d13d 16ae bc3e
00000120: 9c21 443e 21ad 4c3e b858 193e df24 babb
00000130: 3188 803c 476b f13d 0552 8a3e c8ff 8f3d
00000140: 661f ff3d c6f0 103b f97d 813e 2a27 8a3a
00000150: 4b7f a4ba 4729 e93d 4738 e1bd 8e1c 16be
00000160: 3f28 f4bd d986 5b3e ebc2 833e 94ae 933d
00000170: 6ba5 fbbd 9ec2 573d a7dd 303e 847d 6d3c
00000180: 68f0 28bc f5b2 913d 719e c63d db5b 1f3e
00000190: d8a1 ff3d af60 8e3e d04f b23d bd94 e1bd
000001a0: e3e5 bcbd a12a 96be 1903 0f3e 3f94 5f3e
000001b0: 9419 d1bd 9d4e 83bd 09d6 2c3e e695 0e3e
000001c0: 780a 0ebe 48b5 19bd cce4 ee3d 6a2a 513e
000001d0: f861 d03c bbf5 833e d456 75bd 8c95 b23d
000001e0: 2e91 3fbe 6db2 913e 7687 c93d d66f d4bd
000001f0: 7de6 1b3e ab17 353e af5b aa3d 559c 713e
0.11292619 0.16414843 0.22315231 0.18276486 -0.25228098 -0.13705449 0.23075457 0.081601046
-0.03121633 -0.1856676 -0.025578512 0.07872139 0.2934127 -0.09733766 -0.10101141 0.0122836055
0.010132605 0.13066383 0.19839197 -0.019316552 0.21246068 0.1504496 0.011352544 0.09606775
-0.12790681 0.15845403 0.0312921 0.23414154 0.24377705 0.19843517 0.26051486 -0.06936437
0.115071625 -0.14561087 0.012912808 -0.18628083 0.14280812 0.03890165 0.054855153 0.07627997
0.020421907 0.14954771 0.27458534 0.22508071 -0.20627213 -0.032667175 -0.14778066 0.03742472
-0.024861677 0.09117971 0.11059389 0.068321 0.27482134 0.10332841 0.038518876 0.21379781
0.2943036 -0.060333934 0.16652764 0.13404144 0.14087187 0.13025127 0.14164491 0.13180222
-0.07282366 -0.318171 0.114443675 0.048002142 0.16160905 -0.02986368 0.102486074 0.36851567
0.19153446 0.19987918 0.1497525 -0.005680665 0.015689941 0.1178804 0.270157 0.07031208
0.12457161 0.0022116168 0.25291422 0.0010540236 -0.0012550143 0.11384826 -0.10997062 -0.1465933
-0.11921739 0.21438159 0.25734648 0.072110325 -0.1228741 0.052675836 0.17272054 0.014495257
-0.010311224 0.071142115 0.09698189 0.15562384 0.12482041 0.2780814 0.08706629 -0.11014698
-0.09223535 -0.29329398 0.13966025 0.21833895 -0.10209957 -0.06411479 0.16878523 0.13924369
-0.13871181 -0.0375264 0.11664733 0.20426336 0.02543734 0.25773415 -0.05989726 0.0871993
-0.18707725 0.2845644 0.0984029 -0.103728935 0.15224643 0.1768481 0.083182685 0.23594792

mean_layer.weight f4 [2, 128]
00000000: 8e9d 523e d815 c0be f4e9 e5bd 4328 97be
00000010: 5928 173d 3063 00bd ee2d 6d3d 7704 6f3c
00000020: 30ee 82be fe0e c23e 92bf 1ebe aa0a 94be
00000030: 7295 ae3e 5023 c43e 875f c93e 6fef ebbe
00000040: 3009 013e cd21 8c3e e842 fabe 2b85 9fbc
00000050: 91ab f43d 4328 a8bb d04c 02be 9083 323f
00000060: 1e3a 45bd ed06 e1be d235 8d3e b834 b53e
00000070: 889e e13e df90 273e 8f67 9c3e b456 31bd
00000080: cfbb d2be a98d 773d bb79 7d3e fab5 19bf
00000090: 7c0d 463e fd21 463e 6d29 ae3d f5fd 673e
000000a0: 785d 84be 4890 30bf a061 fbbe 5498 a7be
000000b0: d320 483e 2cd7 91bc fa01 8b3d 5b88 c6be
000000c0: 56cb 9e3d 9215 7abd 7a68 0b3f 468d fabd
000000d0: d4db e73e 8002 f53d 1e70 04bd db4b 913e
000000e0: 4b14 cf3e b7db e23c 73d4 f93b 8720 9abe
000000f0: a3d4 3a3e 9391 94be 99a2 c5be 02fa c8be
00000100: 566d 3abd 3aea 46be 163e c83c beed 823c
00000110: f758 b33d 85de a9bc a7a8 5e3d 6f26 313f
00000120: 632f a9be 4a4b d33e c148 db3d 35ec b93e
00000130: 85ce c6bd b2fd aebe 97f7 263f 6d03 81be
00000140: 2378 0b3e 8122 843e 1a6d 3b3f 813e 883d
00000150: f960 27be 27b4 a13e 0e5c c63c a11b c9bc
00000160: f8b5 40bf 21e2 c13e 4d9f a83e 8cd6 c83d
00000170: a7cb 13bd 287a cd3d ec95 813c d331 f7bc
00000180: 2def 9bbe 3eb9 cbbe b4e9 6f3e 6e6d 843d
00000190: 00a7 5b3d c441 b23e 1809 ea3e 1078 b7bc
000001a0: de4f a73d b37a 593e 846c 743c 8407 8c3e
000001b0: 5422 a33e a0de 4cbe d101 d33d 019f ca3e
000001c0: 71ee c0bd e298 89bd c8f1 1abe 3e85 18bf
000001d0: 6bb9 dbbe 1d55 ab3e aa7f 213e b118 dfbd
000001e0: 5afb a63e 7b5d 223f bf43 c7be 9352 0cbe
000001f0: 965d 5a3e f936 e03d 7d28 dfbd 211d b23d
00000200: f04d 343e 47aa 413d 1f6c 113f 14b4 7fbc
00000210: 6740 e0be c60b 763b 723b cbbe 4241 67be
00000220: 19e6 013f ef66 743a 2cf8 3cbc b602 dc3d
00000230: ffa5 93bd 0bca 963e de82 c93e 4ead f03c
00000240: 7dcf 843e b106 123f c2f0 773f f4ff fb3c
00000250: e6ce 0fbe 3226 13bf 3b29 a43e 1789 033e
00000260: 27a7 5dbd d035 c13e 22eb 703e fd9e e2bc
00000270: 05f2 623e 0368 2fbf 9de1 70be d612 1cbe
00000280: 0c6b 92be c635 d9be 5f12 8ebd 0cc5 1f3e
00000290: 0a5b 923d 4bd2 72bd cec2 ca3e 9b0d d33e
000002a0: e8f8 c03e a29f 523b 4f16 97be 1cb8 63bd
000002b0: 1051 cbbe 0c22 5f3d a386 7c3e 6c3c 153d
000002c0: 8023 ae3e 3d96 a4be 4500 6e3e 57d5 073f
000002d0: 9652 13bd ec69 8f3e 7151 cb3e 8750 46be
000002e0: e349 07bd 6714 8fbc 7a64 86be 4e6c 153f
000002f0: 18d2 c43e e82d 08bf d850 3b3e 47dd dc3b
00000300: ab02 c63c 9bb5 163f 71b5 25be b64d 793e
00000310: 713d 4bbe 150a b23e c92f cfbe bbb6 59bd
00000320: 837e 2fbf bc32 d93d ad67 88be 3d98 4fbe
00000330: 9a16 ab3e 7845 4dbf b9fb b23d c531 2bbe
00000340: a44d 6d3f e2b5 923e 50aa 523e 03af 863e
00000350: 266b 20bd d63b ec3e fa7a 7b3c f82a 95bd
00000360: 11f8 12be 1bd7 debd 6df4 8d3b 4700 b5be
00000370: 6656 ba3d 4dcd 9c3e deaa 87be e65b 0fbc
00000380: 6869 1a3f 7aaa b53d d04d f0bc 2817 2dbf
00000390: 0509 0c3e abb8 08bd 0302 69bd 71cc c83b
000003a0: f4fe 2b3d 40a8 b33e d4f3 c7be 339a 2c3d
000003b0: 38e9 0dbd 2ea2 f43d 8c86 18be a4bd c03d
000003c0: 93df 153d d52b ecbd 7a4e fb3e 7700 a9bc
000003d0: 4eb2 3dbd 410e 85bd ccc4 b4be 98a5 2dbe
000003e0: 15c6 c83e 31bb 183d 64bb 57bd f1a6 263f
000003f0: a17c db3d ee9c be3d ceb2 cdbe a12a 60be
0.20567915 -0.37516665 -0.11226264 -0.29522905 0.036903713 -0.031344593 0.05790513 0.014588467
-0.25572348 0.37902063 -0.15502766 -0.28914386 0.34098393 0.3830819 0.39330694 -0.4608111
0.12601161 0.27369538 -0.4887917 -0.01947268 0.11946786 -0.0051317527 -0.12724614 0.69732
-0.048151128 -0.43950596 0.27580124 0.35391784 0.44066262 0.16363858 0.3054776 -0.043295577
-0.41158912 0.060437832 0.24753468 -0.600433 0.19341081 0.19348903 0.08503995 0.2265547
-0.2585256 -0.68970156 -0.4909792 -0.32733405 0.19543771 -0.017802797 0.067874864 -0.38775906
0.07753627 -0.061055727 0.54456294 -0.12233977 0.45284903 0.119633675 -0.032333486 0.28378186
0.4044517 0.027692659 0.007624203 -0.3010294 0.18245177 -0.29017314 -0.38600615 -0.3925324
-0.045514427 -0.19425288 0.024443667 0.015982505 0.08757203 -0.020735988 0.05436006 0.6919927
-0.33043966 0.41268378 0.10707236 0.36313024 -0.09707359 -0.3417793 0.6522154 -0.25197926
0.13620047 0.25807574 0.7321335 0.06652547 -0.16345586 0.31582758 0.024213817 -0.024549307
-0.7527766 0.37867835 0.32934037 0.098065466 -0.03608289 0.10033065 0.015818559 -0.030175125
-0.30455914 -0.39789766 0.23428994 0.064661846 0.05362606 0.348158 0.45710063 -0.022396117
0.0816953 0.21238212 0.01491845 0.27349484 0.31862128 -0.200068 0.10303081 0.39574435
-0.09420479 -0.06718613 -0.15131295 -0.5957831 -0.429149 0.33463374 0.15771356 -0.108933814
0.3261364 0.6342389 -0.38918874 -0.13703375 0.21324763 0.10947985 -0.108963944 0.08696962
0.17607856 0.04728153 0.56805605 -0.015606899 -0.43799135 0.0037543639 -0.3969379 -0.22583488
0.50741726 0.00093231996 -0.011533778 0.107427046 -0.072093956 0.29451022 0.39357656 0.029379513
0.2593955 0.5704146 0.9685174 0.030761696 -0.14043769 -0.57480156 0.32062706 0.12845264
-0.054114487 0.37736368 0.23527196 -0.027663702 0.22162636 -0.68518084 -0.23523565 -0.1524156
-0.28597295 -0.42423838 -0.06937098 0.15602511 0.071462706 -0.059282582 0.3960175 0.41221318
0.376899 0.0032138606 -0.29509208 -0.055595502 -0.39710283 0.05447583 0.24660735 0.036434576
0.3401146 -0.32145873 0.2324229 0.53059906 -0.035967432 0.280105 0.39710572 -0.19366656
-0.03302945 -0.017465783 -0.26248533 0.58368385 0.3844154 -0.5319505 0.18292558 0.0067402455
0.024171194 0.5887086 -0.16182496 0.2434605 -0.19847657 0.34773317 -0.40466145 -0.05315278
-0.68552417 0.1060538 -0.26641598 -0.20272918 0.3341568 -0.80184126 0.087394185 -0.16718204
0.92696595 0.2865439 0.20572782 0.26305398 -0.039164685 0.461394 0.015349144 -0.07283586
-0.14352442 -0.10880872 0.0043321163 -0.35351774 0.090985104 0.30625382 -0.2649755 -0.008749938
0.6031709 0.088704064 -0.029333979 -0.6761346 0.13675316 -0.033379238 -0.056886684 0.006127887
0.04199119 0.35089302 -0.39053214 0.042139243 -0.034646243 0.11944996 -0.14895076 0.09411171
0.03659017 -0.11531798 0.4908331 -0.020630104 -0.046312623 -0.06496859 -0.35306394 -0.169577
0.39213625 0.037287895 -0.052668944 0.6509848 0.107171305 0.09307276 -0.4017548 -0.21891262

mean_layer.bias f4 [2]
00000000: 850b 313d 347b 00be
0.043223877 -0.12546998

logstd_layer.weight f4 [2, 128]
00000000: 62a7 983b c6d0 8aba 6310 11bc dc98 0f3d
00000010: 0a26 963c 90b5 d5bc 2860 b2bb 3463 3e3b
00000020: 5f50 b73d 10cc 1b3c 4585 10be 581a 8f3b
00000030: 8e72 083c af03 fe3b be48 60bb 86e3 413b
00000040: 114a 0c3b 77f8 f6bc fffb d63c 07ad 76bd
00000050: 332f e83b 03ec a93c 6872 043d f9c1 273d
00000060: 123d 9c3c c7d2 b4bc ee2b 17bd b9d0 a839
00000070: ed25 f4bb de7d 8dbd ea78 cb3c 5bb9 ffbb
00000080: 8ccb 2b3c 0300 edbc ea73 6c3c c430 583c
00000090: 0f6e 8e3c 2c0d 153d 5cdf 06bd 8a41 56bc
000000a0: 8989 793a 0580 3abd e499 13bd 84c0 eb3c
000000b0: 0e42 ec3c 44ea 94bc f336 613d 42d0 923d
000000c0: ca33 263c dbaa b13c 3ea2 273d 961d da3c
000000d0: 9ba7 e93c 4262 593c eb7b 66bc 3b14 18bd
000000e0: 4d63 7c3d cc3c 063a 51f2 7dbc 5bbd d43c
000000f0: cdaa a93c acfa 443d 3459 ff3c 3a4c 3c3b
00000100: 311b 803c a51f c43c 1ebe a23b a265 073b
00000110: 7a8b af3d 10ba 213c 65c0 083c 1ec9 34bb
00000120: b81b 99bc 5443 df3c 7ebf 2e3c dd2e aebb
00000130: c0bb fdbc 801f cf3c 8795 f23c 7090 c43d
00000140: 02fa 8abc 6c14 c0bc 2d0e 7bbc 6b8d dabd
00000150: c19c f33c b6e5 bc3d 4652 acbb e8cb 733d
00000160: 9b30 d4bc 9ea2 1ebd abf7 453d 019f 113c
00000170: 60fb 98bb e2ef ef3c 2bc0 5f3a f873 093e
00000180: 7401 59bc d6e1 2d3d 7082 843d 7e06 35bc
00000190: 3f79 4fbb 79b0 2b3c 7c8d c23c d3b4 32bd
000001a0: 195a a4bc e0bc 373d 55b3 85bc 3eb1 3e3d
000001b0: 6700 6d3d 9698 1c3d c1c2 7e3c db2e 193c
000001c0: 06b5 963d a92b ccbc 2ae3 3fbd b73b b73c
000001d0: a2d2 983c 5ffc 543d 7c22 50bd 145b d5bc
000001e0: fa43 6f3c e1f7 2a3d 56c1 e83c 6d4e 223b
000001f0: b500 6b3a 92ed 8b3c c1c0 12bd bb19 8e3c
00000200: 9e23 0ebc 5212 8fbc 251b b63c 7c1c 173c
00000210: ba33 83bd face 343d 8723 363d 81ef 6e3d
00000220: 078b d8bb 37ca 173c 9d69 c43b f302 8bbb
00000230: 507c 1fbd 0955 d73a dde1 3cbc 1180 b03b
00000240: 0d7d 0e3e d102 4dbc 72e0 533d 18a8 23bd
00000250: 0703 fbbc 4040 733d a2d1 4b3c 832b 8fbd
00000260: 832d a5bc f800 fe3c 38ef 423c c3d2 4f3c
00000270: fea2 7bbd ec8a 4b3d 1c08 73bd 4e1a 333d
00000280: e0b0 643c 227a 11bd 3583 993d fbda 853c
00000290: 6630 4fbc 384c 123e d144 4f3c 16cc 823b
000002a0: 23cc cc3d a9a1 2ebd ca1d 093d f4c2 a33b
000002b0: dbbd b1bc 668b 21bd ba23 363d 818a 8f38
000002c0: 0507 b73d fb8b eabc c71c 9bbd 1ab7 a63d
000002d0: 3580 983c 781e 4b3d c492 6c3d 353f a93c
000002e0: d676 e0bc 8a0f 3d3c dffb e73c f002 583d
000002f0: 86bb 273d cc35 b53d c9a3 19bd 8add 51bb
00000300: 8124 adbd e5c1 90bc 41a7 e1bc e2b6 20bd
00000310: 0f5b 873c f549 fd3d 4040 b13d 8d57 02bc
00000320: a2f4 b63d 6982 103c db08 abbc 1674 c5bb
00000330: ef13 6cbc 3b65 4cbc e8c0 a23b d888 323a
00000340: 8f72 e03c 6cb6 db3d adc5 013c 7bfb 6dbd
00000350: 8891 4d3d e7c1 d63d 9886 843b 0907 d33c
00000360: bcb8 de3c cdd9 e1bb 031e 98bb 32f5 9e3d
00000370: 3218 0bbc 280d 423d f6ae 9a3d e6a7 b7bd
00000380: 46d0 3abc 230f afbb ea54 563c f931 f03d
00000390: 3481 23bd b794 ea3c 2d6b 19bd f8bc 26bd
000003a0: 8054 4ebb 88c9 543c 75fe b0bc e858 ceb8
000003b0: 4915 393b a319 1f3d 12d6 913d 9920 803c
000003c0: 99ce 11bd f445 33bd 196c a0bd 5dba 673c
000003d0: c44b 1a39 241c 1ebd dedb 06bd 7b48 85b8
000003e0: 3d60 26bd 9591 48bd 423b 6b3c 05e5 3f3c
000003f0: d8e9 acbb 0585 27bd 64ab 0d3d 73fc ba3d
0.0046586255 -0.0010590784 -0.008854005 0.035057887 0.018328685 -0.026087552 -0.0054435916 0.002905083
0.089508764 0.0095091015 -0.14113338 0.004367154 0.008328093 0.007751904 -0.0034223045 0.0029585077
0.0021406452 -0.030147774 0.026243208 -0.060223605 0.0070857047 0.020742422 0.03233567 0.04095647
0.01907209 -0.022073163 -0.03690713 0.00032198968 -0.00745081 -0.06908773 0.02483793 -0.0078040785
0.010485541 -0.02893067 0.014431933 0.01319522 0.017386464 0.036389515 -0.032927856 -0.013077149
0.00095190905 -0.045532245 -0.036035433 0.028778322 0.028840091 -0.018178113 0.054984044 0.07168628
0.010144183 0.021687916 0.04092621 0.026625436 0.028522303 0.013268055 -0.01406763 -0.03712867
0.061618138 0.0005120754 -0.015499667 0.025969198 0.020711327 0.04809062 0.031170465 0.0028731958
0.015637966 0.02394087 0.0049665114 0.0020659943 0.08571525 0.009871021 0.008346652 -0.0027585695
-0.018689975 0.027253784 0.0106657725 -0.005315645 -0.030973315 0.025283575 0.029612316 0.09597862
-0.016964916 -0.023447238 -0.015323204 -0.106715046 0.029737832 0.092235014 -0.005258831 0.059520632
-0.025902083 -0.038729303 0.048331898 0.008888007 -0.004668638 0.02928919 0.000853541 0.13423145
-0.013244975 0.042451702 0.064701915 -0.011048911 -0.0031657962 0.010479086 0.023749106 -0.04362948
-0.020062493 0.04485786 -0.016320864 0.04655575 0.05786171 0.038231455 0.015549363 0.00934955
0.07358746 -0.024923163 -0.0468475 0.022367341 0.018655125 0.051998492 -0.050814137 -0.026044406
0.014603609 0.041740302 0.028412502 0.0024765984 0.0008964644 0.017081056 -0.035828356 0.017346254
-0.008675484 -0.01746479 0.02222974 0.0092231 -0.064063504 0.0441427 0.044467475 0.058333877
-0.00660837 0.00926452 0.0059940354 -0.004242295 -0.038936913 0.0016428541 -0.011528459 0.0053863605
0.1391489 -0.0125128785 0.05172772 -0.03995523 -0.030641092 0.059387445 0.012440117 -0.06990721
-0.020163303 0.031006321 0.0118978545 0.012684527 -0.06143474 0.049693033 -0.059333906 0.043726258
0.013958186 -0.035516866 0.07495729 0.01633977 -0.012645816 0.14286888 0.012650684 0.003991614
0.099998735 -0.04263464 0.033475675 0.0049976055 -0.021696975 -0.03943958 0.044467665 6.84457e-05
0.08936886 -0.028631201 -0.07573848 0.081403926 0.018615821 0.049589604 0.057757154 0.020660022
-0.027400415 0.011539349 0.028318344 0.052737176 0.04095032 0.088481516 -0.037509713 -0.0032022917
-0.08454228 -0.017670581 -0.027545573 -0.03923691 0.016522912 0.12367622 0.08654833 -0.007955444
0.08933379 0.008820155 -0.020878246 -0.0060258014 -0.014409049 -0.012475307 0.004966844 0.00068105524
0.027398376 0.107281536 0.007920665 -0.05810116 0.050187618 0.10486203 0.004044365 0.02576019
0.027187698 -0.006892419 -0.0046422496 0.07761611 -0.008489655 0.047375828 0.075529024 -0.08967571
-0.011402195 -0.0053423806 0.0130817685 0.117282815 -0.03991814 0.028635366 -0.037455726 -0.04070756
-0.0031483471 0.012987502 -0.02160571 -9.8394055e-05 0.0028241447 0.03884281 0.07120909 0.015640544
-0.035597418 -0.043767884 -0.07833118 0.014143554 0.0001471481 -0.038601056 -0.032924525 -6.355435e-05
-0.040619124 -0.048966963 0.01435739 0.011712317 -0.0052769 -0.04089834 0.03458728 0.09130182

logstd_layer.bias f4 [2]
00000000: 3f9e 393d b4d3 a1bc
0.04531693 -0.019754268
