new_models/base+wp_16849288/actor_best.pth (torch, 188258 bytes, 10 tensors)

layers.0.weight f4 [128, 96]
0.10960676 0.009495935 -0.016118852 0.054934174 -0.11679643 -0.041055385 0.06118643 0.042031065
0.03941401 0.15340386 0.02972476 -0.018677142 -0.08222715 -0.19397685 -0.17548549 -0.25316155
-0.078176044 0.05067734 0.17902756 0.003927715 -0.010186843 -0.08737562 0.024279585 -0.03429277
-0.10685837 -0.04829561 -0.022228835 -0.031313077 -0.0032625438 -0.07139426 -0.07461259 -0.122050606
-0.23309337 -0.014493008 -0.04478179 0.117946915 0.046585158 -0.018148893 -0.115600236 -0.009442686
-0.06432031 0.02587482 -0.09470471 0.11807737 0.014048532 -0.084048346 -0.039003193 -0.15981723
-0.06560428 -0.1782658 -0.07918676 -0.041115947 0.089048244 0.0639044 0.1395771 -0.06242147
-0.12415308 -0.029491978 -0.036563735 0.008828474 0.012554193 0.011836847 0.037698857 -0.049933508
-0.17546065 -0.077629484 -0.08020978 -0.08373458 -0.110365756 0.1668676 -0.17493087 -0.19215916
0.011137042 -0.107364066 0.102151476 0.0120233735 0.25445488 -0.099253766 -0.29743665 -0.13781379
-0.24590863 0.047394533 0.15195845 0.2796065 0.026130121 -0.22472133 -0.1330548 -0.25949463
0.08016223 -0.040493518 0.26475307 0.07460695 -0.110591605 -0.06038879 -0.27588058 -0.07408476
-0.00024196348 0.026589518 -0.007997728 -0.06867212 0.021473791 0.0051544863 0.015497212 0.01710004
0.015564936 0.04627752 0.10548823 -0.06902558 -0.010154773 0.09802673 0.044903398 0.023909675
-0.07532234 -0.0062726205 -0.0016874254 -0.061418623 -0.02615685 -0.049832635 -0.058941144 -0.12370928
0.05976495 -0.03945336 -0.09221132 -0.0787029 0.04448189 0.05121247 0.046296496 0.06357732
-0.014587196 -0.08962619 -0.09013204 0.106017165 -0.004534935 0.06815355 -0.041274022 -0.16010304
-0.14791462 0.00473956 0.0016539533 -0.097212344 0.0070360745 0.02961399 -0.017642597 -0.1001181
-0.06496139 -0.15078862 -0.043227445 0.05571136 -0.026604097 0.114298254 0.06266283 -0.09544413
-0.13753371 -0.15300071 -0.091018304 -0.047559507 -0.085348316 0.042224493 -0.08818316 -0.14139387
-0.17235264 -0.12632307 -0.0038536938 -0.0075284136 -0.034752183 0.070385896 -0.058857318 -0.3674981
-0.14435503 -0.020522278 0.22549807 -0.017279781 0.028537354 -0.039955877 -0.45886236 -0.18516223
-0.025018375 0.09089021 0.079908386 -0.016006455 0.008891628 -0.39061624 -0.14961885 -0.008082212
0.11751542 0.15531692 0.12535381 0.16917314 -0.40366328 -0.051254153 0.0962049 0.17864802
0.061081674 -0.10758395 -0.14635432 -0.0332125 -0.033253916 -0.014135539 0.043096907 0.03971278
0.015546885 -0.029545967 0.03793726 0.06141571 0.010540554 0.10632808 -0.05278103 -0.011213105
-0.115715876 0.15726385 -0.11325557 -0.10118109 0.01967585 0.0111347 -0.008218455 0.047620397
-0.01781936 -0.08504853 -0.0776726 -0.0017090534 0.113612235 0.10119184 0.06603852 -0.076156124
0.0519979 -0.10354052 0.14420578 -0.016317584 0.028806362 -0.036207654 -0.0092535755 -0.044851143
-0.0076504396 -0.04943912 -0.103769846 -0.10227754 -0.0039666123 -0.0013645514 0.061562277 0.15027243
-0.014200269 0.090321526 -0.07802367 0.24409758 0.19311486 0.22111222 0.03736218 -0.06097154
-0.13486773 -0.12973985 -0.3189506 -0.32509047 -0.29003575 -0.03020309 0.11284452 0.13784431
00000000: 8279 e03d d794 1b3c af0b 84bc a802 613d
00000010: f732 efbd b129 28bd 9f9e 7a3d c428 2c3d
00000020: 9670 213d e715 1d3e 5781 f33c ce00 99bc
00000030: b566 a8bd dea1 46be 78b2 33be 649e 81be
00000040: c31a a0bd 0b93 4f3d 0053 373e 10b4 803b
00000050: b7e6 26bc fdf1 b2bd fbe5 c63c 9376 0cbd
00000060: 90d8 dabd 9ed1 45bd 3f19 b6bc 2442 00bd
00000070: 67d0 55bb 2737 92bd 7cce 98bd abf5 f9bd
00000080: 07b0 6ebe 1574 6dbc 1c6d 37bd 278e f13d
00000090: 14d0 3e3d fdac 94bc d1bf ecbd 7fb5 1abc
000000a0: 5eba 83bd 6ef7 d33c 8bf4 c1bd 8cd2 f13d
000000b0: d02b 663c 8a21 acbd d0c1 1fbd 21a7 23be
000000c0: 895b 86bd 4f8b 36be ab2c a2bd 3269 28bd
000000d0: ed5e b63d 4fe0 823d 4ded 0e3e a8ad 7fbd
000000e0: f843 febd 2999 f1bc dbc3 15bd 4ea5 103c
000000f0: 1ab0 4d3c 56ef 413c 1e6a 1a3d 1487 4cbd
00000100: f5ab 33be 35fc 9ebd 0645 a4bd 097d abbd
00000110: 7107 e2bd 57df 2a3e 1421 33be 5fc5 44be
00000120: 2478 363c b1e1 dbbd cb34 d13d affd 443c
00000130: e947 823e 8f45 cbbd 9e49 98be 0f1f 0dbe
00000140: 79cf 7bbe c520 423d ff9a 1b3e 9528 8f3e
00000150: d60e d63c 591d 66be 843f 08be 7bdc 84be
00000160: 182c a43d 88dc 25bd b78d 873e 87cb 983d
00000170: da7d e2bd 3c5a 77bd 3840 8dbe c0b9 97bd
00000180: 94b7 7db9 43d2 d93c e708 03bc f8a3 8cbd
00000190: cee9 af3c f7e6 a83b 05e8 7d3c 6215 8c3c
000001a0: 1304 7f3c 7f8d 3d3d 370a d83d 495d 8dbd
000001b0: 3460 26bc 3dc2 c83d a0ec 373d 39de c33c
000001c0: 9942 9abd 8e8a cdbb 9a2c ddba 1892 7bbd
000001d0: e446 d6bc 4e1d 4cbd 456c 71bd 4a5b fdbd
000001e0: 18cc 743d d999 21bd 4ad9 bcbd fc2e a1bd
000001f0: a432 363d 2bc4 513d 65a1 3d3d d334 823d
00000200: 22ff 6ebc f08d b7bd 2697 b8bd 871f d93d
00000210: cb99 94bb 1794 8b3d f30e 29bd 0df2 23be
00000220: ee76 17be 504e 9b3b 77c9 d83a 4417 c7bd
00000230: df8e e63b 0a99 f23c 3587 90bc b80a cdbd
00000240: 7a0a 85bd 5568 1abe 430f 31bd 9831 643d
00000250: d6f0 d9bc 3415 ea3d 5f55 803d 3678 c3bd
00000260: a3d5 0cbe 38ac 1cbe ce67 babd c2cd 42bd
00000270: 19cb aebd 97f3 2c3d 5f99 b4bd 8ec9 10be
00000280: 367d 30be d65a 01be 418e 7cbb e9b0 f6bb
00000290: 4e58 0ebd 7b26 903d 5f14 71bd b628 bcbe
000002a0: ced1 13be 561e a8bc f7e8 663e 548e 8dbc
000002b0: 2bc7 e93c c6a8 23bd 02f0 eabe 2b9b 3dbe
000002c0: 56f3 ccbc a524 ba3d 02a7 a33d f81f 83bc
000002d0: 31ae 113c dafe c7be af35 19be 416b 04bc
000002e0: edab f03d 660b 1f3e c05c 003e b93b 2d3e
000002f0: f4ac cebe e0ef 51bd 1307 c53d 82ef 363e
00000300: c730 7a3d f954 dcbd e8dd 15be d509 08bd
00000310: 4235 08bd bf98 67bc 6286 303d dea9 223d
00000320: 5db8 7e3c 620a f2bc 1a64 1b3d 0a8f 7b3d
00000330: 4ab2 2c3c 89c2 d93d ec30 58bd 2cb7 37bc
00000340: 72fc ecbd c609 213e 89f2 e7bd 0838 cfbd
00000350: 402f a13c 516e 363c b3a6 06bc 9b0d 433d
00000360: e8f9 91bc ec2d aebd d012 9fbd 5102 e0ba
00000370: 88ad e83d ab3d cf3d 343f 873d bef7 9bbd
00000380: c0fb 543d 0d0d d4bd aeaa 133e 74ac 85bc
00000390: 52fb eb3c 7a4e 14bd 4f9c 17bc d5b5 37bd
000003a0: 8ab0 fabb ad80 4abd 4985 d4bd e376 d1bd
000003b0: 5bfa 81bb bfda b2ba ba28 7c3d 04e1 193e
000003c0: 3fa8 68bc 7efa b83d e0ca 9fbd b7f4 793e
000003d0: e7bf 453e 3e6b 623e 1609 193d 4bbd 79bd
000003e0: c41a 0abe 86da 04be 7e4d a3be 4272 a6be
000003f0: 917f 94be 786c f7bc 071b e73d 0f27 0d3e

layers.0.bias f4 [128]
0.06821137 0.18942238 -0.041052073 0.009206957 0.06374553 0.2648173 -0.21422617 -0.11242064
0.0327684 0.118591815 -0.09908167 0.12032077 0.04565709 -0.014618324 -0.09128713 0.026726102
0.061939638 -0.009414199 -0.2528205 0.027240396 -0.08045397 0.016477533 0.19946325 0.015357522
0.24493058 0.11509037 0.1515495 0.046449803 0.13896492 0.10808193 0.0072272914 0.1482627
0.12039278 -0.23710322 0.08698497 0.14823516 -0.034632035 0.18290064 0.1236823 -0.13280396
0.20760098 0.037996892 -0.071979836 0.073954806 0.23442838 0.050982986 -0.06925161 0.11226326
-0.098673865 -0.021468608 0.060774583 0.09497159 0.1246992 -0.18565568 -0.10054054 0.040633656
0.041378785 -0.022218516 -0.035786346 0.05191884 -0.034824647 0.07775466 -0.046846986 0.018786704
0.312314 -0.019837465 -0.06592201 -0.100922346 -0.12997475 0.085106984 0.22612077 0.0092365425
0.230928 -0.029740006 -0.01668807 -0.021995507 -0.2291607 0.2617195 0.017605245 0.31593674
0.28137854 -0.023837248 -0.008819727 0.16667499 0.10011339 0.18645796 0.08619238 0.015111514
0.019324193 0.1418953 -0.14755431 0.027215686 0.017095245 0.00146916 0.18472776 0.0892605
0.19504686 -0.030407906 0.24689491 -0.033982486 0.04146908 0.0285584 0.08048567 -0.06598285
-0.0069886115 -0.121340774 0.088752136 0.02049576 0.20459977 0.09529637 0.1140383 -0.04249278
-0.098488905 -0.12957786 0.11804542 -0.061783914 -0.11747735 -0.036067687 0.06957783 0.37110335
-0.07921542 -0.24514022 -0.11857505 0.08483041 0.27093023 0.2270089 -0.07144463 0.094051346
00000000: 67b2 8b3d f1f7 413e 3826 28bd c7d8 163c
00000010: 048d 823d 2296 873e 1b5e 5bbe cb3c e6bd
00000020: 2838 063d 44e0 f23d 55eb cabd bc6a f63d
00000030: ee02 3b3d b281 6fbc bff4 babd b3f0 da3c
00000040: 6bb4 7d3d 033e 1abc b071 81be 4027 df3c
00000050: 0dc5 a4bd e4fb 863c 1840 4c3e 1e9e 7b3c
00000060: 15cf 7a3e 80b4 eb3d cb2f 1b3e 2642 3e3d
00000070: d24c 0e3e 0f5a dd3d ead2 ec3b 2dd2 173e
00000080: 7d90 f63d 30cb 72be 2d25 b23d f5ca 173e
00000090: 52da 0dbd 4e4a 3b3e 254d fd3d c3fd 07be
000000a0: 5a95 543e a1a2 1b3d 2a6a 93bd 9e75 973d
000000b0: fe0d 703e 89d3 503d cad3 8dbd 48ea e53d
000000c0: 8615 cabd efde afbc c5ee 783d 7780 c23d
000000d0: 4b62 ff3d 861c 3ebe 33e8 cdbd 7a6f 263d
000000e0: cd7c 293d 9b03 b6bc b494 12bd d9a8 543d
000000f0: 4aa4 0ebd d63d 9f3d a0e2 3fbd 93e6 993c
00000100: 9fe7 9f3e 2e82 a2bc 1e02 87bd 60b0 cebd
00000110: 1a18 05be 924c ae3d 348c 673e de54 173c
00000120: 6478 6c3e 50a1 f3bc 6bb5 88bc ec2f b4bc
00000130: 1aa9 6abe 1900 863e e038 903c 76c2 a13e
00000140: d910 903e 5546 c3bc 9e80 10bc d9ac 2a3e
00000150: 4008 cd3d d6ee 3e3e a185 b03d 4996 773c
00000160: c54d 9e3c 004d 113e 7a18 17be 6ef3 de3c
00000170: 540b 8c3c d490 c03a 4629 3d3e 36ce b63d
00000180: 5dba 473e 001a f9bc 05d2 7c3e 3831 0bbd
00000190: 7bdb 293d 4ef3 e93c acd5 a43d 0422 87bd
000001a0: b900 e5bb 8381 f8bd aec3 b53d b9e6 a73c
000001b0: 9a82 513e be2a c33d ea8c e93d e90c 2ebd
000001c0: 8db4 c9bd 0fb0 04be ccc1 f13d 2111 7dbd
000001d0: f797 f0bd b6bb 13bd d27e 8e3d 4201 be3e
000001e0: b23b a2bd 0a06 7bbe 7ad7 f2bd 91bb ad3d
000001f0: 5eb7 8a3e 0575 683e 9051 92bd fe9d c03d

layers.1.weight f4 [128, 128]
-0.07938248 0.025547156 -0.08449917 0.002317464 -0.07436648 0.0015578308 -0.084423974 -0.027868506
-0.039416816 0.036737654 -0.08280805 0.0661129 0.008667551 -0.00040045645 -0.06305821 0.055341206
-0.032164525 -0.001082845 0.034784965 0.08435718 0.017889902 0.012650834 -0.051154673 0.031673487
0.048487388 0.002332501 -0.055911954 0.05966503 -0.027418252 0.003996902 -0.014890321 -0.030958131
-0.051471926 0.005169778 0.008372828 -0.01936166 -0.017234698 -0.06962147 -0.009854637 -0.018747762
-0.066745296 0.014747068 -0.06712398 0.062845394 0.08720832 -0.076096654 0.01227314 -0.037756093
-0.09924711 0.04077687 -0.080862835 -0.025690317 -0.08252575 -0.084398076 -0.043165904 0.07084874
-0.014221087 -0.06124967 -0.022605449 -0.009728365 -0.055751655 -0.070147574 -0.03608076 -0.04713515
-0.04358729 0.005490899 0.009139703 0.00079518475 0.054268785 -0.043988258 -0.006281789 0.016210817
0.03911168 -0.011614 0.043940965 -0.037773535 0.06934357 -0.08820785 0.006969951 0.02097051
-0.05997935 -0.05804032 -0.015207879 -0.0017279983 -0.11063124 -0.06999302 -0.0803991 -0.0030666664
-0.012511832 -0.009109549 -0.08451912 0.027778111 0.020481424 -0.053562384 0.046309296 -0.08232859
0.026179105 -0.08417006 -0.06752146 0.057593394 -0.06129548 -0.015678717 -0.09103739 0.05096465
0.02558615 -0.029863749 0.019346848 -0.044750713 -0.032798678 -0.017345844 -0.060720228 0.08835941
-0.008961305 -0.08921058 -0.003749393 -0.01971901 0.059482105 0.086396866 0.026333807 -0.09586469
-0.08370081 -0.008140303 -0.028077057 -0.0007436797 -0.02856531 -0.0040593743 -0.018107645 -0.01928569
-0.25495258 0.12882917 -0.26910725 -0.22390556 -0.111988 0.05992326 -0.0937937 -0.1780747
-0.065092675 -0.15638338 -0.025096163 -0.111895174 0.062853456 -0.03728079 -0.06675864 -0.18176821
0.05733567 -0.0759711 0.006278868 0.06821873 -0.115154065 -0.13489679 -0.25218254 0.007010511
0.0043969466 0.028347133 -0.0010068048 -0.034623776 0.07612768 -0.18778491 0.036153965 0.040043484
-0.040728405 0.013641346 0.025187578 0.018354747 0.12035647 -0.14647914 -0.28564757 0.042062912
0.053188674 0.03842282 -0.12209454 0.15495847 -0.10474065 -0.2137864 -0.07147127 0.04230347
0.05874566 0.07598933 -0.020005737 -0.094580844 0.02373571 0.0008565574 0.022411542 -0.0014084257
-0.11507943 -0.044973157 0.0839318 -0.08949732 0.015736587 0.05572527 0.17306787 0.07496937
-0.010327848 -0.14780676 0.105882004 -0.025616536 -0.06567916 -0.1405441 0.10553153 -0.14256547
-0.044141218 -0.07938669 -0.14774878 -0.16290298 0.023090782 0.0052294317 0.03132818 0.0016714494
-0.030404393 0.08684597 0.076084 -0.1346431 -0.03948332 -0.031195229 -0.04119818 -0.14912347
-0.06328141 0.04129724 -0.15123534 -0.037927825 0.089477435 0.06646208 -0.095874414 -0.1419655
-0.00021723135 0.04639359 0.035327006 -0.07623479 -0.028349347 -0.07877689 -0.031866673 -0.1241907
-0.029467057 -0.041294616 -0.13908863 0.1618643 -0.10030936 -0.048082717 -0.11439964 -0.040449224
0.123899214 -0.052726552 -0.0020040341 -0.17042366 -0.09992898 0.05511985 -0.06725409 0.051492885
0.09042723 0.003579784 -0.07154188 -0.07352131 -0.31256312 -0.09412412 0.090114444 -0.09230189
00000000: 4893 a2bd 4548 d13c e70d adbd 98e0 173b
00000010: 744d 98bd 2130 cc3a 7ae6 acbd 7e4c e4bc
00000020: 8773 21bd 397a 163d 4497 a9bd 3366 873d
00000030: 5802 0e3c 5bf4 d1b9 aa24 81bd 76ad 623d
00000040: f3be 03bd 40ee 8dba ae7a 0e3d 75c3 ac3d
00000050: d88d 923c 7245 4f3c 9087 51bd 0fbc 013d
00000060: b69a 463d e0dc 183b ef03 65bd 5263 743d
00000070: 3e9c e0bc 72f8 823b 88f6 73bc e89b fdbc
00000080: 3ad4 52bd 3e67 a93b 302e 093c 589c 9ebc
00000090: c82f 8dbc b495 8ebd 5875 21bc e894 99bc
000000a0: c2b1 88bd b09d 713c 4c78 89bd 16b5 803d
000000b0: 479a b23d 90d8 9bbd 4815 493c 22a6 1abd
000000c0: 1242 cbbd a605 273d 6a9b a5bd 8074 d2bc
000000d0: 4303 a9bd e6d8 acbd bbce 30bd 2519 913d
000000e0: 90ff 68bc efe0 7abd 102f b9bc b863 1fbc
000000f0: d95b 64bd 88a9 8fbd 6bc9 13bd c910 41bd
00000100: 9688 32bd 00ed b33b b1be 153c f273 503a
00000110: f248 5e3d 082d 34bd 77d7 cdbb 8ccc 843c
00000120: 9233 203d a648 3ebc 71fb 333d 6cb8 1abd
00000130: 0004 8e3d 51a6 b4bd 3064 e43b 59ca ab3c
00000140: e8ac 75bd b0bb 6dbd 782a 79bc 007e e2ba
00000150: a292 e2bd 8058 8fbd 49a8 a4bd 20fa 48bb
00000160: 6dfe 4cbc 3840 15bc 5c18 adbd ec8e e33c
00000170: a9c8 a73c 3b64 5bbd d1ae 3d3d e49b a8bd
00000180: 9075 d63c 5a61 acbd b148 8abd 0de7 6b3d
00000190: f810 7bbd a770 80bc d071 babd 4fc0 503d
000001a0: 0c9a d13c d2a4 f4bc 487d 9e3c 864c 37bd
000001b0: e857 06bd df18 8ebc c6b5 78bd c7f5 b43d
000001c0: 70d2 12bc 09b4 b6bd 60b8 75bb c389 a1bc
000001d0: 82a3 733d d7f0 b03d ffb9 d73c b554 c4bd
000001e0: 556b abbd e85e 05bc db01 e6bc 80f3 42ba
000001f0: cc01 eabc 8004 85bb 7c56 94bc 06fd 9dbc
00000200: 2589 82be cbeb 033e 6dc8 89be 8047 65be
00000210: f759 e5bd 1872 753d e916 c0bd 3759 36be
00000220: 4f4f 85bd f722 20be 7896 cdbc 4c29 e5bd
00000230: 50b9 803d beb3 18bd c1b8 88bd 7221 3abe
00000240: cfd8 6a3d bc96 9bbd f6be cd3b 43b6 8b3d
00000250: e5d5 ebbd 6222 0abe 121e 81be 6eb8 e53b
00000260: 4314 903b 3f38 e83c c3f6 83ba a9d1 0dbd
00000270: d4e8 9b3d b04a 40be 2e16 143d a304 243d
00000280: d4d2 26bd f47f 5f3c 2e56 ce3c b25c 963c
00000290: 747d f63d a1fe 15be 6640 92be 294a 2c3d
000002a0: 5edc 593d 3f61 1d3d b40c fabd 6fad 1e3e
000002b0: 4482 d6bd d2ea 5abe 875f 92bd 6746 2d3d
000002c0: 4a9f 703d 4ba0 9b3d 12e3 a3bc 9ab3 c1bd
000002d0: 6471 c23c 988a 603a 6998 b73c ed9a b8ba
000002e0: c4ae ebbd c635 38bd 70e4 ab3d 5f4a b7bd
000002f0: 04ea 803c 2e40 643d b438 313e 8b89 993d
00000300: 2236 29bc a85a 17be aad8 d83d c5d9 d1bc
00000310: cc82 86bd cbea 0fbe ea20 d83d affc 11be
00000320: 6ccd 34bd 7d95 a2bd 754b 17be 0ad0 26be
00000330: e128 bd3c a75b ab3b fa51 003d 8914 db3a
00000340: a212 f9bc 4ddc b13d eed1 9b3d e1df 09be
00000350: 43b9 21bd 238d ffbc 6cbf 28bd d3b3 18be
00000360: af99 81bd 4b27 293d 70dd 1abe 355a 1bbd
00000370: f23f b73d 451d 883d ce59 c4bd 675f 11be
00000380: 99c8 63b9 3407 3e3d 0db3 103d fc20 9cbd
00000390: e43c e8bc c755 a1bd a186 02bd b257 febd
000003a0: e664 f1bc 8b24 29bd 406d 0ebe c1bf 253e
000003b0: fe6e cdbd 62f2 44bd 5c4a eabd 16ae 25bd
000003c0: dfbe fd3d ccf7 57bd 1d56 03bb 8a83 2ebe
000003d0: 91a7 ccbd 5ac5 613d 83bc 89bd 34ea 523d
000003e0: e931 b93d cf9a 6a3b 8d84 92bd 5792 96bd
000003f0: 4608 a0be 26c4 c0bd ec8d b83d c608 bdbd

layers.1.bias f4 [128]
-0.07040573 -0.17115223 0.051768463 0.22194488 0.00970768 -0.21219005 -0.07121837 0.042918205
-0.18370683 0.11736191 -0.020939082 -0.1453536 -0.08187623 0.03319132 -0.20260452 0.06513201
-0.093505934 0.29906216 0.15771763 -0.09747409 -0.004524327 0.057267092 0.15469053 0.04473619
-0.08996112 0.05855843 0.1919191 -0.0075245737 0.10739998 -0.23324217 0.11721772 0.116323635
0.19017504 0.1260888 -0.08423788 -0.17321081 -0.2106394 0.14373866 -0.08094745 0.07230664
-0.078171074 -0.03530697 0.06175343 0.18428451 0.19255736 0.16595004 -0.10060832 0.14807823
-0.095980175 0.027547345 0.07631747 -0.0991698 0.10534179 -0.12367581 -0.31977913 -0.1460645
0.16162136 -0.04571626 -0.03586175 -0.12025983 -0.03715706 0.2516721 0.14659493 0.054304108
-0.006429588 -0.113815896 0.31012252 0.13018997 0.1089984 0.086358465 0.018516855 -0.01666628
0.072219156 -0.13029191 0.12573647 -0.136196 0.10374475 0.052368876 0.09297568 -0.02674085
0.10983771 -0.115557864 0.47879094 0.13076267 -0.10774861 0.17207202 0.16862278 0.0051358608
-0.0286755 -0.02302878 0.16524197 0.15653624 0.029809158 0.01712903 0.018876025 0.18060629
0.009237547 0.16638756 0.17429891 0.12554018 0.13065444 -0.033532307 0.16307838 0.17942399
0.029311344 0.09967102 0.21031755 -0.10370222 0.0438427 0.20235409 0.029802188 -0.19818053
-0.032878835 -0.014873888 0.106836 0.06392787 0.17511988 0.15679437 -0.068191335 0.059709202
-0.027193412 -0.059848893 -0.03725648 0.030705512 -0.101856 -0.24753366 0.14835294 -0.25384906
00000000: e130 90bd 8842 2fbe 2b0b 543d 8545 633e
00000010: f60c 1f3c 5948 59be f0da 91bd 00cb 2f3d
00000020: a51d 3cbe 715b f03d 7088 abbc 93d7 14be
00000030: baae a7bd 9ff3 073d 8f77 4fbe ee63 853d
00000040: 0a80 bfbd ad1e 993e bb80 213e 7fa0 c7bd
00000050: ce40 94bb e690 6a3d 3267 1e3e 4c3d 373d
00000060: 893d b8bd f7da 6f3d 7186 443e b390 f6bb
00000070: 85f4 db3d 09d7 6ebe d80f f03d 163b ee3d
00000080: 3fbd 423e 6c1d 013e e984 acbd 2d5e 31be
00000090: dbb1 57be 3a30 133e c7c7 a5bd 8115 943d
000000a0: 2818 a0bd 0b9e 10bd 2af1 7c3d 14b5 3c3e
000000b0: c22d 453e cfee 293e bc0b cebd d2a1 173e
000000c0: 4191 c4bd f8aa e13c 554c 9c3d 8919 cbbd
000000d0: 70bd d73d be49 fdbd 17ba a3be ef91 15be
000000e0: 1280 253e f940 3bbd c5e3 12bd c94a f6bd
000000f0: 0032 18bd 2adb 803e fb1c 163e fc6d 5e3d
00000100: 4baf d2bb 4f18 e9bd 61c8 9e3e 8550 053e
00000110: 8e3a df3d b5dc b03d a9b0 973c b987 88bc
00000120: a3e7 933d 3e6b 05be 10c1 003e f776 0bbe
00000130: 2178 d43d bf80 563d 096a be3d a10f dbbc
00000140: 98f2 e03d 9aa9 ecbd 1624 f53e a6e6 053e
00000150: 4eab dcbd a633 303e 73ab 2c3e b94a a83b
00000160: e2e8 eabc daa6 bcbc 3135 293e 094b 203e
00000170: 5632 f43c 2e52 8c3c e5a1 9a3c dbf0 383e
00000180: 1559 173c 8061 2a3e 6a7b 323e 9b8d 003e
00000190: 47ca 053e 2c59 09bd 05fe 263e ecba 373e
000001a0: 581e f03c 5220 cc3d 7c5d 573e d461 d4bd
000001b0: 6794 333d e935 4f3e b823 f43c d6ef 4abe
000001c0: f5ab 06bd 9cb1 73bc d5cc da3d 9dec 823d
000001d0: a052 333e b48e 203e e6a7 8bbd a391 743d
000001e0: b8c4 debc 1d24 75bd 409a 18bd 208a fb3c
000001f0: e199 d0bd 7779 7dbe d5e9 173e 81f8 81be

layers.2.weight f4 [128, 128]
-0.057148196 -0.09894083 0.015134016 0.12921806 0.057381973 -0.28652105 0.0332132 0.08279581
-0.13530506 -0.12678608 -0.08131299 -0.053969815 -0.032469608 0.060642283 -0.15795352 0.19034213
-0.20802282 0.069349304 0.2139551 -0.17837602 -0.1311726 -0.039371498 0.15224847 -0.13339218
0.17782708 -0.17117098 -0.0700649 0.10531398 0.08453213 -0.16310774 0.29161558 -0.12936738
-0.10929218 0.028217755 -0.013444586 -0.09725321 0.017600767 -0.12407326 -0.073051475 -0.10152537
-0.24169025 0.089685805 -0.015505231 0.04841924 0.09607411 0.1999337 -0.030382 0.018173626
-0.039169103 -0.11662471 0.06376407 0.11419614 -0.1281002 0.044687662 0.12084875 0.010143191
0.1301096 0.014378066 0.02257944 -0.27992308 -0.0426774 0.059041526 0.02713388 0.0346709
-0.134835 -0.44020098 0.11308284 -0.065499716 0.21554579 -0.051808767 -0.0022962792 0.10670582
0.0016060034 0.22088726 -0.055306833 0.06408269 -0.12187668 0.1998634 0.13108014 0.099116236
-0.1928775 0.13500346 0.05759342 0.03345761 -0.09753867 -0.09491008 0.23101538 0.09643964
-0.21427304 -0.45675218 0.055228673 0.122517616 0.024258127 0.15465729 0.11926346 0.19411601
0.050360877 0.06747987 0.16764987 -0.05363627 0.21025755 0.0900646 0.12273672 0.042789035
0.08049987 -0.11568269 -0.05251669 0.1065939 -0.008059487 0.16292241 -0.12197786 -0.1302458
0.052479256 -0.16768743 -0.28665873 0.06463459 0.0079408055 0.21149895 0.15982303 -0.0145882545
0.051908467 -0.11632156 0.17379075 0.21318598 0.040246177 -0.26979125 -0.062710844 0.09275191
0.050245404 0.096617535 0.106681585 0.23003805 0.11540747 -0.10211885 0.014474364 -0.01922165
0.00929312 0.01408463 0.058367737 0.059677646 -0.12978466 -0.17681651 -0.23488761 0.15304822
-0.2956671 -0.01812154 -0.23302299 0.08284892 -0.021962121 0.051057376 -0.15397593 -0.06818393
-0.022772783 -0.06330059 0.018497024 -0.104802586 0.0055377036 -0.042220842 0.066106334 0.10900285
0.12870765 0.10262851 -0.10682284 -0.25053096 -0.001016143 -0.038533863 -0.12783314 0.06519067
0.06987727 0.060507156 -0.02085051 0.042674057 -0.20066272 -0.06388996 0.030948482 0.043898597
-0.15056533 -0.011009295 0.008612168 0.048629705 -0.0012919563 -0.30119658 -0.076396205 -0.049132165
-0.25294536 0.112608 -0.1944178 0.041774172 0.10424011 -0.110845655 -0.21672048 -0.06559513
0.07725868 0.05498685 -0.029809218 -0.042417854 -0.35520914 -0.032664206 -0.110545255 -0.08731623
-0.08665193 -0.120867275 -0.25560752 0.025610909 0.13475326 0.04940142 -0.122726016 0.005340386
-0.11071225 -0.097732365 0.13363822 -0.02726093 0.06447851 -0.1350323 -0.22901109 -0.09802671
0.029511323 0.06612549 -0.04634804 -0.05574921 -0.101568155 -0.0043001384 -0.010393974 -0.22925492
-0.07425772 -0.22723293 0.030424431 -0.036091793 -0.1698968 -0.037024144 -0.14118491 -0.013987705
-0.06287793 0.06546007 0.037107814 -0.064558774 0.033328727 -0.03671927 0.047556613 -0.010019198
0.12639402 0.038871497 0.07569544 -0.23397337 -0.05428822 -0.23490258 -0.19476354 0.13758291
-0.068648286 0.044592936 -0.025995316 0.045302168 0.0064141285 -0.04358355 0.18096633 -0.033002973
00000000: 3a14 6abd 7da1 cabd aaf4 773c bd51 043e
00000010: 5c09 6b3d e3b2 92be 900a 083d da90 a93d
00000020: 698d 0abe 36d4 01be 6d87 a6bd 740f 5dbd
00000030: dafe 04bd 0b64 783d 91be 21be 0ce9 423e
00000040: ef03 55be 0207 8e3d 0c17 5b3e 34a8 36be
00000050: 1c52 06be 0244 21bd 06e7 1b3e f697 08be
00000060: 4d18 363e 7247 2fbe 307e 8fbd dbae d73d
00000070: 2e1f ad3d b705 27be a34e 953e e278 04be
00000080: 94d4 dfbd ec28 e73c ae46 5cbc b12c c7bd
00000090: 7c2f 903c 1f1a febd 039c 95bd 88ec cfbd
000000a0: a67d 77be 31ad b73d a709 7ebc 4153 463d
000000b0: 81c2 c43d 6bbb 4c3e ace3 f8bc dbe0 943c
000000c0: c86f 20bd f0d8 eebd bd96 823d aadf e93d
000000d0: b32c 03be 690a 373d 8d7f f73d a02f 263c
000000e0: 733b 053e fb91 6b3c 85f8 b83c 1452 8fbe
000000f0: 7fce 2ebd 87d5 713d df47 de3c 1303 0e3d
00000100: 3012 0abe 0662 e1be fa97 e73d b724 86bd
00000110: 09b8 5c3e 6e35 54bd 2c7d 16bb 9588 da3d
00000120: 8880 d23a 4530 623e 6b89 62bd c93d 833d
00000130: 7b9a f9bd fea8 4c3e df39 063e 74fd ca3d
00000140: ae81 45be 593e 0a3e 14e7 6b3d d90a 093d
00000150: 5bc2 c7bd 3760 c2bd 4c8f 6c3e 2582 c53d
00000160: 646a 5bbe 6cdb e9be 7637 623d 84ea fa3d
00000170: fbb8 c63c 7b5e 1e3e 6740 f43d 59c6 463e
00000180: 3547 4e3d e332 8a3d 68ac 2b3e b5b1 5bbd
00000190: c14d 573e ca73 b83d 645d fb3d 8e43 2f3d
000001a0: 1edd a43d 0ceb ecbd be1b 57bd e74d da3d
000001b0: f00b 04bc 22d5 263e 87cf f9bd 285f 05be
000001c0: 7df4 563d 41b6 2bbe efc4 92be 245f 843d
000001d0: 271a 023c 2e93 583e a6a8 233e 9303 6fbc
000001e0: f99d 543d 003a eebd 34f6 313e 6d4d 5a3e
000001f0: 2dd9 243d 1422 8abe 8b6e 80bd b7f4 bd3d
00000200: 20ce 4d3d 6adf c53d e07b da3d 188f 6b3e
00000210: c05a ec3d b023 d1bd e225 6d3c b976 9dbc
00000220: 2c42 183c 38c3 663c 0213 6f3d 8c70 743d
00000230: 45e6 04be 630f 35be 6186 70be acb8 1c3e
00000240: ae61 97be a073 94bc 949d 6ebe b2ac a93d
00000250: e8e9 b3bc 8a21 513d deab 1dbe 04a4 8bbd
00000260: fd8d babc bda3 81bd 1287 973c bda2 d6bd
00000270: a075 b53b c3ef 2cbd c262 873d e33c df3d
00000280: f0cb 033e e52e d23d efc5 dabd 9845 80be
00000290: 1a30 85ba afd5 1dbd b1e6 02be b082 853d
000002a0: d01b 8f3d 5ad6 773d b0ce aabc feca 2e3d
000002b0: 877a 4dbe bdd8 82bd ac87 fd3c 04cf 333d
000002c0: cc2d 1abe 5460 34bc 0d1a 0d3c f12f 473d
000002d0: dc56 a9ba 7036 9abe 9d75 9cbd cf3e 49bd
000002e0: 0e82 81be 069f e63d 7615 47be 651b 2b3d
000002f0: d77b d53d 0c03 e3bd f9eb 5dbe bd56 86bd
00000300: cc39 9e3d e439 613d 7632 f4bc 58be 2dbd
00000310: f9dd b5be e7ca 05bd 8d65 e2bd dad2 b2bd
00000320: 9176 b1bd 4389 f7bd fdde 82be f8cd d13c
00000330: c2fc 093e 2559 4a3d c757 fbbd 68fe ae3b
00000340: 1bbd e2bd e827 c8bd 75d8 083e 5052 dfbc
00000350: 4f0d 843d e845 0abe e281 6abe 3ac2 c8bd
00000360: bbc1 f13c cd6c 873d 71d7 3dbd 4959 64bd
00000370: f702 d0bd 2de8 8cbb 7d4b 2abc cdc1 6abe
00000380: 6e14 98bd c0af 68be a83c f93c fdd4 13bd
00000390: 6df9 2dbe a1a6 17bd c792 10be b02c 65bc
000003a0: 25c6 80bd ee0f 863d 5dfe 173d 6437 84bd
000003b0: b483 083d f266 16bd b9ca 423d 9027 24bc
000003c0: 6f6d 013e b837 1f3d 3606 9b3d b796 6fbe
000003d0: 535d 5ebd 4d8a 70be 1870 47be 89e2 0c3e
000003e0: 7997 8cbd 15a7 363d 21f4 d4bc c48e 393d
000003f0: 9c2d d23b aa84 32bd 3d4f 393e 202e 07bd

layers.2.bias f4 [128]
0.122636326 0.097692415 0.1563002 0.2079712 -0.19114092 -0.124463774 0.18612471 0.08402403
-0.014187533 -0.2081 -0.00028298516 0.12581089 0.22341362 -0.060335994 -0.08162487 -0.014238414
-0.0031626227 0.11141886 0.12612748 -0.0061674733 0.17319307 0.13726626 -0.0014544084 0.09291053
-0.12790681 0.15957595 -0.026056562 0.20268492 0.25252444 0.18685879 0.2156165 -0.060838837
0.06263886 -0.06422684 -0.042388223 -0.14878209 0.14741756 0.0318241 -0.005782531 0.052528493
-0.016741922 0.16411991 0.24887884 0.2401628 -0.14553297 -0.017395938 -0.107533135 0.043086182
-0.03885861 0.105288565 0.13135575 0.049055837 0.19932862 0.060434204 0.02844079 0.17708568
0.22086495 -0.048196975 0.1607965 0.10383203 0.13084629 0.13657449 0.07776464 0.12901649
-0.07282366 -0.18431386 0.08121353 0.07117923 0.1545355 -0.0471764 0.072350584 0.29365486
0.16431125 0.19708046 0.11494776 -0.011939639 0.015768934 0.105262086 0.23230825 0.090557024
0.08574112 0.023012135 0.24683474 -0.029413112 0.04038474 0.08851423 -0.101264365 -0.1465933
-0.15793131 0.15941271 0.22927636 0.080427416 -0.11336072 0.015925506 0.15725332 0.023107423
-0.0017026726 0.031798255 0.08988996 0.13576005 0.14819677 0.21042481 0.07005414 -0.11014698
-0.07641174 -0.21320026 0.16085695 0.21251948 -0.12753226 -0.08357721 0.14731437 0.15066496
-0.12611714 -0.0375264 0.09786251 0.17615467 0.021420525 0.20930186 -0.090014055 0.050947707
-0.19122937 0.23535074 0.12366859 -0.04077331 0.16253376 0.18009764 0.08326826 0.18880598
00000000: c128 fb3d f612 c83d 290d 203e 67f6 543e
00000010: 72ba 43be dde6 febd 7a97 3e3e ca14 ac3d
00000020: d472 68bc 2b18 55be a05d 94b9 92d4 003e
00000030: 8ac6 643e e022 77bd f12a a7bd 3d48 69bc
00000040: 0144 4fbb 922f e43d 9027 013e 8418 cabb
00000050: 8659 313e 878f 0c3e d9a1 beba e047 be3d
00000060: 01fa 02be e167 233e 9274 d5bc a38c 4f3e
00000070: e24a 813e e957 3f3e 92ca 5c3e 2532 79bd
00000080: cd48 803d 5d89 83bd 469f 2dbd 555a 18be
00000090: a1f4 163e fd59 023d 637b bdbb 1e28 573d
000000a0: 5b26 89bc 0d0f 283e 18da 7e3e 3ded 753e
000000b0: 9806 15be ed81 8ebc 553a dcbd 237b 303d
000000c0: 352a 1fbd 88a1 d73d 1f82 063e c6ee 483d
000000d0: cd1c 4c3e db89 773d a9fc e83c f355 353e
000000e0: 6c2a 623e 316a 45bd d6a7 243e e3a5 d43d
000000f0: 92fc 053e 2fda 0b3e 1143 9f3d e61c 043e
00000100: 9224 95bd c6bc 3cbe 4753 a63d 6bc6 913d
00000110: 8e3e 1e3e 0a3c 41bd 8b2c 943d ee59 963e
00000120: 3541 283e 76cf 493e bb69 eb3d 7a9e 43bc
00000130: da2d 813c a693 d73d 37e2 6d3e f675 b93d
00000140: 0a99 af3d f283 bc3c 3fc2 7c3e c4f3 f0bc
00000150: 786a 253d f346 b53d b163 cfbd 8e1c 16be
00000160: bfb8 21be 163d 233e 6cc7 6a3e 21b7 a43d
00000170: aa29 e8bd 3576 823c 0407 213e c74b bd3c
00000180: 362c dfba e33e 023d 3a18 b83d af04 0b3e
00000190: e5c0 173e 9a79 573e 8c78 8f3d bd94 e1bd
000001a0: c27d 9cbd 2b51 5abe afb7 243e b59e 593e
000001b0: d197 02be 872a abbd 94d9 163e ea47 1a3e
000001c0: da24 01be 48b5 19bd 246c c83d e461 343e
000001d0: 197a af3c 3a53 563e 4a59 b8bd 8bae 503d
000001e0: a2d1 43be c9ff 703e f545 fd3d ea01 27bd
000001f0: 406f 263e 846b 383e 8d88 aa3d 5b56 413e

mean_layer.weight f4 [2, 128]
0.24160749 -0.22939897 -0.19797423 -0.31776717 0.08331889 -0.041981004 0.11299046 -0.018087078
-0.3098004 0.3656828 -0.14808163 -0.3236071 0.31438833 0.3532536 0.39473078 -0.22977917
0.08147607 0.20552664 -0.38881758 -0.05610711 0.13769133 0.0015115086 -0.15658972 0.56299824
-0.048151128 -0.4038376 0.1549234 0.34268042 0.48519337 0.14783409 0.42715034 -0.05720606
-0.17898588 -0.003725984 0.20322908 -0.5260408 0.22416376 0.066069536 0.054675166 0.18521635
-0.13717024 -0.6002346 -0.48523703 -0.32898384 0.19639148 -0.008941774 0.08687197 -0.32641232
0.049163904 -0.079671875 0.54414064 -0.077856496 0.40126657 0.11838422 -0.053024914 0.33077064
0.4429005 0.030786287 0.00012393744 -0.23567846 0.16539904 -0.33176133 -0.27438396 -0.3805209
-0.045514427 -0.13745558 0.035988662 -0.021505708 0.022027194 0.045896564 0.049665127 0.6843871
-0.4350781 0.44623026 0.10781482 0.4096597 -0.1093302 -0.4510151 0.5723775 -0.19667071
0.031960916 0.18519162 0.7231589 -0.06476453 -0.22849435 0.24655278 0.016200665 -0.024549307
-0.6340438 0.3711501 0.40013868 0.091554575 -0.015406168 0.1349212 0.025072914 -0.013506318
-0.3303092 -0.29150262 0.2216164 -0.040670324 0.14861023 0.32125154 0.425176 -0.022396117
0.05805034 0.24943088 -0.00679566 0.29838938 0.3497268 -0.04851079 0.12368389 0.41483012
-0.08846823 -0.06718613 -0.08530383 -0.43044883 -0.41559476 0.36324114 0.1254963 -0.1090888
0.297551 0.6283883 -0.24527955 -0.20906459 0.21210335 0.11075502 -0.13330412 0.0503579
0.17974457 0.032535855 0.4904186 -0.040692683 -0.3101586 0.014895641 -0.41905248 -0.24451095
0.37130746 0.049924005 -0.0153402705 0.11726293 -0.083832964 0.3161614 0.3053568 0.028221821
0.29043752 0.5041536 0.81488764 0.05329831 -0.15422064 -0.4655395 0.30259517 0.09411109
-0.054114487 0.34446096 0.13267356 -0.017695844 0.24121572 -0.54383475 -0.20547572 -0.04814834
-0.27662793 -0.29902515 -0.08992739 0.1182256 0.09051088 -0.02131179 0.3798533 0.28845003
0.23929499 0.037130143 -0.27591342 -0.055902712 -0.3327268 0.06664559 0.08653075 0.031193834
0.35746342 -0.3391366 0.17939821 0.4003352 -0.021073027 0.25561038 0.42269433 -0.19937652
-0.024178395 -0.024858883 -0.2800011 0.37564814 0.29875797 -0.3226832 0.13499992 -0.03954049
0.024171194 0.4078975 -0.19262372 0.2860979 -0.18977441 0.18644862 -0.35336614 -0.027971681
-0.47044504 0.11475796 -0.2942563 -0.2080653 0.38089254 -0.5650617 0.073786765 -0.078019805
0.77120376 0.14593491 0.21443646 0.14376989 0.007876596 0.3365161 0.006543822 -0.07283586
-0.14452349 -0.11626343 0.018561516 -0.36589792 0.089690685 0.29084736 -0.28805867 0.0017494417
0.58812904 0.011945156 -0.049901225 -0.5555299 0.16348161 -0.0364996 -0.051337842 0.006127887
0.018384121 0.1979137 -0.38956103 0.04618932 -0.062485434 -0.0025742613 -0.1511949 0.084146045
0.048454963 -0.11531798 0.3834332 -0.03953836 -0.06410356 -0.042677555 -0.3558262 -0.17880206
0.37589392 0.061223336 -0.05620931 0.39061728 0.108695604 0.13286194 -0.40401527 -0.20945841
00000000: f467 773e 90e7 6abe c2b9 4abe 61b2 a2be
00000010: 18a3 aa3d 46f4 2bbd 8b67 e73d 5a2b 94bc
00000020: 289e 9ebe c73a bb3e b6a2 17be d4af a5be
00000030: 82f7 a03e a8dd b43e 271a ca3e 3b4b 6bbe
00000040: eddc a63d 9375 523e 1913 c7be 92d0 65bd
00000050: f5fe 0c3e d01d c63a 0e59 20be a720 103f
00000060: 1e3a 45bd cdc3 cebe 3da4 1e3e cf73 af3e
00000070: 446b f83e d261 173e 73b3 da3e e750 6abd
00000080: 1348 37be a32f 74bb 491b 503e 9caa 06bf
00000090: 2f8b 653e 774f 873d 11f3 5f3d 5ba9 3d3e
000000a0: 5b76 0cbe faa8 19bf fd70 f8be 9270 a8be
000000b0: d91a 493e 8580 12bc eee9 b13d 841f a7be
000000c0: 1760 493d 022b a3bd cd4c 0b3f 3a73 9fbd
000000d0: d072 cd3e 6d73 f23d a730 59bd c55a a93e
000000e0: dbc3 e23e 8633 fc3c 34f5 0139 b255 71be
000000f0: 5e5e 293e 9fdc a9be 0e7c 8cbe a3d3 c2be
00000100: 566d 3abd 28c1 0cbe d968 133d bd2c b0bc
00000110: 6072 b43c 09fe 3b3d a96d 4b3d fe33 2f3f
00000120: 8fc2 debe 4b78 e43e 04ce dc3d ebbe d13e
00000130: 83e8 dfbd 74eb e6be 5587 123f 0c64 49be
00000140: 73e9 023d dfa2 3d3e f120 393f 44a3 84bd
00000150: 6cfa 69be 5578 7c3e 42b7 843c a11b c9bc
00000160: b250 22bf 6307 be3e fade cc3e f780 bb3d
00000170: 276a 7cbc c828 0a3e b665 cd3c 9b49 5dbc
00000180: 4a1e a9be d53f 95be 69ef 623e ed95 26bd
00000190: 482d 183e 157b a43e abb0 d93e 1078 b7bc
000001a0: 31c6 6d3d cf6a 7f3e 21ae debb 7ec6 983e
000001b0: 640f b33e 40b3 46bd fb4d fd3d 9d64 d43e
000001c0: d52e b5bd e298 89bd c6b3 aebd ca63 dcbe
000001d0: d6c8 d4be befa b93e 1a82 003e f369 dfbd
000001e0: 9b58 983e 0ede 203f 902a 7bbe 0715 56be
000001f0: 9f31 593e 87d3 e23d e080 08be 1644 4e3d
00000200: f60e 383e 5144 053d 2618 fb3e 5fad 26bd
00000210: 1ccd 9ebe d90c 743c 0c8e d6be 1461 7abe
00000220: 031c be3e 1d7d 4c3d c255 7bbc 8c27 f03d
00000230: 9eb0 abbd e8df a13e ba57 9c3e 7331 e73c
00000240: 3ab4 943e 3610 013f 7a9c 503f 544f 5a3d
00000250: 04ec 1dbe 315b eebe c1ed 9a3e 51bd c03d
00000260: 27a7 5dbd 305d b03e 94db 073e e0f6 90bc
00000270: 4101 773e c138 0bbf 3a68 52be 3237 45bd
00000280: 2da2 8dbe d319 99be da2b b8bd 4320 f23d
00000290: c55d b93d 1096 aebc 227c c23e b9af 933e
000002a0: bf09 753e c715 183d 8644 8dbe 3efa 64bd
000002b0: 2b5b aabe 7c7d 883d 0937 b13d 368a ff3c
000002c0: 7205 b73e 50a3 adbe 2ab4 373e bcf8 cc3e
000002d0: 57a1 acbc 5ddf 823e 646b d83e 5c29 4cbe
000002e0: c511 c6bc dba4 cbbc 4e5c 8fbe f454 c03e
000002f0: cef6 983e bb36 a5be 6b3d 0a3e 35f5 21bd
00000300: ab02 c63c f1d7 d03e 273f 45be 6d7b 923e
00000310: 3954 42be 63ec 3e3e 68ec b4be de24 e5bc
00000320: 2cde f0be 3906 eb3d c3a8 96be 120f 55be
00000330: 5904 c33e e2a7 10bf 841d 973d d9c8 9fbd
00000340: 9c6d 453f f66f 153e 3b95 5b3e 6a38 133e
00000350: d70c 013c d74b ac3e 8f6d d63b f82a 95bd
00000360: f7fd 13be 851b eebd 520e 983c f956 bbbe
00000370: c0af b73d f2e9 943e 6d7c 93be 864d e53a
00000380: a08f 163f 9eb5 433c 3a65 4cbd 3537 0ebf
00000390: b967 273e 9b80 15bd a147 52bd 71cc c83b
000003a0: 4c9a 963c e4a9 4a3e 8b74 c7be 0331 3d3d
000003b0: baf0 7fbd f0b4 28bb d6d2 1abe c354 ac3d
000003c0: b678 463d d52b ecbd 5b51 c43e faf2 21bd
000003d0: ba48 83bd a9ce 2ebd da2e b6be e317 37be
000003e0: 2b75 c03e 52c5 7a3d bc3b 66bd fdfe c73e
000003f0: cd9b de3d f60c 083e 17db cebe 447c 56be

mean_layer.bias f4 [2]
-0.016471364 -0.109401755
00000000: f4ee 86bc 070e e0bd

logstd_layer.weight f4 [2, 128]
0.0037120562 0.022768436 0.03741369 0.041584674 -0.008616494 -0.035276417 -0.008224404 0.03189416
0.070357926 0.029212572 -0.15258612 -0.0062120478 -0.0005562712 0.018181881 0.0014481776 0.030779054
-0.004987046 -0.023560729 0.03510113 -0.045046743 0.004695025 0.017867919 0.015554957 -0.016680358
0.01907209 -0.039621036 0.0004816391 0.00026752555 0.006159205 -0.07211418 0.018828932 -0.036517173
0.038250454 -0.022162601 0.030745845 -0.017901406 0.02140587 -0.005519702 -0.020401277 -0.002257278
-0.10340853 -0.030365784 -0.036046665 0.020171454 0.023892978 -0.027378954 0.000985593 0.06240275
0.0023578894 0.019169753 0.0535141 -0.007957328 0.062305536 0.022096429 -0.024383899 -0.03954493
0.044689815 -0.007997082 -0.0025795875 0.032441366 0.0036905808 0.0465298 0.082021005 0.009894685
0.015637966 0.05033608 -0.0111266915 -0.0032466992 0.07494982 0.011213722 -0.0076465183 -0.0067747748
-0.08200188 0.039602805 0.002785176 -0.014200905 0.0013631622 0.048176527 0.038716715 0.10190682
0.021814901 -0.020974044 -0.041799564 -0.09543446 0.028832853 0.039149716 0.010368801 0.059520632
-0.037175767 -0.048984103 0.05202296 0.033933815 -0.008256032 0.013511054 0.012574268 0.09476923
-0.011914648 0.03232211 0.07125916 -0.00879034 -0.010684469 0.027410895 0.009333371 -0.04362948
-0.04289558 0.053650875 0.0065957136 0.05743346 0.053704772 -0.034535296 0.021784667 0.01108231
0.075669825 -0.024923163 -0.007192448 0.026225928 0.02953519 0.0815002 -0.016844627 -0.060928926
0.013744691 0.06652745 0.04494386 0.04961663 0.021856785 0.0140753165 -0.028773787 0.032349166
-0.013205763 -0.027760401 0.01039963 0.010785837 -0.07304685 0.035674095 0.020565981 0.060947172
-0.025083767 0.02175068 -0.005481599 -0.015217902 -0.03401901 5.975091e-05 -0.02189815 -0.009586466
0.11915572 -0.0058300653 0.0040920423 -0.027845697 -0.02897444 0.08066884 0.015042763 -0.02485103
-0.020163303 0.021728974 -0.02186452 0.01020022 -0.08325085 0.104994155 -0.04971546 -0.021074137
0.013998535 -0.032488007 0.09771708 0.017479062 0.0012257119 0.09959137 0.026344724 0.028152674
0.13638751 -0.05230577 0.037242804 -0.0050890218 0.009270193 -0.05167351 0.0009892638 -0.017222805
0.09114804 -0.011332708 -0.054638524 0.080193855 0.021147782 0.06604545 0.061662238 0.02654387
-0.009909982 0.005545075 0.010187024 0.038505856 0.047400713 0.10288459 -0.012186216 0.009275516
-0.08454228 -0.029557081 -0.018965619 -0.03590376 0.03972366 0.0427847 0.09493203 -0.017271597
0.051432718 0.009605184 -0.032363936 -0.011100987 -0.036466382 -0.008809535 0.055885445 -0.0021526818
0.009846626 0.09158657 -0.0075983386 -0.10482489 0.06799794 0.08620528 0.016436717 0.02576019
0.018218528 -0.02208953 0.012215434 0.0961781 -0.041487917 0.021015957 0.07459716 -0.11441013
-0.013862046 0.0072414326 0.01881874 0.13372834 -0.039171122 0.033066113 -0.015145936 -0.04070756
-0.025868446 0.014470983 -0.03224279 0.0014902757 0.0114593785 0.0069601317 0.06550285 0.03566173
-0.0238519 -0.043767884 -0.085970685 -0.019272542 -0.001192655 -0.036165666 -0.0075169327 -0.018624617
-0.031400077 -0.055200383 0.0131116435 -0.044675007 0.0008888078 -0.028401628 0.041826263 0.05853668
00000000: f845 733b df84 ba3c 193f 193d b154 2a3d
00000010: 322c 0dbc 017e 10bd a7bf 06bc 73a3 023d
00000020: d117 903d 344f ef3c 893f 1cbe 6f8e cbbb
00000030: bad2 11ba 2bf2 943c c7d0 bd3a 5b24 fc3c
00000040: 606a a3bb 6e02 c1bc 34c6 0f3d ef82 38bd
00000050: b9d8 993b be5f 923c 38da 7e3c 3fa5 88bc
00000060: 123d 9c3c ab49 22bd 8184 fc39 ac42 8c39
00000070: 28d3 c93b 99b0 93bd 223f 9a3c 0893 15bd
00000080: 82ac 1c3d 588e b5bc b6de fb3c f8a5 92bc
00000090: 5d5b af3c 9ede b4bb 9420 a7bc d7ee 13bb
000000a0: dac7 d3bd aac1 f8bc aba5 13bd 9b3e a53c
000000b0: 35bb c33c d449 e0bc 032f 813a 079a 7f3d
000000c0: d286 1a3b e309 9d3c 9a31 5b3d 745f 02bc
000000d0: 1734 7f3d 9203 b53c bec0 c7bc ddf9 21bd
000000e0: ab0c 373d 3106 03bc 4c0e 29bb 3de1 043d
000000f0: acdd 713b 0896 3e3d a1fa a73d 511d 223c
00000100: 311b 803c 352d 4e3d ba4c 36bc 93c6 54bb
00000110: 4b7f 993d c2b9 373c a58f fabb eefe ddbb
00000120: 9af0 a7bd 8d36 223d 8087 363b eaaa 68bc
00000130: 22ac b23a c054 453d 6b95 1e3d 86b4 d03d
00000140: 2ab5 b23c c2d1 abbc 0536 2bbd 2473 c3bd
00000150: e032 ec3c 745b 203d e7e1 293c e8cb 733d
00000160: 9e45 18bd 8ea3 48bd 0716 553d 2ffe 0a3d
00000170: 4f44 07bc 785d 5d3c 4d04 4e3c 5f16 c23d
00000180: a835 43bc 3064 043d 53f0 913d 5c05 10bc
00000190: e90d 2fbc d08c e03c ffea 183c d3b4 32bd
000001a0: 47b3 2fbd 05c1 5b3d db20 d83b 593f 6b3d
000001b0: 89f9 5b3d e274 0dbd c275 b23c 9492 353c
000001c0: c8f8 9a3d a92b ccbc a0ae ebbb c2d7 d63c
000001d0: c8f3 f13c 94e9 a63d befd 89bc 9c90 79bd
000001e0: 6a31 613c 8b3f 883d 0e17 383d cf3a 4b3d
000001f0: 000d b33c 289c 663c 01b7 ebbc 8f80 043d
00000200: fc5c 58bc c869 e3bc 3663 2a3c 14b7 303c
00000210: 9699 95bd 001f 123d fd79 a83c bea3 793d
00000220: 797c cdbc 7b2e b23c fc9e b3bb 8254 79bc
00000230: 8457 0bbd 0d9d 7a38 c063 b3bc 8d10 1dbc
00000240: ea07 f43d 220a bfbb 8a16 863b a91c e4bc
00000250: ce5b edbc b435 a53d ec75 763c 6394 cbbc
00000260: 832d a5bc f600 b23c 391d b3bc d31e 273c
00000270: 6c7f aabd 2d07 d73d 70a2 4bbd aba3 acbc
00000280: 1d5a 653c 2512 05bd e41f c83d 4030 8f3c
00000290: 11a8 a03a 8ff6 cb3d e4d0 d73c 70a0 e63c
000002a0: 2ba9 0b3e 933e 56bd e98b 183d cfc1 a6bb
000002b0: 02e2 173c 9aa7 53bd 2faa 813a d716 8dbc
000002c0: d3ab ba3d d3ac 39bc a5cc 5fbd ad3c a43d
000002d0: 1d3e ad3c d642 873d 8b91 7c3d 8872 d93c
000002e0: 7a5d 22bc 76b3 b53b 7ae7 263c 51b8 1d3d
000002f0: 4027 423d 28b5 d23d b2a8 47bc 55f8 173c
00000300: 8124 adbd b121 f2bc c95d 9bbc d20f 13bd
00000310: 47b5 223d 023f 2f3d b96b c23d 2a7d 8dbc
00000320: 1dab 523d 105f 1d3c 0c90 04bd eae0 35bc
00000330: c65d 15bd de55 10bc 23e8 643d 0214 0dbb
00000340: be53 213c bd91 bb3d 7cfb f8bb 6fae d6bd
00000350: 8142 8b3d 658c b03d 4ba6 863c 0907 d33c
00000360: 063f 953c 1af5 b4bc 3e23 483c 06f9 c43d
00000370: 3cef 29bd a829 ac3c 65c6 983d dc4f eabd
00000380: a31d 63bc 8a49 ed3b c229 9a3c 15f0 083e
00000390: e671 20bd 5570 073d a926 78bc f8bc 26bd
000003a0: 10ea d3bc b417 6d3c 0411 04bd 5b55 c33a
000003b0: 1ec0 3b3c d111 e43b 5c26 863d 0912 123d
000003c0: 0f65 c3bc f445 33bd 6611 b0bd 73e1 9dbc
000003d0: dc52 9cba 7322 14bd 9a50 f6bb a792 98bc
000003e0: 5e9d 00bd cc19 62bd 38d2 563c 24fd 36bd
000003f0: e2fe 683a 88aa e8bc 0452 2b3d 28c4 6f3d

logstd_layer.bias f4 [2]
0.035992026 -0.01666062
00000000: 606c 133d da7b 88bc
