new_models/base+wp_16849288/qf1_target_best.pth (torch, 186656 bytes, 7 tensors)

layers.0.weight f4 [128, 98]
000000 5c 67 3b bb 9a bb 5f 3c 7b 96 0b 3b 49 91 b4 3d
       -0.0028595543 0.013655568 0.002129941 0.088167734
000010 0b b5 4b 3d 83 b6 ca 3d 06 58 1e be 6d 0b 91 bd
       0.049733203 0.098980926 -0.15463266 -0.070822574
000020 68 f1 e9 3d 4d 92 29 3e 47 02 17 be 82 29 d1 bd
       0.11422998 0.16559716 -0.14746962 -0.10212995
000030 32 0d 5b 3b ea 1b 49 bd a6 c9 a7 3b 48 e7 5b bd
       0.0033424613 -0.049098887 0.005120474 -0.053687364
000040 ed c7 8f 3a 93 3e 64 bc 10 6c 88 3c d7 f7 02 bd
       0.0010969617 -0.0139309345 0.01665309 -0.03197464
000050 0a 99 38 bd 19 15 19 3d 4f 80 a7 bc 55 26 95 bd
       -0.045067824 0.037373636 -0.020446924 -0.07282702
000060 65 50 85 bd 6b 4f 05 3c 4f 3c 43 bd 26 21 3b 3d
       -0.06509475 0.0081366105 -0.047664937 0.04568591
000070 2d 19 77 3c 22 2c fb bd 42 13 28 3d 50 d9 0e be
       0.015081686 -0.12264277 0.04103399 -0.13950086
000080 89 85 b2 bd 8e c4 ed bc 8d 2f ad bd e1 34 77 bc
       -0.08716876 -0.029024389 -0.08456335 -0.015088291
000090 47 c1 f1 3d 85 c0 72 bc bf 7a 2c 3d 63 f1 c7 bc
       0.11804443 -0.014816408 0.042109247 -0.024407094
0000a0 1e d2 07 3d 5e ac d6 bb fc 8d 63 3d 84 d9 c6 3c
       0.033159368 -0.0065513095 0.05555533 0.024273641
0000b0 d5 49 4b 3c 4f 1e 22 3d ae 7e 6c be a3 d7 14 be
       0.01240774 0.039579686 -0.230952 -0.14535384
0000c0 e2 09 d6 bd e6 70 2d be d7 ce 3a be 4f c2 2e 3c
       -0.10451104 -0.16937599 -0.18242966 0.010666444
0000d0 ff 14 f3 3d f9 65 04 3c 84 e0 97 bd 84 a6 bb bd
       0.11869239 0.008080953 -0.0741587 -0.0916262
0000e0 32 58 fe 3b e2 d9 b7 bb 6d d3 a3 bd 6d 05 d5 3c
       0.0077619785 -0.0056106905 -0.07999311 0.026003564
0000f0 9c 3f 33 bb e6 39 86 3d 17 7a e4 3c 0f 52 30 3d
       -0.0027351147 0.06554012 0.027890248 0.043047007
000100 22 d2 48 be 7d 58 6b bd e8 30 ba bd 81 29 c4 bd
       -0.1961141 -0.057457436 -0.090913594 -0.09578229
000110 47 82 c4 bd 60 d0 ff bb f2 d9 4c bc 3c 7b d9 be
       -0.09595161 -0.0078068227 -0.012503134 -0.42476833
000120 31 a9 b9 3d c9 19 93 be fc 9d 76 3e 23 e8 b2 bc
       0.09065474 -0.2873061 0.24083704 -0.021839207
000130 49 8f ec bb 25 50 c3 3d 49 d8 cf be bc 4b 88 bd
       -0.0072192294 0.09536771 -0.405947 -0.0665507
000140 8c e6 40 be d1 d8 a7 3d 52 08 77 3d c2 c6 5f 3e
       -0.18837947 0.08195651 0.06031067 0.21853164
000150 ea 40 c2 3d 2e 0d a0 be f0 c4 fc 3b 44 40 de bd
       0.094850376 -0.31260055 0.0077139065 -0.108521014
000160 9d 7b 01 be 21 f1 fc 3c 81 27 42 3e 8b 3f 04 3e
       -0.12644811 0.030876698 0.18960382 0.12914865
000170 8d e0 7d be 93 26 df bd 46 02 5b be 72 b2 a3 be
       -0.2479269 -0.10896029 -0.21387586 -0.3197208
000180 be f3 14 3e 14 dc 05 3a 99 b7 b9 bc fc 27 00 3d
       0.14546105 0.00051063416 -0.022670554 0.031288132
000190 53 0a 3a 3d fe 81 30 bd d8 37 ba 3c c3 2b bb bd
       0.045420002 -0.04309272 0.022731707 -0.09139206
0001a0 f6 81 1e bd b1 3d 2d bc 3d 89 9f bd bd e1 d9 bd
       -0.03869816 -0.01057379 -0.07789848 -0.10638759
0001b0 73 ae 9d 3d f2 07 aa b9 97 9c 00 bd 47 44 ac bb
       0.07699289 -0.00032430846 -0.031399336 -0.0052571627
0001c0 f1 92 9f 3b 7a 1d 0f 3d a7 9f 4a 3c 87 90 eb bc
       0.0048698117 0.03494022 0.012367166 -0.02875544
0001d0 12 2d b6 bb d1 f4 c7 3d 7d 5c fa 3d 41 0e 85 bd
       -0.005559572 0.09763492 0.12224672 -0.06496859
0001e0 7a f6 1a 3c 08 ef e3 bd 5c ad 87 3b 9c 4c a5 bd
       0.009458179 -0.11129576 0.004140539 -0.08071253
0001f0 d1 42 bd 3c 40 62 6a bd fd 0c aa bd 6d f9 6f 3c
       0.02310315 -0.057222605 -0.083032586 0.01464687
000200 84 d7 88 3d d6 95 fc bb 2c cd 15 3d b6 a7 9b 3c
       0.06681731 -0.0077082915 0.03657262 0.01900087
000210 6d 6f 19 bd fd 2f 40 3d f0 36 5e bd 59 dc bf 3d
       -0.03745978 0.046920765 -0.05425161 0.093682
000220 52 35 c8 3d 37 ad c6 3c 6b 41 1b 3d 0f 37 c3 bc
       0.09775795 0.024252517 0.037904184 -0.023829965
000230 26 98 c0 3d ef e1 75 3d 81 ee 53 bb a8 1d 98 3d
       0.0940402 0.06002992 -0.0032338204 0.074275315
000240 64 3d 85 3d 31 38 c9 bd 2d bf 56 bd a8 6f 09 bc
       0.0650585 -0.09825171 -0.052428413 -0.008388437
000250 92 c0 72 bd fc 78 40 3c b8 73 85 3d f9 e7 ca 3d
       -0.05926568 0.011747595 0.06516212 0.099075265
000260 3d ff 91 3a 27 2c 47 3d 5f 69 2a 3d 65 a1 86 3e
       0.0011138689 0.04862609 0.041604396 0.2629501
000270 ea f6 79 3e 91 1b dd 3d f0 18 2c 3e 4c cc 4e 3c
       0.24410596 0.107962735 0.16806388 0.01262195
000280 18 7e 73 3d 71 b1 e9 bd 12 30 46 bd 02 53 2b bd
       0.059446424 -0.114107974 -0.048385687 -0.04182721
000290 96 0c 65 3c d0 aa 5d bd 8d d9 e2 bc 0f bc 5f bb
       0.0139800515 -0.054117978 -0.027691627 -0.0034139191
0002a0 23 9d 27 3e d1 25 ac 3d e0 ed 74 3c 4a e8 9f bd
       0.16368537 0.084056504 0.014949292 -0.078079775
0002b0 35 7b a7 3d 4c dd c9 3c b6 0a a1 3d 8f 6f 03 be
       0.08177797 0.024641655 0.07863371 -0.12835525
0002c0 7c ba 18 3d 2d ac a5 3a 58 f0 e6 3d ff 20 88 bd
       0.03728722 0.0012639813 0.11276311 -0.066469185
0002d0 45 59 98 bd 40 7c d7 bd 02 2a d1 bc 05 24 ee bb
       -0.07438902 -0.10521746 -0.025532726 -0.0072674775
0002e0 bb 2a f3 3d 6d e0 a1 3d 14 8c 9d bd 90 f0 3b 3c
       0.118733846 0.07904134 -0.076927334 0.011470929
0002f0 c4 33 51 3d da 39 4e 3e fd a0 70 bd a4 d1 27 3f
       0.05107476 0.20139256 -0.05874728 0.6555426
000300 08 53 73 3d e4 2b 23 be 7f 7e 90 bd 6b bd a0 3e
       0.059405357 -0.15934712 -0.07055377 0.31394514
000310 43 4d cc 3d 9b 2c 87 3c 8b 11 3c 3d 27 77 73 3d
       0.09975674 0.016500762 0.045915168 0.059439804
000320 f9 80 b9 3c 8e 91 b8 bd ca 79 34 be 7c 7b 5a bd
       0.022644507 -0.09012137 -0.17624584 -0.05334042
000330 32 fb f4 3d 6f 9e 76 3b 39 40 18 be 48 d7 3b bd
       0.11961974 0.0037631055 -0.14868249 -0.045859605
000340 fd ce 95 bd a9 be 66 3d 65 8a a7 3d b5 49 d1 3d
       -0.073148705 0.05633417 0.081806935 0.102191366
000350 70 6f 0e bd 52 fb 01 bd e4 17 29 3d 6a 93 ca bc
       -0.034774244 -0.03173382 0.04128255 -0.024728496
000360 fb a5 16 bd 31 71 6f 3d 63 08 8c bb 72 77 70 bd
       -0.036779385 0.058457557 -0.0042734607 -0.058707662
000370 d9 00 94 3d 76 de e8 3d 5a 5c 1f 3e e7 28 b8 bd
       0.07226724 0.11370556 0.15562573 -0.089921765
000380 5a 05 0b be 27 64 1b be 4d fe c6 bd 0b aa 74 bd
       -0.1357626 -0.15174924 -0.09716473 -0.059732478
000390 9a 44 49 3d 16 71 97 3d 67 be de 3c f3 71 4e bd
       0.04913769 0.07394616 0.0271904 -0.05040164
0003a0 1b fa 9b bc d6 66 45 bd 5f bc 3b bd 99 2b 23 be
       -0.019040158 -0.048193775 -0.04583394 -0.159346
0003b0 ec 64 84 bd 6b f9 8d 3d b8 66 76 3d a9 ca d4 3d
       -0.06464562 0.06932338 0.060156554 0.10390217
0003c0 9d 25 43 3d e1 7d 12 bd c5 3e 57 be 98 77 71 be
       0.047643293 -0.03576458 -0.21020038 -0.23580778
0003d0 4a d3 6e bd 27 c9 5b 3d 3a 40 e4 bc 67 e8 91 3e
       -0.05830697 0.05365863 -0.027862657 0.2849762
0003e0 1d 84 11 3e 4c ab b0 3d 65 40 52 3d 0d 63 85 bd
       0.14210553 0.08626422 0.051330943 -0.06513033
0003f0 5a d1 ce 3c 86 fd 22 be 62 15 aa 3c 7e 6d c0 3d
       0.025246311 -0.15917024 0.02076215 0.09395884

layers.0.bias f4 [128]
000000 cb 0b 8a bd 45 e6 63 be 7e 59 af bd 30 f1 4d 3c
       -0.067405306 -0.2225581 -0.08561991 0.012569711
000010 13 28 c8 bd 18 5e 13 bc 6c 1e c0 3d 6f 1d 8f be
       -0.097732686 -0.008994602 0.093808025 -0.27952144
000020 1a f8 62 3b f6 a7 64 3c ad b1 f6 bd f0 2c a2 3d
       0.0034632743 0.013956061 -0.12045608 0.079187274
000030 4a 92 43 3e 21 de 25 be 11 40 34 3e 39 e1 23 3e
       0.19098774 -0.16198017 0.17602564 0.16003884
000040 84 a9 8e 3d a2 15 b0 3c 22 b6 80 bd b6 00 5a bd
       0.06965926 0.02149469 -0.06284739 -0.053223334
000050 70 4d 70 bc 33 6f 9a bc 31 03 86 3e 62 47 d4 3d
       -0.0146669 -0.018851852 0.2617431 0.10365178
000060 f1 64 32 3d af 25 2c 3e 18 11 1f 3e 1e d1 1f 3e
       0.043553296 0.1681125 0.15533864 0.15607116
000070 62 70 f0 3d ae 88 1b 3e 4c 4a 52 be c3 c6 cb ba
       0.11740185 0.15188858 -0.20536155 -0.0015546907
000080 e2 f4 a5 3d 93 f5 58 3d 04 ad 36 3c b6 b7 17 3c
       0.08103348 0.052968573 0.011149649 0.009260109
000090 6e 5f 63 3e 51 8b 8e 3d 41 38 ed 3d ed da 4c 3d
       0.22204372 0.06960166 0.11582995 0.05001347
0000a0 a5 28 38 bb b0 cd d3 3d ca 42 76 bc 17 e9 a8 be
       -0.0028100398 0.10341966 -0.015030572 -0.32990333
0000b0 b1 fe ca bd a6 4c 60 3e a8 60 a4 bd d9 7a e1 3c
       -0.0991186 0.21904239 -0.08026248 0.027524399
0000c0 c2 b4 33 3e 10 ae bf bc cc 11 48 3d ee 3d 2b 3e
       0.17549422 -0.02339843 0.048845097 0.16722843
0000d0 d6 ab 0f be 78 e1 ed bd 2d 26 08 3e 6d bc 18 3e
       -0.14030394 -0.116152704 0.13295813 0.14915629
0000e0 c2 7c a8 3c 1e 49 44 3e 13 e9 cf 3d d7 d7 30 3e
       0.020567302 0.19168517 0.10151877 0.17269836
0000f0 dc f8 36 3e b2 8b 0d 3e 6f ca a7 3d df d6 a1 3e
       0.1786837 0.13822821 0.08192908 0.31609246
000100 39 f0 7e bd 15 93 d7 bd 4b 4f 68 3d 37 22 26 3e
       -0.062240813 -0.105261005 0.056716245 0.1622399
000110 00 c7 28 3d b5 54 8c bd ee 69 51 3b 52 00 5f bd
       0.041205406 -0.06852094 0.0031954008 -0.054443665
000120 78 48 6f 3c cb 26 5b be 88 69 01 be ac 90 1f bd
       0.01460468 -0.21401517 -0.12637913 -0.03895633
000130 62 f4 c2 bd d4 5d 19 be fd 56 ff 3d 5b 4b c2 3e
       -0.095192686 -0.14977199 0.124677636 0.37948117
000140 3b 98 0b bd 80 91 7d bd d1 95 ac 3d 59 ba 86 be
       -0.034080725 -0.061906338 0.08427013 -0.26314047
000150 2e 8b 7d 3d 32 56 3e 3d 36 44 ee bd 29 6e f8 3d
       0.06190031 0.04646892 -0.11634104 0.121303864
000160 29 c5 25 3e 88 0a b5 3d 3a c7 f6 3c 0e 55 a3 bd
       0.16188492 0.08839899 0.030124296 -0.07975207
000170 f4 3e f6 3d 9c e7 1d 3d 71 22 85 3d f7 f6 23 3e
       0.12023726 0.038550958 0.0650071 0.16012178
000180 15 8d 17 be 6a 4f 57 3d d1 db 1d 3e a3 66 f8 bd
       -0.14799912 0.05256597 0.15415885 -0.121289514
000190 06 1a 43 bd de d7 52 bb e8 50 1e 3d a6 f4 97 3e
       -0.04763224 -0.0032172124 0.038651377 0.2967884
0001a0 44 b8 be 3d 08 7c ad bc 3c a7 24 bd 80 e5 84 3e
       0.0931249 -0.021177307 -0.04019855 0.25956345
0001b0 a5 d5 ba 3d 96 79 00 bd fe 0e ba bd b0 91 31 3d
       0.09122781 -0.031365953 -0.09084891 0.04335183
0001c0 1b 64 be 3d bc 3d 2d be e8 04 02 3d 2e ea 91 bd
       0.09296437 -0.16918081 0.03174296 -0.07124744
0001d0 e9 b7 7c 3d e8 f4 c1 bd 30 20 18 3d 51 5c b9 bc
       0.061698828 -0.0947054 0.03714007 -0.022627028
0001e0 2f fe 70 3e 79 d5 d1 3d e7 52 cf bd 00 57 e2 bc
       0.23534463 0.10245795 -0.10123234 -0.027629375
0001f0 f2 a2 6a bd c2 2f 16 bc 8b 7e 72 3d 1b ee ee bb
       -0.057284303 -0.00916666 0.059202712 -0.007291568

layers.1.weight f4 [128, 128]
000000 6a 9d f0 3d c7 3a 1d 3d b3 32 f5 bd 17 a5 c5 be
       0.11748774 0.038386133 -0.11972561 -0.38602516
000010 b8 45 14 3e 16 2c 1e bd 5d 44 06 be ab 7d cb 3d
       0.1447972 -0.038616262 -0.13112016 0.09936079
000020 d6 d8 df 3a 6e 07 10 be 80 c8 05 3d 0c b2 d9 bd
       0.0017078172 -0.14065334 0.032661915 -0.10629663
000030 01 aa a4 bd e4 23 bd 3b fb db e4 bb ed 53 e4 bd
       -0.08040238 0.0057721008 -0.0069842315 -0.1114882
000040 26 96 1a 3d f4 ab c4 bd 49 b2 f6 3d e8 1c 8f 3c
       0.03774085 -0.0960311 0.12045724 0.017469838
000050 24 ba 59 3d ac 0a 0d be e0 84 86 3d aa b5 ec bc
       0.053156033 -0.13773602 0.06568313 -0.028895218
000060 36 7a ec 3d ad ed 87 bb 08 4c b9 bd 79 50 0b be
       0.115467474 -0.004148206 -0.09047705 -0.13604917
000070 03 17 06 bd c7 28 21 3a a9 e0 f7 bb a0 64 4a 3d
       -0.03273679 0.0006147739 -0.0075646234 0.04941237
000080 eb 1f 74 3d bb 08 a5 3b 23 9c 1b 3b ff 0b bc be
       0.05960075 0.005036441 0.0023744188 -0.36727902
000090 08 9a 35 bd 3b 2f c6 bd 77 b5 d9 3d f2 1b 5d bd
       -0.04433635 -0.09676977 0.10630315 -0.05398173
0000a0 3e fb f4 bd b7 9b 32 bd 86 fe 18 bd d3 5b 8a bd
       -0.11961983 -0.043605532 -0.037352107 -0.06755795
0000b0 2d 53 ac 3b c8 f5 f8 bb 84 04 c9 3c f8 79 9a bd
       0.0052589388 -0.007597659 0.024538286 -0.07542795
0000c0 8d d2 11 bc 06 a9 6b 3d 39 11 1e 3e fb f7 91 3d
       -0.008900297 0.05753424 0.15436257 0.07127377
0000d0 c8 c0 81 3d 35 ee 2f bd 6f 3d 6e bc 07 3f 20 3d
       0.06335598 -0.04295178 -0.014541014 0.039122608
0000e0 76 e7 80 3d ee 59 79 3d 8f e7 44 bd 30 c2 9e 3d
       0.06294148 0.06087678 -0.048072394 0.07751882
0000f0 a8 2f 4a 3d 28 1b 2c 3d 5e 47 57 bd 1c ac 2b 3d
       0.049361855 0.042018086 -0.052558295 0.041912183
000100 c5 ed 2d bd 40 97 9c 3c ba a3 d4 3b 00 98 af bd
       -0.042463083 0.01911509 0.0064892443 -0.085739136
000110 fc ee d1 be 45 0c 81 3e 96 05 d4 3b 6e 25 e0 bd
       -0.41002643 0.25204673 0.0064703925 -0.10944639
000120 a2 c0 76 3c d7 66 41 be 8d 6c 35 bc 8e ab ce 3d
       0.015060576 -0.18886887 -0.011073244 0.10091315
000130 db e3 81 bd 83 3c 7d bd f2 f1 b6 3d dd b7 f3 3d
       -0.06342288 -0.061825287 0.08932866 0.119003035
000140 7d ee 19 3e a3 4f aa bc 86 7c 04 3e 19 e3 05 bd
       0.15032382 -0.020789927 0.12938127 -0.03268728
000150 72 5f f3 3c 86 2c 29 3b 78 50 90 3d 39 0f 97 3d
       0.029708598 0.0025813892 0.07046598 0.0737595
000160 9e 1f d1 3c 49 68 82 3d 6e 8c 89 3d 1d 29 78 bb
       0.025527772 0.06367547 0.06716238 -0.0037866302
000170 48 6a a4 3a d8 41 77 bd c4 33 0f 3e 5e 2a 50 bd
       0.0012543881 -0.060365528 0.13984591 -0.050821654
000180 a7 44 6f 3b 24 0b 97 bc 9d aa c9 3d f2 2d 16 3d
       0.0036509426 -0.01843793 0.09846995 0.03666491
000190 01 eb fd bc 68 c4 a2 3c 82 03 1e 3d 75 2d 85 3e
       -0.030995848 0.019869044 0.038577564 0.26011243
0001a0 4c fe d3 bb 63 b1 49 bd 1f c5 dc 3c 6d 0b 27 bd
       -0.0064695235 -0.049241435 0.026949463 -0.04078238
0001b0 d0 49 23 3c 3d ad 5e bd f0 b6 9c be b7 a1 1d be
       0.009966329 -0.05436443 -0.3060832 -0.1539372
0001c0 6b 4e 21 bd 29 1d d0 3c ad 96 5d bd 8e be 89 bd
       -0.039381426 0.02540453 -0.054098774 -0.067257985
0001d0 8b 18 ff bc d1 b8 53 3e d7 b7 0f bd 46 ac 82 bd
       -0.031139633 0.2067597 -0.035087433 -0.06380515
0001e0 a3 bc 9a bd 03 5e cd 3d 0a 12 d3 bd a3 24 95 3b
       -0.07555511 0.10027697 -0.10306175 0.0045514866
0001f0 ed 52 b7 bd f4 9a 03 be 92 84 ac bd f9 73 36 bc
       -0.08951364 -0.12852079 -0.08423723 -0.0111360485
000200 80 0c ea bc 51 ab 34 be 68 09 8c 3e a1 ac 62 3e
       -0.028570414 -0.17643477 0.27350926 0.22136165
000210 5e 32 95 ba 8a 6b bd 3d 3c 22 e8 bc 47 88 59 3d
       -0.0011382808 0.09249027 -0.028336637 0.05310848
000220 9f ea 36 be 27 6c 12 3e 7d 11 4b be 1e 65 3a be
       -0.17862938 0.1429907 -0.1983089 -0.18202636
000230 33 e5 5a bc 6a 33 02 bd 56 87 d9 3d 13 87 e8 bd
       -0.013360309 -0.031787314 0.106215164 -0.11353888
000240 c0 79 d7 3d e9 3c 2e bd 0f 93 e9 bd 8b 71 2d be
       0.10521269 -0.042538557 -0.11405002 -0.16937844
000250 5d ab 91 bd 4f 77 a8 3e bf 20 bd bd 77 d8 19 bd
       -0.07112763 0.32903525 -0.092347614 -0.037559953
000260 90 00 85 bc 2d 89 8d bc 1c 45 88 bd 2f 03 f1 3d
       -0.01623562 -0.017277325 -0.066538066 0.11768185
000270 ff 68 f3 3c 44 bd 31 3e 8d 50 ba bd 31 60 28 bd
       0.029713152 0.17357355 -0.09097395 -0.04110736
000280 30 87 cb bd 70 13 31 3b 19 a6 aa 3c bf 17 3c bb
       -0.09937894 0.0027019642 0.020831155 -0.0028700677
000290 0f a5 bf 3d 84 c0 a7 bd 9d bb 4a 3d b0 15 84 3d
       0.09357654 -0.08191016 0.04949533 0.06449449
0002a0 71 53 64 be 93 48 83 be 5a d4 c8 3d 39 26 c5 bd
       -0.22297455 -0.25641307 0.09806128 -0.09626431
0002b0 57 3d 65 3e 8f 01 f5 bd 07 f3 12 bd 04 ad 01 3e
       0.2238668 -0.11963188 -0.0358763 0.12663656
0002c0 f9 78 07 bd 9f 4a da 3b 95 ec 9d bc 21 7e 1f bc
       -0.033074353 0.0066617276 -0.01927785 -0.009734661
0002d0 e8 55 15 3e b4 51 3f bd 29 0f 3c 3e d2 64 d9 3d
       0.14583552 -0.046708778 0.18365158 0.10614933
0002e0 07 1e c6 bd 7f 84 23 be b0 bb b2 3d 2f 6a 27 3e
       -0.09673696 -0.15968512 0.08727205 0.163491
0002f0 78 c5 7c 3d 1e 9d a1 be a5 aa f7 38 59 48 dd bc
       0.06171176 -0.31565183 0.00011809663 -0.027012037
000300 1a b0 54 3e 0a fe a8 3d 64 53 a0 bd 18 9f 2c 3d
       0.20770302 0.08251579 -0.078284055 0.04214391
000310 32 a3 8d bd 8f bd 14 3e 7d b2 1d 3e ad 49 6d bc
       -0.06915893 0.14525436 0.15400119 -0.014482898
000320 95 04 84 be c1 a8 8b be 05 88 b2 3d c8 f3 be 3c
       -0.25784746 -0.27277187 0.0871735 0.023309603
000330 e9 17 5b bd 2e 50 e4 3c d2 83 10 be ec e6 cd 3d
       -0.0534896 0.027870264 -0.14112785 0.100538105
000340 75 3b 10 be 1e 2a d0 3c d9 1c 1d bd 56 82 97 3d
       -0.14085181 0.025410708 -0.03835759 0.073979065
000350 97 1d 4b 3d 70 cf e1 bd 28 33 dc bd 9a 17 86 3d
       0.049588766 -0.11025894 -0.10751945 0.065474704
000360 53 83 63 bd 6c e1 83 be 94 2f 0f bd 16 60 f9 3d
       -0.055545162 -0.2575792 -0.034957483 0.1217653
000370 ed 34 46 3e 0e 51 05 3e f3 69 54 3d ca 0f e2 3d
       0.19356127 0.13019201 0.051858854 0.11038168
000380 6d 68 77 3c 5d 28 16 be 94 ff 17 3e 05 b9 2f bd
       0.015100581 -0.14663835 0.14843589 -0.042901058
000390 87 02 23 3e e0 30 a3 b8 0e 5d b6 3d 60 a7 9a bd
       0.15918933 -7.781549e-05 0.089044675 -0.075514555
0003a0 5d e7 2b bd a8 ab 1b bd 17 56 bb bd 1b ba c8 3d
       -0.041968692 -0.0380055 -0.0914728 0.09801122
0003b0 2e 02 62 be cb 54 29 bc e2 cc a0 bd b3 f4 aa bc
       -0.22071144 -0.010335158 -0.07851578 -0.020868635
0003c0 11 7c 8d 3d 2a 1b 35 bd 3c 5c 82 bd ad 7a 33 3e
       0.069084294 -0.04421536 -0.063652486 0.17527266
0003d0 e1 92 ed 3b 08 b9 b5 3d 88 a1 f9 bd 9e 1f 02 bf
       0.0072501753 0.088731825 -0.12189013 -0.50829494
0003e0 58 e6 9d 3d 7e 9e 36 be 00 b6 b0 bd ef 01 ba bd
       0.0770995 -0.17833897 -0.08628464 -0.090824
0003f0 a0 3e a0 3d 7f 0a d2 bd c7 43 81 3d 71 8f 88 3d
       0.07824445 -0.10255908 0.063117556 0.06667984

layers.1.bias f4 [128]
000000 ad 93 36 3e 06 10 ea bc 9c f9 27 be 41 12 ed 3d
       0.17829771 -0.028572094 -0.16403812 0.11575747
000010 ae c2 80 3c 37 e5 91 bd 8b 20 a9 3e 04 2c ad bd
       0.01571783 -0.071237974 0.3303264 -0.08455661
000020 96 f4 f2 3d fd e2 03 3e e6 34 71 3d f4 92 18 3c
       0.11863057 0.12879558 0.05888834 0.00931238
000030 da 96 aa 3d 6d 08 8e bd 6b 6c 09 bd 7e 7f 6c 3e
       0.08329554 -0.06935201 -0.03355066 0.2309551
000040 90 57 80 3d 78 89 33 3e 78 36 72 3e b0 10 50 bd
       0.06266701 0.17532909 0.2365359 -0.050797164
000050 3e 3c 14 be 75 ff 00 be 37 6c ac 3d d0 12 ee 3d
       -0.14476106 -0.12597449 0.08419078 0.11624682
000060 5b 91 3c 3d 19 dd c7 bd 2c b0 cf 3c 2f 30 14 3e
       0.04603706 -0.09758968 0.02535256 0.14471506
000070 d8 79 92 3e a7 b3 07 3e fd fc d8 bb fb 08 32 3d
       0.28608584 0.13252126 -0.0066219554 0.043465596
000080 dd 1e 90 3d db a8 e9 bc b6 cd b2 3c ce c2 05 3e
       0.07037137 -0.0285229 0.021826606 0.13062593
000090 d1 c4 e9 3c 95 26 00 be 8a 1e d8 bd 7b 6e df 3d
       0.028536232 -0.12514718 -0.105527 0.10909744
0000a0 4e 37 be bd 50 09 06 3c 21 10 09 3c 82 65 89 3e
       -0.09287892 0.008180931 0.008365662 0.26835257
0000b0 0d a5 3f be 84 06 ba 3c 59 f8 2b be a0 f4 12 be
       -0.18715306 0.022708185 -0.16793956 -0.1435113
0000c0 0e e5 83 bd d2 b8 02 3e 7d 63 99 3b 2b 54 41 3e
       -0.06440173 0.12765816 0.0046810494 0.18879764
0000d0 b7 c6 7b 3c 87 e2 21 be bb 5a 92 bc 22 7e 4b bd
       0.0153672015 -0.1580907 -0.01786553 -0.049680836
0000e0 31 eb 32 3d f3 d1 f2 bd 32 3b f1 bc 93 72 ee bd
       0.043681327 -0.11856451 -0.029447172 -0.11642947
0000f0 cd 4d d6 3d 89 8c 8d bc c9 c5 1f 3e 2c ad 58 bd
       0.10464058 -0.017278926 0.15602793 -0.052899525
000100 a7 b4 2e bc ef 31 23 3d 2d 3e 7d 3d 8a 72 50 3d
       -0.010663188 0.039842542 0.061826874 0.050890483
000110 5d ff 24 bd 06 09 aa 3a 2a 1f c2 bc 6d d3 59 3e
       -0.040282596 0.001297266 -0.0236965 0.21272059
000120 e3 54 0d 3e c2 8b 51 3c 0d 16 ad bd ac ad 84 bd
       0.13801913 0.0127896685 -0.084514715 -0.06478438
000130 80 24 ca bd 51 9f 2c bd 57 6d ac 3d a4 e9 31 3d
       -0.09870243 -0.042144123 0.084192924 0.043435708
000140 c1 e1 97 3d fd 0c 8b bc fe 45 98 bc 74 59 4a bc
       0.07416106 -0.016973967 -0.018588062 -0.012350429
000150 0a 3c 14 3e c2 ee 3f bd b6 78 99 bd ff 51 39 3e
       0.14476028 -0.046858557 -0.07493727 0.18097685
000160 5c b8 98 bd f6 55 c5 3d 5d bf 07 bd 27 f9 1f be
       -0.07457039 0.096355364 -0.033141483 -0.15622388
000170 8b 5d 4f 3e a5 55 90 3c 32 c6 7e 3d c6 70 12 3d
       0.20250528 0.017618963 0.062200733 0.03575208
000180 10 d6 54 ba 4b 4f 84 bc 3f 1f 0b 3e 92 0a e6 bd
       -0.0008119056 -0.016151091 0.13586138 -0.11232485
000190 7d 76 18 3d f8 4d db bc 3a c3 41 3d 3c cc 18 3d
       0.037222374 -0.026770577 0.047305323 0.037304148
0001a0 25 60 86 3e 20 ca ee 3c 95 70 56 3d 62 7a 2b bd
       0.26245227 0.029149115 0.05235346 -0.04186476
0001b0 d3 05 16 3c f1 4c 2f 3e 0d 9c e2 3d c4 62 3f 3e
       0.009156662 0.17119195 0.110649206 0.1869002
0001c0 b8 52 90 bc 85 ee 59 3d e9 8f e5 3c 2e ac 7b 3e
       -0.017617568 0.053205986 0.028022723 0.245774
0001d0 d7 0f 21 3e cb 6b d2 3d 18 a6 49 bd 67 d7 9e bd
       0.15728699 0.10274466 -0.049230665 -0.077559285
0001e0 59 44 4e 3b 63 8e 60 bd cb d7 f2 3d 32 04 12 be
       0.0031473844 -0.05482329 0.118575655 -0.14259413
0001f0 65 4f 94 bd 00 5a 93 3e 0e a1 9b bd 39 45 5a 3e
       -0.07241706 0.28779602 -0.07599078 0.21315469

layers.2.weight f4 [128, 128]
000000 cb 7a 92 3d 66 ee dc bd de 7f 75 3e 4a 4b 83 3c
       0.07152327 -0.107876584 0.23974559 0.016027112
000010 96 5f 8b be 48 eb db 3d 04 90 49 bc c3 e5 05 bf
       -0.27221364 0.10738236 -0.012302402 -0.52303714
000020 17 70 e6 3c 56 e0 0e 3e b0 85 8a 3d 44 63 6e 3c
       0.02812962 0.13952765 0.0676378 0.014550034
000030 c1 0a 64 3d b9 5c 1a bd 68 22 50 3d 25 d2 6a 3e
       0.05567432 -0.037686083 0.050814062 0.22931726
000040 d1 77 b5 3d 7a 2b 8c 3d 5c fa 41 3e e9 52 ea 3c
       0.08860744 0.0684423 0.18943161 0.028603988
000050 7c 94 63 3d 27 1f a6 3c fe 81 03 3e aa 57 a5 3d
       0.055561528 0.020278526 0.12842557 0.08073361
000060 c3 5e 5d bd bc 29 0f bc 91 59 a6 be 05 f3 3a bb
       -0.05404545 -0.008737978 -0.3249021 -0.0028526199
000070 e2 b0 02 bc 00 2b b2 3e 8c d9 30 3d f1 97 e9 3d
       -0.007976742 0.3479843 0.04317622 0.11405934
000080 d1 38 82 3d d9 e4 5f bb da 7f 9a 3c 36 11 dc 3d
       0.06358493 -0.0034163503 0.018859793 0.1074547
000090 73 2b a3 bd ee d0 4d be 54 cd 14 3e 52 f5 2d bd
       -0.07967272 -0.20099232 0.14531451 -0.042470284
0000a0 bc 5d 72 bc cb 90 0e 3d 6d c7 33 3d 76 cc 2e bd
       -0.014792856 0.034806054 0.04389136 -0.042675458
0000b0 8d 94 0b bd 28 b4 50 3d 79 50 ec be 41 77 34 3d
       -0.034077216 0.05095306 -0.46155146 0.044059042
0000c0 a4 76 04 3e a2 dc 62 3e 77 e3 9b be 1e ce b3 be
       0.12935883 0.22154477 -0.3044698 -0.35118192
0000d0 1f 64 f9 bd fd e5 4d 3d b2 05 62 3e c2 75 b2 be
       -0.121773 0.050268162 0.22072485 -0.34855467
0000e0 03 3c ef 3a d9 a8 0c 3c f0 a7 ed bb 2a 55 4a 3d
       0.0018252138 0.008585178 -0.0072526857 0.049397625
0000f0 53 0b de be 68 6d 90 3e 8f ce 83 bd ce 72 3b 3d
       -0.43368015 0.2820847 -0.06435882 0.045763783
000100 86 54 bc bd 1b dd a2 be b5 04 d4 bc 03 3d 11 3d
       -0.09195809 -0.31809315 -0.02588115 0.035458576
000110 74 60 08 be 50 2d f3 3d 16 90 8b 3d d9 e3 b1 bd
       -0.13318044 0.11873877 0.068145916 -0.086860366
000120 10 3e dd 3d cd 8e e8 3d 71 d8 49 be 0e 55 94 3b
       0.10802853 0.11355362 -0.19711472 0.004526741
000130 c5 aa d6 be 52 2b c5 3d 8c c5 a0 3d 58 7f c1 bd
       -0.41927162 0.09627403 0.07850179 -0.09448117
000140 c6 46 2f bd 72 c7 19 3c 23 8c ee 3d 9d 93 91 be
       -0.042792104 0.00938593 0.11647823 -0.28432932
000150 4c 0c a9 3d ea a9 d7 bd d4 fb f3 3c 75 72 ac 3d
       0.082542986 -0.105304554 0.029783167 0.084202684
000160 ba 28 b6 3d b1 e7 9e be e9 0c f2 be 65 2b 79 3c
       0.08894487 -0.31036142 -0.47275475 0.0152081
000170 06 a9 50 be eb 83 7e bd 7b 1b b6 3d f0 ca 12 3d
       -0.20376977 -0.062137526 0.0889196 0.035838068
000180 94 17 ae be 97 df b3 be bd fd e7 3d b7 67 83 bd
       -0.34002364 -0.35131523 0.113276936 -0.064162664
000190 6c ae 0f 3d b2 6b 12 be 65 18 4b bd 33 65 12 bf
       0.03507845 -0.14298895 -0.04958381 -0.5718567
0001a0 d2 eb 3f bb 4f 8a 94 3d 50 3d ba 3e 6f b7 f6 3c
       -0.0029284847 0.07252943 0.36374903 0.030116765
0001b0 d3 67 a8 bd c5 b2 26 bd aa cd 42 3e 51 41 d1 3a
       -0.08222928 -0.04069783 0.19023767 0.00159649
0001c0 1f e3 2a 3e 63 a3 bb bd 5c e3 e5 3d e4 f5 ac 3d
       0.16688202 -0.09162023 0.11225006 0.084453374
0001d0 4c f0 53 3c 91 62 7c 3d 9d 1c 6d 3b cc ba 40 bd
       0.012935709 0.061617438 0.0036180385 -0.047053143
0001e0 ef e6 15 3d 24 1e 7a 3d dc 20 2c bd ee 4b ad bd
       0.03659719 0.0610639 -0.042023525 -0.08461748
0001f0 ef 86 c8 3c 78 ca 4c 3d 1f 9f bf be c9 27 b9 3d
       0.024478404 0.049997777 -0.37426087 0.090407915
000200 75 92 be bd e1 c2 bd bd c3 13 10 3e ab fc cd 3c
       -0.09305278 -0.09265686 0.14070038 0.025144896
000210 95 d0 be be db 4b d6 bc 22 9a c9 3c d3 d4 f7 be
       -0.3726851 -0.026159218 0.024609629 -0.4840456
000220 3a 8d 92 3d 04 94 cc 3d e5 85 b7 3d 7b 73 c9 bd
       0.07155843 0.09989169 0.08961085 -0.09836479
000230 fd 77 19 3d 68 66 5c bd 9d 85 7d 3c 28 0e 45 3e
       0.037467945 -0.0538086 0.01547375 0.19243681
000240 b4 33 c2 3c f6 41 5f 3e 03 0d e0 3d 71 5f 84 3c
       0.023706295 0.21802506 0.10939982 0.016158791
000250 3d 9b 56 3c c7 71 ed bb 53 42 07 3e 60 93 a3 3c
       0.013098535 -0.0072462293 0.13208894 0.019967735
000260 ab 3b 40 bd a5 1b b6 bd 85 51 ba be 93 1f 0d bc
       -0.046931904 -0.088919915 -0.3639032 -0.008613485
000270 93 0b 12 bd d5 6e bb 3e 7c b3 aa 3d d0 c2 13 bc
       -0.03565557 0.36607996 0.08335015 -0.009018615
000280 92 ac 9b 3d 2b bb 61 3d 9f d4 f7 bd b0 06 ac 3e
       0.076012745 0.055110138 -0.12101101 0.33598852
000290 8e 7f 2e 3d e6 98 9c be 3e 8c 7b 3d 3b 65 92 bc
       0.042602114 -0.30585402 0.061413042 -0.017870536
0002a0 83 71 45 bd e0 4c 86 3c 28 7b c5 3c 25 d4 06 3d
       -0.048203956 0.016394079 0.024106577 0.03291716
0002b0 34 cf 94 bd c7 9d 68 3d 5b 2f dc be b7 e9 39 bd
       -0.07266083 0.056791093 -0.4300488 -0.045388903
0002c0 98 d9 37 3e d0 de d9 3d 14 af ce be 0e 43 af be
       0.17954099 0.10638201 -0.4036795 -0.34230846
0002d0 26 e0 12 bd 41 37 5c 3b 3c bf 8c 3e 11 41 ea be
       -0.035858296 0.003360227 0.2748965 -0.45752767
0002e0 b0 14 11 3d ed 74 72 bd 36 50 65 3c a4 31 7e 3d
       0.03542012 -0.05919354 0.013996175 0.06205906
0002f0 d8 64 82 be 71 e2 53 3e 21 7e d9 bd 47 6c cf 3d
       -0.25467563 0.2069185 -0.1061976 0.10128074
000300 74 5e ac bd b2 3f 94 be 04 56 a6 3d 84 85 d2 3d
       -0.08416453 -0.28954846 0.08121875 0.10279372
000310 87 ff 80 be f6 35 05 3d 90 f8 f6 3d 16 26 c0 bd
       -0.25194952 0.032522164 0.12059128 -0.09382264
000320 92 95 0a 3e 2d c4 c6 bd 02 88 11 be 50 35 61 3d
       0.13533619 -0.09705386 -0.14212039 0.054982483
000330 b4 74 06 bf 39 ec f2 3d 38 22 1e bc 22 9b 6b 3c
       -0.52521825 0.11861462 -0.009651713 0.014380248
000340 91 5b cd 3c 03 01 a5 3d ae 3c 18 3d 85 97 91 be
       0.025068076 0.080568336 0.037167244 -0.28435913
000350 e9 b9 a5 3c e7 b6 2f be ef 37 ac 3d a6 9a 5c 3e
       0.02023025 -0.17159615 0.08409106 0.21543369
000360 be 13 0a 3d e6 b8 b7 be fa 6e e2 be 0f ad 75 3d
       0.033710234 -0.35883254 -0.44225293 0.059979495
000370 ce 00 9d be 61 ee 50 3d b8 8d c8 bb b3 3a ac 3c
       -0.30664676 0.051008586 -0.00612041 0.021024084
000380 a5 7d ac be d0 bb 45 be c1 0c fd 3d 8a ad 7b 3d
       -0.3368961 -0.19309926 0.12355948 0.061444797
000390 c4 38 15 bd a3 09 22 be a8 b6 4e 3d 90 2a 05 bf
       -0.03643109 -0.15823989 0.050467163 -0.5201807
0003a0 14 fa 16 bd 97 1b 0d 3e a0 d8 b4 3e b3 15 e0 3c
       -0.036859587 0.13780056 0.35321522 0.027354097
0003b0 fe 47 48 3c 53 cc 95 bc 8f 60 07 3e d8 d3 9b 3d
       0.0122241955 -0.018285906 0.13220428 0.07608765
0003c0 dc ad 36 3c 86 e1 9a bd ec 0d 4d 3e 2c a4 71 3d
       0.01114985 -0.075625464 0.20024842 0.058994457
0003d0 35 ab ac 3d 7a 0c 2a bc 6d 85 ce bd 68 3c 7d bd
       0.08431093 -0.010378951 -0.10084043 -0.061825186
0003e0 7b c2 22 bc 07 bb 3b bc e4 6e d2 3d 45 b4 a0 bc
       -0.009934063 -0.011458165 0.10275057 -0.01961721
0003f0 86 8d 58 3d fb 51 8f bd 08 c6 ce be 70 35 7a 3d
       0.052869342 -0.069980584 -0.4038546 0.06108612

layers.2.bias f4 [128]
000000 3b 4f ef bb b0 56 14 3d dd 83 17 3d 2e 65 54 be
       -0.007303146 0.036215484 0.03699099 -0.20741722
000010 0e c9 7b bb a4 aa 9d 3e d2 ed d4 bd 20 46 b9 bb
       -0.0038419398 0.3079425 -0.10396923 -0.0056541115
000020 ce e7 27 3c f3 69 d0 3d 47 6f a8 3b 2f 46 0b bd
       0.010248138 0.10176458 0.0051402184 -0.03400248
000030 9b 8a a8 3d 01 cb b2 3e 89 0d 41 bd dd c0 27 be
       0.08229562 0.34920505 -0.04713205 -0.16382165
000040 69 89 c9 bd b2 91 70 bd 3f bd 84 3a b5 3a 13 3b
       -0.09840662 -0.058732696 0.00101272 0.0022465412
000050 f6 5f 9a bd 45 5b 8d 3d 4f b3 9b 3e 76 5a 9d bd
       -0.07537834 0.06902174 0.3041024 -0.0768327
000060 bc 7f 19 bd cb d9 be 3d c0 df 45 3c 22 79 2d bd
       -0.037475333 0.093188845 0.012077272 -0.04235185
000070 9a 73 bc 3c 89 38 64 bd f9 72 9c 3d fb f3 9e 3e
       0.023004342 -0.05571798 0.07639117 0.31045517
000080 58 6b bb bc a5 14 36 3c e5 1f 15 bd c9 db c1 bd
       -0.022878334 0.0111133205 -0.03640737 -0.09465749
000090 15 7a aa bd 37 b8 8a 3c c7 8c 1a bc aa 20 e8 3c
       -0.083240665 0.016933544 -0.009432978 0.028335888
0000a0 52 75 f5 3c 80 f4 f5 bc cc c7 87 3c 50 6b 22 3d
       0.02996317 -0.030023813 0.016574763 0.039653122
0000b0 85 71 ad 3d 8b f3 c4 bd d4 dc 74 bd b2 10 ac 3d
       0.08468918 -0.09616765 -0.05978091 0.08401622
0000c0 27 cb a4 bd 8c 49 8a 3e 97 a8 b2 3d 54 fd 8e 3e
       -0.08046561 0.27009237 0.08723562 0.2792765
0000d0 a2 b1 63 3d bb 6f bc 3e 51 05 5d 3e 4d 2e 6f 3d
       0.055589326 0.36803994 0.2158406 0.058393765
0000e0 fa 94 58 bd 88 62 37 bd 24 56 79 bd da 68 91 3d
       -0.05287645 -0.0447717 -0.060873166 0.07100077
0000f0 ff 20 ae bd 81 d6 48 bd 52 44 d8 3d 81 8b 01 be
       -0.08502387 -0.049032692 0.10559906 -0.12650873
000100 a1 ee c0 bc 69 1a d6 3e d1 7a 3a be 78 f3 d9 3d
       -0.023551287 0.41817024 -0.18210913 0.10642141
000110 0e c8 17 3e aa 1d 17 3d 64 7f 07 3e e6 20 9e bd
       0.14822409 0.036893524 0.1323219 -0.07721119
000120 3f 90 1d 3d 5f da a2 3e af 89 21 be bd 02 47 3e
       0.038467642 0.3180723 -0.15775178 0.19434638
000130 30 30 8b bc 27 34 c0 3e 86 c1 80 3e 7a 35 90 3d
       -0.016990751 0.3753979 0.25147647 0.0704145
000140 32 98 38 3d 83 f6 97 3d f6 ca c2 3d a5 3f aa 3d
       0.04506702 0.07420065 0.09511368 0.083129205
000150 7a 09 be 3d f5 f6 85 bd 63 10 4e 3e cd 65 a5 3e
       0.09279151 -0.06541244 0.20123439 0.3230423
000160 4f aa 38 be 21 ea 9c 3e d8 25 38 bd 7f 80 a6 3e
       -0.18033718 0.30647376 -0.044957966 0.3251991
000170 de 25 a4 bc 5f 69 d9 bb 7d 04 ce 3d f6 4a 49 3e
       -0.020037588 -0.0066348757 0.1005945 0.19657502
000180 29 df 2e 3e db 42 e5 bc fc 5a 80 bb 79 b9 15 be
       0.17077316 -0.02798598 -0.003917096 -0.14621533
000190 84 15 52 bd e6 aa 50 bc 43 70 c3 bb 6f 69 8a bc
       -0.05129005 -0.012736058 -0.0059643104 -0.016895978
0001a0 04 5c ff 3c 97 99 8d 3d d2 6a d5 bd 8c b0 4b bd
       0.031171806 0.069140606 -0.10420765 -0.049728915
0001b0 2b 8f 49 3e 1c e7 6f 3d d6 fb 74 3d 72 3f b8 3a
       0.1968352 0.058570012 0.059810482 0.0014056994
0001c0 da ed a2 bd ab b9 4a 3d 31 ea 4f bd 89 a4 8e bd
       -0.07955523 0.049493473 -0.05076045 -0.06964976
0001d0 c4 40 23 bd 7f a3 38 be 1f 50 77 3d d8 9b b4 3e
       -0.039856687 -0.18031119 0.060379144 0.3527515
0001e0 04 d6 78 bd 34 09 ba 3e d2 f6 5f bd 1d b9 bd 3c
       -0.060750976 0.36335146 -0.054678746 0.023159558
0001f0 2f 20 78 3d 73 d6 e3 bd 8f 8a a5 bd 87 b0 aa bc
       0.060577568 -0.11124887 -0.080830686 -0.020836128

layers.3.weight f4 [1, 128]
000000 e2 89 7c 3e c2 3e 6c 3e 92 f2 aa 3e d6 18 c3 be
       0.24661973 0.23070815 0.3338819 -0.38104886
000010 82 ef 03 3e 8b bb a6 be b2 4c e6 3b 7d 91 95 bc
       0.12884334 -0.3256496 0.0070281858 -0.01825785
000020 16 7f 45 3e 19 ff 19 3e f9 7f 54 3e 48 ad 37 3e
       0.1928676 0.15038718 0.20751943 0.17937195
000030 70 9e 30 3e e9 48 02 bf 74 88 74 bb 7d bc bf be
       0.17247939 -0.508925 -0.0037312778 -0.37448493
000040 dd f4 86 3a b1 fc 16 3e 51 a2 1e 3e e1 29 ba 3d
       0.0010296364 0.14744832 0.15491606 0.09090019
000050 47 14 aa 3b 11 e3 1e 3e 54 38 9f be 4f 38 3a 3d
       0.0051904055 0.15516306 -0.31097662 0.045463856
000060 a4 8e 55 3e 71 8e e0 3d b1 99 ac be 12 6e b4 be
       0.20855194 0.109646685 -0.33711007 -0.35240227
000070 ac 78 03 3e 54 36 1d be 7d 5b 5c 3e 63 01 ac be
       0.12839001 -0.15352756 0.21519275 -0.33594808
000080 9c 92 0d 3b dd 0a 71 3e bd 99 98 3e 3c 56 89 3b
       0.0021602279 0.235393 0.29804793 0.004191188
000090 6c f2 0e be f2 4c 11 3e f7 c3 0b 3e 11 83 d2 bc
       -0.13959664 0.14189509 0.13648973 -0.025697263
0000a0 b7 cb 5d 3e 96 e1 16 3e e4 0d 84 bd bb e4 43 3e
       0.21659742 0.14734492 -0.06447962 0.19130222
0000b0 01 cd e1 3d d0 61 d5 bc 61 b0 52 bc a5 8f 19 3e
       0.110254295 -0.026047617 -0.012859435 0.14996202
0000c0 a1 f8 c7 3b 30 1d cb be 7c a9 ad be b7 c8 86 be
       0.006102637 -0.39670706 -0.3391837 -0.26325008
0000d0 9b 27 ef 3d 16 c6 cd be e2 a9 5f be f4 2d 38 3e
       0.11677476 -0.4019019 -0.21842149 0.1798628
0000e0 b2 06 61 bd 8a 7e 5c 3b ac d6 84 bd 68 68 39 be
       -0.054938026 0.003364476 -0.06486258 -0.18106234
0000f0 bd b1 19 bd 44 00 73 3b 75 d0 8b 3e 78 70 ae be
       -0.03752302 0.0037079016 0.27307478 -0.34070182
000100 44 92 19 3e 28 da c3 be 82 a5 8c 3e 4e d9 a7 bd
       0.14997202 -0.38252378 0.27470022 -0.081957445
000110 1b a4 2d be e1 b4 2d 3e e8 01 89 3e ec 09 0a bc
       -0.16957133 0.16963531 0.26759267 -0.008425217
000120 a0 b8 1f 3e 42 36 36 bf cb d2 ff be 2e fd 57 bd
       0.15597773 -0.7117654 -0.4996551 -0.052731685
000130 57 b6 0e 3e ef 00 ea be fb ac 17 bf e1 c3 5a 3e
       0.13936745 -0.45703837 -0.5924832 0.21363784
000140 56 7d 45 3e cc 6b d4 3d 68 c7 69 3e 52 e0 0b 3e
       0.19286093 0.10372123 0.22829974 0.1365979
000150 de 3f 4e bd e7 5a 3e bd 41 1f aa be 32 48 1e bf
       -0.050353877 -0.04647341 -0.3322697 -0.6182891
000160 1d 8e 00 3f 71 36 b3 be 9d b8 0f bc 45 7e db be
       0.5021685 -0.35002473 -0.008772043 -0.42869774
000170 42 e4 25 be eb f2 5e 3e b7 16 47 3e 5e 8e 8e be
       -0.16200355 0.21772353 0.19442259 -0.27842993
000180 4d 27 5b bd 7f 0a 4c 3e c9 c6 15 3e b8 91 8b be
       -0.053504277 0.19925879 0.14626612 -0.27259612
000190 f8 52 15 be 0b b0 76 3d 94 ec 15 3e 09 66 44 3e
       -0.14582431 0.06022648 0.14641029 0.19179548
0001a0 f9 f6 42 3e 56 51 f1 3d ef 5a bb 3c 52 76 1e 3e
       0.19039525 0.11783092 0.022870509 0.15474823
0001b0 5e 2a e1 bd 1e 65 d1 3d 82 58 67 3e 28 5f fe 3d
       -0.10994409 0.10224365 0.22592357 0.12420493
0001c0 1b fd de 3e 76 a1 1f 3e 62 8e 50 3e 68 b1 39 be
       0.4355248 0.15588936 0.20366815 -0.18134081
0001d0 05 d0 f6 3d 3f ad d1 be a7 13 de 3d 64 8a d4 be
       0.12051395 -0.4095249 0.10843592 -0.41511834
0001e0 1c f4 83 bd 64 3e df be fe 90 13 bc 50 95 e7 3d
       -0.064430445 -0.43602288 -0.009006737 0.11307776
0001f0 6d ca ca 3d 88 90 b1 be d9 e9 5a bd 3f 1e 3c bb
       0.09901891 -0.3468058 -0.05344567 -0.0028704552
