new_models/base+wp_16849288/qf1_best.pth (torch, 186572 bytes, 7 tensors)

layers.0.weight f4 [128, 98]
00000000: 3226 a9bb 8c4b 393c c3b4 bfb9 986b af3d
00000010: 1cac 413d 39cd c53d eac2 21be 86bd 97bd
00000020: 583a e53d 42f9 273e 48b6 15be 2a25 d3bd
00000030: 4bb2 203b d272 4cbd 8c2c 913b c7f9 5dbd
00000040: 7a86 6b3a fc71 85bc 4564 6a3c cbcd 0dbd
00000050: 6dd4 42bd 96f8 0e3d 1768 bcbc 52c2 9abd
00000060: f73c 8cbd 2ff0 9f3b 8c74 4bbd 7b28 363d
00000070: 5fd3 853c 3494 f8bd 533c 253d 8670 0fbe
00000080: d739 b3bd dd59 edbc 27dc afbd 980a 86bc
00000090: bdc8 ef3d f415 80bc 3237 293d d3f4 cbbc
000000a0: dff2 073d d5e1 dbbb 854a 603d 09c2 bd3c
000000b0: e9bc 483c ca4d 223d d88e 6dbe 32da 12be
000000c0: c2f6 d2bd 1d4f 2cbe 2ead 39be 3bbe 113c
000000d0: eee0 ee3d 49a4 f33b 787b 99bd 03f2 bfbd
000000e0: 490e e13b fa52 bbbb 0787 a3bd a3bb d43c
000000f0: 4d1e 85bb 535f 843d bf36 e43c 9533 303d
00000100: ddf8 49be 20c4 68bd 98f9 b5bd fe15 c0bd
00000110: dde2 c7bd e131 1ebc c894 17bc 77c1 dabe
00000120: 7b2d bb3d ee4d 94be d1d6 753e 3cc6 c2bc
00000130: 1650 1abc b220 c53d 1522 d1be a828 86bd
00000140: 0d52 43be 697e a33d 8f3a 763d 3f76 5d3e
00000150: 733c cb3d 950f 9ebe e130 1a3c 5900 e3bd
00000160: a706 08be 575e ff3c 7de2 3c3e 35d9 fc3d
00000170: 8e59 7bbe 3a26 dbbd cd0a 5dbe f45a a3be
00000180: 867a 143e 3b77 393b 3e0f a6bc 4c03 083d
00000190: 5c8b 413d be73 29bd 6ac3 bc3c b405 babd
000001a0: 9db9 1cbd 1b99 23bc f40b 9dbd 17ce d6bd
000001b0: 4c75 a03d 916e 2a3a ea79 fdbc 0fb8 b9bb
000001c0: 23ce 863b 5931 0d3d 5a57 423c ade9 ddbc
000001d0: e466 59bb e70c cc3d 6f25 fc3d b2ec 85bd
000001e0: 23ac 1a3c f810 e4bd 110b 853b df35 a5bd
000001f0: d045 c33c 6ef5 66bd 6a6c a8bd 141e 773c
00000200: cefb 873d ca6d 19bc c94e 123d 5366 993c
00000210: d366 11bd d4d9 483d d090 57bd 0c7e c03d
00000220: 9920 c93d fd8b c03c be78 193d 5a9f c3bc
00000230: c2f4 c13d 2bc7 7a3d 49d0 16bb be0a 9a3d
00000240: 0247 853d 5115 cbbd a840 5abd 7eee 09bc
00000250: 4307 74bd a938 5c3c 063b 873d 1723 cc3d
00000260: 4c9d ad3a c312 473d dd3d 2b3d d8fb 863e
00000270: d39f 7a3e 9379 e03d 4063 2d3e 39ad 6a3c
00000280: 3b84 763d e9ea eabd 51af 48bd c938 2fbd
00000290: d493 5c3c a5be 5ebd f9be e0bc 77b7 2aba
000002a0: ed1d 293e 89b1 ac3d 7341 6f3c 3935 a0bd
000002b0: e151 a73d c2a9 d03c 81ff 9a3d a537 06be
000002c0: 8d29 173d fc06 e5b9 6360 e73d a86f 88bd
000002d0: 1390 97bd 0b5b dbbd ea67 dbbc cc3d 05bc
000002e0: c61c ef3d 730b a33d 2dfd 9bbd 4f69 463c
000002f0: 9f25 623d 4d59 4a3e 1f01 77bd cbd1 283f
00000300: 2b1a 773d e4be 22be bdf4 8fbd d661 a13e
00000310: ba05 d23d d835 983c 43db 423d e292 7a3d
00000320: f265 d13c acdc b2bd 62be 32be ad1d 53bd
00000330: 586b f43d 307a db3a a1b3 18be 55a1 3bbd
00000340: e913 94bd f9f6 693d 3739 a73d ff09 d13d
00000350: 9ed0 08bd 3968 f1bc eb4b 2d3d 2951 c8bc
00000360: d189 0ebd 9f41 743d 66b3 41bb 3c84 67bd
00000370: c3ea 983d 3bee e93d 04a0 1e3e 0a96 babd
00000380: ba17 0cbe 5a12 1bbe 211a c6bd 989e 72bd
00000390: 5b8c 4a3d 40e9 973d 0b83 f83c 512e 44bd
000003a0: 24ca 8dbc 80c1 3ebd 0baa 38bd 243f 22be
000003b0: 96ae 81bd f094 923d fe45 7e3d 3005 d63d
000003c0: 5c99 453d 0128 18bd 3619 58be de30 72be
000003d0: 6bbe 6dbd 16f6 5f3d 2bdf ddbc f85c 953e
000003e0: a264 163e c418 b73d d7af 5d3d 0424 80bd
000003f0: 5e9e df3c 5768 21be 59e7 b63c d104 c63d
-0.005162024 0.011309516 -0.00036565037 0.08565444 0.047283277 0.09658284 -0.1579701 -0.074091956
0.11192769 0.16403678 -0.14620316 -0.10309823 0.0024520333 -0.04991419 0.004430359 -0.054193284
0.0008984577 -0.016289704 0.014306133 -0.034620088 -0.047565866 0.03490504 -0.022998853 -0.07556595
-0.068475656 0.004880927 -0.049671695 0.0444722 0.016336141 -0.121376425 0.040340733 -0.14007768
-0.087512664 -0.028973514 -0.085869126 -0.016362473 0.1170821 -0.015635468 0.041312404 -0.024897015
0.033190604 -0.006710271 0.054758567 0.023163812 0.012252071 0.039624967 -0.23199022 -0.14341047
-0.103009716 -0.16827054 -0.18132469 0.008895452 0.11663996 0.007435356 -0.07494253 -0.09372332
0.006868158 -0.0057166787 -0.07984739 0.025968378 -0.00406245 0.06463494 0.027858136 0.043017942
-0.1972384 -0.056827664 -0.08885497 -0.09379195 -0.097600676 -0.009655447 -0.009251781 -0.42725727
0.09139534 -0.28965706 0.24007727 -0.023776166 -0.009418508 0.09625377 -0.40846315 -0.06550723
-0.19074269 0.07983095 0.06011444 0.21627139 0.09923639 -0.30871263 0.009411068 -0.11084051
-0.13283788 0.031172914 0.18445773 0.123461165 -0.24545881 -0.107006505 -0.21586151 -0.3190533
0.14499864 0.0028299827 -0.02027094 0.03320627 0.047252044 -0.041370146 0.0230424 -0.09083119
-0.038262952 -0.009985234 -0.076682955 -0.10488527 0.078348726 0.0006501461 -0.030941922 -0.0056676934
0.004113929 0.03447089 0.011861647 -0.027088964 -0.00331729 0.099633984 0.123118274 -0.06539287
0.009440455 -0.11136049 0.004060157 -0.08066916 0.023837 -0.056386404 -0.08223803 0.015082855
0.06639825 -0.009364555 0.035719667 0.01872555 -0.03549845 0.049035862 -0.05262834 0.093990415
0.09820671 0.023504252 0.037468664 -0.023879696 0.09470512 0.061225098 -0.0023012331 0.0752158
0.06507684 -0.09916175 -0.053284317 -0.008418677 -0.059577238 0.013441243 0.06603055 0.0996763
0.0013245731 0.048601877 0.041807044 0.26364017 0.2447503 0.109606884 0.16932392 0.014323526
0.0601847 -0.11470587 -0.04899532 -0.042778764 0.013462979 -0.05438103 -0.027434813 -0.0006512324
0.16515322 0.084323 0.014603007 -0.078226514 0.08169914 0.025471572 0.07568265 -0.13107164
0.03690486 -0.00043683487 0.11297681 -0.06661922 -0.07400527 -0.107107244 -0.026782949 -0.008132409
0.1167541 0.07961168 -0.07616649 0.012110068 0.05521166 0.19760628 -0.060303804 0.6594512
0.06032769 -0.15893131 -0.07029102 0.31519955 0.102549985 0.018580362 0.047572386 0.061175235
0.025561307 -0.08733496 -0.17455438 -0.051541973 0.11934537 0.0016744789 -0.14912273 -0.045808155
-0.0723036 0.057120297 0.0816521 0.10206985 -0.033402078 -0.029468643 0.04230873 -0.024452763
-0.0347994 0.059632894 -0.0029556393 -0.056522593 0.07466652 0.11422392 0.15490729 -0.09110649
-0.13680926 -0.1514372 -0.096729524 -0.059233278 0.04945026 0.07417536 0.030335924 -0.047895733
-0.017308302 -0.046571255 -0.04508404 -0.15844399 -0.06332128 0.07157314 0.06207847 0.10450208
0.048241958 -0.037147526 -0.21103367 -0.23651454 -0.058042925 0.054678045 -0.027083954 0.29172492
0.14686826 0.089402705 0.054122772 -0.062568694 0.027297195 -0.15762459 0.022327112 0.096688874

layers.0.bias f4 [128]
00000000: 6b07 8bbd 6816 65be 1c92 a9bd 36ce 5c3c
00000010: 6f56 c6bd 112a d2bb 7589 c53d 67c7 90be
00000020: d6ae a03b b6bd 723c 5007 fbbd 071b a13d
00000030: bf56 463e 8ed1 27be c5ee 343e 7491 253e
00000040: b2c7 913d a0dc b33c 2e80 7cbd e08e 58bd
00000050: e21f 75bc 3581 84bc 79b9 863e 6ea6 d53d
00000060: 21dc 373d 1fba 2f3e 5d2b 213e 163f 1f3e
00000070: f8cb eb3d 9e51 1d3e 7407 55be 857c 3cbb
00000080: 2a06 a73d a59a 583d b8a4 2e3c 9ae2 043c
00000090: 4d26 653e be46 8e3d 20ff f13d 269c 4b3d
000000a0: b834 9ebb 9b5b d43d a492 84bc 1b6d aabe
000000b0: 5291 cabd 1951 5f3e e444 a6bd 71f8 d73c
000000c0: 5282 333e 6679 bbbc 3cdf 423d 2d0c 2d3e
000000d0: c426 10be 4c8b f1bd f757 0a3e 47e8 193e
000000e0: d99f a23c 829e 463e ce69 d23d b948 313e
000000f0: 2dd9 373e 442b 0f3e f5cb a93d 55bf a23e
00000100: f29a 7ebd c20c dabd 504e 683d eb88 283e
00000110: 8dce 2e3d 3261 91bd 89a3 103b a748 4ebd
00000120: 45c4 383c 2638 5bbe 93e8 05be 0f40 38bd
00000130: e7a8 cbbd 7ffc 1bbe f524 003e 06ab c23e
00000140: 42b5 13bd 5f75 82bd ebd4 b23d c4c2 87be
00000150: 54b4 733d 653c 3c3d c6a6 ecbd 8656 fa3d
00000160: 101c 273e ddaf b83d bd5f fe3c a807 a4bd
00000170: a0b6 f13d 9a74 1c3d 17df 8a3d eb18 263e
00000180: 9c42 18be ace0 5d3d 8034 173e 9ee5 f8bd
00000190: 6d76 48bd 2669 49bb 25f3 1d3d 684e 983e
000001a0: 7625 c03d 4b03 b3bc ba01 20bd dc6d 843e
000001b0: b5f9 c13d 9924 f6bc 66c4 bdbd 7c21 373d
000001c0: 9e16 b73d 4f16 2dbe fdc1 f63c d467 8dbd
000001d0: a284 813d 2168 bcbd 0359 223d 2709 9fbc
000001e0: 68dc 703e 38ce d43d 05a0 cfbd 517a dcbc
000001f0: 9434 68bd 7abf 03bc eb00 703d 6281 b4bb
-0.06788524 -0.22371829 -0.08279821 0.013476899 -0.09684455 -0.006413706 0.096453585 -0.28277132
0.0049036546 0.014815738 -0.12257254 0.07866483 0.19369029 -0.16388533 0.17669208 0.16168767
0.07118167 0.021955788 -0.06164568 -0.05287063 -0.014961215 -0.016174892 0.2631338 0.104321346
0.044887666 0.17160843 0.15739198 0.15551409 0.11513513 0.15363166 -0.20803624 -0.0028760743
0.081554726 0.052881856 0.010659389 0.008110667 0.22377892 0.06947087 0.11816239 0.04970946
-0.004828062 0.10369035 -0.016183205 -0.33286366 -0.09890999 0.2180828 -0.081186086 0.026363583
0.17530182 -0.022885036 0.047576174 0.16899176 -0.14077288 -0.11794147 0.13510118 0.15030013
0.019851612 0.19396403 0.10274087 0.17312898 0.1795394 0.13981348 0.08290855 0.317866
-0.062159486 -0.106469646 0.05671531 0.1645848 0.04267745 -0.07098617 0.002207013 -0.050362255
0.011277263 -0.21408138 -0.13077001 -0.044982966 -0.09944325 -0.15233038 0.12514098 0.38021106
-0.036061533 -0.06370043 0.08732017 -0.26515782 0.059498146 0.045956034 -0.11555247 0.12223534
0.16319299 0.09017918 0.031051511 -0.08009273 0.11802411 0.038197137 0.06780832 0.16220443
-0.1486916 0.054169342 0.14766121 -0.12153171 -0.048941065 -0.003073284 0.03856196 0.2974732
0.09382145 -0.021852156 -0.039064147 0.25865066 0.09471456 -0.030046748 -0.09265976 0.044709668
0.08939861 -0.16903041 0.030121798 -0.06904569 0.06324126 -0.091995485 0.03963567 -0.019413544
0.23521578 0.103908956 -0.10137943 -0.026913794 -0.056690767 -0.008041257 0.058594625 -0.0055085877

layers.1.weight f4 [128, 128]
00000000: 746b ee3d c781 243d a9b2 efbd a820 c5be
00000010: fdb2 0e3e 92ce 2bbd 5203 0bbe b178 d23d
00000020: cfba 553b 897e 14be 81ef 1e3d b4f7 d5bd
00000030: e274 9ebd 5049 143c 16e7 233b 1ee7 e5bd
00000040: 4b19 0e3d c7a9 c6bd fc0b f73d cc17 9c3c
00000050: a433 5b3d 3862 06be 2ad6 853d 9e1d c3bc
00000060: 03cb e83d 21bc e1bb 23e2 b4bd 5a5e 04be
00000070: aec0 0fbd 561d b9b7 601a cabb 278d 4e3d
00000080: a59b 863d 60f1 f53b 7fd4 27bb 41d8 bcbe
00000090: 8c0d 2abd 9f60 c3bd a5e8 e23d e47d 52bd
000000a0: b634 ecbd d37f 2bbd 6abb 05bd 2cea 81bd
000000b0: 98b7 3a3c d536 21bc 7569 dd3c 0432 90bd
000000c0: 4a1a 57bb 356b 713d 83aa 203e e036 903d
000000d0: 9c46 783d 9b75 36bd c97a 67bc f08b 233d
000000e0: 47d9 893d 1f85 803d 5580 3abd fe34 9e3d
000000f0: 6b85 403d add9 243d c990 4dbd 5893 303d
00000100: 32c7 1ebd 4f68 933c 4423 253c ec58 b2bd
00000110: 8465 cfbe 05f4 813e 8ce1 073c a328 ebbd
00000120: 0ceb c23c e652 41be 1922 27bc 5870 cc3d
00000130: 0a1c 88bd f180 6bbd 7c7f ba3d abc1 f63d
00000140: c5e6 1d3e 030c 82bc 2876 083e 85b4 f0bc
00000150: 41dc e23c c154 e83b 0760 943d 2f1e 8e3d
00000160: 5ce3 0a3d 7536 863d 2dab 823d c0ae dbba
00000170: 1cd8 553a 93fc 6dbd 9c39 0f3e c1ea 5bbd
00000180: 0c31 213c 29d5 a1bc 11de d03d 1ed6 153d
00000190: 2e9b c2bc 5e9a b73c 6485 1d3d 996f 833e
000001a0: 3ec5 a4bb e13d 47bd 2851 0a3d 04ba 36bd
000001b0: 25e5 553c 6040 4cbd 6251 9ebe e1ab 21be
000001c0: f919 28bd 1cd3 f73c 0326 69bd 998b 87bd
000001d0: 5205 dfbc abf3 4f3e 0384 10bd e480 7dbd
000001e0: 12ac 9bbd a239 ce3d 3356 d3bd 5bb3 793b
000001f0: a46f b1bd 189c fcbd 9432 abbd 5a0a d9bb
00000200: f6f2 e4bc 65e2 37be 6aa3 8b3e ef0c 653e
00000210: c818 0139 658a c03d 367d bfbc 2dd8 543d
00000220: a877 3abe f0d5 103e 5a54 4cbe 1803 3dbe
00000230: 1929 51bc 8907 07bd dd40 d73d a6cf efbd
00000240: e080 d83d 5b4e 30bd 27ea e9bd 72e7 2cbe
00000250: e75a 9abd fbaf a73e 50f6 bcbd 1671 22bd
00000260: d248 8cbc 9581 a4bc 3480 8cbd de23 fb3d
00000270: 8385 073d 048f 313e 44b3 c6bd 4c79 33bd
00000280: 8be2 d1bd f0a0 073c 4da3 9c3c 4cad 8fba
00000290: a725 bc3d 8dea 9cbd d0ed 363d 45b7 743d
000002a0: ad91 63be 6bf9 82be ebc4 c73d 337c c7bd
000002b0: 2cd3 6a3e a283 f8bd edfc 17bd d05b 023e
000002c0: ca0d 08bd 97fc d73b cb3d 9fbc b7f5 64bc
000002d0: 2317 1a3e 7cb5 49bd 6e48 363e 3fd9 d13d
000002e0: 00a7 c7bd e251 22be 2926 b83d de9a 243e
000002f0: ee8b 773d f28d a1be fa80 0dba 36f0 f6bc
00000300: 18f2 543e 025d a63d 35ea a1bd f231 363d
00000310: c007 85bd 52a0 133e 435f 1d3e 723b 44bc
00000320: 6aec 81be d047 8bbe 87a9 ae3d 04e4 b03c
00000330: 7663 5dbd 1ddd d83c 50aa 0fbe 0fdb d23d
00000340: 436b 13be 0619 c33c 0759 0ebd eb27 953d
00000350: e20a 583d 8971 e5bd 1b4f e5bd 5229 823d
00000360: 51e6 6bbd 78a5 7fbe 1fd8 0abd 9403 fb3d
00000370: 1eca 443e 45d0 043e 1476 583d 31b0 de3d
00000380: 938e 7a3c 1dcc 10be cf3d 183e 4e6b 3cbd
00000390: 5b03 263e 3650 27bb 1a68 b63d 2696 97bd
000003a0: b89e 30bd e677 0dbd 22bd c2bd 4b4d ca3d
000003b0: c424 5dbe 9f27 36bc 34db a4bd 03fe b6bc
000003c0: 6b47 903d f63b 3ebd e75b 82bd c9ec 323e
000003d0: 8b8b f13b a8b4 b63d a5d9 f8bd 73f1 01bf
000003e0: 8622 9b3d 09b0 37be a16b aebd 6680 bebd
000003f0: 1e14 a13d 2a03 d3bd 6b83 7d3d 8a6c 893d
0.11641589 0.040162828 -0.117039986 -0.38501477 0.13935466 -0.041945048 -0.13575485 0.10276926
0.0032612567 -0.14501394 0.038802627 -0.10447636 -0.077371374 0.009050682 0.0025009564 -0.11225723
0.03469209 -0.09700351 0.12062833 0.019054316 0.053516045 -0.13123405 0.06534989 -0.023817834
0.113668464 -0.006888882 -0.08832195 -0.12926617 -0.035095863 -2.206738e-05 -0.006167695 0.050427582
0.065726556 0.007505581 -0.0025608835 -0.3688374 -0.041516826 -0.095399134 0.1107953 -0.05138959
-0.11533491 -0.04186995 -0.032649435 -0.06343493 0.011396311 -0.009839733 0.027027825 -0.0704079
-0.0032822066 0.05894013 0.15690045 0.070417166 0.060614213 -0.04454575 -0.014128395 0.039928377
0.067308955 0.06275391 -0.045532543 0.07724951 0.047002237 0.040246654 -0.050186906 0.043109268
-0.038764186 0.017994074 0.010079209 -0.08708367 -0.40507138 0.25381485 0.008293521 -0.1148236
0.02379372 -0.1887928 -0.010201001 0.09982365 -0.06645973 -0.057496015 0.09106347 0.12048658
0.15420063 -0.015874868 0.13326323 -0.029382953 0.027692916 0.0070901816 0.07244878 0.06939351
0.033908233 0.065533556 0.063803054 -0.0016760454 0.0008157508 -0.0581022 0.1398682 -0.053690676
0.009838354 -0.019754963 0.10198606 0.03658115 -0.023755636 0.022412475 0.03845729 0.2567108
-0.005028396 -0.048642997 0.033768803 -0.044610992 0.013055121 -0.04986608 -0.30921465 -0.15788223
-0.041040394 0.030252032 -0.056921016 -0.06618423 -0.027224217 0.20307796 -0.035282146 -0.061890498
-0.07601179 0.10069586 -0.103191756 0.003810129 -0.08663872 -0.1233446 -0.083592564 -0.0066235485
-0.027947884 -0.17957456 0.27273113 0.22368215 0.0001231163 0.09401397 -0.023375135 0.051963974
-0.18209708 0.1414411 -0.19954053 -0.18458211 -0.012766146 -0.03296617 0.105104186 -0.11709528
0.10571456 -0.043043476 -0.11421614 -0.16885164 -0.075368695 0.3275145 -0.09226668 -0.03965863
-0.017124567 -0.02008132 -0.0686039 0.122627005 0.03308631 0.17339712 -0.09702161 -0.04381685
-0.10248288 0.008278117 0.019120837 -0.0010961681 0.09186869 -0.076619245 0.04466039 0.059745092
-0.2222354 -0.25580916 0.09754356 -0.09740486 0.22932118 -0.12134482 -0.037106443 0.12730336
-0.033216275 0.0065913904 -0.019438645 -0.013974599 0.15047888 -0.049245343 0.17801067 0.102465145
-0.097486496 -0.15851548 0.089916535 0.16074702 0.06043618 -0.31553608 -0.0005397942 -0.030143838
0.20795476 0.081232086 -0.079059996 0.044481225 -0.06495619 0.14416626 0.1536837 -0.0119770635
-0.25375682 -0.27203226 0.085284285 0.021593101 -0.05404993 0.026472623 -0.14029813 0.10295688
-0.14396386 0.023815643 -0.03475287 0.072830044 0.052744754 -0.11203296 -0.11196729 0.063555375
-0.057592694 -0.24965465 -0.033897515 0.12256542 0.19217727 0.12970074 0.052846983 0.108734496
0.015292781 -0.14140363 0.14867328 -0.04600077 0.16212218 -0.0025529987 0.089065745 -0.074016854
-0.043120116 -0.034538172 -0.095087305 0.09878024 -0.21596056 -0.011117845 -0.08049622 -0.02233792
0.07044872 -0.046443902 -0.06365185 0.17473139 0.007371371 0.08921176 -0.121508874 -0.5075905
0.07574944 -0.17938246 -0.08516622 -0.09301834 0.07865165 -0.10303338 0.061892908 0.06710155

layers.1.bias f4 [128]
00000000: 937d 3a3e f1e1 f6bc b41f 29be da8e ed3d
00000010: 1d51 823c f56a 94bd 90a5 aa3e 0c65 b0bd
00000020: 0404 f23d adfa 043e f198 723d 61d8 c43b
00000030: 31fc a63d abc6 8ebd 1f20 e2bc 99bc 6c3e
00000040: b8b2 833d eea1 353e 238a 733e 5412 49bd
00000050: eb56 14be e13c 02be 96da ad3d b37e e73d
00000060: cda1 3d3d 1e97 c3bd 2e4d e43c bed3 153e
00000070: 76db 923e 8a01 0c3e 6f20 c7bb 0015 333d
00000080: 1534 913d 18a9 e9bc 9520 9b3c e503 073e
00000090: 54d8 ed3c 2447 02be c23a d9bd 79f5 db3d
000000a0: 2d75 b4bd 74bd fb3b 0050 103c 7833 8a3e
000000b0: 2445 40be 4f75 ba3c c74e 2bbe 42e5 12be
000000c0: 4756 79bd 772a 043e 46af 813b 2775 423e
000000d0: 5aee 8a3c f0d6 21be 66f9 8bbc d3eb 4abd
000000e0: 5549 2c3d d96f f4bd 01b6 00bd a3fb efbd
000000f0: 1776 dc3d f8ea 85bc 70a6 213e 306a 5abd
00000100: a4e1 55bc 490b 203d 8a0e 7e3d 0955 513d
00000110: 758c 2bbd d07c 083b fdb1 cfbc e6fc 5a3e
00000120: afaa 0d3e b2ad 413c f585 b3bd 7611 86bd
00000130: f939 ccbd f5e5 2cbd 9830 ad3d 55ea 393d
00000140: ee75 993d 4fbd 8fbc 2a89 8cbc 5cbf 4abc
00000150: c3c8 133e de84 4ebd 4c79 99bd 611b 3a3e
00000160: a896 9abd b473 c53d 45bf 0bbd aab2 22be
00000170: d2c7 4e3e 7455 903c 2825 783d 12f3 093d
00000180: bb36 89ba a484 82bc 0b93 0b3e 3d14 e6bd
00000190: 47c8 283d c88e d2bc 05ba 3c3d 4434 1a3d
000001a0: 584c 873e aecd f23c ccf8 513d 568f 2ebd
000001b0: b1e8 f43b 85b5 2f3e 16f7 e43d a98b 3f3e
000001c0: 743a 94bc 01ab 5c3d 621f eb3c ba49 7d3e
000001d0: e165 223e 934e d23d 40da 4dbd e5f2 9abd
000001e0: bfde 413b 928e 60bd ab55 fb3d 5ba4 16be
000001f0: b3c1 95bd dba2 943e 26a1 9bbd cc57 5a3e
0.18211965 -0.030137034 -0.16516 0.115995124 0.015907818 -0.07246963 0.3332944 -0.08613023
0.11817172 0.1298625 0.059227888 0.0060072397 0.081535704 -0.06971487 -0.027603207 0.2311882
0.06430572 0.17737553 0.23783164 -0.049089745 -0.14486282 -0.12718536 0.084889576 0.11303463
0.046296883 -0.09550308 0.027868833 0.14631554 0.2868306 0.13672462 -0.0060768644 0.0437212
0.07090012 -0.028523013 0.018936435 0.1318508 0.029033817 -0.1272245 -0.1060691 0.107401796
-0.08811412 0.0076824967 0.008808136 0.26992393 -0.18776375 0.022761015 -0.1672927 -0.14345267
-0.060873296 0.12906824 0.003957662 0.18990003 0.016959358 -0.15804648 -0.017086696 -0.049541306
0.042062122 -0.11935396 -0.031423572 -0.11717918 0.10764711 -0.016347393 0.15786147 -0.053323925
-0.013054285 0.039073262 0.062025584 0.051106486 -0.041881997 0.0020826347 -0.025353426 0.21385536
0.13834642 0.011821197 -0.08765785 -0.06546299 -0.09971995 -0.04221149 0.08456534 0.045389492
0.074931964 -0.017546324 -0.017155249 -0.012374725 0.14432053 -0.05041968 -0.07493839 0.18174507
-0.07548267 0.09641209 -0.034117956 -0.15888467 0.20193413 0.017618872 0.06058231 0.033679076
-0.0010468581 -0.015932389 0.13630311 -0.11234329 0.041206624 -0.025702849 0.04607584 0.0376475
0.26425433 0.029639091 0.05126266 -0.042617165 0.007474028 0.17159088 0.111799404 0.1870562
-0.018094279 0.05387402 0.028701488 0.24735156 0.15859176 0.10268893 -0.050256968 -0.0756586
0.002958223 -0.054823466 0.12272199 -0.14711134 -0.07312336 0.290305 -0.07599096 0.21322554

layers.2.weight f4 [128, 128]
00000000: 96cc 923d 7922 d3bd a655 753e 9482 6e3c
00000010: f209 8ebe 9b23 d73d 1167 50bc 335e 07bf
00000020: 0db3 d93c b1a6 0c3e 9a79 873d e3e4 543c
00000030: 7472 623d 9dce 1bbd d48e 493d 284c 6b3e
00000040: 7ec1 bb3d b6f0 943d 4cc4 3e3e 0096 da3c
00000050: eea1 673d 7953 c03c 19fa 013e 95c2 a23d
00000060: 4c42 61bd 669e 36bc 1669 aabe 746c bfbb
00000070: 3494 f5bb 978b b33e 69f3 2e3d 5b49 e73d
00000080: f5e2 7c3d 9ee4 5fbb 8c02 ce3c ac38 e13d
00000090: faf8 abbd 0bcc 46be b890 123e a7af 2ebd
000000a0: 0055 80bc 4650 133d c6a4 2c3d 1568 2cbd
000000b0: 22b2 14bd 9cda 513d acab edbe eaad 363d
000000c0: ba54 0c3e 31dc 643e 98d7 9cbe 5a73 b3be
000000d0: 2000 02be a2bd 543d 15f3 673e 908e b2be
000000e0: 056f c13a 79d9 323c 3e12 30bb bc93 473d
000000f0: fc13 e1be d0af 8f3e 3b73 87bd 6351 413d
00000100: dca1 c1bd ba34 a4be 0a24 ddbc bd6c 0b3d
00000110: 0e6b 07be 1c87 f33d c909 883d ca99 b0bd
00000120: e1f3 e03d 620a ea3d 9278 4ebe 954a 233b
00000130: a889 d7be 07ee c43d af2b 9e3d 7f61 c4bd
00000140: c010 3cbd 545f 073c e747 ea3d 3493 91be
00000150: c5fd a53d f8e0 d6bd 55fc f33c 4d19 a53d
00000160: 678d b43d 157d 9dbe 6694 f1be bfdb 743c
00000170: cd57 50be 8283 7ebd cd67 b43d 8d13 0c3d
00000180: 48ac b0be addd b3be aaef e33d 238a 84bd
00000190: 50a6 0e3d 770c 12be 71cf 28bd cfa9 13bf
000001a0: f5cd 8cbb 6d08 9d3d aaae b93e c11c ee3c
000001b0: 9ec6 aabd b7a4 2bbd f01b 413e e235 e83a
000001c0: 7803 2b3e 2f2d c0bd 3b28 e33d ce95 ad3d
000001d0: 0962 3b3c b909 783d b132 a73b ea6c 3cbd
000001e0: b821 0d3d 621e 7a3d 76ce 38bd d733 9bbd
000001f0: 20d9 b43c 4142 523d ff9e bfbe 4928 bb3d
00000200: b109 bcbd 7c8f b2bd bf00 0e3e 8c71 cc3c
00000210: b432 c1be 0400 e0bc 8792 c93c 4f4d fbbe
00000220: 5bd0 923d 674a cb3d fd92 b73d 3075 c9bd
00000230: cc84 183d c55a 59bd 7086 823c c834 463e
00000240: 0024 db3c 087f 643e f782 dc3d e6af 843c
00000250: 2fe6 4c3c 1de2 74bb f5d5 053e d565 a43c
00000260: 7f89 3ebd eb44 b8bd ba36 bdbe f41e 2abc
00000270: d691 08bd 3216 bd3e 8861 ad3d 74d7 0ebc
00000280: f980 9a3d 87bb 613d 29de 03be 01bb ad3e
00000290: d191 223d f64e 99be 50b3 783d 1ff1 93bc
000002a0: bd1c 42bd 8020 923c 63fa c53c 88ff 0c3d
000002b0: 1672 96bd dbc9 703d 6108 dcbe 8d70 35bd
000002c0: ee42 3f3e f9f3 de3d 187c cebe a58f aebe
000002d0: 7168 22bd 7f0a c43b 4b3a 903e 1040 e9be
000002e0: 6b7e 123d e0fb 61bd 9b96 983c f22f 7f3d
000002f0: bd0c 85be a0bf 523e cd5f dabd eb8e d23d
00000300: cc3c afbd 266c 94be aebe a63d 8a8b d23d
00000310: e04f 80be ecbb 053d 671d f93d 6159 b8bd
00000320: 6625 0d3e badc c9bd 3142 15be 1bda 5f3d
00000330: c565 06bf 5157 f53d de0a 21bc c837 673c
00000340: b528 bf3c 574d a53d 38c3 163d 1d97 91be
00000350: c05a 9e3c d470 2fbe 3b38 ac3d f4c1 5a3e
00000360: e6e5 1d3d 45fc b5be a8ae e1be a8a5 7b3d
00000370: 0b15 9cbe a7ed 503d 3900 f1bb bdce ad3c
00000380: 17e9 adbe e6b3 45be 764d fc3d b53e 803d
00000390: 96a2 0ebd 885c 20be 91a2 7a3d 536c 06bf
000003a0: 85b8 16bd 9a72 113e b5d6 b43e 5cfa e33c
000003b0: 8918 3b3c 21af 95bc be09 063e 11e0 9d3d
000003c0: 007a 3d3c 641a 9bbd 9c3a 4c3e cb33 763d
000003d0: 4eb6 ac3d 7c11 2bbc 0676 cabd ff39 7dbd
000003e0: 2de2 29bc 68ba 3bbc 85ed cf3d f070 2cbc
000003f0: 1050 4f3d 535a 8abd a7c5 cebe 2582 813d
0.07167928 -0.103093095 0.23958454 0.014557499 -0.27741963 0.10504838 -0.012719885 -0.5287811
0.026574636 0.13735463 0.066149905 0.012994024 0.055284932 -0.03803884 0.049208477 0.2297827
0.09167765 0.072724745 0.18629569 0.026682854 0.056550913 0.023477303 0.12693061 0.0794727
-0.054994866 -0.011146164 -0.332833 -0.005841786 -0.007494474 0.35067436 0.042712603 0.11293288
0.06173988 -0.0034163366 0.025147699 0.109971374 -0.08397098 -0.19413774 0.14313018 -0.042647984
-0.015665531 0.035965227 0.042149328 -0.042091448 -0.036302693 0.051233873 -0.46420038 0.04459945
0.13704196 0.22349621 -0.30633235 -0.35048944 -0.1269536 0.05193866 0.22651322 -0.34874392
0.0014757818 0.010916107 -0.0026866342 0.048724875 -0.4396056 0.28063822 -0.06613775 0.047196757
-0.094547 -0.32071477 -0.026994724 0.034039248 -0.13224432 0.118910044 0.06642491 -0.08623083
0.10984016 0.114277616 -0.20163181 0.002491628 -0.4209721 0.096157126 0.07723176 -0.095889084
-0.04591441 0.008262474 0.114394955 -0.2843262 0.08105043 -0.10492128 0.029783407 0.08061466
0.08816033 -0.30759493 -0.47183532 0.01494497 -0.20345993 -0.062137134 0.08808861 0.034198333
-0.3450644 -0.35130063 0.11129697 -0.0647166 0.034826577 -0.14262567 -0.041213457 -0.5768098
-0.004297013 0.07667623 0.3626607 0.029066445 -0.083386645 -0.04190513 0.18858314 0.0017716254
0.16700542 -0.09383618 0.11091658 0.084758386 0.011436948 0.060556147 0.0051024784 -0.046002306
0.034455985 0.06106413 -0.04511877 -0.07578247 0.02207619 0.051332716 -0.37425992 0.09138543
-0.09181536 -0.08718774 0.13867472 0.024956487 -0.37733996 -0.027343757 0.024606002 -0.4908242
0.07168647 0.099263005 0.08963583 -0.09836805 0.03723602 -0.05306508 0.015933245 0.19356072
0.026750565 0.22314084 0.10767167 0.016197156 0.012506052 -0.003736622 0.130699 0.020068089
-0.046517845 -0.0899752 -0.36955816 -0.010383356 -0.033342205 0.36930996 0.08465868 -0.00871836
0.07544131 0.05511048 -0.12877716 0.33931735 0.039689843 -0.29943055 0.06071788 -0.018059311
-0.04739069 0.017837763 0.024167245 0.03442338 -0.07345979 0.058786254 -0.42975143 -0.04429679
0.18677875 0.10886378 -0.4032905 -0.34093967 -0.039650384 0.0059826965 0.28169474 -0.45556688
0.035765093 -0.055171847 0.018626502 0.062301584 -0.2598628 0.20580912 -0.10662804 0.10281166
-0.08556518 -0.2898876 0.08141838 0.10280521 -0.2506094 0.03264992 0.12163811 -0.09001423
0.13783798 -0.098565534 -0.14576031 0.05465136 -0.5249904 0.11979545 -0.009829251 0.01411242
0.02333484 0.08071392 0.03680727 -0.28435603 0.019330382 -0.17132884 0.084091626 0.2136305
0.038549326 -0.3554403 -0.44078565 0.06143728 -0.30484805 0.051007893 -0.007354763 0.021216745
-0.33966896 -0.19306907 0.12319462 0.062619604 -0.034823023 -0.15660298 0.06119019 -0.5250904
-0.036797065 0.14203873 0.35320058 0.027829342 0.011419424 -0.018271985 0.13089654 0.07708753
0.011564732 -0.07573393 0.19944233 0.060107987 0.08433209 -0.01044118 -0.098857924 -0.061822888
-0.010368866 -0.011458017 0.10152725 -0.010524973 0.050613463 -0.06755509 -0.40385172 0.06323651

layers.2.bias f4 [128]
00000000: ce6d 08bc 8da3 153d 32de 193d c7d2 57be
00000010: ae2f 8cbb 5811 9e3e 1cee d4bd 1646 b9bb
00000020: 1ec7 133c d045 d03d a7d7 b23b 60f3 0ebd
00000030: b2d5 a53d 5ce0 b43e 950d 41bd d90c 27be
00000040: cc89 c9bd b6a6 68bd 39ce b53a 96b4 283b
00000050: 5860 9abd 8e8d 8c3d 60cc 9c3e e95a 9dbd
00000060: 5099 19bd 5a0b c13d 736e 4d3c 410b 24bd
00000070: e908 b73c d282 5ebd 3237 9d3d 94e5 9f3e
00000080: e36b bbbc 2190 273c bf94 14bd 6edc c1bd
00000090: 80c3 aabd af19 813c c0ec 1abc 4420 e83c
000000a0: 9f3e 093d d995 f2bc 2bc7 873c a805 243d
000000b0: be04 ae3d 74a6 c7bd fedc 74bd 5c9a ad3d
000000c0: dfcb a4bd 13e0 8b3e bb4d b43d 698f 8f3e
000000d0: 095e 653d 7e9f bd3e 3fde 5d3e a345 6d3d
000000e0: b295 58bd fe62 37bd 3756 79bd 3bf3 963d
000000f0: 6d21 aebd 39d7 48bd 6d77 da3d 09be 02be
00000100: 48c2 bfbc 5978 d73e a8a4 37be 8549 dc3d
00000110: dcf4 183e b48d 1d3d 5e0b 0a3e 7121 9ebd
00000120: abc2 1b3d 1ed9 a23e 0095 23be 1ade 483e
00000130: da8e 83bc b666 c03e aced 813e a2c8 903d
00000140: ae06 423d 3182 993d 86de c33d 5ea2 a83d
00000150: ad6c c03d abf7 85bd 06db 4e3e 22f8 a53e
00000160: 0576 38be 1c75 9e3e 2f26 38bd 0283 a73e
00000170: 2e32 74bc f064 09bc abf0 d23d 671b 4c3e
00000180: 3596 2f3e 3ab5 e6bc 0722 96bb 6cf1 17be
00000190: 52a3 4bbd 8bf8 56bc ea7b f9bb 9817 83bc
000001a0: bb2a fa3c 7d8b 8c3d 6c6b d5bd f9fd 51bd
000001b0: 30f6 4a3e 8750 753d 4473 7c3d 577f 163a
000001c0: b086 a1bd a07d 493d c664 53bd 6ce2 89bd
000001d0: 315a 29bd 0c1b 39be 2fab 743d 5494 b53e
000001e0: 7dd6 78bd 4e0e bb3e dcf6 5fbd 38c8 b23c
000001f0: 73b6 753d 03b0 e5bd 408b a5bd 9fb0 aabc
-0.008326961 0.036532927 0.037565418 -0.21076499 -0.004278145 0.30872607 -0.10396978 -0.005654107
0.009019641 0.10169566 0.0054578367 -0.03490007 0.080974 0.35327423 -0.047132093 -0.16313495
-0.09840736 -0.056799613 0.0013870663 0.0025742403 -0.07537907 0.06862937 0.30624676 -0.07683355
-0.037499726 0.09425993 0.01253854 -0.040049795 0.022343116 -0.05432398 0.07676543 0.31229842
-0.022878593 0.010227234 -0.036274668 -0.09465872 -0.0833807 0.015759317 -0.00945586 0.028335698
0.033506986 -0.029612469 0.016574463 0.040044457 0.08496998 -0.09748545 -0.059781067 0.08476707
-0.08046698 0.27319393 0.088038884 0.280391 0.055997882 0.37035745 0.21666811 0.05792774
-0.052877136 -0.04477214 -0.060873237 0.07370611 -0.08502469 -0.049033377 0.1066731 -0.12767805
-0.02340807 0.42084005 -0.17933905 0.1075621 0.14937156 0.038465217 0.13480899 -0.07721222
0.038027447 0.31806272 -0.15974808 0.19615975 -0.016059328 0.37578362 0.25376642 0.07069518
0.04736965 0.07495535 0.09563927 0.08234094 0.09395728 -0.065413795 0.20200738 0.32415873
-0.18013771 0.30948722 -0.04495829 0.3271714 -0.014904542 -0.008385882 0.1029981 0.19932328
0.17147143 -0.028162587 -0.004581693 -0.14838189 -0.0497163 -0.013120781 -0.0076136487 -0.016002461
0.030537954 0.06862543 -0.1042088 -0.051267598 0.19820476 0.05989125 0.061633363 0.0005741021
-0.07887018 0.04919207 -0.051609777 -0.0673264 -0.04134578 -0.18076724 0.059733566 0.35464728
-0.060751427 0.3653435 -0.054678783 0.021823987 0.05998845 -0.11215212 -0.080832005 -0.020836173

layers.3.weight f4 [1, 128]
00000000: 77c2 7c3e f987 6c3e c54e ab3e ba0b c3be
00000010: 952a 043e b5a2 a7be 084c e63b c490 95bc
00000020: 0d22 463e d420 1a3e eb65 553e dd2e 393e
00000030: 192e 313e bcd3 03bf ed88 74bb 41d3 c0be
00000040: 7af5 863a 32b0 173e 0a2c 1f3e 5bce ba3d
00000050: 7014 aa3b b42b 1f3e 75f3 a1be 2638 3a3d
00000060: 254a 563e ae2c e23d 7266 afbe 70b6 b6be
00000070: 4f83 033e 4b79 20be 3534 5d3e cbf6 acbe
00000080: 7292 0d3b d66e 713e bce1 983e ab55 893b
00000090: 6761 16be f35c 113e 05c4 0b3e ca82 d2bc
000000a0: 198b 5e3e d43a 173e 4d0d 84bd fffe 443e
000000b0: cc47 e23d 9c8a ecbc e2af 52bc 6f65 193e
000000c0: 48f9 c73b a978 ccbe fa2a b1be 0f8c 87be
000000d0: 2d2c f03d 7bd3 cebe fafa 62be cd92 383e
000000e0: f905 61bd f47e 5c3b 5dd6 84bd 5a68 3cbe
000000f0: 26b1 19bd 9f00 733b 60d7 8b3e fb69 afbe
00000100: 5633 1a3e d619 c5be 3fec 903e f5ac a9bd
00000110: 9587 2fbe e7b1 2f3e 5b9b 893e b509 0abc
00000120: c3d3 1f3e 7bd6 36bf d456 01bf 0431 5bbd
00000130: ddcf 0e3e 650e ebbe 4507 19bf 196b 5c3e
00000140: 6469 463e 9121 d63d 8efc 693e 0344 0c3e
00000150: f942 4fbd 8d5a 3ebd 0239 adbe 4b1d 1fbf
00000160: 9d1b 023f 5597 b4be eeb8 0fbc 0b60 dcbe
00000170: d9f7 3abe 962e 613e ad18 483e bc6f 91be
00000180: 0287 5abd c888 4c3e d9e5 163e 8d50 8ebe
00000190: e506 17be 6d4b 743d f321 163e 0bce 453e
000001a0: bab6 423e 86c3 f23d 665a bb3c 0d71 1f3e
000001b0: 113d e6bd 009e d13d 1b10 693e d858 fd3d
000001c0: d17e de3e 53e1 203e 1587 503e 843b 40be
000001d0: 0402 f83d 49a1 d2be cd18 de3d 791b d6be
000001e0: 5df3 83bd 59ed e0be 0991 13bc 7edd e73d
000001f0: 4006 cb3d 3d89 b2be b9e9 5abd 001e 3cbb
0.24683557 0.23098744 0.33458534 -0.38094884 0.12906869 -0.32741323 0.0070281066 -0.018257506
0.19348927 0.15051585 0.2083966 0.18084283 0.17302741 -0.51494956 -0.003731306 -0.37661174
0.0010296546 0.14813307 0.15544143 0.091213904 0.0051904246 0.15544015 -0.31631055 0.045463704
0.20926721 0.11043678 -0.34257847 -0.35686064 0.12843059 -0.1567127 0.21601947 -0.33782038
0.002160218 0.23577437 0.29859722 0.0041911206 -0.14685594 0.14195614 0.13648994 -0.02569713
0.21732749 0.14768535 -0.064478494 0.19237898 0.110488504 -0.028874688 -0.012859317 0.149801
0.0061027147 -0.39935806 -0.346031 -0.26474044 0.11727176 -0.40395722 -0.22166052 0.1802475
-0.054937337 0.0033645006 -0.06486199 -0.18399182 -0.037522458 0.0037079228 0.27312756 -0.34260544
0.15058646 -0.38496274 0.2830524 -0.08284942 -0.17141564 0.17157708 0.2687634 -0.008425166
0.15608124 -0.7142102 -0.50523114 -0.05351354 0.13946481 -0.4590942 -0.5977672 0.2152523
0.19376141 0.10455621 0.22850248 0.1369782 -0.05060098 -0.046473075 -0.33832556 -0.6215407
0.50823385 -0.35271707 -0.008772118 -0.43042025 -0.18258609 0.21990427 0.19540663 -0.2840556
-0.05335141 0.19974053 0.14736117 -0.2779583 -0.14748724 0.059642244 0.14661388 0.1931688
0.19015017 0.118536994 0.022870254 0.15570469 -0.11242116 0.10235214 0.2276005 0.12370461
0.43456128 0.15710954 0.2036403 -0.18772703 0.121097594 -0.41138676 0.10844574 -0.41817835
-0.06442902 -0.43931082 -0.009006747 0.11321543 0.099133015 -0.3487033 -0.05344555 -0.0028704405
