new_models/base+wp_16849288/qf1_final.pth (torch, 186584 bytes, 7 tensors)

layers.0.weight f4 [128, 98]
000000 33 d7 98 bb a4 1f 93 3c 8b 81 f5 bb 39 9e 8b 3d
       -0.0046643256 0.017959423 -0.0074922494 0.06817288
000010 49 b6 e5 3c de 4a a2 3d 08 27 43 be 1c 5b d6 bd
       0.028041022 0.07924436 -0.19057858 -0.104665965
000020 12 e1 0b 3e c6 fe 48 3e d6 80 15 be ed bc ea bd
       0.13660076 0.19628438 -0.14599928 -0.11461816
000030 42 c5 a0 bc 56 07 9a bd 7b 98 74 bc 25 c6 8c bd
       -0.01962531 -0.075209305 -0.014928932 -0.068737306
000040 a3 7b 86 bb 33 bc 76 bc e4 c4 9b 3c 3d 36 1f bd
       -0.004104094 -0.015059519 0.019014783 -0.038870085
000050 d7 b7 7b bd 79 8b 9d 3c 4d 0d 44 bd b6 ff ba bd
       -0.06145462 0.019231545 -0.047864247 -0.09130804
000060 8b 0e cf bd 9b 09 ae bc 74 fc b2 bc ae 72 8b 3d
       -0.10110196 -0.021244815 -0.021848895 0.06808983
000070 8f f0 c7 3b 45 a2 e8 bd 74 a1 04 3d 79 49 17 be
       0.006101675 -0.113590755 0.032380536 -0.14774121
000080 46 1a c1 bd e1 da ed bc 1d 3a d3 bd b0 e6 f0 bc
       -0.094288394 -0.029035034 -0.103138186 -0.029406875
000090 8f 3a b3 3d f9 0c 39 bd 17 f0 7b 3c aa e1 83 bd
       0.087514035 -0.045178387 0.015377066 -0.064395264
0000a0 4c ba 50 bc 5b 92 2c bd 09 7c 39 3c 2e b7 f7 bc
       -0.012739729 -0.042131763 0.011321076 -0.030238714
0000b0 92 d7 1a 3c cb f4 2e 3d f7 dd 6e be 5d 8d 1b be
       0.00945081 0.04271392 -0.2332686 -0.15190645
0000c0 0b d8 f3 bd 6e 57 44 be 9e 17 49 be 2c 37 bc 3c
       -0.11906441 -0.19173977 -0.19637915 0.022975527
0000d0 77 35 09 3e 97 c1 94 3c 92 8a 7d bd b0 06 c5 bd
       0.13399301 0.018158717 -0.06189973 -0.09620416
0000e0 0f 1e 9b 3b 7a ec be bc 86 80 d3 bd 68 be 01 bb
       0.004733808 -0.02330612 -0.10327248 -0.001979733
0000f0 86 e8 16 bd 78 aa 11 3d 97 9c a2 3c 02 4d b6 3b
       -0.036842845 0.035562962 0.019850058 0.0055633793
000100 28 c4 71 be 5d 78 4e bd 4b 12 b1 bd fa 36 c2 bd
       -0.23609984 -0.050407756 -0.08646067 -0.09483142
000110 50 5a 11 be b1 2a aa 3a a8 77 80 3c 46 9d e2 be
       -0.14194608 0.0012982694 0.015682057 -0.44260615
000120 79 19 e5 3d f0 93 9b be cc 30 73 3e cc 42 60 bd
       0.11186499 -0.30386305 0.23749083 -0.054751202
000130 5c 24 f3 bc a7 0a c6 3d 00 ae d7 be 39 2d 3c bd
       -0.029680423 0.096700005 -0.4212494 -0.045941565
000140 50 03 56 be 75 33 98 3d b5 4a 14 3d 95 f6 58 3e
       -0.20899701 0.0743169 0.03620406 0.21187814
000150 f9 21 05 3e ba bb aa be 03 85 91 bb 4f db 07 be
       0.13001241 -0.3334635 -0.004440905 -0.13267253
000160 16 c7 c2 bd 6c 1e 27 3d 4d 36 12 3e 8a dd 07 3e
       -0.09510629 0.040800497 0.14278527 0.13268104
000170 34 d6 5a be 2f bc 17 be 53 16 73 be 9a 80 9e be
       -0.21370775 -0.1481788 -0.23738985 -0.3095749
000180 c2 4e 22 3e e6 9b 03 bd b2 e0 f1 bc 40 8f d3 3c
       0.15850356 -0.0321311 -0.029526088 0.025825143
000190 82 42 48 3d a1 49 b9 bc 9f bd 21 3d da 0a 90 bd
       0.04889155 -0.022618117 0.039487477 -0.0703332
0001a0 5c e1 f8 bc 73 89 5b bc 3e 03 b2 bd 44 6d e8 bd
       -0.030380897 -0.01339947 -0.08692025 -0.11348966
0001b0 0b e7 8d 3d 9c 4a cb 39 fc 38 d6 bc 67 ba 10 3b
       0.069288336 0.00038774766 -0.02615022 0.002208376
0001c0 d2 5e f0 3b 45 5b f2 3c 96 75 10 bb f6 0d 6b bc
       0.007335522 0.029584536 -0.0022042743 -0.01434659
0001d0 fc a9 a3 3b e9 9e d6 3d 41 6d 0a 3e 8b d9 81 bd
       0.004994629 0.104795285 0.1351824 -0.06340321
0001e0 ab 30 06 3c 46 79 e2 bd 3a d6 25 bc 1e 20 d6 bd
       0.008190314 -0.11058287 -0.010121876 -0.104553446
0001f0 21 a4 18 3c fa cf 80 bd 02 51 94 bd 58 c2 95 3c
       0.009316475 -0.062896684 -0.072420135 0.018281147
000200 e1 d9 7e 3d b7 6f bd bc 8c 4e f3 3c 40 33 c0 3c
       0.062219504 -0.023124559 0.02970054 0.023461938
000210 e9 ed f5 bc 6f b4 2b 3d b2 31 40 bd ad 0b c6 3d
       -0.030020671 0.04192012 -0.046922393 0.09670196
000220 0b a1 d5 3d 89 db 62 3c 1e ba c9 3c 02 c7 1b bd
       0.10431107 0.013846287 0.02462488 -0.038031586
000230 3f 72 a2 3d d4 75 8c 3d 4e bc 21 bc 2b 80 a8 3d
       0.07931947 0.068584114 -0.0098715555 0.08227571
000240 b9 c4 86 3d c1 32 ea bd 14 94 6c bd e4 5d 12 bb
       0.065804906 -0.11435462 -0.057758406 -0.0022333795
000250 e4 1e 3b bd 36 ac 9b 3c 7b a3 84 3d 72 3c e6 3d
       -0.045683756 0.019003015 0.06476494 0.11241998
000260 2d 2b a2 ba 57 9c 2d 3d de 74 2d 3d 0d 80 90 3e
       -0.0012372487 0.042385425 0.04234778 0.28222695
000270 cc 09 88 3e b1 92 0c 3e f2 1a 43 3e 99 b6 14 3d
       0.26569974 0.13727833 0.19053248 0.03630695
000280 38 32 79 3d 0c 16 04 be 44 0b 91 bd 7f 24 7b bd
       0.060838908 -0.12899035 -0.07082227 -0.061314102
000290 c8 9e 8c 3c 1c 06 ed bc b6 46 3b bd 26 8b 7c bc
       0.017165557 -0.028933577 -0.045721732 -0.015414035
0002a0 40 ed 0f 3e 59 9c a9 3d 92 e4 d0 3c 7d 16 c5 bd
       0.14055347 0.08281774 0.025499616 -0.0962343
0002b0 98 4c 75 3d df e7 99 3c 46 97 f3 3d 38 6b d7 bd
       0.0598875 0.018787323 0.118940875 -0.10518497
0002c0 be a0 02 3d f0 a7 94 bc e4 6f de 3d 65 04 93 bd
       0.031891577 -0.018146485 0.10861185 -0.071785726
0002d0 bf 35 a3 bd 35 d1 f4 bd 19 06 1d bd 1e d8 a9 bc
       -0.07969236 -0.119539656 -0.038335893 -0.020732936
0002e0 95 9b ae 3d 20 86 b4 3d 61 b5 5f bd b9 fc 36 3c
       0.08525769 0.08814645 -0.054616336 0.011168652
0002f0 29 8f e2 3c 57 e1 41 3e 25 3a aa bd 27 c0 47 3f
       0.027656155 0.18933617 -0.083118714 0.78027576
000300 d3 a3 a7 3d 45 4b 05 be f8 f9 71 bd 20 b1 9f 3e
       0.08185544 -0.13016994 -0.05907628 0.31189823
000310 51 78 a2 3d e6 8a 31 bc f6 f1 ff 3c 16 d9 8d 3d
       0.07933105 -0.010836339 0.031243306 0.069261715
000320 7e 36 c8 3c 03 67 c8 bd d8 0e 29 be 9a 4d 6c bd
       0.024440046 -0.09785273 -0.16509569 -0.057691194
000330 64 9c 9d 3d bd 37 a3 bc cd b4 09 be d0 40 d7 bc
       0.07695845 -0.019924039 -0.13447876 -0.026276022
000340 bc c3 5c bd a2 92 9c 3d 76 8c 9a 3d be 7a 67 3d
       -0.053897604 0.076451555 0.07546322 0.05651354
000350 54 88 8b bd 88 00 82 bd 52 61 ba 3c 96 52 0f bd
       -0.06813112 -0.063477576 0.022751484 -0.03499087
000360 41 84 04 bd 35 d2 9d 3d 00 2c 52 3c eb 0f 14 bd
       -0.03235269 0.077061094 0.012827873 -0.036147993
000370 c8 fb bb 3d 25 2c d3 3d b9 7f 02 3e 6e ed d0 bd
       0.09178883 0.10311154 0.12744035 -0.10201536
000380 de 90 ed bd 84 d2 07 be 8b 0e 69 bd 03 8b b6 bc
       -0.11599897 -0.13263899 -0.056898635 -0.022283083
000390 a5 a6 60 3d 2e 62 52 3d e8 0e ae 3c 5a 68 54 bd
       0.054846425 0.051363163 0.021247342 -0.05185733
0003a0 37 8b 9f bc 9c 5c de bc 02 e6 1c bd 55 ff 0e be
       -0.019475562 -0.027143769 -0.03830529 -0.13964589
0003b0 01 04 82 bd 1c 92 a1 3d c3 92 9f 3d 41 df da 3d
       -0.0634842 0.07889196 0.077916645 0.106871136
0003c0 4a a9 38 3d ca 3d 8b bd 00 be 55 be ce fd 61 be
       0.04508332 -0.06798895 -0.2087326 -0.22069475
0003d0 1d 78 08 bd 36 2e cb 3d 39 25 fd 3a c1 c3 c4 3e
       -0.033317674 0.099209234 0.0019313461 0.38430598
0003e0 b6 f0 2d 3e cf 05 b8 3d 87 f2 b3 3d 5c d0 05 bd
       0.16986355 0.08985483 0.08786493 -0.03266941
0003f0 89 f3 a9 3c d9 f5 34 be 5c 2c 8a bc a7 ee a5 3d
       0.02074601 -0.17671908 -0.016866855 0.0810216

layers.0.bias f4 [128]
000000 d9 16 96 bd 7a fd 85 be 67 db 95 bd 99 36 85 3c
       -0.073285766 -0.2616995 -0.07317238 0.016261386
000010 1d 9e ce bd b2 57 fb bb a8 29 e8 3d 75 ca ac be
       -0.100887515 -0.007670366 0.1133607 -0.33748212
000020 b4 40 86 3c c1 cc 0f 3d be 54 27 be ee 6e 17 3e
       0.016388275 0.035107378 -0.1634092 0.1478841
000030 ba 04 5f 3e a5 67 62 be 6d 03 4b 3e 82 22 35 3e
       0.21779147 -0.2210985 0.19825526 0.17688945
000040 e3 6a 8d 3d 21 6c a7 3c 16 35 6f bd 5f 5f 0b be
       0.06905153 0.020437302 -0.058400236 -0.136106
000050 90 69 39 3b 8f 1d 9d bc 38 91 9a 3e f3 4a e0 3d
       0.002829168 -0.019179134 0.30188918 0.109517954
000060 f4 cf b4 3d 7f 48 3e 3e 0e ab 2c 3e aa 24 32 3e
       0.088287264 0.18582343 0.16862127 0.17396799
000070 f4 83 42 3e cd 84 36 3e 55 ba 81 be ff 81 d3 bc
       0.18995649 0.17824097 -0.25337473 -0.025818823
000080 09 aa 8a 3d d9 83 92 3d e0 f2 04 bc 30 c4 89 bc
       0.06770713 0.07154054 -0.008114547 -0.016817182
000090 91 44 89 3e 4d f8 b3 3d 30 b2 24 3e be 7c d5 3c
       0.26810125 0.08787594 0.16083598 0.026060458
0000a0 da 4b e2 39 ce 53 38 3e 33 c5 40 bd 34 a1 d1 be
       0.00043162593 0.18000719 -0.047063064 -0.409433
0000b0 a4 c5 28 be 08 f0 81 3e 57 2d 7d bd b0 38 16 3d
       -0.16481644 0.25378442 -0.061810818 0.036675155
0000c0 99 a5 54 3e 79 c4 db bb 0e cf 35 3d 03 b4 5d 3e
       0.20766295 -0.006706771 0.044386916 0.216507
0000d0 d2 05 04 be 48 0b 09 be 58 44 08 3e 48 9b 1c 3e
       -0.12892845 -0.1338321 0.13307321 0.1529361
0000e0 3e 92 cf 3c de d3 6f 3e 64 c6 fc 3d 0e 1f 4f 3e
       0.025338288 0.23420665 0.123425275 0.2022669
0000f0 50 c9 78 3e 96 4c 38 3e c1 7f ce 3d 44 b9 a9 3e
       0.24295545 0.17997965 0.10082961 0.3314916
000100 ad a4 82 bd 32 f3 18 be a6 61 8d 3d 6f 88 2f 3e
       -0.06379066 -0.14936522 0.069033906 0.17141889
000110 02 77 bd 3c 8a 14 bd bd 9e 07 81 bc 00 25 43 bd
       0.023128036 -0.09232433 -0.015750702 -0.047642708
000120 49 df 28 3d 13 04 2b be c0 08 46 be f1 3d 8a bd
       0.041228566 -0.16700773 -0.19339275 -0.06750096
000130 58 30 d7 bd 10 18 42 be 90 01 fc 3d 0e 1e e2 3e
       -0.10507268 -0.18954492 0.123049855 0.44163555
000140 d0 f0 08 bd 52 ed c0 bd 79 17 b8 3d f5 42 a8 be
       -0.03343278 -0.09420265 0.08988852 -0.32863584
000150 69 c3 8c 3d 19 24 4d 3d 4b a0 03 be 0b a2 f8 3d
       0.06873209 0.050083254 -0.12854116 0.12140282
000160 80 0b 46 3e cd 7b d0 3d b3 a8 19 3d 77 47 ad bd
       0.19340324 0.10179863 0.0375144 -0.084608965
000170 c3 b4 29 3e ac fe 58 3d 07 b1 a6 3d 57 b5 56 3e
       0.16572861 0.05297725 0.08139234 0.20967613
000180 13 4f 41 be fc b8 ce 3c bd d2 33 3e 06 6b f9 bd
       -0.1887782 0.025234692 0.17560859 -0.12178616
000190 0c 7c da bd 00 28 83 3c 10 36 cd 3c f2 bb a5 3e
       -0.10668191 0.016010284 0.025050193 0.32369953
0001a0 f4 df 83 3d 40 57 ff bc 09 19 9d bd 73 6a 9b 3e
       0.064392 -0.031169534 -0.07670791 0.30354652
0001b0 11 d5 14 3e 54 d6 3d bb 53 f9 d5 bd 38 a5 3d 3d
       0.14534403 -0.002896686 -0.104479454 0.046300143
0001c0 70 72 ad 3d c7 b0 47 be 08 aa 02 3d 6d 07 d0 bd
       0.08469093 -0.19501029 0.031900436 -0.10157666
0001d0 2b 56 a9 3d 38 88 de bd d7 8e fe 3c ee 40 70 3c
       0.08268388 -0.108658254 0.03107397 0.014663918
0001e0 95 80 88 3e 2f ec 01 3e 45 75 1f be b8 5e 47 bd
       0.266606 0.12687753 -0.15572079 -0.048674315
0001f0 b4 b0 fd bd ab 27 c1 3c 5c 54 9f 3d 3c fa 89 3c
       -0.12387219 0.023578485 0.07779762 0.016842954

layers.1.weight f4 [128, 128]
000000 86 d7 1d 3e ff 7a b9 38 a9 b4 d4 bd c4 67 ed be
       0.15414247 8.844397e-05 -0.10386021 -0.4636823
000010 70 13 0c 3e be 96 72 bc 58 42 fe bd 1c 7a 18 3e
       0.1367929 -0.014806448 -0.12414998 0.14890331
000020 14 92 8d b9 a5 bb 16 be 6f b3 58 3c 5e 70 3f be
       -0.00027002452 -0.14720018 0.013226374 -0.18695208
000030 32 71 4a be a1 ea 85 bc e1 de da 3c 53 15 50 be
       -0.19769743 -0.016347231 0.026717605 -0.20320635
000040 38 ab 26 3d 94 53 d1 bd 3a 7e 0e 3e 88 be 81 3d
       0.04069063 -0.102210194 0.13915339 0.06335169
000050 3f 44 33 3c ba f6 eb bd f7 8b fc 3c 41 64 14 bd
       0.010941564 -0.11521669 0.03082846 -0.036228422
000060 f5 7a fe 3d 18 7c d6 ba c1 79 dc bd e7 16 29 be
       0.12425796 -0.0016363887 -0.1076541 -0.16512643
000070 29 a7 3e bd c6 a7 9d bd 3f 22 c6 3c 5b ed 1a 3d
       -0.046546135 -0.07698016 0.024186252 0.037824016
000080 f2 b8 00 3e c8 b1 b3 bd 83 5e 08 bd c1 c2 df be
       0.12570551 -0.087741435 -0.03329326 -0.43703273
000090 18 e3 26 be df 5c 9c bd 48 ad ad 3c 52 d8 91 3c
       -0.16297567 -0.07634901 0.021200791 0.017803345
0000a0 67 7e 10 be d5 d0 dd bd ed 2c 32 bd c8 33 4e bd
       -0.14110719 -0.10830847 -0.043499876 -0.05034235
0000b0 4d 94 e4 3c ff 8d 8b 3b 37 b7 36 3c 4c 07 8b bd
       0.027902747 0.0042588706 0.01115208 -0.06788501
0000c0 7b f2 69 3c 17 00 cd 3d f1 24 03 3e 6a 99 2b 3d
       0.014279003 0.10009783 0.12807061 0.041894354
0000d0 6d 16 33 3c e0 e5 78 bd d1 21 31 bd 9b 52 3e bb
       0.01093064 -0.0607661 -0.04324514 -0.0029040936
0000e0 bd 2b 07 3e a4 dc b1 3d ce 25 85 bc a9 10 b9 3d
       0.13200279 0.08684662 -0.016253378 0.09036381
0000f0 3b cf 95 3d 7f a1 fc 3d fc 14 48 3d 05 1b 9a bd
       0.07314917 0.123354904 0.048848137 -0.07524685
000100 c5 c9 b2 bd 38 9e ef bc 7e c1 6e 3d c2 70 40 be
       -0.08729891 -0.02925025 0.058289997 -0.18793014
000110 fd 21 f2 be 1b cf 82 3e 2b de df 3c 2c 6a d3 bd
       -0.47291556 0.25548634 0.027327618 -0.10322985
000120 42 e1 dc 3c 42 14 2b be fc e7 d6 bc b7 8f c2 3d
       0.02696288 -0.16706946 -0.026233666 0.09500068
000130 2e 2e 27 be 8d b7 45 bd c8 e3 ae 3d 76 35 1b 3e
       -0.1632621 -0.04827075 0.085395396 0.15157112
000140 37 4f 40 3e 9d 10 b2 bb 36 2c 28 3e 1e 94 06 bd
       0.18780218 -0.0054341094 0.16423115 -0.0328561
000150 51 07 0e bd 4b e8 ca 3c c8 56 0e 3e d1 de e4 3d
       -0.034674946 0.024768969 0.13900292 0.11175311
000160 99 c4 9f bb ea f0 82 3d 40 71 bf 3d e3 20 cf bc
       -0.004875731 0.06393607 0.093477726 -0.025284236
000170 a4 50 94 3c e2 61 03 be 6a 29 b0 3d 49 9c 40 bd
       0.018104859 -0.12830308 0.08601649 -0.047024045
000180 1e 52 0f bc 58 4f 0d bd c0 99 b8 3c 68 98 d7 bc
       -0.008747606 -0.034499496 0.022534251 -0.02631779
000190 0b 72 99 3b 86 db c4 3c 43 1f 2e 3d c9 01 31 3e
       0.0046827844 0.024030458 0.042510282 0.17285837
0001a0 ca ce 27 bd fb 7c 0f bd 2b b0 00 3d aa 03 f7 bc
       -0.040968694 -0.0350313 0.031418007 -0.030153114
0001b0 54 38 33 3d 86 0b 65 3b 40 89 b5 be 40 71 3f be
       0.04375489 0.0034949495 -0.35456276 -0.18695545
0001c0 3e dc c5 bd a7 81 a8 bc d6 2c 2a bd 8a 71 18 be
       -0.096611485 -0.020569636 -0.041546665 -0.14887062
0001d0 1c c5 0f 3d b6 38 4c 3e 77 54 9b 3d 06 3a bc 3b
       0.035100088 0.19943509 0.0758447 0.0057442216
0001e0 aa 34 63 be ff 2f 00 3e 4e 19 f6 bd 60 99 85 3d
       -0.22188058 0.12518309 -0.12016545 0.065233946
0001f0 43 d4 af bd bf 3b a7 bd 6e fb c8 bd d9 b6 1a 3c
       -0.085854076 -0.081656925 -0.098135814 0.009443008
000200 61 65 0d bc 82 5e 36 be 09 29 6c 3e 3a ce 86 3e
       -0.008630128 -0.1780949 0.23062529 0.26329213
000210 b7 26 a8 bc 50 2e 93 3d 74 0a 26 bd 28 1e 1b 3d
       -0.020526273 0.07186568 -0.040537313 0.037870556
000220 2a eb 7a be f9 6b f8 3d fc 00 6c be 4b 30 43 be
       -0.2450377 0.12129969 -0.2304725 -0.19061391
000230 c5 b4 15 bd 9b 7d 98 bb fc 12 d9 3d 34 33 75 be
       -0.03654935 -0.004653645 0.10599324 -0.23945314
000240 0c db fd 3d 09 05 27 bd f7 50 6e bd e0 fb 44 be
       0.123952955 -0.040776286 -0.058182683 -0.19236708
000250 1e a7 0e be b4 77 96 3e fa 5c d5 bd e5 02 bc bb
       -0.13930938 0.293882 -0.104181245 -0.0057376497
000260 f3 39 c1 3b 97 a4 02 bc 53 7e 95 bd bd f0 4b 3e
       0.0058968007 -0.007973812 -0.07299485 0.19916053
000270 0e 91 9a 3d 17 45 4c 3e d2 e8 ab bd 24 eb f7 bc
       0.07547198 0.1994823 -0.08394016 -0.030263491
000280 b3 b3 c0 bd 82 18 2f 3d e9 71 72 bc ab 25 32 bb
       -0.09409275 0.04274798 -0.014797666 -0.0027183096
000290 b0 bd c0 3d 90 d8 21 be 8f 62 51 bd bc 32 5d 3d
       0.0941118 -0.15805268 -0.051119383 0.054003462
0002a0 b4 29 24 be b7 35 70 be 4e 24 99 3d 95 9f b4 bd
       -0.16031533 -0.2345799 0.07477628 -0.088195
0002b0 04 82 9a 3e fa d7 51 be 8e 67 13 bd 0a dc c7 3d
       0.3017732 -0.20492545 -0.03598743 0.09758766
0002c0 76 38 d5 bb fa d7 2b 3d 35 60 49 bd 38 ab 1d bd
       -0.006506975 0.04195402 -0.049164016 -0.038493365
0002d0 6e ef bf 3d 30 47 b7 bd c8 3c 2b 3e d2 13 a7 3d
       0.093718395 -0.08949125 0.16722405 0.08158077
0002e0 ae 7e b1 bd ba 80 a1 bd dd df 20 3e 62 2d fe 3d
       -0.0866674 -0.07885881 0.15710397 0.12411
0002f0 e9 a7 a6 3d 7e 15 ae be 78 7c b7 bc 69 21 0f bc
       0.08137495 -0.34000772 -0.022398219 -0.008735993
000300 40 0e 62 3e 4d 88 27 3d 8a 39 91 bd e4 22 c6 3c
       0.22075748 0.04090147 -0.07091053 0.024186559
000310 b6 cf 53 bd 24 c2 13 3e c2 ff 20 3e 4e 0d c4 3c
       -0.05171176 0.14429528 0.15722564 0.023932125
000320 31 61 90 be 46 72 85 be 61 e2 a7 3d ef e0 b6 bb
       -0.2819915 -0.26063746 0.08197475 -0.0055810134
000330 9d b1 7b 3d 54 48 16 3c c5 2b 23 be e7 b8 f0 3d
       0.061448682 0.009172518 -0.15934666 0.11754017
000340 d6 e3 ed bd 89 90 bb 3c 29 64 d0 bc d4 97 45 3d
       -0.11615722 0.022896068 -0.025438385 0.048240498
000350 24 7e 8a bb 11 8c 01 be 96 17 df bd 71 b8 a1 3d
       -0.004226463 -0.12651087 -0.108931705 0.078965075
000360 f1 35 03 be d0 3e 8a be d3 dd cd bd 20 ec f4 3d
       -0.12813546 -0.27001047 -0.10052075 0.119591
000370 b8 03 34 3e 52 6d 13 3e 93 ec 44 3c ba 85 ea 3d
       0.17579544 0.14397171 0.012019294 0.114512876
000380 ae da 26 3c 47 9b f4 bd 08 42 0d 3e c5 a9 65 bd
       0.010183973 -0.11943679 0.1379472 -0.056070108
000390 3a 3c 1c 3e 22 c3 b7 bc c9 09 db 3d 9b fd 0c be
       0.1525735 -0.022431914 0.10695226 -0.13768618
0003a0 11 b1 35 bd 52 f8 02 bd 7b f7 99 bd 9c d9 24 3d
       -0.044358317 -0.031975098 -0.07517906 0.04024659
0003b0 f4 7a 86 be 2b 56 23 bd e4 dd 87 be 04 80 5c bd
       -0.2626568 -0.039877098 -0.26536477 -0.053833023
0003c0 b5 54 5f 3d 29 9b 20 bd b1 dd d8 bd ff 68 20 3e
       0.054524142 -0.039210472 -0.10589159 0.15665053
0003d0 f7 70 b2 bd c2 71 05 3e 0f 7b 0b be 51 37 ee be
       -0.087129526 0.13031676 -0.13621162 -0.46526578
0003e0 d2 64 83 3d 22 86 80 be 88 d0 06 be 3e ac 0b be
       0.06415714 -0.25102335 -0.13165486 -0.13639924
0003f0 48 ac e5 3d da c2 db bc b9 1d 3b 3d b1 21 de 3c
       0.11214501 -0.02682631 0.045682643 0.027115675

layers.1.bias f4 [128]
000000 62 17 4e 3e 33 f7 98 bd 23 31 68 be 57 4e 32 3e
       0.20126107 -0.074690245 -0.22674994 0.17412697
000010 a4 c3 74 bb 88 61 e2 bd 5d 21 d8 3e 0a 62 f0 bd
       -0.0037348056 -0.11053759 0.42212954 -0.117374495
000020 fa 28 0a 3e b3 96 43 3e 48 78 d0 3d 0d f8 1e bd
       0.13492194 0.19100456 0.10179192 -0.03881078
000030 8c 39 d2 3d e9 ba a9 bd 29 f6 e0 bc d8 71 86 3e
       0.102648824 -0.082876034 -0.027461128 0.2625873
000040 ba d4 02 3d 93 16 68 3e 46 f1 9c 3e c2 b7 7e bd
       0.031941153 0.22664861 0.30652827 -0.062186964
000050 48 86 4c be 9d 91 25 be 12 74 ea 3d ac 79 1a 3e
       -0.19973099 -0.16168828 0.1144792 0.15085477
000060 ee 03 9b 3d 1a 69 81 bd 5b 68 09 3c 3c 65 6a 3e
       0.07569109 -0.06318875 0.008386697 0.2289018
000070 f2 24 b0 3e 78 86 0d 3e 0e 54 7b bc 42 0a 7d 3d
       0.34403187 0.13820827 -0.015339864 0.06177736
000080 d9 ad d2 3d 18 a9 e9 bc 30 11 06 bc aa c6 10 3e
       0.10287065 -0.028523013 -0.008182809 0.14138284
000090 ef 91 89 3d 10 3e 35 be 9f 87 13 be 4f 8b 07 3e
       0.06717288 -0.17699456 -0.14407204 0.13236736
0000a0 46 fd 7a bd 9b e8 bf 3c 7b dc 20 3d a6 8c ad 3e
       -0.061276697 0.023426345 0.039272767 0.3389637
0000b0 03 8d 66 be 41 fa ac 3c a8 14 4c be 8f 3a 32 be
       -0.22514729 0.021115424 -0.19929755 -0.17405151
0000c0 fd 6e 32 bd 22 8c 17 3e 2a ef eb bc 6f 5d 65 3e
       -0.043562878 0.1479955 -0.028800566 0.22398923
0000d0 65 62 83 3c 2e d2 48 be e2 99 83 bc f6 15 8e bd
       0.01603813 -0.19611427 -0.016064588 -0.069377825
0000e0 c3 f0 05 3d 5d db 09 be 0f 44 9b bd 9d 4f fd bd
       0.03270031 -0.13462587 -0.075813405 -0.12368701
0000f0 b3 74 ae 3d 7b d0 96 bc 8c 6b 65 3e 74 29 f0 bd
       0.08518352 -0.018409958 0.22404307 -0.117266566
000100 d9 74 8b bd 1a c9 8d 3c 3e 7b bc 3d 23 04 89 3d
       -0.06809396 0.017307807 0.09203194 0.06690242
000110 00 2c 52 bd d7 5b d0 3b 22 83 6f bd 16 e7 7a 3e
       -0.051311493 0.0063586044 -0.058474667 0.24502215
000120 19 6f 10 3e 9d 58 ea 3c d1 6c ee bd 83 e3 a7 bd
       0.1410488 0.028606707 -0.11641849 -0.08197691
000130 49 f1 05 be fb 46 ab bd 1c 03 09 3e 19 8d 6f 3b
       -0.13080324 -0.08363148 0.13380092 0.0036552607
000140 24 33 e9 3d 62 a9 76 bc 59 aa e8 39 1a 74 a8 bc
       0.113867074 -0.015055032 0.00044377407 -0.020563174
000150 fa 5a 2b 3e 6c a7 a9 bd 4c 79 99 bd 72 19 5c 3e
       0.16733924 -0.08283886 -0.07493839 0.21494082
000160 76 5b 0d be fa 66 e5 3d 4d 52 5f bd 25 46 44 be
       -0.13804421 0.11201282 -0.054521848 -0.19167383
000170 cb d4 78 3e 74 55 90 3c e8 2d 58 3d cd 18 2e 3d
       0.24299924 0.017618872 0.052778155 0.04250412
000180 ca 41 b4 bc b6 06 b5 bc a4 ea 42 3e fd 0b 17 be
       -0.022004027 -0.022097927 0.19034821 -0.14750667
000190 14 ca d7 3d c9 d1 2a bd 0c 78 13 3d b0 ab b3 3b
       0.1053659 -0.041703973 0.036003157 0.005483113
0001a0 b7 c9 b6 3e 28 45 cc 3d c3 ab 8d 3d 57 52 40 bd
       0.3570077 0.09974128 0.069175266 -0.046953525
0001b0 41 56 cb bc e8 da 5c 3e e4 35 08 3e e0 39 70 3e
       -0.024821403 0.21567881 0.13301808 0.23459578
0001c0 70 77 be bc ef a3 ca 3d e6 dd 15 3d b9 e5 af 3e
       -0.023250312 0.09894549 0.036588572 0.34354952
0001d0 9a f9 68 3e be 5e 1a 3e 04 67 ab bd cf 5b 02 be
       0.22751465 0.15075204 -0.08369258 -0.12730335
0001e0 a8 d3 2f ba 92 8e 60 bd 39 80 4b 3e 1f e6 89 be
       -0.00067072595 -0.054823466 0.19873132 -0.2693338
0001f0 cf 4e 0a be 44 4f bf 3e 26 a1 9b bd b2 1b a3 3e
       -0.13506626 0.37365162 -0.07599096 0.31857067

layers.2.weight f4 [128, 128]
000000 bb d7 5e 3d 01 36 ea bd b6 30 8a 3e fc 26 81 3c
       0.054404955 -0.11436082 0.26990288 0.01576566
000010 25 30 72 be 14 38 e0 3d 61 42 35 bc e8 9e 36 bf
       -0.23651178 0.10948196 -0.011063189 -0.7133622
000020 d8 1c d6 3c 04 29 0b 3e 53 8d 95 3d c8 e2 81 3c
       0.0261368 0.13589865 0.07302346 0.015855208
000030 ce ad 9a 3d 1c 3d fd bc 25 e3 d2 3c 64 16 74 3e
       0.07552682 -0.030912928 0.025743077 0.23836666
000040 07 e7 c7 3d 01 63 04 3e fe a1 3d 3e 00 96 da 3c
       0.09760862 0.12928392 0.18518826 0.026682854
000050 a2 e8 ab 3d 0a ec 49 3d da 96 99 3d d9 e5 d0 3d
       0.083939806 0.04929737 0.07499476 0.1020009
000060 5c 3d 6e bd 0e e5 49 3c 00 ee d6 be 7a bf dc ba
       -0.058163986 0.012322677 -0.41978455 -0.0016841732
000070 7f 9f 02 be 2d 5e d4 3e 6d 6e 71 3d a2 f4 fa 3d
       -0.12756155 0.414781 0.0589432 0.12253691
000080 17 8e 6b 3d 9e e4 5f bb 79 40 f3 3c 85 52 a1 3d
       0.057508554 -0.0034163366 0.029693829 0.078770675
000090 b0 5f 0c be 9d 5c 48 be 34 27 27 3e b8 8a 5f bc
       -0.13708377 -0.19566579 0.16323549 -0.013643913
0000a0 10 83 bc bc 9e c8 17 3d 13 1a 60 3d e8 64 f6 bc
       -0.023011714 0.037056558 0.054712366 -0.030077413
0000b0 81 9a 2e bd 4b dc b3 3d da 15 f1 be 01 d9 74 3d
       -0.042627815 0.08782252 -0.47086984 0.059777264
0000c0 a5 fc 42 3e b5 b1 37 3e 7e 31 98 be 55 3d c4 be
       0.19041689 0.17938884 -0.2972526 -0.38328043
0000d0 4e 1c 31 be 12 c6 ab 3d 9f d1 4f 3e d5 2a b0 be
       -0.17295954 0.08387388 0.20294808 -0.34407678
0000e0 01 51 71 bc 6e c0 09 3c 88 fc a0 bc a2 dd 43 3d
       -0.0147287855 0.008407695 -0.019651666 0.047818787
0000f0 39 ce 02 bf 01 bf 8c 3e 6d f0 ac bd 16 4f 4f 3d
       -0.5109592 0.27489474 -0.08444295 0.05061253
000100 2d 6c d4 bd 76 2b b7 be 79 93 13 bd d7 5b 4a 3d
       -0.103721954 -0.35775346 -0.036029313 0.04940399
000110 f0 d0 08 be f0 25 64 3e c7 ae 0f bb 85 83 85 bd
       -0.13360953 0.22280097 -0.0021924244 -0.06519226
000120 7b 59 29 3e 4f c6 0f 3e 75 16 f4 be 58 5b 60 3c
       0.1653804 0.14040492 -0.47673383 0.013693653
000130 2b 6f e5 be 5e 5c 8d 3d 54 c2 8c 3d 60 23 f5 bd
       -0.44811377 0.06902383 0.06873003 -0.11969638
000140 7e 53 27 bd 67 b0 8b 3c 66 19 04 3e c5 e1 9a be
       -0.04085111 0.017051889 0.12900314 -0.30250373
000150 6d f2 e8 3d ab 2a 08 be 55 fc f3 3c 7c 5d c0 3d
       0.11374364 -0.13297527 0.029783407 0.09392831
000160 c3 34 30 be 2f d3 89 be f8 97 d8 be 7d 10 b3 3b
       -0.17207627 -0.26918933 -0.42303443 0.005464612
000170 39 0a 89 be 82 83 7e bd b4 bc 2d 3e fc 0d 37 3d
       -0.26765612 -0.062137134 0.16966516 0.04469107
000180 37 b2 ce be 27 05 be be 16 17 fd 3d 66 27 86 bd
       -0.40370342 -0.37113306 0.12357919 -0.065504834
000190 4e dd 3f 3d 58 04 02 be 73 57 d4 bd a3 e5 14 bf
       0.046841912 -0.1269697 -0.10368242 -0.581629
0001a0 84 c9 9c 3b a2 35 6e 3d 90 3a da 3e 62 25 06 3d
       0.0047847647 0.058156617 0.42622805 0.032750495
0001b0 9c d1 dd bd cb 15 18 bd 2e 7c 2f 3e 5c 87 78 bc
       -0.108309954 -0.03713016 0.17137215 -0.015168991
0001c0 2c 1a 02 3e ce 38 05 be c0 88 19 3d 75 06 e9 3d
       0.12705296 -0.1300995 0.03748393 0.11378185
0001d0 d8 dd a4 3c 31 77 8f 3d 96 59 9b bc b1 8e 98 bd
       0.020125315 0.07005156 -0.018963616 -0.07449091
0001e0 55 54 25 3d 62 1e 7a 3d 68 36 24 bd 82 bc 0c be
       0.04036363 0.06106413 -0.04009095 -0.13743785
0001f0 56 5d 36 bc 07 07 e5 3d ff 9e bf be e2 26 02 3e
       -0.011130651 0.11182981 -0.37425992 0.12710145
000200 48 c2 d2 bd fe 13 c2 bd 5b bc 12 3e e0 a2 b7 3c
       -0.102909625 -0.094764695 0.14329664 0.022416532
000210 c2 e2 ad be ed 0e a3 bc b9 06 06 3d 5e 9d 36 bf
       -0.33962065 -0.019904578 0.032721255 -0.71333873
000220 e7 b6 8d 3d 9e 13 c1 3d 7c 96 bb 3d 11 2c d5 bd
       0.069196515 0.0942757 0.09159562 -0.104087956
000230 68 83 10 3d f6 96 3a bd d7 f8 30 bd bb 51 52 3e
       0.03528157 -0.045554124 -0.043206062 0.2053899
000240 cd b8 0a 3c 4a 8f 83 3e d6 56 c4 3d 97 ee 14 3c
       0.0084669115 0.25695258 0.09586875 0.009090087
000250 02 07 05 bc 2d c8 19 3d 67 91 aa 3d a8 5f 2a 3d
       -0.008119347 0.037544418 0.083285145 0.04159513
000260 43 95 4d bd 25 d8 8c bd d0 9a e5 be 6b 70 69 bc
       -0.050191175 -0.06877164 -0.44844675 -0.014247994
000270 0b 51 06 be 41 d0 da 3e 41 a6 c6 3d 33 88 d2 bb
       -0.13116853 0.4273701 0.09699679 -0.0064249276
000280 0e e8 7c 3d 87 bb 61 3d ba 1d 50 be c5 e2 ad 3e
       0.061744742 0.05511048 -0.2032384 0.33962074
000290 1b 32 8d 3c c8 75 86 be 97 4d bb 3d dd 0c 8c 3c
       0.017235806 -0.26261735 0.091456585 0.017095977
0002a0 95 14 7e bd e5 e1 cd 3c a9 c7 14 3d cc f5 3a 3d
       -0.062031347 0.025132129 0.036323223 0.045644566
0002b0 bf e0 b6 bd 16 96 b6 3d ce e7 dd be fe bf 05 bd
       -0.08929586 0.08915345 -0.43340915 -0.0326538
0002c0 2f 82 4f 3e 86 6c 07 3e 55 0c d0 be bf 8f a6 be
       0.20264505 0.13224992 -0.4063441 -0.32531545
0002d0 6b 7e 7e bd b3 94 a8 3c 4e fa 94 3e 08 d1 ea be
       -0.06213228 0.020578718 0.29097217 -0.45862603
0002e0 d7 a6 a7 3c d1 46 49 bd 0b 83 bf bb ef 96 55 3d
       0.020465298 -0.0491398 -0.005844479 0.052145895
0002f0 1a c6 9c be 1f 12 4b 3e 29 d7 d5 bd 5a c0 c8 3d
       -0.3061989 0.19831131 -0.10441429 0.09802313
000300 bd 64 a8 bd 51 45 a5 be a0 57 91 3d b4 5a e7 3d
       -0.08222339 -0.32279447 0.07096791 0.11296597
000310 e8 b9 80 be bd b9 0d 3e 87 88 89 3d da 4b b9 bd
       -0.25141835 0.13840385 0.06715494 -0.09047671
000320 c6 33 41 3e 8c 0b b0 bd e0 3e da be 8b 1d 80 3d
       0.18867406 -0.085959524 -0.42626095 0.06255635
000330 3c 24 12 bf 32 03 d9 3d a2 c2 68 bc 29 0a ac bc
       -0.5708654 0.105963126 -0.01420656 -0.021000938
000340 25 74 b3 3c cc 07 b1 3d 6e 6b 35 3d 5b 8e 9d be
       0.021905968 0.08644065 0.044291906 -0.3077267
000350 95 41 17 3d 38 eb 4e be 3b 38 ac 3d 0e 32 67 3e
       0.03692778 -0.20206916 0.084091626 0.22577688
000360 71 92 a5 bd df ff 95 be 6c 2c d0 be a7 37 7e 3d
       -0.08084572 -0.29296777 -0.4065889 0.062064793
000370 3b 80 b9 be a7 ed 50 3d 1d 89 93 3d 72 67 bf 3c
       -0.36230645 0.051007893 0.07203887 0.023364756
000380 44 3f dd be 6d c2 54 be 96 ea 05 3e be 3f 75 3d
       -0.4321233 -0.20777293 0.13077769 0.059875242
000390 64 e7 ee bc d8 f2 15 be 8c 3e 9a 3d 10 15 0d bf
       -0.02916307 -0.14643419 0.07531461 -0.55110264
0003a0 ea a4 07 bd d6 65 0b 3e 1d a3 d2 3e be 0b 04 3d
       -0.03311626 0.13613066 0.4114007 0.03223776
0003b0 c3 ea 9a bc f5 fb b4 bc e6 2a e1 3d 4d 8c 8b 3d
       -0.018910771 -0.022092799 0.1099451 0.068138696
0003c0 6e af 59 bd c8 d9 db bd 8c 97 0f 3e 36 c3 a6 3d
       -0.05314582 -0.10734898 0.14022654 0.08142702
0003d0 cd 4b c4 3d e7 66 86 bb cd c7 f0 bd 9b c5 c5 bd
       0.0958477 -0.0041016224 -0.11756859 -0.09656831
0003e0 ff 67 12 bc 68 ba 3b bc ab 3a c8 3d bd d0 fc 3c
       -0.008935927 -0.011458017 0.09776815 0.030861253
0003f0 7b 30 40 3c 18 6d 78 39 a7 c5 ce be 45 71 b3 3d
       0.011730309 0.00023691764 -0.40385172 0.08761839

layers.2.bias f4 [128]
000000 45 4e a4 3c 2e 86 7e 3d ec 1a 6e 3d 06 36 80 be
       0.020056853 0.062139682 0.058131143 -0.25041217
000010 da ef d5 bb a9 49 c2 3e c3 51 ec bd 16 46 b9 bb
       -0.0065288367 0.37946823 -0.11539032 -0.005654107
000020 a3 4b 09 3d de c1 e3 3d e4 8d 3b 3c 49 c4 1b bc
       0.0335194 0.111209616 0.011447404 -0.009507247
000030 9a 89 bf 3d 15 ae e3 3e 95 0d 41 bd 74 ec 3a be
       0.09352417 0.44468752 -0.047132093 -0.18254262
000040 cc 89 c9 bd 6d 6f 04 bd 11 0a 9a 3c f5 a7 0d 3c
       -0.09840736 -0.032332826 0.018803628 0.008646001
000050 58 60 9a bd 4a dd 91 3d 2b 21 c8 3e e9 5a 9d bd
       -0.07537907 0.07122286 0.39087805 -0.07683355
000060 5e 94 c8 bc d0 0b e6 3d d1 ea 00 3d 8b db db bb
       -0.02448481 0.11232722 0.03147394 -0.006709521
000070 6f f7 62 3c 03 37 9f bd a6 d8 b2 3d 00 b2 be 3e
       0.013852938 -0.077741645 0.08732729 0.37245178
000080 e3 6b bb bc 4c 39 c4 3c 95 78 52 bc 6e dc c1 bd
       -0.022878593 0.023953103 -0.012846132 -0.09465872
000090 6c ac 1c be dd 94 1d 3c a2 5b 1b bc 44 20 e8 3c
       -0.15300149 0.009618011 -0.009482296 0.028335698
0000a0 85 4b 9f 3d e0 03 9e bc 2b c7 87 3c 72 6e 81 3d
       0.07778076 -0.019288957 0.016574463 0.06319894
0000b0 f8 50 b6 3d e5 7e 2d be fe dc 74 bd 72 1d ba 3d
       0.08902162 -0.16942938 -0.059781067 0.090876475
0000c0 df cb a4 bd 4f ca ae 3e a9 53 d1 3d 52 62 ab 3e
       -0.08046698 0.34138724 0.10221035 0.3347345
0000d0 a6 dc 8a 3d 33 1a e1 3e 1a 74 90 3e 76 a1 82 3d
       0.067803666 0.439653 0.28213578 0.063784525
0000e0 b2 95 58 bd 22 05 2f bd 37 56 79 bd 7c 4a d5 3d
       -0.052877136 -0.042729504 -0.060873237 0.104145974
0000f0 c4 9b a0 bd 39 d7 48 bd 02 7c 24 3e b4 76 20 be
       -0.0784221 -0.049033377 0.1606293 -0.15670282
000100 9d 61 15 ba 5f 41 f9 3e 8f 00 67 be 91 a5 13 3e
       -0.00056984444 0.48682687 -0.22558807 0.14418627
000110 1b fd 70 3e 31 e6 2e 3d 5c 0b 46 3e 83 54 b7 bd
       0.23534052 0.042699996 0.19340271 -0.08951666
000120 0c 34 13 3d 84 cb c1 3e 1e 7d 66 be 45 b5 8a 3e
       0.035938308 0.37850583 -0.22508666 0.27091423
000130 54 cd 71 ba 7c 46 e8 3e 41 81 b2 3e c8 2e a7 3d
       -0.00092240167 0.45366275 0.34864238 0.0816322
000140 1d 1a a8 3d f0 9f cc 3d 0f 10 0a 3e c0 13 da 3d
       0.08208106 0.09991443 0.13482688 0.10648298
000150 57 09 0e 3e ab f7 85 bd 45 94 82 3e 66 03 ce 3e
       0.1387075 -0.065413795 0.25503746 0.40236968
000160 96 fa 51 be 10 6f c9 3e d3 5a 6a bd 18 93 ca 3e
       -0.20505747 0.39342546 -0.057215523 0.3956535
000170 0c e6 ed ba 62 0c 76 bc 80 37 1a 3e 59 30 7c 3e
       -0.0018150224 -0.015017601 0.15060234 0.24627818
000180 9b 98 75 3e d9 30 89 bc 10 60 6c 3c e0 eb 09 be
       0.23983996 -0.016746925 0.0144272 -0.13468885
000190 07 ef 3e bd f6 dd ab bb c0 90 57 ba e4 64 5d 3b
       -0.046614673 -0.0052449657 -0.00082231686 0.003378206
0001a0 1f c9 79 3d 9d ee 92 3d 6c 6b d5 bd b6 7c 53 bd
       0.06098282 0.07174418 -0.1042088 -0.051632605
0001b0 a4 e3 90 3e f2 98 a8 3d 11 9c d9 3d f9 37 37 ba
       0.28298676 0.08232297 0.106254704 -0.00069892366
0001c0 c4 92 64 bd 68 7d 92 3d eb 8d 54 bd cd a0 20 bd
       -0.05580403 0.071528256 -0.051893156 -0.03921585
0001d0 69 25 64 bd a4 50 51 be 96 0f 64 3d 72 6e db 3e
       -0.05569974 -0.20440918 0.055678926 0.428577
0001e0 3f 0a 95 bd f6 fa df 3e dc f6 5f bd 4f 84 a4 3b
       -0.07277345 0.43746156 -0.054678783 0.005020655
0001f0 79 03 6b 3d 24 32 02 be 40 8b a5 bd 9f b0 aa bc
       0.05737636 -0.1271444 -0.080832005 -0.020836173

layers.3.weight f4 [1, 128]
000000 02 f5 91 3e 0c 3a 85 3e 41 64 b5 3e c3 07 f2 be
       0.2850724 0.2602085 0.3542805 -0.47271547
000010 aa d8 0a 3e b6 b3 e7 be 0a 4f 0d bb c4 90 95 bc
       0.13559213 -0.45254296 -0.0021562004 -0.018257506
000020 8b bb 58 3e fc 34 28 3e ad 82 5a 3e 07 9f 4d 3e
       0.21165292 0.16426462 0.21338911 0.20080195
000030 45 c0 44 3e 4f a8 3b bf ed 88 74 bb 0b 66 d6 be
       0.1921397 -0.73303694 -0.003731306 -0.41874728
000040 7a f5 86 3a 42 90 28 3e 3e 43 32 3e 96 b2 d5 3d
       0.0010296546 0.1646128 0.17408463 0.10434453
000050 70 14 aa 3b b4 03 2b 3e 6b c6 03 bf 26 38 3a 3d
       0.0051904246 0.16700631 -0.51474637 0.045463704
000060 a8 09 6f 3e 6d 1f 09 3e ec 19 05 bf 93 25 0b bf
       0.23343527 0.13390894 -0.5199268 -0.5435421
000070 97 f4 07 3e c9 7f 8a be 0c c8 6b 3e a6 ab d6 be
       0.13276897 -0.27050617 0.2302553 -0.41927832
000080 72 92 0d 3b 8d 3e 83 3e 1d c8 a2 3e ab 55 89 3b
       0.002160218 0.2563366 0.317933 0.0041911206
000090 5c 73 05 bf 6f 66 14 3e 16 70 15 3e ca 82 d2 bc
       -0.5212915 0.144922 0.14593539 -0.02569713
0000a0 0f 50 70 3e c9 c6 2b 3e 4d 0d 84 bd 56 d7 64 3e
       0.2346804 0.1677505 -0.064478494 0.22347769
0000b0 45 64 ff 3d 2f 61 ea be e2 af 52 bc 74 74 2f 3e
       0.12470297 -0.4577727 -0.012859317 0.17134267
0000c0 48 f9 c7 3b aa 5a fa be 76 44 05 bf 22 a2 b1 be
       0.0061027147 -0.48897296 -0.5205759 -0.3469401
0000d0 b7 f9 0d 3e 33 c1 f5 be dc 60 a2 be de b8 4f 3e
       0.1386479 -0.47998962 -0.31714523 0.20285365
0000e0 f9 05 61 bd 2c 54 fc ba 5d d6 84 bd 2a 34 80 be
       -0.054937337 -0.0019251159 -0.06486199 -0.25039798
0000f0 9b 1c b6 bc 9f 00 73 3b e7 e2 92 3e cd b7 d1 be
       -0.022230437 0.0037079228 0.28688738 -0.4096054
000100 bd e6 56 3e 76 aa ed be ff ee ec 3e 8c b1 b2 bd
       0.20986457 -0.46419114 0.4627609 -0.08725271
000110 b8 68 9d be 55 1c 3f 3e ca a6 95 3e e3 af 5e 3b
       -0.30743957 0.18663152 0.29228812 0.0033979348
000120 a9 9a 2a 3e 87 55 5a bf fa 3e 81 bf 0e dc ed bd
       0.1666056 -0.85286754 -1.0097344 -0.11614238
000130 4a 6d 1a 3e ed 19 14 bf 48 c3 5a bf 25 65 71 3e
       0.15080753 -0.5785206 -0.85454226 0.2357374
000140 f0 aa 57 3e 07 4c 0c 3e ab 9e 7e 3e 96 0c 1b 3e
       0.21061301 0.13700877 0.24865215 0.1514152
000150 0d 87 ad bd 8d 5a 3e bd da 60 02 bf d8 cf 4a bf
       -0.084730245 -0.046473075 -0.50929034 -0.79223394
000160 4f 8a 24 3f 68 72 e4 be eb f8 ac b8 90 c9 03 bf
       0.6427354 -0.44618535 -8.247964e-05 -0.51479435
000170 9e 62 05 bf dd 22 ea 3e 68 03 60 3e 27 49 d2 be
       -0.521036 0.45729724 0.218763 -0.41071436
000180 97 84 f3 bd 50 57 60 3e 85 c6 27 3e f2 9d e0 be
       -0.11890524 0.21908307 0.16384323 -0.43870503
000190 d7 63 44 be 36 c7 8d 3d 7e c0 2c 3e d9 c3 64 3e
       -0.19178711 0.06922762 0.16870305 0.22340335
0001a0 d7 a8 62 3e 2c c9 10 3e 66 5a bb 3c 42 95 3b 3e
       0.2213472 0.14139241 0.022870254 0.18318656
0001b0 72 2f 80 be 5e 09 ff 3d ae 8e 7e 3e 20 0a 11 3e
       -0.25036198 0.124529585 0.24859115 0.14164019
0001c0 5d 20 fe 3e 4c 83 42 3e ae 24 4d 3e 28 db c0 be
       0.49634066 0.18995398 0.20033523 -0.37667203
0001d0 3c 61 1b 3e 63 e1 f2 be 2e 1e ed 3d 55 3b 0c bf
       0.1517381 -0.4743758 0.11578022 -0.54778033
0001e0 72 4d 6f bd ef b5 16 bf 09 91 13 bc f2 87 f3 3d
       -0.058423467 -0.5887136 -0.009006747 0.11891164
0001f0 83 5b fa 3d 63 8e c5 be b9 e9 5a bd 00 1e 3c bb
       0.12224486 -0.38585195 -0.05344555 -0.0028704405
