new_models/base+wp_16849288/qf1_target_final.pth (torch, 186668 bytes, 7 tensors)

layers.0.weight f4 [128, 98]
000000 35 ef ac ba 03 32 ac 3c 39 b8 68 bb ce 54 95 3d
       -0.0013193848 0.021019941 -0.0035510196 0.07291566
000010 7a 70 02 3d 10 3a a9 3d fd c9 3e be 66 f2 ce bd
       0.031845547 0.08263028 -0.1863174 -0.101048276
000020 a1 3c 0f 3e f8 cd 4a 3e 14 6f 12 be 87 0a de bd
       0.13987972 0.19805133 -0.14300185 -0.10841852
000030 9b 00 58 bc a7 99 8c bd ac 58 09 bc bf 2e 7f bd
       -0.013183738 -0.06865244 -0.008382957 -0.06230044
000040 f5 63 0e 3b 05 81 3c bc e9 c4 b7 3c 4b 75 0f bd
       0.002172706 -0.01150537 0.022432761 -0.03502397
000050 e3 56 69 bd dd 0b c6 3c 37 b8 2c bd 56 a2 b3 bd
       -0.056967627 0.024175579 -0.04216787 -0.087711975
000060 eb 2a c6 bd f9 6f 90 bc 3a 08 9d bc 80 8f 8f 3d
       -0.09676155 -0.017631518 -0.019168962 0.07009792
000070 51 0d 18 3c 36 fd e1 bd 6f 07 1f 3d 1e 9b 10 be
       0.009280519 -0.11034624 0.03882545 -0.14121673
000080 f9 0f b4 bd a3 2e bc bc 75 83 c9 bd 66 f1 ca bc
       -0.08792109 -0.022971457 -0.098395266 -0.02477331
000090 95 24 be 3d 4b 12 21 bd 57 2c ad 3c 35 07 6c bd
       0.09284321 -0.039324086 0.021139307 -0.05762406
0000a0 d7 24 b9 bb b6 73 13 bd 38 e4 87 3c eb b7 ce bc
       -0.0056501436 -0.035999022 0.016588315 -0.025234183
0000b0 17 3f 5a 3c b2 04 3d 3d 75 42 6a be 3e 2c 17 be
       0.013320706 0.046147056 -0.22876914 -0.14762971
0000c0 4a 50 e7 bd 50 d7 3c be 7d d5 41 be 49 ce d9 3c
       -0.11294611 -0.1844151 -0.18929096 0.026587622
0000d0 b4 d0 0d 3e a1 89 b2 3c 09 06 70 bd c9 a0 bc bd
       0.13849145 0.021794142 -0.058599506 -0.09210355
0000e0 cd 5a 0e 3c 47 7b 9e bc 20 61 c8 bd d3 50 52 3b
       0.008688641 -0.019345893 -0.0978415 0.0032091632
0000f0 2c a8 0a bd fe 25 1d 3d 23 e5 b2 3c ec 30 0d 3c
       -0.033851787 0.03836631 0.021837777 0.008617621
000100 fa 0d 6e be b0 d1 3b bd ce 01 a8 bd 5b da b8 bd
       -0.23247519 -0.04585427 -0.08203469 -0.09026023
000110 c0 7e 13 be 33 31 ea b9 7a e3 ba 3c 14 c9 e0 be
       -0.1440382 -0.00044668614 0.022813547 -0.4390341
000120 cb a9 f7 3d 22 73 9c be a0 20 79 3e a9 58 65 bd
       0.12092932 -0.3055659 0.24328852 -0.055992756
000130 d0 02 00 bd a2 60 d3 3d 21 ce d5 be 4a 18 16 bd
       -0.031252682 0.103211656 -0.41758826 -0.036644258
000140 da c4 57 be a7 a2 a5 3d e0 db 0f 3d b0 47 57 3e
       -0.21071187 0.08087664 0.0351218 0.2102344
000150 2c 04 0d 3e 6d f8 a7 be 5d 41 ca 3b ea 9b 09 be
       0.13771123 -0.3280672 0.0061723427 -0.13438383
000160 32 e1 b5 bd 4e ca 21 3d 6a 56 11 3e ef 4f 11 3e
       -0.08880843 0.039499573 0.1419312 0.14190648
000170 c8 c1 5c be 0c b5 0d be fe d1 74 be e2 f9 a1 be
       -0.21558297 -0.13838595 -0.2390823 -0.31635958
000180 99 8e 26 3e ae be d5 bc fc d9 00 bd db 87 c9 3c
       0.16265334 -0.0260919 -0.031457886 0.024600914
000190 1d 27 42 3d 7b e8 c2 bc 56 69 1d 3d a7 a0 93 bd
       0.047400583 -0.023792496 0.038430534 -0.072083764
0001a0 89 73 02 bd 23 b1 73 bc 3b 68 b4 bd ca e2 ec bd
       -0.031848464 -0.014873776 -0.08808943 -0.11566694
0001b0 e1 70 89 3d e1 1f d4 ba 5e f1 df bc d0 87 a3 3a
       0.06710983 -0.0016183817 -0.027336773 0.0012476388
0001c0 3b bd cc 3b 87 7b e8 3c 2f a9 4c bb b7 6d 86 bc
       0.006248144 0.028379215 -0.003122877 -0.016409738
0001d0 e7 1d 64 3b c6 03 d4 3d b1 ed 08 3e 2f ba 85 bd
       0.0034807862 0.10352282 0.13371922 -0.06529652
0001e0 61 47 de 3b f2 08 e6 bd 47 48 3d bc c1 5d d9 bd
       0.0067834114 -0.11232175 -0.011552877 -0.10613585
0001f0 e5 ed ef 3b 2b 31 85 bd 54 f9 98 bd 9c 4e 88 3c
       0.0073220604 -0.06503519 -0.074694306 0.016639046
000200 3d 3b 79 3d 0d 04 c1 bc d3 ad ea 3c eb d5 b3 3c
       0.06084751 -0.023561502 0.028647339 0.02195259
000210 9a e2 00 bd 37 77 24 3d 4e 89 47 bd 99 c5 c2 3d
       -0.031466104 0.040152755 -0.04871493 0.09510345
000220 3c 50 d2 3d 39 2b 51 3c 25 37 bf 3c cc 93 20 bd
       0.1026921 0.012766653 0.023341725 -0.03920345
000230 bc 41 9f 3d c3 0e 88 3d a5 c9 40 bc 22 da a4 3d
       0.0777621 0.066434406 -0.011766826 0.08049418
000240 30 9e 82 3d d5 23 ed bd 66 cb 72 bd 18 ea 41 bb
       0.06377828 -0.115791 -0.059276007 -0.0029588994
000250 48 11 40 bd e1 9e 89 3c 33 d5 80 3d f8 f1 e2 3d
       -0.04689148 0.016799392 0.062906645 0.11081308
000260 ca a5 4a bb 80 c5 28 3d e5 6d 29 3d 82 c4 8f 3e
       -0.0030921572 0.041203976 0.04136457 0.2807961
000270 ec 4c 87 3e 02 59 0a 3e 32 1d 40 3e 30 0e 0b 3d
       0.26425874 0.13510516 0.18761137 0.033949077
000280 26 bc 71 3d 8f a8 05 be 57 51 93 bd 1a 12 80 bd
       0.059017323 -0.13052581 -0.07193249 -0.062534526
000290 7a 22 84 3c 47 94 f4 bc f2 43 40 bd f0 d0 9f bc
       0.016129721 -0.02985586 -0.046939798 -0.019508809
0002a0 f1 60 13 3e 28 d3 a7 3d 3b 31 c6 3c 51 09 c5 bd
       0.14392449 0.08194572 0.024193397 -0.096209176
0002b0 1a 41 7d 3d d4 73 84 3c 0a 3e e6 3d b4 4f da bd
       0.061829664 0.016168512 0.11242302 -0.106597334
0002c0 29 4e fd 3c 4d 17 9e bc 6b 98 dd 3d 6a dd 91 bd
       0.030921059 -0.01929822 0.10820087 -0.071223095
0002d0 b6 6f a7 bd 94 9b fa bd 4e da 20 bd 66 d6 ae bc
       -0.08175604 -0.122367054 -0.03927069 -0.021342468
0002e0 7e 48 b0 3d 07 d5 b2 3d be 8e 5d bd 2f be 11 3c
       0.08607577 0.08732038 -0.054091208 0.008895441
0002f0 f0 48 e8 3c cd bf 42 3e 33 99 aa bd 8d 9a 47 3f
       0.028355092 0.19018479 -0.08330002 0.779702
000300 da 30 a5 3d c8 7b 04 be a5 39 7a bd 90 50 9f 3e
       0.08065958 -0.12937844 -0.06109013 0.31116152
000310 7e 7f aa 3d 6d 81 ec bb 85 f7 0d 3d c8 c5 91 3d
       0.083250985 -0.007217577 0.03465988 0.07117802
000320 41 7c d1 3c cf 40 c5 bd f7 00 28 be 2e c7 68 bd
       0.025571944 -0.09631502 -0.16406618 -0.056830578
000330 8f ad 9f 3d ab 31 a0 bc ca bd 08 be 91 9f cc bc
       0.077967755 -0.019554934 -0.13353649 -0.024978431
000340 18 e8 57 bd 2b bf 9e 3d e5 ed 9d 3d 8d 38 6f 3d
       -0.052711576 0.07751306 0.077113904 0.05840354
000350 46 34 88 bd 69 76 75 bd 34 68 d2 3c 19 83 04 bd
       -0.06650595 -0.059927378 0.025684454 -0.032351587
000360 85 5d 00 bd cb 95 a0 3d 23 a5 64 3c d4 f1 10 bd
       -0.031339187 0.07841071 0.013955387 -0.035386875
000370 89 f2 bc 3d ed b1 d4 3d 83 9e 03 3e 48 40 d0 bd
       0.092259474 0.10385499 0.12853436 -0.10168511
000380 67 93 ea bd a7 c9 06 be b9 e7 66 bd 48 aa b0 bc
       -0.11453896 -0.13162862 -0.05637333 -0.021565571
000390 6e 0c 68 3d 25 e1 58 3d 5c b3 cc 3c cb 69 49 bd
       0.05665248 0.05294909 0.024987869 -0.049173158
0003a0 4c 20 92 bc 9c f7 d5 bc b1 c6 17 bd a1 8a 0d be
       -0.017837666 -0.026119046 -0.03705472 -0.13822414
0003b0 3a 4b 7f bd 6a 6a a2 3d 2f a6 a1 3d 78 71 dd 3d
       -0.0623276 0.07930453 0.07893025 0.10812658
0003c0 04 01 3e 3d cb 72 88 bd da b5 54 be 0b ef 60 be
       0.046387687 -0.0666252 -0.20772496 -0.21966188
0003d0 53 0f 09 bd 0d 53 cb 3d 60 ea 6a 3b 50 be c5 3e
       -0.03346188 0.0992795 0.0035845265 0.3862176
0003e0 e3 cb 2f 3e d6 53 bc 3d cb a9 b6 3d aa 57 06 bd
       0.1716762 0.09195678 0.08919104 -0.032798447
0003f0 5b b3 b3 3c 21 2d 33 be 37 46 80 bc 6a a5 a9 3d
       0.02193611 -0.17497684 -0.015658481 0.08283503

layers.0.bias f4 [128]
000000 84 c5 89 bd 6c 92 86 be 51 86 90 bd 8f 2b 81 3c
       -0.06727126 -0.26283586 -0.07056869 0.01576784
000010 80 b3 cf bd c0 22 b5 bb 41 63 e8 3d 1a 2d ac be
       -0.10141659 -0.005527824 0.11347056 -0.3362816
000020 80 9c 8a 3c 66 1d 0f 3d 25 a5 26 be 7f 83 15 3e
       0.016920328 0.034940146 -0.16273935 0.14600943
000030 02 70 5c 3e bc 90 62 be 04 d7 4c 3e b6 fe 37 3e
       0.21527103 -0.22125524 0.20003897 0.17968258
000040 ae 2b 8c 3d 01 02 a5 3c 6d 2d 6d bd 8d 2d 08 be
       0.06844269 0.020142557 -0.05790465 -0.13298626
000050 cf d0 2c 3b f0 93 9b bc d1 96 99 3e 53 a5 dd 3d
       0.0026369577 -0.01899144 0.29997876 0.10822549
000060 ce a5 ae 3d cf 6e 42 3e d4 15 2d 3e f7 05 34 3e
       0.085277185 0.18987583 0.16902858 0.175804
000070 57 4c 46 3e ff a9 34 3e aa 46 81 be 59 6a d8 bc
       0.19365059 0.17642973 -0.25249225 -0.026417898
000080 9d 1e 8b 3d 27 6e 8e 3d 67 e0 a9 bb 3c 33 57 bc
       0.067929484 0.06954604 -0.0051842215 -0.013134774
000090 d5 ad 88 3e 4c 6d b6 3d 0b a7 20 3e 52 da da 3c
       0.26695123 0.089075655 0.15688722 0.026715431
0000a0 fd e6 3d 3a 40 c5 36 3e 13 f2 40 bd 35 de d0 be
       0.0007244198 0.17848682 -0.04710586 -0.4079453
0000b0 35 81 26 be 79 db 7e 3e 1a 43 7f bd dc c9 1a 3d
       -0.16260226 0.2488841 -0.062319852 0.037790164
0000c0 5b 62 54 3e 83 b1 11 bc 92 0e 47 3d 06 13 5b 3e
       0.20740645 -0.00889242 0.04859788 0.21393976
0000d0 e2 46 07 be 1b 9b 08 be a2 ea 09 3e 56 fe 1b 3e
       -0.13210633 -0.13340418 0.13468412 0.1523374
0000e0 93 c6 cb 3c 18 d6 6f 3e 7f b4 f8 3d c6 d2 4e 3e
       0.024874961 0.23421514 0.12143802 0.20197591
0000f0 59 30 79 3e 9a de 36 3e 59 ed ce 3d 4c 93 a8 3e
       0.2433485 0.17858353 0.10103864 0.3292488
000100 08 2a 7f bd c2 2b 19 be 73 cf 8b 3d dd 2a 30 3e
       -0.062295943 -0.14958099 0.06826677 0.17203851
000110 80 f7 c8 3c f6 bd b2 bd 11 f9 78 bc 43 c6 49 bd
       0.02453208 -0.087276384 -0.015196101 -0.049261343
000120 d4 8a 1b 3d 56 5a 30 be d3 27 44 be 29 57 86 bd
       0.037974194 -0.1722196 -0.19155817 -0.06559593
000130 bd c8 d1 bd b5 22 40 be 6d 14 fd 3d 79 9d e0 3e
       -0.10243366 -0.1876324 0.123574115 0.43870142
000140 34 04 12 bd e2 71 c0 bd 17 e7 b8 3d 50 00 a8 be
       -0.03564854 -0.093967214 0.09028452 -0.32812738
000150 76 53 8a 3d 10 a0 4e 3d aa 75 03 be f0 76 f6 3d
       0.067542 0.050445616 -0.12837854 0.12034404
000160 74 c3 47 3e 4d c8 e1 3d e5 67 2b 3d be d7 b0 bd
       0.19508153 0.110245325 0.04184713 -0.086348996
000170 62 77 26 3e 36 c7 56 3d 80 28 ad 3d c7 e4 53 3e
       0.16256478 0.052436076 0.084549904 0.2069274
000180 6d d5 3f be 23 8e dd 3c 9d 6a 35 3e 4e cb fa bd
       -0.18733759 0.027045315 0.17716451 -0.122458085
000190 ba 30 d8 bd 4f 31 74 3c d0 36 cd 3c 53 f8 a4 3e
       -0.10556169 0.014904334 0.02505055 0.32220706
0001a0 1e 5c 89 3d 06 a1 02 bd 7a 2b 99 bd 65 d2 9b 3e
       0.06707023 -0.031891845 -0.074789956 0.30433956
0001b0 36 60 12 3e 59 cd 98 bb 08 e7 d6 bd b1 88 31 3d
       0.14294514 -0.004663151 -0.104932845 0.04334325
0001c0 a1 66 a9 3d aa ea 44 be 9b 37 f9 3c 1c 3f c4 bd
       0.08271528 -0.19230142 0.030422023 -0.0958235
0001d0 69 5a a4 3d 68 6d ce bd 91 db 0d 3d 98 f2 80 3c
       0.08025057 -0.10079461 0.034633223 0.015740678
0001e0 52 53 88 3e ce 11 fd 3d 46 3b 1f be 6e d2 43 bd
       0.26626068 0.123569116 -0.15549955 -0.047808103
0001f0 95 d1 f9 bd d1 59 bd 3c ef c5 9d 3d f6 d8 84 3c
       -0.12198178 0.023114117 0.077037685 0.016216736

layers.1.weight f4 [128, 128]
000000 e1 88 1a 3e 09 6d 55 bb a3 f2 c9 bd 2b b0 ee be
       0.15091278 -0.003256621 -0.098607324 -0.4661878
000010 5e 3e 0c 3e 35 04 9f bc 11 32 fc bd c5 28 16 3e
       0.13695666 -0.019411186 -0.12314237 0.1466399
000020 99 12 4d bb ef e2 16 be 87 96 2e 3c 55 fd 39 be
       -0.0031291603 -0.14735006 0.010656006 -0.18163045
000030 bc d2 47 be 35 9e 61 bc 72 57 bf 3c 53 b3 51 be
       -0.19513983 -0.01377063 0.023357127 -0.20478563
000040 39 d4 29 3d ef c9 d1 bd a2 47 0b 3e 2a 7c 7f 3d
       0.041462157 -0.10243594 0.13601544 0.06237427
000050 66 20 28 3c eb d5 f0 bd 86 c8 fc 3c b8 eb 22 bd
       0.010261631 -0.117595516 0.030857336 -0.03977558
000060 7a 1c fb 3d 05 ad ee bb a1 90 e1 bd 83 e2 2c be
       0.12261291 -0.007283809 -0.11013914 -0.16883282
000070 f4 56 2a bd 5b 16 97 bd d3 7c b8 3c b7 b9 1e 3d
       -0.04158683 -0.07377311 0.022520458 0.03875133
000080 af 15 fd 3d db a9 ae bd 43 fa d3 bc 38 6c dd be
       0.123576514 -0.08528491 -0.02587617 -0.43246627
000090 37 f3 23 be f1 5c 9d bd 9c fe a4 3c b4 e4 52 3c
       -0.16010748 -0.07683743 0.020140938 0.01287191
0000a0 c3 c7 0e be 03 4c e1 bd 8d 09 3d bd cc 8c 50 bd
       -0.1394339 -0.11000826 -0.046151686 -0.050915524
0000b0 55 57 dc 3c 86 cb 92 3a 78 15 29 3c 6f 7c 83 bd
       0.026897112 0.0011199571 0.01032006 -0.06420218
0000c0 d2 3c 4d 3c 95 9b cb 3d ca eb 03 3e 43 75 2d 3d
       0.012526708 0.09941784 0.12882915 0.042348158
0000d0 46 3c 27 3c a9 93 76 bd ac bf 4d bd 35 58 6d bb
       0.010207241 -0.060199413 -0.05023162 -0.0036215906
0000e0 34 c4 05 3e 5a ea af 3d d2 1d 89 bc 6e 6d bd 3d
       0.13063127 0.08589621 -0.016737852 0.09249388
0000f0 67 64 98 3d c8 27 eb 3d f9 47 2c 3d fa b8 88 bd
       0.07441025 0.11482197 0.042060826 -0.066759065
000100 00 50 b1 bd e2 b4 ec bc a4 db 65 3d f4 a5 3b be
       -0.08657837 -0.028894845 0.05611767 -0.18325025
000110 94 e0 f4 be 96 41 84 3e 1d 52 e3 3c 36 66 de bd
       -0.4782759 0.25831288 0.027749116 -0.10859339
000120 0d 8e ba 3c 8d f3 2a be 8a bb d4 bc c5 ac b4 3d
       0.022772813 -0.1669447 -0.025968332 0.08822016
000130 7f be 24 be a0 05 52 bd 16 3f ac 3d 69 5f 19 3e
       -0.16088293 -0.051274896 0.0841047 0.14977802
000140 7b 47 42 3e f5 83 d6 bb ed 29 26 3e cf 1d 08 bd
       0.1897258 -0.006546492 0.16226931 -0.033231553
000150 84 54 09 bd 61 a8 bb 3c 71 e8 09 3e 8a 93 e4 3d
       -0.033527866 0.022907438 0.13467576 0.11160953
000160 94 4f a6 bb 31 5a 84 3d fa df bc 3d 8d 58 cb bc
       -0.0050754044 0.06462515 0.09222408 -0.024822498
000170 54 f5 a7 3c 23 7c 05 be 68 95 af 3d 48 49 3b bd
       0.020502724 -0.13035636 0.08573419 -0.045724183
000180 30 c6 0c bc a6 ce 13 bd e4 b9 9c 3c dd b5 f8 bc
       -0.008592173 -0.036085747 0.019131608 -0.030360157
000190 8d 98 8b 3b a5 19 b7 3c a7 1e 2e 3d d8 e5 38 3e
       0.004260129 0.022351095 0.0425097 0.18056428
0001a0 1b 57 2a bd c9 db 08 bd b5 2c 21 3d 60 56 01 bd
       -0.041586976 -0.03341273 0.039349277 -0.031576514
0001b0 32 97 2d 3d fc 03 f4 3a 8b 26 b7 be 1e 70 3d be
       0.04238052 0.001861691 -0.35771593 -0.184998
0001c0 6e b0 cf bd 26 96 c7 bc 2b 8f 2a bd 81 dd 14 be
       -0.10141073 -0.024363589 -0.041640442 -0.14537622
0001d0 0e 99 08 3d d1 b9 4b 3e 4e 87 96 3d 15 ac 89 3b
       0.03334909 0.19895102 0.07350026 0.004201422
0001e0 c2 6b 60 be 5e db fe 3d 36 9a f8 bd 61 f4 7d 3d
       -0.21916106 0.12444185 -0.121387884 0.062000636
0001f0 29 8f b2 bd d4 55 a6 bd 25 1b c9 bd 5f 67 0c 3c
       -0.08718712 -0.08121839 -0.098196305 0.008569567
000200 5c b6 0b bc 12 59 36 be 0c 57 69 3e 62 70 87 3e
       -0.008527365 -0.17807415 0.22787112 0.2645293
000210 6f aa 91 bc b3 d1 93 3d a1 f5 17 bd da 9a 29 3d
       -0.017781464 0.07217731 -0.037099484 0.041407444
000220 bc cf 7a be ac 6f fb 3d d3 93 6b be 62 b3 42 be
       -0.24493307 0.12277159 -0.23005609 -0.19013742
000230 2b 18 0f bd bf 69 ae bb 3e ff d9 3d 6c f3 75 be
       -0.034935158 -0.0053226645 0.10644387 -0.2401864
000240 27 74 fd 3d dd 6a 32 bd 68 b4 70 bd cd 5c 44 be
       0.1237567 -0.043558944 -0.0587658 -0.19176026
000250 46 85 0f be f2 4a 96 3e 4d fa d4 bd ce 72 b2 bb
       -0.14015684 0.29354054 -0.103993036 -0.0054458147
000260 b0 71 b8 3b 84 9a 0b bc fd 09 94 bd 52 d4 4a 3e
       0.005628787 -0.008520726 -0.072284676 0.19807556
000270 f3 30 a1 3d bf 49 4c 3e 24 f3 ad bd 45 79 03 bd
       0.078706644 0.19950007 -0.08493641 -0.032098074
000280 5f 3e bf bd 7b 82 3a 3d 76 bf 12 bc d4 9d 15 39
       -0.09338068 0.045534592 -0.008956781 0.00014268543
000290 5f dd c3 3d 83 f5 20 be 7c c7 46 bd 80 05 61 3d
       0.095637076 -0.15718655 -0.048530087 0.054936886
0002a0 8c 0d 23 be d2 e6 71 be af 37 9a 3d 0a 95 b1 bd
       -0.15923136 -0.23623207 0.07530152 -0.08671005
0002b0 04 df 99 3e 9f ba 4f be b4 a8 13 bd d3 38 c7 3d
       0.3005296 -0.20286034 -0.03604956 0.09727635
0002c0 4f 9d 10 bc 0a 18 31 3d bb 0c 43 bd f3 cc 1c bd
       -0.008826568 0.043235816 -0.047619563 -0.038281392
0002d0 91 8f c3 3d 85 b5 b3 bd 7c ad 2d 3e 75 2f a2 3d
       0.095488675 -0.087748565 0.1696071 0.07919208
0002e0 16 08 ae bd a2 7b a4 bd 9c dd 1f 3e 5e 53 03 3e
       -0.08497636 -0.080313936 0.15611881 0.12824771
0002f0 c1 de a7 3d 78 d9 ac be 3a 9f a3 bc 92 03 eb bb
       0.08196784 -0.33759665 -0.019973386 -0.0071720565
000300 33 44 62 3e 3f 29 20 3d 1f 7b 8f bd b6 2e ce 3c
       0.22096328 0.039101835 -0.07005905 0.025168758
000310 70 cb 50 bd d8 ca 13 3e eb 97 20 3e 1f 98 c1 3c
       -0.050975263 0.14432847 0.15682952 0.023632107
000320 cd bd 8f be 5a 43 81 be b6 19 aa 3d 55 e4 96 bb
       -0.28074494 -0.25246698 0.08305685 -0.004604856
000330 86 cf 68 3d 2d 1f 15 3c 47 01 26 be b4 3f f3 3d
       0.056838535 0.009101671 -0.16211425 0.11877385
000340 85 b5 ee bd b1 b2 be 3c 13 90 da bc 19 e5 42 3d
       -0.11655716 0.023278566 -0.026680028 0.047581766
000350 92 fd 6e bb d5 e9 00 be 56 43 dc bd 6d 72 9e 3d
       -0.0036467058 -0.125892 -0.10755031 0.07736669
000360 90 22 02 be 25 6f 8c be c7 61 cc bd ef 43 f3 3d
       -0.12708497 -0.27428547 -0.09979587 0.11878192
000370 9c 65 33 3e 91 af 13 3e d0 79 2d 3c d4 ca eb 3d
       0.1751923 0.14422442 0.010588124 0.11513296
000380 d5 ff 48 3c 03 eb f0 bd aa a5 0f 3e 90 39 6b bd
       0.012268026 -0.11763575 0.1402804 -0.057427943
000390 cf e0 1b 3e 8a 62 b3 bc 1a 09 db 3d 70 20 0c be
       0.15222476 -0.021897573 0.10695095 -0.13684249
0003a0 57 29 40 bd 25 10 13 bd d4 0c 9e bd 92 a1 39 3d
       -0.046914425 -0.03590407 -0.077172905 0.0453201
0003b0 9f 1b 86 be 8b 33 22 bd c7 6b 83 be 65 3c 63 bd
       -0.26192948 -0.039599936 -0.25668165 -0.05547752
0003c0 1c 69 61 3d 47 e8 1c bd 74 a2 d5 bd 85 98 22 3e
       0.05503188 -0.038307454 -0.10431376 0.15878494
0003d0 6b cb b2 bd 3c 26 05 3e ab a7 0b be db 68 ef be
       -0.08730205 0.13002867 -0.13638179 -0.46759686
0003e0 16 d6 87 3d 53 05 80 be 47 0f 05 be 58 ab 06 be
       0.066326305 -0.25004062 -0.12994109 -0.131513
0003f0 2a 0c e3 3d 57 da e4 bc 1d 14 4b 3d 24 f6 e1 3c
       0.110863045 -0.027936144 0.04957973 0.02758319

layers.1.bias f4 [128]
000000 37 a5 4b 3e 23 56 96 bd 05 69 67 be 2c 2f 30 3e
       0.19887243 -0.07340648 -0.22598656 0.17205495
000010 dc 74 a0 bb 99 3a e1 bd 32 ff d7 3e 64 57 ee bd
       -0.004896743 -0.10997505 0.42186886 -0.11637762
000020 4e a8 08 3e 0e 81 42 3e 08 53 cd 3d f0 e0 1c bd
       0.13345453 0.18994543 0.100256026 -0.038300455
000030 e0 41 ce 3d 8a 18 a9 bd 2f 24 e2 bc 4f 5c 86 3e
       0.100711584 -0.082566336 -0.027605144 0.262423
000040 4a 71 06 3d c3 6a 64 3e 31 85 9c 3e 7c b7 7e bd
       0.032822885 0.22306351 0.30570367 -0.062186703
000050 5b 97 4b be 7a 80 25 be ca 26 e6 3d ab 47 16 3e
       -0.19881956 -0.16162291 0.11237867 0.14675777
000060 c8 d3 9a 3d 99 44 85 bd 19 aa 05 3c 3d e6 68 3e
       0.07559925 -0.065072246 0.00815823 0.22744079
000070 75 9c af 3e 82 00 0e 3e 4b 64 70 bc d4 1e 7e 3d
       0.34299055 0.13867381 -0.014672349 0.06204112
000080 e5 70 d2 3d db a8 e9 bc 29 76 02 bc cb aa 0f 3e
       0.10275439 -0.0285229 -0.007962742 0.14029996
000090 ef 16 8a 3d 65 4f 31 be 55 31 13 be 8f a0 06 3e
       0.067426555 -0.17315443 -0.14374287 0.13147186
0000a0 15 db 7b bd 2d 70 a5 3c aa fb 20 3d 16 0d ad 3e
       -0.06148823 0.020195091 0.039302506 0.33799046
0000b0 f2 dd 64 be 44 31 a3 3c 22 be 4c be 84 48 31 be
       -0.2235029 0.019920953 -0.19994405 -0.17312819
0000c0 5c ee 29 bd d6 5e 18 3e 89 15 e8 bc 8f c0 63 3e
       -0.041487083 0.14879927 -0.028330581 0.22241424
0000d0 5c 33 86 3c 40 f1 46 be 71 43 64 bc f4 7b 8d bd
       0.016381912 -0.19427967 -0.013932095 -0.06908408
0000e0 67 9f 07 3d f5 96 08 be 34 56 9b bd d4 5e fc bd
       0.033111002 -0.13338836 -0.07584801 -0.123227745
0000f0 33 77 b1 3d 93 03 7f bc 08 8b 65 3e 41 40 eb bd
       0.086653136 -0.015564817 0.22416317 -0.11486865
000100 27 89 88 bd 59 04 86 3c 0c e3 bb 3d f2 d2 87 3d
       -0.06666785 0.016359495 0.09174165 0.066320315
000110 7a 58 4f bd fd 34 a4 3b 6d 08 6c bd 62 b3 79 3e
       -0.050621487 0.0050111995 -0.057625223 0.24384835
000120 ee 2f 15 3e c2 3f ec 3c 3a 86 eb bd 46 61 a6 bd
       0.14569065 0.028838996 -0.11500211 -0.08124022
000130 20 0d 04 be 3c 15 ab bd 5b 85 07 3e 11 a3 14 3b
       -0.12895632 -0.083536595 0.13234465 0.0022680203
000140 3b 98 e6 3d e2 09 82 bc 59 c2 a0 ba 24 a2 ad bc
       0.112595044 -0.015873853 -0.0012264951 -0.021195479
000150 d8 2e 2a 3e 32 44 ad bd b6 78 99 bd 05 b2 5a 3e
       0.16619432 -0.08460273 -0.07493727 0.21356972
000160 7e ea 08 be 24 cb ec 3d 20 08 5d bd 0e 7f 45 be
       -0.13370702 0.115621835 -0.053962827 -0.19286749
000170 17 37 77 3e a5 55 90 3c 33 65 5e 3d e0 34 2e 3d
       0.24142109 0.017618963 0.05429573 0.042530894
000180 a1 8d b3 bc 17 82 c1 bc 1a 09 42 3e a0 60 16 be
       -0.02191812 -0.023621602 0.18948784 -0.14685297
000190 f9 cf d7 3d a8 55 1d bd 94 aa 12 3d 4e 5d bc 3b
       0.105377145 -0.038411766 0.035807207 0.0057484275
0001a0 1b ee b5 3e 69 35 c3 3d 27 98 8a 3d e2 70 40 bd
       0.35533223 0.095316716 0.06767302 -0.046982653
0001b0 9a bc c2 bc c1 3a 5a 3e 10 1e 06 3e 5e f2 6b 3e
       -0.023771573 0.21311475 0.13097405 0.23041674
0001c0 c9 a0 bd bc 3c b9 cd 3d d7 15 1c 3d 0d 96 ae 3e
       -0.023147957 0.10045096 0.038106766 0.34098855
0001d0 19 0a 66 3e 6b 6b 18 3e 10 92 ab bd 6d 22 01 be
       0.2246479 0.14884727 -0.083774686 -0.12610789
0001e0 4f 24 f7 b9 63 8e 60 bd 98 8a 49 3e 77 11 88 be
       -0.00047138563 -0.05482329 0.19681776 -0.26575825
0001f0 ca 16 09 be 88 7f be 3e 0e a1 9b bd d0 e0 a1 3e
       -0.133876 0.37206674 -0.07599078 0.3161683

layers.2.weight f4 [128, 128]
000000 30 01 62 3d 52 8d f1 bd 9f 25 8a 3e 94 a1 81 3c
       0.055176914 -0.11794533 0.26981828 0.015824117
000010 97 c0 72 be 13 6e e1 3d 66 8f 22 bc 23 1d 37 bf
       -0.2370628 0.11007323 -0.009921884 -0.71528834
000020 d3 ca d3 3c 80 b8 09 3e 55 9f 94 3d b5 8a 61 3c
       0.02585355 0.13449287 0.07256953 0.0137659805
000030 81 c0 94 3d f7 5e 02 bd e5 e4 b2 3c 59 7a 74 3e
       0.0726328 -0.031828847 0.021837661 0.23874797
000040 54 8c c4 3d f2 6b 06 3e 27 bd 3c 3e 41 96 da 3c
       0.09597078 0.13127115 0.18431531 0.026682975
000050 86 f1 a9 3d ef da 49 3d d9 43 96 3d 67 ab cf 3d
       0.0829802 0.049281057 0.0733716 0.10140114
000060 55 b4 6e bd f9 ff 2f 3c a9 01 d5 be c7 fa 45 bb
       -0.058277447 0.010742181 -0.4160283 -0.003020929
000070 45 56 03 be 5c 61 d5 3e df 92 6f 3d f2 1b fa 3d
       -0.12825878 0.41675842 0.058489677 0.122123614
000080 f5 ac 63 3d d9 e4 5f bb f1 20 fa 3c 6b 2e a2 3d
       0.055584867 -0.0034163503 0.030533286 0.0791901
000090 f9 9f 0e be 3c 11 48 be a6 c3 26 3e 60 d3 55 bc
       -0.13928212 -0.19537824 0.16285571 -0.013050884
0000a0 90 38 c8 bc a7 7c 1b 3d 9c 29 60 3d dd e2 e1 bc
       -0.024441034 0.037960675 0.05472718 -0.027573997
0000b0 21 c4 33 bd 23 b9 af 3d 0d 8b f2 be cd ff 79 3d
       -0.043888215 0.08580234 -0.47371712 0.061034966
0000c0 63 15 47 3e 15 76 38 3e ff 0b 9a be 0b 57 c4 be
       0.19441752 0.18013795 -0.30087277 -0.3834766
0000d0 c3 9c 30 be c7 3b af 3d e9 9b 52 3e a8 91 b0 be
       -0.172473 0.085563235 0.20567288 -0.34486127
0000e0 63 43 56 bc 39 62 c2 3b b5 c2 b0 bc 04 6f 42 3d
       -0.01307759 0.005932119 -0.021577219 0.047469154
0000f0 d3 e3 02 bf 8e 47 8e 3e 1d cd a8 bd 39 15 51 3d
       -0.5112888 0.27788967 -0.08242247 0.05104563
000100 3a d1 d5 bd 22 9e b9 be 90 ce 15 bd 92 4c 47 3d
       -0.104402974 -0.36253458 -0.036573946 0.048657008
000110 25 81 04 be b1 69 63 3e 74 2a 1f bb a9 65 84 bd
       -0.1293989 0.22208287 -0.0024286779 -0.06464703
000120 82 3b 2c 3e 0d 51 10 3e 36 04 f1 be a1 9f 54 3c
       0.16819575 0.14093418 -0.47073525 0.012977512
000130 db ad e3 be ac ed 8f 3d ea 1c 8a 3d 22 86 fb bd
       -0.4446858 0.07027754 0.06743796 -0.12281443
000140 6c 97 2d bd 4a 79 85 3c 99 e0 02 3e 44 9b 9b be
       -0.042380735 0.016293187 0.1278099 -0.30391896
000150 be 10 e5 3d a6 89 07 be d4 fb f3 3c 2e 16 bf 3d
       0.11184834 -0.13236102 0.029783167 0.09330402
000160 be 3f 2e be 19 40 89 be 22 13 da be 55 c7 d8 3b
       -0.17016503 -0.26806715 -0.42592722 0.006615559
000170 b7 33 86 be eb 83 7e bd 9e 9f 29 3e f2 a5 32 3d
       -0.2621133 -0.062137526 0.16564795 0.04361529
000180 b3 b8 cf be 63 42 bd be 3b bf fb 3d 45 42 89 bd
       -0.40570602 -0.36964712 0.12292334 -0.06702093
000190 ec 15 3b 3d 46 e8 02 be bb f4 d5 bd b9 5c 15 bf
       0.045675203 -0.12783918 -0.10447069 -0.5834461
0001a0 07 a7 8f 3b fa 33 70 3d ec 73 db 3e 22 ef 05 3d
       0.004383925 0.05864332 0.4286188 0.032698758
0001b0 ad 94 e1 bd ab 68 19 bd 17 64 2d 3e c5 43 15 bc
       -0.11014686 -0.037453335 0.16932712 -0.009110396
0001c0 eb ce 01 3e fa e2 03 be b7 99 20 3d c5 2b ea 3d
       0.12676589 -0.12879553 0.039209094 0.114341296
0001d0 3e 18 a0 3c 28 98 8e 3d 86 c8 94 bc 8e 86 91 bd
       0.01954281 0.06962615 -0.018162023 -0.071057424
0001e0 76 3a 24 3d 24 1e 7a 3d b0 ae 2a bd 96 22 0c be
       0.040094815 0.0610639 -0.0416705 -0.13685068
0001f0 27 18 2d bc e9 e9 e3 3d 1f 9f bf be 38 48 02 3e
       -0.01056484 0.11128599 -0.37426087 0.12722862
000200 90 e8 ce bd 73 7b c6 bd a9 ee 13 3e d3 3b b7 3c
       -0.101029515 -0.09691515 0.1444651 0.022367394
000210 a9 9a ae be 1a d7 94 bc ca a5 09 3d e5 80 36 bf
       -0.3410237 -0.018168975 0.033605374 -0.7129043
000220 15 cd 8d 3d aa 31 bf 3d 7a f4 bb 3d db 33 d8 bd
       0.06923882 0.093356445 0.091774896 -0.10556766
000230 5a 0b 07 3d cd 81 3c bd 07 3b 3a bd b3 1c 53 3e
       0.03296981 -0.046022225 -0.04546645 0.20616417
000240 0e f9 d0 3b 8e e3 83 3e e9 75 c3 3d 36 ee 14 3c
       0.006377346 0.25759548 0.09543974 0.009089997
000250 89 c1 e4 bb 7a 4d 18 3d 69 73 a6 3d 81 30 27 3d
       -0.006981079 0.037183262 0.081274815 0.04081774
000260 dd 76 4e bd 97 3f 90 bd 20 78 e3 be 0c 02 73 bc
       -0.050406326 -0.07043379 -0.44427586 -0.014832031
000270 f5 23 07 be c8 d2 db 3e 13 a8 c6 3d 3b 2b d3 bb
       -0.1319731 0.4293425 0.09700026 -0.0064443625
000280 e8 b5 76 3d 2b bb 61 3d 2c 64 4f be e3 73 ad 3e
       0.060232073 0.055110138 -0.20253056 0.33877477
000290 07 f9 7f 3c db 80 86 be dc 7e bb 3d 3a fd 93 3c
       0.015623338 -0.26270184 0.09155056 0.018065084
0002a0 33 7c 81 bd 10 10 cd 3c 1e f3 15 3d a3 26 46 3d
       -0.06322517 0.025032073 0.036608808 0.04837669
0002b0 41 4f b8 bd ee e6 b4 3d d5 02 df be 4d dd 00 bd
       -0.089994915 0.08833109 -0.43556848 -0.03146105
0002c0 ff 57 55 3e 76 b7 07 3e 18 48 d1 be 6b c6 a6 be
       0.20834349 0.13253579 -0.40875316 -0.32573256
0002d0 1b 52 7f bd e2 1a b1 3c 37 3b 97 3e e9 98 ea be
       -0.06233416 0.021619264 0.29537365 -0.45819786
0002e0 bf c4 b2 3c 3e ec 4d bd f4 5a ed bb f0 8e 58 3d
       0.021822331 -0.050274126 -0.0072435085 0.05287069
0002f0 9b ac 9c be 64 a3 4d 3e a0 0f d2 bd cb 65 c9 3d
       -0.30600438 0.2008186 -0.102568865 0.098338686
000300 5c 4d aa bd 45 3c a7 be 05 e8 90 3d 74 b8 e6 3d
       -0.083155364 -0.3266317 0.07075504 0.112656504
000310 44 52 7c be c2 66 0a 3e ac 3e 90 3d dc 88 bb bd
       -0.24640757 0.13515761 0.07043204 -0.09156963
000320 d1 55 45 3e 75 12 af bd 2d 00 d7 be 89 3f 7e 3d
       0.19271018 -0.08548442 -0.41992322 0.06207231
000330 99 98 11 bf a0 d0 e0 3d 77 af 71 bc 1f 63 bd bc
       -0.5687347 0.10977292 -0.014751307 -0.023118554
000340 6d 46 b0 3c 26 01 b2 3d 3f 77 34 3d 2b 7a 9c be
       0.021517957 0.08691625 0.044059034 -0.30561957
000350 39 3b 12 3d e8 8f 4d be ef 37 ac 3d a4 b5 66 3e
       0.03570101 -0.20074427 0.08409106 0.22530228
000360 8e dc a1 bd 3f b3 95 be 44 2e d1 be bc 58 82 3d
       -0.079033956 -0.29238316 -0.4085561 0.06364581
000370 96 e1 b6 be 61 ee 50 3d 72 46 8b 3d 3d 60 c2 3c
       -0.35718983 0.051008586 0.06800546 0.02372753
000380 5b c9 dc be 01 48 53 be 68 12 05 3e b0 b2 6f 3d
       -0.43122372 -0.20632936 0.12995303 0.05852002
000390 e4 36 ed bc 47 b0 17 be b2 b9 9a 3d 4a 40 0d bf
       -0.028956838 -0.14813338 0.0755495 -0.5517622
0003a0 22 c8 09 bd 52 c4 0b 3e 9d dc d3 3e a0 a7 06 3d
       -0.033638127 0.13649109 0.41379252 0.032874703
0003b0 26 a2 a2 bc 76 83 bb bc e2 db dd 3d f4 fe 96 3d
       -0.019852709 -0.022889834 0.10832955 0.07372847
0003c0 8f 39 5b bd cb bd db bd 4d e9 10 3e ed 14 a9 3d
       -0.05352169 -0.107295595 0.14151497 0.082559444
0003d0 79 18 c4 3d ea 30 84 bb 47 d0 ef bd 37 36 bb bd
       0.0957498 -0.0040341513 -0.117096476 -0.091412
0003e0 95 e8 0f bc 07 bb 3b bc f7 ab c6 3d 1f ee 03 3d
       -0.008783479 -0.011458165 0.097007684 0.03220951
0003f0 69 ab 26 3c 76 4e b6 39 08 c6 ce be 29 ad b2 3d
       0.010172703 0.00034772203 -0.4038546 0.08724434

layers.2.bias f4 [128]
000000 52 a9 a3 3c d4 3a 7e 3d b8 20 6d 3d ad ea 7f be
       0.0199782 0.06206782 0.05789253 -0.24991865
000010 a5 af c9 bb de 4a c1 3e 53 51 ec bd 20 46 b9 bb
       -0.0061549717 0.37752432 -0.11538949 -0.0056541115
000020 60 9b 09 3d 77 68 e4 3d 89 d9 3f 3c ff 0f 22 bc
       0.033595443 0.111527376 0.011709579 -0.009891509
000030 88 32 be 3d 3d a4 e2 3e 89 0d 41 bd 7b 6e 3c be
       0.09286982 0.4426593 -0.04713205 -0.1840152
000040 69 89 c9 bd 90 ab 05 bd 94 9f 8f 3c 4a 43 01 3c
       -0.09840662 -0.032634318 0.017532147 0.007889578
000050 f6 5f 9a bd c8 15 92 3d ff f3 c6 3e 76 5a 9d bd
       -0.07537834 0.07133061 0.3885803 -0.0768327
000060 60 7d d1 bc a0 d6 e5 3d 39 47 02 3d 29 83 ba bb
       -0.025572479 0.11222577 0.031806204 -0.005691905
000070 65 fd 5c 3c fd 6a a2 bd 1e 5d b0 3d 55 49 bd 3e
       0.013488148 -0.07930563 0.08611511 0.3697001
000080 58 6b bb bc d9 bb c0 3c bd fe 72 bc c9 db c1 bd
       -0.022878334 0.023527073 -0.014831242 -0.09465749
000090 b4 e1 1e be d9 5c 2c 3c 5d 71 30 bc aa 20 e8 3c
       -0.15515786 0.0105201835 -0.010769215 0.028335888
0000a0 68 2a a0 3d 91 cc 99 bc cc c7 87 3c 30 93 7c 3d
       0.07820588 -0.018774303 0.016574763 0.061663806
0000b0 c7 0d b5 3d 34 0d 2d be d4 dc 74 bd bb e0 b9 3d
       0.088405184 -0.16899568 -0.05978091 0.09076067
0000c0 27 cb a4 bd 40 72 ae 3e a2 5a cf 3d 8d b9 ab 3e
       -0.08046561 0.3407154 0.10124709 0.33540002
0000d0 7c 55 8b 3d 6f d2 e0 3e b7 55 8f 3e e6 df 81 3d
       0.06803414 0.43910548 0.27995083 0.06341533
0000e0 fa 94 58 bd 1f 05 2f bd 24 56 79 bd 26 01 d3 3d
       -0.05287645 -0.042729493 -0.060873166 0.103029534
0000f0 d4 60 9b bd 81 d6 48 bd 34 5d 24 3e a5 5e 21 be
       -0.07586828 -0.049032692 0.16051179 -0.1575876
000100 51 d3 99 3a 75 58 f8 3e f2 3e 64 be a8 59 11 3e
       0.0011735951 0.48504987 -0.22289637 0.14194357
000110 bc e2 6d 3e 06 66 2b 3d bb 3d 43 3e 78 54 b7 bd
       0.23231024 0.041845344 0.19066517 -0.08951658
000120 12 7f 13 3d 46 44 c1 3e 8c c9 66 be 3b d8 89 3e
       0.036009856 0.377474 -0.22537822 0.26922783
000130 f2 80 7c ba 5a c2 e7 3e 4a 8c b1 3e 7f d8 a6 3d
       -0.00096322515 0.45265466 0.34677345 0.08146762
000140 e6 98 a7 3d 23 71 cc 3d 43 0a 08 3e 9b 42 d9 3d
       0.0818346 0.099825166 0.13285165 0.10608407
000150 aa ec 0c 3e f5 f6 85 bd 4a 48 81 3e 45 2e cd 3e
       0.13762155 -0.06541244 0.25250465 0.40074363
000160 66 00 4f be 32 92 c7 3e 33 5a 6a bd e2 dd c9 3e
       -0.20214996 0.38978726 -0.057214927 0.39427096
000170 10 89 35 bb 24 ab 54 bc 35 58 18 3e 78 c9 7b 3e
       -0.0027700104 -0.012980256 0.14877398 0.24588573
000180 7d 30 72 3e 6c 79 86 bc d2 19 59 3c 77 cb 08 be
       0.2365131 -0.01641532 0.013250785 -0.13358866
000190 14 d5 39 bd a4 64 c2 bb c3 6b b5 ba 76 e6 1b 3b
       -0.045369223 -0.0059324075 -0.001384132 0.0023788488
0001a0 e3 34 7c 3d e2 c2 90 3d d2 6a d5 bd ed 4e 57 bd
       0.061573874 0.07068421 -0.10420765 -0.052565504
0001b0 38 aa 90 3e ae 9a a9 3d 9d c2 d5 3d 5d a4 e1 ba
       0.28254867 0.08281456 0.1043751 -0.0017215122
0001c0 76 e5 59 bd 4b 35 94 3d 2e e6 54 bd ab ac 29 bd
       -0.053197347 0.07236727 -0.05197733 -0.041424435
0001d0 29 ea 62 bd 67 c1 50 be 1d 76 65 3d f2 57 da 3e
       -0.055399094 -0.20386277 0.056020845 0.42645222
0001e0 8e 09 95 bd a3 bd de 3e d2 f6 5f bd 79 f5 b2 3b
       -0.07277213 0.43504056 -0.054678746 0.0054613915
0001f0 b4 e0 68 3d 8f 38 02 be 8f 8a a5 bd 87 b0 aa bc
       0.05685492 -0.12716888 -0.080830686 -0.020836128

layers.3.weight f4 [1, 128]
000000 a1 7c 92 3e 34 b6 85 3e 1c b4 b5 3e 10 18 f0 be
       0.2861071 0.26115572 0.35488975 -0.46893358
000010 ea 20 0b 3e 99 f3 e5 be a5 4e 0d bb 7d 91 95 bc
       0.13586774 -0.44912413 -0.0021561768 -0.01825785
000020 03 fe 59 3e 27 d2 27 3e b8 32 5b 3e 73 dd 4e 3e
       0.21288304 0.1638876 0.21406066 0.20201664
000030 9d 1e 44 3e 56 62 3a bf 74 88 74 bb 39 69 d6 be
       0.19152303 -0.728063 -0.0037312778 -0.41877154
000040 dd f4 86 3a 4d 93 29 3e 2f 28 32 3e 6f 20 d5 3d
       0.0010296364 0.16560097 0.17398141 0.10406577
000050 47 14 aa 3b 82 eb 2a 3e 7e 71 02 bf 4f 38 3a 3d
       0.0051904055 0.16691402 -0.50954425 0.045463856
000060 8f 60 6f 3e 5c 8c 08 3e 2b e3 04 bf c4 84 0a bf
       0.23376678 0.13334793 -0.5190913 -0.54108834
000070 21 1d 08 3e 5e 60 89 be 5b 18 6c 3e d9 bd d5 be
       0.13292362 -0.26831335 0.23056166 -0.41746405
000080 9c 92 0d 3b 2f 9a 83 3e af 7d a3 3e 3c 56 89 3b
       0.0021602279 0.2570357 0.31931826 0.004191188
000090 d2 f8 03 bf 68 4a 14 3e fc 41 15 3e 11 83 d2 bc
       -0.51551545 0.14481509 0.14575952 -0.025697263
0000a0 37 ce 71 3e 97 b2 2b 3e e4 0d 84 bd 54 13 66 3e
       0.23613821 0.16767345 -0.06447962 0.2246831
0000b0 ce 39 ff 3d 2f 50 e6 be 61 b0 52 bc 92 fe 2e 3e
       0.12462197 -0.4498305 -0.012859435 0.17089298
0000c0 a1 f8 c7 3b f6 42 f9 be 86 f0 04 bf f0 91 b0 be
       0.006102637 -0.486839 -0.5192951 -0.3448634
0000d0 bc c5 0d 3e e7 e1 f4 be c5 12 a1 be e0 0b 50 3e
       0.13844961 -0.478286 -0.31459633 0.2031703
0000e0 b2 06 61 bd 9e 53 fc ba ac d6 84 bd a9 00 7f be
       -0.054938026 -0.0019250994 -0.06486258 -0.24902596
0000f0 07 15 ff bc 44 00 73 3b 66 80 93 3e dc 19 d1 be
       -0.031137956 0.0037079016 0.28808898 -0.40840042
000100 9d f1 55 3e bc 94 ec be c6 85 ea 3e 13 d5 af bd
       0.2089295 -0.46207225 0.45805186 -0.085855626
000110 3c 52 9b be 84 6a 3f 3e 72 35 96 3e 7a af 5e 3b
       -0.30336177 0.18692976 0.2933765 0.0033979104
000120 68 ed 29 3e cb 12 59 bf 2d 42 80 bf db b5 e9 bd
       0.1659447 -0.847943 -1.0020195 -0.11411639
000130 37 09 1a 3e cb 8f 13 bf 95 32 59 bf 3b 81 71 3e
       0.15042578 -0.57641286 -0.8484281 0.23584454
000140 b9 fc 58 3e 98 73 0b 3e cc 47 80 3e 9d cf 1a 3e
       0.21190156 0.13618314 0.25054777 0.1511826
000150 09 28 ab bd e7 5a 3e bd c7 a0 01 bf db 30 4a bf
       -0.083572455 -0.04647341 -0.5063595 -0.789808
000160 09 58 24 3f 94 be e2 be ae f9 ac b8 ec 67 03 bf
       0.6419683 -0.44286025 -8.2481056e-05 -0.5133045
000170 ce c0 03 bf 8c b8 e8 3e 6b 3e 61 3e 66 c6 d1 be
       -0.5146607 0.45453298 0.21996467 -0.40971678
000180 ef a8 ed bd c6 15 61 3e 3b 36 28 3e ec a7 df be
       -0.11604487 0.21980962 0.16426937 -0.43682802
000190 20 99 43 be 0d 31 8f 3d 20 aa 2c 3e 3f 91 65 3e
       -0.19101381 0.069917776 0.16861773 0.22418688
0001a0 97 1c 62 3e 20 79 11 3e ef 5a bb 3c c2 a1 3b 3e
       0.22081219 0.14206362 0.022870509 0.18323424
0001b0 43 76 7e be 2b d6 fd 3d a8 88 7f 3e e6 5e 10 3e
       -0.24849801 0.12394365 0.24954474 0.14098701
0001c0 db 10 00 3f 54 ef 43 3e 17 27 4e 3e b5 7c be be
       0.5002572 0.19134265 0.20132099 -0.3720452
0001d0 3c c4 1a 3e 8f 6d f2 be b4 b2 ec 3d 3b 34 0b bf
       0.1511392 -0.47349212 0.115575224 -0.5437657
0001e0 2a 4e 6f bd 78 de 15 bf fe 90 13 bc bc 35 f3 3d
       -0.058424152 -0.58542585 -0.009006737 0.118754834
0001f0 0a 77 f9 3d 0f 98 c5 be d9 e9 5a bd 3f 1e 3c bb
       0.12180908 -0.38592574 -0.05344567 -0.0028704552
