new_models/base+wp_16849288/qf2_final.pth (torch, 186584 bytes, 7 tensors)

layers.0.weight f4 [128, 98]
0.067221895 0.10010164 0.02399222 -0.08446473 -0.1229741 0.018856578 0.07814991 -0.07820576
0.02107274 0.031432882 -0.002406452 0.05452241 0.07095897 0.09420927 0.067034476 0.0003790677
-0.11792688 0.109948024 -0.027125522 0.038074203 -0.031350307 -0.17418967 -0.12200489 -0.10903811
-0.07108956 -0.0813662 0.047440317 -0.10394803 0.07171519 -0.06630128 0.036855627 0.08001051
-0.034351185 0.037389986 -0.038229205 0.026414106 -0.14342111 -0.078878164 -0.053552233 -0.15789509
-0.08161141 -0.09993169 -0.06850936 -0.015645612 -0.0027440577 -0.055174753 -0.11037845 -0.041642427
0.11182882 0.09243475 -0.027159814 -0.066236444 0.06520149 -0.021913016 -0.19737971 -0.19660608
-0.19174294 -0.05022226 -0.2256105 -0.13948962 0.0152554605 -0.0103595285 -0.09313483 -0.13848321
-0.036139883 -0.09650006 0.032037746 0.05911741 0.011857951 0.21085195 -0.05190756 -0.02994753
-0.08346682 0.08243988 -0.13904084 -0.021301474 0.21553262 0.070767276 0.0153630255 -0.085936286
0.008648401 -0.06510845 0.07147318 0.16392666 0.1886283 -0.16074239 -0.087042496 0.12890916
0.21844555 -0.026121281 0.44061 0.04531631 -0.10383807 0.10290486 0.040907968 0.18640755
0.08777776 0.12315643 0.053636108 -0.0540144 -0.061067283 0.00085955823 -0.114775605 -0.08659242
-0.074632175 0.06818137 -0.0073214425 0.005399039 0.03305893 0.012054164 0.0073906914 0.09167413
0.047159158 0.047596827 -0.09382475 -0.07785247 0.06467138 -0.018265914 0.08261739 0.029664151
-0.06416164 0.061307006 0.06278213 -0.058890898 -0.05581683 0.0027137208 0.02242247 -0.056126546
-0.07559891 -0.07272107 -0.13758181 0.022957524 -0.10006632 -0.028650906 -0.05618311 -0.025861237
0.019567179 0.007194552 -0.027149292 0.038000256 0.009568944 -0.007492467 -0.06925992 -0.07239011
0.030264035 -0.0776391 -0.09971754 0.021830158 0.024893725 -0.025937632 -0.04471033 0.015162994
0.06272178 0.13874349 0.04846952 -0.045582324 -0.08154196 -0.057847228 -0.13481231 -0.01261601
-0.17500225 0.019620478 0.052809414 0.048811134 -0.060203236 0.11931584 0.065524995 -0.22628236
0.003911467 -0.16478331 -0.17689204 0.038850818 0.022323972 0.014171144 -0.34394377 0.044899996
-0.2603789 0.0084401015 0.09450425 0.04740251 0.1818861 -0.17108855 0.13834582 -0.22021782
0.04208069 0.18302953 0.08310183 0.24263814 -0.1529021 -0.24663119 -0.23252271 0.57292324
0.09087734 -0.093290575 -0.15803015 -0.2544942 0.0753752 -0.0189934 -0.08827037 -0.09237914
0.12080398 0.0065488187 -0.16309117 0.025397446 -0.05980504 -0.029672157 0.054845344 -0.018060012
-0.1281915 0.06126493 -0.014750513 0.033734575 0.08138381 -0.04203041 0.008191755 -0.024335926
-0.021509191 0.020682681 -0.1038443 0.03773721 -0.038458314 0.017544424 -0.028341904 0.010875177
-0.06558538 -0.049877733 0.022418031 0.033151492 0.078831725 0.07386348 0.122464076 0.008370595
0.076961696 0.0016033947 -0.063223414 0.0060363323 -0.0927706 0.048362505 0.093145266 0.045089435
0.030303571 -0.07795459 -0.0430955 -0.10230829 0.08181298 0.14262684 0.13869804 0.06922091
-0.03145184 0.020540264 0.018010635 0.037030123 -0.09433362 0.030507898 0.06483519 0.10784933
00000000: a2ab 893d 1702 cd3d 558b c43c d8fb acbd
00000010: d8d9 fbbd 1c79 9a3c 0f0d a03d 572a a0bd
00000020: bda0 ac3c c4bf 003d 91b5 1dbb e452 5f3d
00000030: f052 913d caf0 c03d 5f49 893d 9bbd c639
00000040: a683 f1bd 6e2c e13d 5836 debc b2f3 1b3d
00000050: 2e69 00bd c75e 32be b3dd f9bd 5f4f dfbd
00000060: 6797 91bd 52a3 a6bd c750 423d b4e2 d4bd
00000070: 6adf 923d f7c8 87bd edf5 163d 8ddc a33d
00000080: d4b3 0cbd 3e26 193d 3a96 1cbd 6562 d83c
00000090: fcdc 12be e08a a1bd 9659 5bbd 40af 21be
000000a0: e223 a7bd fca8 ccbd a34e 8cbd 3a2b 80bc
000000b0: a6d5 33bb ecfe 61bd 190e e2bd 4091 2abd
000000c0: 8206 e53d 6e4e bd3d 427e debc f9a6 87bd
000000d0: 5c88 853d ed82 b3bc e81d 4abe 1b53 49be
000000e0: 4358 44be dbb5 4dbd 7006 67be 5ed6 0ebe
000000f0: 0af2 793c 03bb 29bc 79bd bebd 8bce 0dbe
00000100: 6a07 14bd d3a1 c5bd 033a 033d 1925 723d
00000110: da47 423c 93e9 573e 069d 54bd 8654 f5bc
00000120: a7f0 aabd 3dd6 a83d b960 0ebe 6e80 aebc
00000130: 95b4 5c3e 6fee 903d 33b5 7b3c 5dff afbd
00000140: 06b2 0d3c 9457 85bd 8860 923d 64dc 273e
00000150: c727 413e a799 24be 5643 b2bd c300 043e
00000160: 31b0 5f3e 4cfc d5bc a297 e13e 989d 393d
00000170: 0ea9 d4bd c9bf d23d 1d8f 273d 9fe1 3e3e
00000180: d4c4 b33d 7039 fc3d 89b1 5b3d 343e 5dbd
00000190: b021 7abd fa53 613a 790f ebbd 5e57 b1bd
000001a0: c1d8 98bd ada2 8b3d b6e8 efbb 6cea b03b
000001b0: cd68 073d d47e 453c 9d2d f23b a5bf bb3d
000001c0: f629 413d e4f4 423d 3127 c0bd 1e71 9fbd
000001d0: 6e72 843d 66a2 95bc 4e33 a93d 3c02 f33c
000001e0: 2e67 83bd 0e1d 7b3d eb93 803d 9537 71bd
000001f0: 30a0 64bd aed8 313b 54af b73c f3e4 65bd
00000200: 9ad3 9abd c9ee 94bd 3fe2 0cbe 6b11 bc3c
00000210: 92ef ccbd 4eb5 eabc 4320 66bd f2da d3bc
00000220: 594b a03c 47c0 eb3b 3168 debc 28a6 1b3d
00000230: 0fc7 1c3c 5e83 f5bb 25d8 8dbd 4441 94bd
00000240: 48ec f73c 4001 9fbd b638 ccbd 29d5 b23c
00000250: eded cb3c 287b d4bc 2e22 37bd 356e 783c
00000260: 4774 803d c612 0e3e fa87 463d 88b4 3abd
00000270: 79ff a6bd 37f1 6cbd 3d0c 0abe 62b3 4ebc
00000280: ca33 33be 20bb a03c af4e 583d 2fee 473d
00000290: ab97 76bd dd5b f43d f831 863d 90b6 67be
000002a0: c32b 803b f5bc 28be 3023 35be 0922 1f3d
000002b0: c3e0 b63c 162e 683c 6619 b0be 0fe9 373d
000002c0: 6250 85be 5a48 0a3c 728b c13d 2229 423d
000002d0: 5a40 3a3e d631 2fbe 87aa 0d3e c880 61be
000002e0: cd5c 2c3d 186c 3b3e 4b31 aa3d 2276 783e
000002f0: 5e92 1cbe e38c 7cbe 6f1a 6ebe 19ab 123f
00000300: e61d ba3d 210f bfbd a8d2 21be 104d 82be
00000310: 505e 9a3d 0c98 9bbc 19c7 b4bd 4631 bdbd
00000320: 1468 f73d 7997 d63b 5f01 27be 4e0e d03c
00000330: 21f6 74bd 0613 f3bc 83a5 603d 97f2 93bc
00000340: a244 03be eff0 7a3d 23ac 71bc 442d 0a3d
00000350: 8eac a63d 1428 2cbd b636 063c 235c c7bc
00000360: 0b34 b0bc ba6e a93c 52ac d4bd 5592 1a3d
00000370: 7786 1dbd 53b9 8f3c 482d e8bc cc2d 323c
00000380: a151 86bd 984c 4cbd 05a6 b73c dcc9 073d
00000390: 8772 a13d bc45 973d 72ce fa3d d224 093c
000003a0: 189e 9d3d 0029 d23a 477b 81bd 6dcc c53b
000003b0: 83fe bdbd c317 463d f2c2 be3d b3af 383d
000003c0: 323f f83c a8a6 9fbd e884 30bd 0287 d1bd
000003d0: 908d a73d c50c 123e dc06 0e3e b1c3 8d3d
000003e0: a5d3 00bd 0e44 a83c 0a8b 933c e6ac 173d
000003f0: fc31 c1bd b3eb f93c 50c8 843d 1ce0 dc3d

layers.0.bias f4 [128]
-0.017988723 0.2855697 -0.26993126 0.05906827 0.020448709 -0.021471659 -0.18621032 0.047420915
0.08629141 0.16603588 0.15806206 0.093196034 0.15878204 0.007976469 0.12870266 0.06243485
0.0053757136 0.033926025 0.0037620645 -0.16374408 0.2576951 0.018628377 0.17561421 0.08754013
-0.1512706 0.027971942 -0.16112456 0.022387013 0.16106458 -0.011745593 0.035608638 -0.1343328
0.030286351 0.11026119 -0.14743854 -0.17246187 -0.050377958 -0.14963327 -0.43765068 0.10165227
0.087599985 0.08179691 -0.035410278 0.025289666 0.016470864 -0.18354191 0.25936165 0.31526342
0.17791736 -0.06790938 0.07716076 0.03001766 0.37585866 0.07049976 0.32440183 -0.20049885
-0.005532942 0.13569485 0.119225465 0.10088637 -0.048141804 -0.018111516 0.043583274 0.09648856
-0.032545734 0.009486059 -0.08453641 -0.051339068 -0.053219967 -0.14741045 -0.047773916 -0.25353435
0.21682811 -0.023808561 0.2028432 0.13289638 0.06467791 0.10033815 -0.04339532 0.28631264
0.06661968 -0.12799676 0.017106973 -0.1179149 0.15262 0.13817552 0.062969565 -0.05756022
-0.059953533 0.07849135 0.222791 0.00236549 -6.287177e-05 0.1726427 -0.07088298 0.14528187
-0.035963725 -0.009072029 0.04026811 0.20451877 -0.19929112 0.27790177 0.21426159 -0.20968916
-0.11971151 -0.080449075 0.21970515 0.22513878 -0.0601261 0.3061068 0.09055023 0.1801014
0.10355229 -0.105912514 0.06814832 0.026979284 0.091677986 0.04186812 -0.14116678 -0.13240495
0.12888807 0.2359468 0.15883286 -0.018152881 0.15484299 -0.10357376 0.16776001 0.20843802
00000000: 165d 93bc 3136 923e 6e34 8abe 92f1 713d
00000010: 0d84 a73c 55e5 afbc ebad 3ebe 6f3c 423d
00000020: 8db9 b03d 4f05 2a3e 05db 213e 90dd be3d
00000030: c297 223e bcaf 023c a1ca 033e afbb 7f3d
00000040: c126 b03b 04f6 0a3d f88c 763b 87ac 27be
00000050: 9df0 833e 8a9a 983c 36d4 333e 3d48 b33d
00000060: aee6 1abe 6a25 e53c d6fd 24be f864 b73c
00000070: 1dee 243e 9670 40bc 5dda 113d 8a8e 09be
00000080: 151b f83c 9ed0 e13d 21fa 16be d899 30be
00000090: 1e59 4ebd 7739 19be c013 e0be 112f d03d
000000a0: 9f67 b33d 2385 a73d 5e0a 11bd 462c cf3c
000000b0: e8ed 863c 69f2 3bbe 0dcb 843e 356a a13e
000000c0: f82f 363e 1314 8bbd 7606 9e3d 99e7 f53c
000000d0: 8c70 c03e 2e62 903d ff17 a63e 924f 4dbe
000000e0: ae4d b5bb 97f3 0a3e 7b2c f43d 839d ce3d
000000f0: 5730 45bd 9a5e 94bc 6084 323d cb9b c53d
00000100: ad4e 05bd 6a6b 1b3c 6d21 adbd ea48 52bd
00000110: 2efd 59bd c4f2 16be 95ae 43bd 41cf 81be
00000120: 3008 5e3e 2c0a c3bc 21b6 4f3e fd15 083e
00000130: da75 843d 177e cd3d 4bbf 31bd 9297 923e
00000140: e66f 883d 9511 03be ec23 8c3c 5e7d f1bd
00000150: 6b48 1c3e e27d 0d3e 30f6 803d 44c4 6bbd
00000160: d691 75bd 13c0 a03d 5323 643e 5606 1b3b
00000170: 06da 83b8 3fc9 303e 192b 91bd c5c4 143e
00000180: b34e 13bd d9a2 14bc 2cf0 243d 5e6d 513e
00000190: f912 4cbe 2449 8e3e 6467 5b3e c1b8 56be
000001a0: 4f2b f5bd 7cc2 a4bd 63fa 603e c88a 663e
000001b0: c946 76bd 08ba 9c3e 6672 b93d 806c 383e
000001c0: 3913 d43d a9e8 d8bd 5991 8b3d a903 dd3c
000001d0: abc1 bb3d e87d 2b3d 068e 10be 2a95 07be
000001e0: 3cfb 033e 0a9c 713e 15a5 223e 5ab5 94bc
000001f0: 298f 1e3e 7b1e d4bd 48c9 2b3e c770 553e

layers.1.weight f4 [128, 128]
0.09770025 0.018863302 -0.04491558 0.00089372444 0.044660833 -0.035826623 0.115218505 0.048519883
0.100216836 0.02723124 -0.15830658 -0.021638174 0.1457202 -0.06436343 -0.009432452 0.049566824
-0.13461837 -0.0696329 -0.02047741 -0.039857727 0.0938518 0.09158194 0.14379658 -0.050686307
-0.07428908 -0.036632746 -0.15935428 0.045137968 -0.055981714 -0.16737536 0.25383568 -0.11792843
0.04880069 0.06519695 -0.0015555272 0.073461734 0.024596414 -0.0018156661 0.011083637 0.0042967703
-0.030240538 0.10369798 -0.05540318 0.07087109 -0.0152582405 -0.09015632 0.0825884 0.07262688
0.07257274 -0.015344865 0.0019938438 0.040517688 0.11320063 -0.04885058 -0.16769408 -0.15153575
0.14249331 0.11850254 0.042843334 -0.09683881 0.032008808 0.12613067 0.12158566 0.027247306
-0.029069519 0.10943164 0.03709561 0.15260582 0.061918844 -0.011982898 -0.050600655 -0.024558736
0.00063639047 -0.037266187 0.0012604573 -0.042282216 -0.028606787 -0.03758208 0.10413757 0.12018869
0.106075905 0.072661504 0.032922387 0.068415955 -0.11042966 0.0672757 0.05134236 -0.08535375
-0.08053434 -0.102169186 -0.1323334 0.06313795 0.069433406 -0.05011 0.054762434 -0.12091655
-0.029653385 -0.30426764 -0.06006419 0.04424525 0.028453294 -0.016535277 -0.11561633 0.044599827
0.08442573 0.14212982 -0.028276496 0.015376468 0.015761621 -0.010915919 -0.09213109 -0.13519771
-0.0557078 0.059151635 -0.023132456 0.05340837 0.083573684 -0.020003047 0.16073027 -0.2731036
-0.009064759 -0.19156322 0.00857706 0.039364114 0.112037554 -0.01588477 0.07233395 -0.09161412
0.11151271 0.07307548 0.1636156 -0.1071039 -0.049804498 -0.07602123 0.15563829 -0.050272256
-0.07300339 -0.17970663 -0.03687343 -0.024280392 -0.05452646 -0.06786094 -0.010475208 0.12826239
-0.0149421925 0.035553236 -0.098527424 0.15904033 -0.13776934 -0.06753775 0.016445491 0.048016157
-0.03617517 -0.08689057 -0.071733505 -0.15445769 -0.07031169 -0.11098259 0.21888883 -0.08251449
-0.033003647 -0.18085182 0.0042116833 0.109885685 -0.045520183 -0.1591761 0.14850964 0.01810919
-0.17718516 -0.14994423 0.067848854 0.097205386 -0.09137695 -0.008669397 0.13424264 0.014690705
-0.028606134 -0.10971716 0.036034137 -0.045950837 0.22996154 -0.21715453 -0.16534142 -0.1084182
0.21922491 -0.054144986 -0.3114132 0.03680598 0.18513909 0.21334068 0.007950591 -0.08560249
-0.11948182 0.16672374 0.046997923 0.072467476 -0.07596962 0.00012600642 -0.021421941 0.024257027
-0.0632927 -0.2718365 -0.1741921 0.08111441 -0.12976359 0.18562438 -0.056543224 -0.109903276
0.012714369 0.24148145 0.04728452 0.11272543 -0.0597402 0.0015375748 0.13617718 0.042511072
-0.19041322 -0.16410062 -0.09875981 0.18069012 -0.031489592 0.10407196 0.057398148 0.0077510155
0.046455696 -0.058164164 -0.11396699 -0.058760017 -0.15367782 0.016321747 -0.23931205 0.09873634
-0.119060926 0.08898698 -0.09767937 0.019935159 -0.35608196 -0.090169124 -0.1719408 -0.036081817
0.046667233 -0.01643035 -0.13077798 -0.010216127 -0.08660623 0.075725816 0.009857982 0.16379592
0.14235425 -0.11778942 -0.004708652 0.066563904 -0.010375113 -0.0021891834 -0.060823616 0.046995822
00000000: 1217 c83d 3687 9a3c 66f9 37bd d548 6a3a
00000010: 47ee 363d f0be 12bd aef7 eb3d c9bc 463d
00000020: 7c3e cd3d 0d14 df3c 1f1b 22be 8a42 b1bc
00000030: ad37 153e f9d0 83bd 928a 1abc 9506 4b3d
00000040: 66d9 09be b29b 8ebd 3ec0 a7bc db41 23bd
00000050: 5f35 c03d 508f bb3d 693f 133e 729c 4fbd
00000060: e024 98bd 380c 16bd c52d 23be 97e2 383d
00000070: 154d 65bd 7264 2bbe c0f6 813e 7684 f1bd
00000080: 3be3 473d fb85 853d d5e2 cbba 1b73 963d
00000090: 6b7e c93c a5fb edba 2598 353c eccb 8c3b
000000a0: 01bb f7bc 9b5f d43d 72ee 62bd dd24 913d
000000b0: b3fd 79bc e0a3 b8bd 1b24 a93d 67bd 943d
000000c0: 04a1 943d 0769 7bbc 26ab 023b e0f5 253d
000000d0: bbd5 e73d 8c17 48bd ffb7 2bbe 302c 1bbe
000000e0: c4e9 113e 76b1 f23d 7e7c 2f3d 6d53 c6bd
000000f0: ab1b 033d 6628 013e e701 f93d be35 df3c
00000100: 3323 eebc b21d e03d 91f1 173d b344 1c3e
00000110: 9d9e 7d3d eb53 44bc a242 4fbd 672f c9bc
00000120: 71d3 263a 6ea4 18bd ee35 a53a 1e30 2dbd
00000130: c858 eabc abef 19bd 1446 d53d 7d25 f63d
00000140: 533e d93d 8ecf 943d a0d9 063d aa1d 8c3d
00000150: f228 e2bd d8c7 893d 5e4c 523d f2cd aebd
00000160: 30ef a4bd 143e d1bd 6882 07be 784e 813d
00000170: 1a33 8e3d 2540 4dbd 934e 603d 19a3 f7bd
00000180: a8eb f2bc f8c8 9bbe de05 76bd 823a 353d
00000190: e216 e93c fd74 87bc 41c8 ecbd 4fae 363d
000001a0: 66e7 ac3d 7b8a 113e 1ca4 e7bc 95ed 7b3c
000001b0: 841e 813c afd8 32bc 3aaf bcbd 4571 0abe
000001c0: dd2d 64bd fc48 723d 4780 bdbc bcc2 5a3d
000001d0: ae28 ab3d 6edd a3bc 7a96 243e 3cd4 8bbe
000001e0: 5b84 14bc 2629 44be cc86 0c3c 443c 213d
000001f0: f273 e53d c720 82bc d223 943d 2fa0 bbbd
00000200: c760 e43d 99a8 953d d98a 273e 4a59 dbbd
00000210: cdff 4bbd 05b1 9bbd a55f 1f3e 48ea 4dbd
00000220: cd82 95bd 0405 38be 9808 17bd ace7 c6bc
00000230: 2357 5fbd adfa 8abd 35a0 2bbc 3757 033e
00000240: 19d0 74bc 45a0 113d bfc8 c9bd 78db 223e
00000250: 6813 0dbe 3b51 8abd b2b8 863c 97ac 443d
00000260: 6a2c 14bd aff3 b1bd 04e9 92bd 282a 1ebe
00000270: 93ff 8fbd d74a e3bd 6524 603e 5bfd a8bd
00000280: d52e 07bd 3831 39be 2902 8a3b bf0b e13d
00000290: 5f73 3abd 0fff 22be e912 183e b959 943c
000002a0: 0770 35be fb8a 19be 57f4 8a3d 9e13 c73d
000002b0: d723 bbbd 160a 0ebc e776 093e 48b1 703c
000002c0: 6957 eabc 64b3 e0bd 8898 133d f236 3cbd
000002d0: 0a7b 6b3e c25d 5ebe 434f 29be 5c0a debd
000002e0: 7f7c 603e 22c7 5dbd 8d71 9fbe dec1 163d
000002f0: 1a95 3d3e fb75 5a3e 3243 023c 5c50 afbd
00000300: e2b2 f4bd a1b9 2a3e e580 403d d469 943d
00000310: f695 9bbd 9720 0439 117d afbc acb6 c63c
00000320: 9a9f 81bd 272e 8bbe 6a5f 32be 501f a63d
00000330: bfe0 04be 5114 3e3e de99 67bd f814 e1bd
00000340: ee4f 503c ea46 773e 6aad 413d 97dc e63d
00000350: 24b2 74bd 7388 c93a 0872 0b3e 1720 2e3d
00000360: affb 42be fe09 28be 9542 cabd d506 393e
00000370: 3bfb 00bd ae23 d53d 521a 6b3d 3bfc fd3b
00000380: 5448 3e3d 8c3d 6ebd 8667 e9bd 58ae 70bd
00000390: b85d 1dbe 2fb5 853c 380e 75be 4736 ca3d
000003a0: 37d6 f3bd ce3e b63d 1f0c c8bd 0f4f a33c
000003b0: 6050 b6be 97aa b8bd 4011 30be 87ca 13bd
000003c0: 2426 3f3d f198 86bc aaea 05be 8b61 27bc
000003d0: 9b5e b1bd 2316 9b3d 6083 213c 1eba 273e
000003e0: 50c5 113e 943b f1bd 094b 9abb a852 883d
000003f0: 61fc 29bc 6778 0fbb 2f22 79bd b17e 403d

layers.1.bias f4 [128]
0.21229824 -0.1228882 -0.07482606 0.14650324 0.23575835 -0.06827536 0.2254298 0.08397813
0.09200219 0.22345002 0.1149685 0.08737393 -0.050502237 -0.12471686 -0.0050078845 0.05456963
0.06757852 0.10848052 -0.04659371 0.23925364 0.018189825 0.18373926 0.07816517 0.040193204
-0.12157057 -0.14819413 -0.030993884 0.15162058 0.13235827 -0.3308462 -0.11661573 0.22756056
0.12942375 0.16226146 0.03916352 0.27564532 -0.008017009 0.40892434 -0.18243656 0.0070403703
-0.09624832 -0.13680288 0.17801683 0.09133479 -0.22256824 -0.0017235375 -0.03358727 0.028842948
-0.0983479 -0.14895494 0.10342983 -0.10502408 -0.18447037 -0.09362146 0.30126718 -0.20106639
0.2660104 -0.058497395 0.06825969 0.21390322 0.015608986 0.06665417 -0.13295017 -0.03876566
-0.17094906 -0.119466156 -0.082667194 0.013564231 -0.060753655 -0.024788253 -0.08216957 0.16354556
-0.03710366 -0.049882684 0.2081815 -0.17431687 0.05741141 0.13757893 -0.0932732 0.20987515
0.06342715 0.17917039 0.04143997 -0.13487647 0.19242315 0.14381352 -0.13522841 -0.09906984
0.26391545 0.34136993 -0.109348096 -0.045867667 0.041871063 0.16767852 -0.00944704 0.14919865
-0.004993653 -0.12900876 0.19406366 -0.14961368 0.017453015 0.2794546 0.12000891 0.26146823
-0.1360831 -0.09726501 -0.07409606 -0.06044864 0.015550697 0.025344884 -0.25567624 0.29034436
-0.13022552 0.027426543 -0.08768899 0.0051474813 0.087469526 0.27258697 0.20129263 0.18494079
-0.14152595 -0.073928535 -0.031698227 -0.15591194 0.24036375 0.21019168 0.07964337 -0.004237299
00000000: b664 593e cfac fbbd 683e 99bd f204 163e
00000010: a36a 713e f4d3 8bbd 12d7 663e bafc ab3d
00000020: a56b bc3d 15d0 643e 9b74 eb3d 1af1 b23d
00000030: 6fdb 4ebd 8e6b ffbd 2e19 a4bb 6884 5f3d
00000040: 9b66 8a3d 092b de3d 0cd9 3ebd e8fe 743e
00000050: d402 953c 2526 3c3e 1015 a03d a1a1 243d
00000060: fef9 f8bd 34c0 17be e3e6 fdbc 6d42 1b3e
00000070: ed88 073e ac64 a9be 3ad4 eebd a305 693e
00000080: a987 043e de27 263e ed69 203d 6221 8d3e
00000090: c659 03bc 885e d13e a6d0 3abe e8b2 e63b
000000a0: d71d c5bd 0e16 0cbe 0b4a 363e bc0d bb3d
000000b0: eee8 63be 52e8 e1ba ce92 09bd 0c48 ec3c
000000c0: a06a c9bd a587 18be 05d3 d33d dd16 d7bd
000000d0: cde5 3cbe 9cbc bfbd b13f 9a3e 59e4 4dbe
000000e0: 8432 883e f79a 6fbd bdcb 8b3d 7209 5b3e
000000f0: d5bc 7f3c fb81 883d 1724 08be bec8 1ebd
00000100: 450d 2fbe acaa f4bd 6b4d a9bd 823c 5e3c
00000110: d3d8 78bd bc10 cbbc 8548 a8bd 7d78 273e
00000120: 02fa 17bd c951 4cbd 882d 553e 1f80 32be
00000130: 3a28 6b3d 7ee1 0c3e 0506 bfbd 83e9 563e
00000140: 18e6 813d 7178 373e f5bc 293d 0f1d 0abe
00000150: 930a 453e da43 133e 5179 0abe 21e5 cabd
00000160: ed1f 873e 0ac8 ae3e e5f1 dfbd bcdf 3bbd
00000170: fe80 2b3d ebb3 2b3e c2c7 1abc 88c7 183e
00000180: cca1 a3bb df1a 04be a0b8 463e 5434 19be
00000190: a0f9 8e3c ac14 8f3e 3bc7 f53d 2adf 853e
000001a0: 5e59 0bbe e132 c7bd adbf 97bd fe98 77bd
000001b0: 5ac8 7e3c 13a0 cf3c ffe7 82be 04a8 943e
000001c0: d759 05be a1ad e03c 4996 b3bd 34ac a83b
000001d0: 3923 b33d 8590 8b3e a81f 4e3e 1e61 3d3e
000001e0: 2eec 10be d867 97bd 00d6 01bd 61a7 1fbe
000001f0: ea21 763e 7d3c 573e 101c a33d 0ad9 8abb

layers.2.weight f4 [128, 128]
0.00080479746 0.0859024 0.22970022 -0.25267446 0.11019945 0.030605208 -0.08911188 -0.1299875
0.07595002 0.084915176 0.095494986 0.07985978 -0.3183495 -0.056911815 0.17477578 -0.3151662
-0.055293676 -0.0072589917 -0.016198749 -0.029277613 -0.38618568 -0.114806406 -0.34606344 0.108423784
0.022552183 0.32510382 0.15851507 0.049946915 0.1421593 0.002366035 0.50980115 0.066692114
0.15917107 0.016686402 0.18650043 0.11704923 -0.2089231 -0.055913664 0.15983824 0.03494377
-0.057118714 0.051682156 -0.024844484 0.11398532 0.105246134 0.027131567 0.0009516614 -0.039476708
0.22217524 0.13740394 -0.11552724 -0.19018812 -0.0046160887 -0.064550556 -0.04791896 0.14008105
0.08062155 0.009366119 0.10561007 0.0085421875 -0.042322833 -0.265677 0.044123635 0.1257837
0.13926454 -0.055471934 0.11334403 0.030065844 0.3490227 -0.15987746 0.32084748 0.046566125
0.14555438 -0.032515842 -0.2596858 -0.16268922 -0.07074665 -0.013167794 0.019030197 0.08374184
0.1584117 -0.07123533 0.10087066 0.22895408 0.028869124 -0.06285843 -0.07782346 0.17162384
0.10651516 -0.015044429 -0.23279317 0.06990502 -0.08255093 -0.08041293 -0.29005548 -0.120226264
-0.045685343 0.12641579 -0.06483775 0.4110725 -0.066763885 0.23140463 0.22633266 0.22171636
0.11246242 0.30581668 0.112191744 0.4673339 -0.061910965 0.30475768 -0.011192668 0.17476076
-0.21232462 -0.103611484 -0.040080264 0.0919035 0.017966298 0.17359534 -0.0009491023 -0.046742957
0.18721251 -0.10223589 0.026517158 -0.004846148 0.013542843 0.05483447 0.30543628 -0.11897842
-0.05962416 0.03113035 -0.17208166 0.17856455 -0.1863451 -0.024900045 0.21471931 -0.00096360414
0.024702732 -0.12429656 0.09878049 0.03302144 -0.07762032 -0.07062655 -0.04906874 0.40367994
0.10405004 0.12252377 -0.026768629 0.025543977 0.2876054 0.023541015 0.1315213 -0.05076827
0.04708049 -0.65951943 0.0037550356 -0.07826865 -0.065569736 -0.1827424 -0.25281155 -0.05534946
0.0027901938 -0.058200262 -0.44253623 -0.047721025 -0.007300093 0.13780561 -0.41387242 0.09120595
-0.013372287 0.08311101 0.0019257807 -0.031566408 -0.016417291 -0.013427826 -0.027449802 0.09803513
-0.21328673 -0.17267516 0.18374231 -0.15750918 0.048002094 -0.025983874 -0.014698916 -0.32510296
0.07907734 0.0795778 -0.045210194 0.03394276 -0.10797643 0.3566543 -0.07835155 0.022919426
-0.032776892 -0.094073236 -0.022681575 -0.11082538 -0.40223813 0.23732497 -0.59706974 0.0922691
-0.4175828 0.09870554 0.21069904 -0.040979616 -0.026401581 0.05117996 0.21193033 0.2112335
0.06316447 0.053375136 0.016130658 -0.12799793 0.029523173 -0.040733404 0.032245472 -0.28010726
-0.03891133 0.12730709 -0.013131884 -0.15538025 -0.013629963 0.124920696 0.09490301 -0.08068782
0.07507995 -0.04797716 0.11753545 -0.29819575 0.12600113 -0.2416544 -0.024584783 -0.11232745
-0.14159647 -0.25128618 -0.18634064 -0.4391429 -0.08080042 -0.27640834 -0.111792035 0.11146271
0.014210708 0.0115935225 -0.070553884 -0.3155032 0.009781953 -0.13000323 -0.0026622473 0.039215807
-0.30821326 0.17600533 0.06469094 -0.014852452 0.13423513 0.09119167 -0.14945903 -0.100644566
00000000: 0bf9 523a 99ed af3d 8936 6b3e 8c5e 81be
00000010: 40b0 e13d c6b7 fa3c 4a80 b6bd 711b 05be
00000020: af8b 9b3d 02e8 ad3d e092 c33d 868d a33d
00000030: b5fe a2be 5d1c 69bd 6cf8 323e 775d a1be
00000040: 9f7b 62bd d6dc edbb 3db3 84bc 9bd7 efbc
00000050: 21ba c5be 9f1f ebbd 3a2f b1be 4a0d de3d
00000060: 5bbf b83c 0274 a63e c651 223e 2395 4c3d
00000070: 3592 113e 7b0f 1b3b 5482 023f e095 883d
00000080: befd 223e ecb1 883c f8f9 3e3e 82b7 ef3d
00000090: f0ef 55be ba05 65bd a3ac 233e 3321 0f3d
000000a0: 50f5 69bd abb0 533d a986 cbbc 2371 e93d
000000b0: 498b d73d 0543 de3c ea78 793a 54b2 21bd
000000c0: e881 633e 9eb3 0c3e 8c99 ecbd adc0 42be
000000d0: 8f42 97bb 1533 84bd ac46 44bd 6871 0f3e
000000e0: e91c a53d 5a74 193c 184a d83d 88f4 0b3c
000000f0: b55a 2dbd d106 88be fcba 343d 71cd 003e
00000100: 5d9b 0e3e 8a36 63bd ea20 e83d a54c f63c
00000110: 1ab3 b23e ebb6 23be 1f46 a43e 1fbc 3e3d
00000120: 350c 153e 552f 05bd 8af5 84be 0198 26be
00000130: 9fe3 90bd bbbd 57bc 37e5 9b3c d880 ab3d
00000140: ad36 223e d4e3 91bd 4795 ce3d f072 6a3e
00000150: f17e ec3c ecbb 80bd e861 9fbd 29be 2f3e
00000160: 9f24 da3d e97c 76bc 5561 6ebe 5d2a 8f3d
00000170: 7610 a9bd 89af a4bd 2782 94be 3039 f6bd
00000180: 8e20 3bbd 2473 013e a7c9 84bd 1878 d23e
00000190: 81bb 88bd 56f5 6c3e c0c3 673e 9d09 633e
000001a0: b252 e63d 0194 9c3e c9c4 e53d 6446 ef3e
000001b0: 5a96 7dbd 3309 9c3e 7461 37bc 7cf4 323e
000001c0: a06b 59be 4232 d4bd 342b 24bd e737 bc3d
000001d0: 0f2e 933c fac2 313e 2dcd 78ba 8b75 3fbd
000001e0: a3b4 3f3e 0d61 d1bd 833a d93c 70cc 9ebb
000001f0: cde2 5d3c 1c9a 603d 2562 9c3e f5aa f3bd
00000200: 7738 74bd 1305 ff3c 2d36 30be a0d9 363e
00000210: 40d1 3ebe 2efb cbbc 61df 5b3e 619a 7cba
00000220: 625d ca3c 328f febd 6d4d ca3d 7d41 073d
00000230: 67f7 9ebd a7a4 90bd 4efc 48bd 23af ce3e
00000240: 3018 d53d beed fa3d e249 dbbc 9a41 d13c
00000250: 0441 933e 16d9 c03c 85ad 063e 64f2 4fbd
00000260: 79d7 403d 44d6 28bf 0b17 763b 504b a0bd
00000270: 6d49 86bd d320 3bbe 8470 81be 1eb6 62bd
00000280: afdb 363b 6663 6ebd 1c94 e2be 1f77 43bd
00000290: 9e35 efbb ea1c 0d3e 16e7 d3be 2fca ba3d
000002a0: 7017 5bbc 1b36 aa3d 7a6a fc3a c74b 01bd
000002b0: 8e7d 86bc 6200 5cbc 68de e0bc a4c6 c83d
000002c0: d667 5abe c2d1 30be f226 3c3e 164a 21be
000002d0: d89d 443d 22dc d4bc b9d3 70bc e573 a6be
000002e0: 4df3 a13d b0f9 a23d 532e 39bd 9007 0b3d
000002f0: bf22 ddbd 649b b63e c776 a0bd 85c1 bb3c
00000300: 1041 06bd 78a9 c0bd b6ce b9bc 6bf8 e2bd
00000310: 28f2 cdbe 5105 733e 90d9 18bf 95f7 bc3d
00000320: 6acd d5be 2126 ca3d 7dc1 573e 3eda 27bd
00000330: 2148 d8bc 14a2 513d 4404 593e 984d 583e
00000340: 605c 813d e39f 5a3d 7124 843c e411 03be
00000350: 95da f13c 12d8 26bd d413 043d 386a 8fbe
00000360: 7d61 1fbd ca5c 023e 1d27 57bc 001c 1fbe
00000370: 3550 5fbc 6cd6 ff3d 825c c23d a83f a5bd
00000380: 84c3 993d b383 44bd 6db6 f03d 1dad 98be
00000390: 7106 013e 4074 77be 0766 c9bc ef0b e6bd
000003a0: aafe 10be 95a8 80be 15d0 3ebe 57d7 e0be
000003b0: b17a a5bd 6585 8dbe 39f3 e4bd 9046 e43d
000003c0: 08d4 683c c2f2 3d3c 8e7e 90bd a389 a1be
000003d0: 7c44 203c 911f 05be 1979 2ebb c1a0 203d
000003e0: 21ce 9dbe be3a 343e af7c 843d b357 73bc
000003f0: ef74 093e b3c2 ba3d ca0b 19be bd1e cebd

layers.2.bias f4 [128]
0.03153462 0.009252723 0.31163442 -0.093241386 0.17092732 0.091717385 0.21265996 0.11026166
0.170593 0.13204332 0.13495617 0.2918731 -0.019665426 0.040481616 0.11672212 0.11109685
-0.10588514 -0.08962883 0.1165654 0.16120267 0.05293256 -0.07050858 -0.110877685 0.3209316
0.033612885 -0.04533522 0.13268283 0.16574603 -0.14487322 -0.03921424 0.41905752 0.3359564
-0.06756313 0.23496948 0.2976657 0.36993885 -0.1704829 0.052221827 0.15019901 0.07517737
0.056626648 0.105860725 -0.12752019 0.13377532 -0.0036299727 0.054075018 0.15224782 0.10050075
0.066733316 0.130444 -0.030868374 0.3432719 -0.058020175 0.13058946 0.1662762 0.1174999
-0.049672335 0.17427258 0.023759777 0.3508117 0.34276932 0.3591043 0.062089723 -0.16312487
-0.021673718 -0.24961828 0.411121 0.11960071 0.09498454 -0.09469133 0.09359512 0.38132423
0.12174185 0.07125425 0.087083295 0.0117634805 -0.097012006 0.10181162 0.13955887 0.37213856
0.10430813 -0.13718227 0.16633025 0.10536872 0.07560302 -0.05045599 0.121809505 -0.019893762
0.36342204 0.44925115 0.07964454 0.08863149 0.14447223 -0.06876432 -0.14051834 0.11008343
-0.014610813 -0.07847596 0.067437194 0.06402576 0.29646546 0.17898433 0.14244558 -0.23447536
0.08370026 -0.20979375 -0.113800004 0.043355506 0.107241355 0.114163205 0.12228286 0.037245817
0.04134186 -0.13051558 -0.10364044 -0.019560283 0.13861574 0.035843514 0.090086624 -0.10418893
0.13119933 0.11709986 -0.14979741 0.11008622 0.059138976 -0.10524237 0.10744285 0.2694295
00000000: 722a 013d bc98 173c 8c8e 9f3e 57f5 bebd
00000010: 9207 2f3e 53d6 bb3d 88c3 593e ddd0 e13d
00000020: eeaf 2e3e 5d36 073e f331 0a3e 6470 953e
00000030: 6319 a1bc 0dd0 253d 020c ef3d bf86 e33d
00000040: 4fda d8bd 528f b7bd d7b9 ee3d 5012 253e
00000050: d0cf 583d cd66 90bd d713 e3bd 2651 a43e
00000060: aaad 093d 6cb1 39bd 02de 073e 54b9 293e
00000070: a559 14be 1c9f 20bd b58e d63e 7a02 ac3e
00000080: 8a5e 8abd d79b 703e a367 983e a068 bd3e
00000090: 1293 2ebe 8ee6 553d c5cd 193e 98f6 993d
000000a0: 58f1 673d 82cd d83d a794 02be 66fc 083e
000000b0: d6e4 6dbb c47d 5d3d dae6 1b3e 56d3 cd3d
000000c0: 7aab 883d 1d93 053e acdf fcbc 56c1 af3e
000000d0: 90a6 6dbd 3eb9 053e 4f44 2a3e caa3 f03d
000000e0: 3875 4bbd 8374 323e dda3 c23c 979d b33e
000000f0: 767f af3e 85dc b73e cb51 7e3d 350a 27be
00000100: 158d b1bc ef9b 7fbe 747e d23e 38f1 f43d
00000110: 4187 c23d 87ed c1bd ccae bf3d ee3c c33e
00000120: cb53 f93d c0ed 913d ba58 b23d 9dbb 403c
00000130: 3bae c6bd 9c82 d03d 85e8 0e3e f288 be3e
00000140: 809f d53d 8279 0cbe 7a52 2a3e 8ecb d73d
00000150: c2d5 9a3d f1aa 4ebd 4377 f93d 3ef8 a2bc
00000160: 7412 ba3e 3f04 e63e ad1c a33d 6d84 b53d
00000170: 87f0 133e 4fd4 8cbd 0ae4 0fbe 6c73 e13d
00000180: 3162 6fbc 01b8 a0bd 831c 8a3d f01f 833d
00000190: 52ca 973e ab47 373e 41dd 113e 4f1a 70be
000001a0: 0b6b ab3d 2cd4 56be fa0f e9bd 8b95 313d
000001b0: 5ba1 db3d 66ce e93d 706f fa3d 128f 183d
000001c0: 1556 293d e0a5 05be 7041 d4bd e33c a0bc
000001d0: 49f1 0d3e a6d0 123d 567f b83d 0161 d5bd
000001e0: 1e59 063e 0dd2 ef3d 7e64 19be e274 e13d
000001f0: b63b 723d 5089 d7bd ff0a dc3d aaf2 893e

layers.3.weight f4 [1, 128]
-0.21634164 0.17756341 -0.38879636 -0.16710857 0.30640423 0.29705876 -0.4622938 0.23320992
0.21509597 -0.8198716 0.17255412 -0.8423438 0.2746773 0.28193524 0.1944743 -0.43444902
-0.27480295 0.2175384 -0.26810172 0.12433379 0.20456223 0.0057191444 -0.021590136 -0.50285894
0.1742699 -0.037663158 0.20132779 0.19822222 -0.36469123 -0.05468266 -0.65438586 -0.5008359
-0.02126183 -0.5228952 -0.5629476 -0.7346495 0.40416187 0.12628922 -0.39287293 0.19224696
0.15151744 0.13108985 -0.63711107 0.13118169 0.16696224 0.12389708 0.23009838 0.14600904
0.15615095 0.13996688 -0.43771726 -0.6658978 -0.03711407 0.21299206 0.20527941 0.14999524
-0.02896892 0.17936885 0.43635345 -0.79370606 -0.6298958 -0.368057 0.1225585 0.47353667
-0.038871024 0.6276414 -0.8143623 0.24318568 0.15574278 0.399908 0.20259708 -0.5284011
0.28309953 0.29968965 0.20630816 0.13570818 -0.123199 0.27922776 0.23651612 -0.500067
-0.35814494 -0.0071859867 0.14503385 0.2527027 0.26840654 -0.56000733 -0.6075241 -0.26037154
-0.4753513 -0.59338796 0.12472864 0.103587314 0.13702224 -0.010598432 0.3595733 0.14865065
-0.61007124 0.08368054 0.21455099 0.17781736 -0.4846269 0.30642936 0.19537742 0.56208223
0.19814621 0.7068945 -0.0017362295 0.17706837 0.22976394 0.1455461 0.24262229 -0.15910259
0.17398177 0.517295 -0.1959214 -0.0029237433 0.15082666 0.17782152 0.20351492 -0.034648135
0.17715885 0.18706588 -0.49532777 0.16967466 0.18268058 -0.1975631 0.22652595 -0.20978886
00000000: aa88 5dbe 2fd3 353e 5110 c7be 821e 2bbe
00000010: 04e1 9c3e 1618 983e c6b1 ecbe 95ce 6e3e
00000020: 1e42 5c3e 1be3 51bf 07b2 303e d8a3 57bf
00000030: 81a2 8c3e d159 903e 4524 473e 1a70 debe
00000040: f9b2 8cbe 63c2 5e3e a144 89be b7a2 fe3d
00000050: c378 513e a967 bb3b ccdd b0bc 5dbb 00bf
00000060: cf73 323e af44 1abd df28 4e3e c4fa 4a3e
00000070: cfb8 babe edfa 5fbd d585 27bf c836 00bf
00000080: 4a2d aebc 76dc 05bf 551d 10bf fd11 3cbf
00000090: 4eee ce3e f651 013e a426 c9be 63dc 443e
000000a0: 6327 1b3e 6b3c 063e b619 23bf 7e54 063e
000000b0: 26f8 2a3e c1bd fd3d e99e 6b3e 6583 153e
000000c0: 09e6 1f3e 7a53 0f3e 7a1c e0be 4778 2abf
000000d0: ec04 18bd 971a 5a3e c434 523e 5a98 193e
000000e0: 3b50 edbc 78ac 373e b869 df3e 5230 4bbf
000000f0: da40 21bf f871 bcbe f3ff fa3d 6673 f23e
00000100: 3937 1fbd 1bad 203f 0c7a 50bf ab05 793e
00000110: 097b 1f3e bec0 cc3e 9c75 4f3e 4b45 07bf
00000120: 6cf2 903e ec70 993e 7242 533e 16f7 0a3e
00000130: c24f fcbd f1f6 8e3e 4831 723e 6404 00bf
00000140: c65e b7be 6d78 ebbb c183 143e 4062 813e
00000150: 956c 893e a45c 0fbf b386 1bbf 6b4f 85be
00000160: 3f61 f3be 46e8 17bf bb71 ff3d 9625 d43d
00000170: 8f4f 0c3e 0ca5 2dbc fe19 b83e e037 183e
00000180: a12d 1cbf b460 ab3d 41b3 5b3e c115 363e
00000190: 0421 f8be 4fe4 9c3e 0511 483e 9fe4 0f3f
000001a0: d7e6 4a3e 0af7 343f 3292 e3ba 6951 353e
000001b0: 3d47 6b3e 090a 153e fa71 783e caeb 22be
000001c0: 4728 323e 726d 043f 9f9f 48be 469c 3fbb
000001d0: 4e72 1a3e d816 363e 3766 503e 34eb 0dbd
000001e0: 2169 353e 338e 3f3e 9a9b fdbe 32bf 2d3e
000001f0: 9e10 3b3e fb4d 4abe 6bf6 673e e4d2 56be
