new_models/base+wp_16849288/qf2_target_best.pth (torch, 186656 bytes, 7 tensors)

layers.0.weight f4 [128, 98]
0	0x3ce19fab	0.027541956
1	0x3d49b37b	0.04924343
2	0x3cba2dba	0.022726882
3	0xbd92131b	-0.0713255
4	0xbdda8067	-0.10669022
5	0x3d038067	0.032104876
6	0x3da0c6ee	0.07850443
7	0xbd9c6874	-0.0763711
8	0x3cba867b	0.022769203
9	0x3d05af3c	0.03263782
10	0x3bbcdbad	0.005763492
11	0x3d60a106	0.054841064
12	0x3d89f41b	0.067360125
13	0x3db92de2	0.090419546
14	0x3d50eeed	0.051009107
15	0xbcc40e6c	-0.023932658
16	0xbe186fd5	-0.1488641
17	0x3dda2db8	0.106532514
18	0xbd643d0e	-0.05572229
19	0x3d09b9e9	0.033624563
20	0xbbddccc0	-0.006768793
21	0xbe054a66	-0.13016662
22	0xbdd4e9ef	-0.10396182
23	0xbdd57436	-0.10422556
24	0xbd5de1ed	-0.054170538
25	0xbdb59657	-0.08866566
26	0x3d4e2028	0.050323635
27	0xbdcb6d2f	-0.099329345
28	0x3db00d1f	0.08596253
29	0xbd8633f2	-0.065528765
30	0x3d49470d	0.049140025
31	0x3db37538	0.08762592
32	0xbd6843a6	-0.05670514
33	0xbb765c59	-0.0037591665
34	0xbcbf561d	-0.023356492
35	0x3d07db66	0.03316822
36	0xbe05cc5f	-0.13066243
37	0xbd836eef	-0.06417643
38	0xbc6fc43f	-0.014634191
39	0xbdf9a9fc	-0.12190625
40	0xbd195cb3	-0.03744192
41	0xbd7dab04	-0.06193067
42	0xbd8e39a1	-0.069445856
43	0xbccd0f6a	-0.025031764
44	0x3b00543f	0.0019581465
45	0xbd3c2bb8	-0.04594013
46	0xbdaf946e	-0.085732326
47	0xbcab9ad9	-0.02094786
48	0x3dfcef74	0.123503596
49	0x3dcc3b24	0.09972218
50	0xbd4f9f88	-0.05068925
51	0xbd4ed298	-0.050493807
52	0x3d8d6ea0	0.06905866
53	0x3c9fab13	0.019490754
54	0xbe2f6586	-0.17128572
55	0xbe164117	-0.14673267
56	0xbe04a7e2	-0.12954667
57	0x3cab4b08	0.020909801
58	0xbe21bb0d	-0.1579401
59	0xbdeaf1c6	-0.11471896
60	0x3c04162c	0.008061927
61	0xbb7a8658	-0.0038227048
62	0xbdb0915e	-0.086214766
63	0xbde93d10	-0.113886
64	0xbc316ca5	-0.0108291255
65	0xbd21bd3c	-0.03948711
66	0x3d5f0169	0.054444704
67	0x3d8d6221	0.06903482
68	0x3d20b759	0.039237354
69	0x3dffa9c3	0.12483551
70	0xbd33b935	-0.0438778
71	0xbd320d09	-0.043469463
72	0xbd4bd352	-0.049762078
73	0x3d748eec	0.059706613
74	0xbe1119f8	-0.14170063
75	0xbb9ee2f4	-0.0048488323
76	0x3e0d07c9	0.13772501
77	0x3d39ab87	0.045329597
78	0x3b1ed103	0.0024233467
79	0xbce98cc0	-0.028509498
80	0xbc49edb0	-0.0123247355
81	0xbce99ad0	-0.028516203
82	0x3d8850a5	0.06656007
83	0x3dcd04c1	0.10010672
84	0x3e2ac149	0.16675295
85	0xbe314b5d	-0.17313905
86	0xbd8ba6b5	-0.06818906
87	0x3ddca0cf	0.10772859
88	0x3e72f494	0.23726112
89	0xbcd74bd1	-0.02628127
90	0x3eb4d16e	0.35316032
91	0x3d80013a	0.06250234
92	0xbdf0f370	-0.11765182
93	0x3d8a1908	0.067430556
94	0x3ca68499	0.0203269
95	0x3e6c37fa	0.23068228
96	0x3dc98de2	0.09841515
97	0x3ddba0e9	0.107240506
98	0x3cd96935	0.026539424
99	0xbd8b1418	-0.06790942
100	0xbd5ff83d	-0.054680098
101	0x3c1ea8f5	0.009683837
102	0xbded0b8b	-0.11574467
103	0xbdab3b05	-0.083608665
104	0xbd895b08	-0.06706816
105	0x3d8ecafa	0.069723085
106	0xbafe7b4b	-0.0019415406
107	0x3c4a113b	0.01233321
108	0x3d20d186	0.039262317
109	0x3c31d252	0.010853367
110	0xbad5f44d	-0.0016323418
111	0x3db9018b	0.090334974
112	0x3d2e1242	0.04249788
113	0x3d10e8bc	0.035378203
114	0xbdbdf97b	-0.092761
115	0xbdb5a45e	-0.08869241
116	0x3d688ce9	0.056775007
117	0xbc51397d	-0.012770054
118	0x3db0e174	0.08636752
119	0x3d4682a7	0.048464444
120	0xbd872030	-0.06597936
121	0x3d84a922	0.06477572
122	0x3d83fcaa	0.06444676
123	0xbd5318f5	-0.051537473
124	0xbd5c67a3	-0.053809773
125	0xbbbaab83	-0.0056967153
126	0x3b48a7f7	0.0030617693
127	0xbd7ec23e	-0.062196963
128	0xbd978b0a	-0.073995665
129	0xbd80bdce	-0.06286202
130	0xbdfe2244	-0.124088794
131	0x3c07d676	0.008290878
132	0xbddfa05a	-0.109192565
133	0xbcf2c05b	-0.029632738
134	0xbd1aea54	-0.03782113
135	0xbca66ffc	-0.02031707
136	0x3c428ffc	0.011875149
137	0xbc0614d0	-0.008183673
138	0xbd1f9762	-0.03896273
139	0x3d1cba12	0.038263388
140	0x3c78176d	0.015142304
141	0x3b75bcd7	0.003749659
142	0xbd9940ab	-0.074830376
143	0xbd9098af	-0.07060372
144	0x3c9668bb	0.018360486
145	0xbd997e21	-0.0749476
146	0xbda690da	-0.08133097
147	0x3d523a93	0.051325392
148	0x3d2bc64f	0.04193717
149	0xbd047aa7	-0.032343533
150	0xbd2e1be8	-0.042507082
151	0x3d09855b	0.033574443
152	0x3d8af0c8	0.06784207
153	0x3e02a300	0.12757492
154	0x3c882c44	0.01662267
155	0xbd4561be	-0.048188917
156	0xbdc1b68e	-0.09458648
157	0xbd92ed27	-0.071741395
158	0xbe0c727d	-0.13715549
159	0x3ba56739	0.0050477055
160	0xbe2330c0	-0.15936565
161	0x3ccb270b	0.02479889
162	0x3da28b15	0.07936684
163	0x3d8de059	0.069275565
164	0xbd44a3a6	-0.04800763
165	0x3e0abd7e	0.13548848
166	0x3d855d5a	0.06511946
167	0xbe81d489	-0.25357464
168	0x3cdeeb8a	0.027211923
169	0xbde02695	-0.10944859
170	0xbe3f9ab8	-0.18711364
171	0x3cc6d394	0.02427081
172	0xbc6794a1	-0.014134557
173	0x3ca0bff7	0.019622786
174	0xbe93472e	-0.28765243
175	0x3d5ed097	0.054398146
176	0xbe42ebb9	-0.19035234
177	0x3b506d65	0.0031803485
178	0x3da3cf8b	0.0799857
179	0x3cb07022	0.021537844
180	0x3e3da9e2	0.18521836
181	0xbde875ff	-0.11350631
182	0x3ddcf07b	0.107880555
183	0xbe0ec786	-0.139433
184	0x3d960875	0.07325832
185	0x3e2ccfe9	0.16876186
186	0x3d4d7de6	0.050168894
187	0x3e86116c	0.26185167
188	0xbe075819	-0.132172
189	0xbe46492b	-0.19363849
190	0xbe1675fe	-0.14693448
191	0x3efd9efc	0.49535358
192	0x3d9ce5aa	0.076609924
193	0xbd8cabb4	-0.06868687
194	0xbe12d51a	-0.14339104
195	0xbe83d4c1	-0.25748256
196	0x3d9ceb62	0.07662083
197	0x3c2151b4	0.00984614
198	0xbd967c5b	-0.07347938
199	0xbdc12eba	-0.094327405
200	0x3de4cecb	0.11172255
201	0x3bc36b24	0.0059637
202	0xbe21f555	-0.15816243
203	0x3c9ae161	0.018906297
204	0xbd969011	-0.07351697
205	0xbd1a91fb	-0.037736874
206	0x3d53165e	0.051535003
207	0xbc92e84c	-0.017933033
208	0xbe012396	-0.12611231
209	0x3d5807a2	0.052741654
210	0xbcf0befa	-0.02938794
211	0x3d2c3ff0	0.042053163
212	0x3db41a4e	0.0879408
213	0xbcfbad8c	-0.030722402
214	0x3c951fde	0.018203672
215	0xbcc8f2bb	-0.024529805
216	0xbcb0ff70	-0.021606177
217	0x3cc2d647	0.023783816
218	0xbdd87265	-0.10568694
219	0x3d4ed08a	0.050491847
220	0xbd03a6bc	-0.032141432
221	0x3cd35384	0.02579666
222	0xbd34e99a	-0.044168092
223	0x3d0e5da3	0.034757268
224	0xbd31eca7	-0.04343858
225	0xbd57f6e2	-0.05272568
226	0x3cbe2dfb	0.023215285
227	0x3c288a83	0.01028693
228	0x3d3c2ffd	0.045944203
229	0x3d638d1c	0.055554494
230	0x3de06daa	0.10958417
231	0x3c8f80fa	0.017517556
232	0x3d878758	0.06617612
233	0x3a8584d8	0.0010186685
234	0xbd3e2c07	-0.046428706
235	0x3d1c42e6	0.038149737
236	0xbdad6c6d	-0.08467946
237	0x3d64f628	0.055898815
238	0x3d93aa4f	0.07210218
239	0x3c847cd4	0.016172804
240	0x3d32ec4f	0.043682393
241	0xbd134a7e	-0.035959713
242	0xbce39be6	-0.0277843
243	0xbdb47a96	-0.08812444
244	0x3d633b64	0.05547656
245	0x3dda8a77	0.10670941
246	0x3dd36002	0.103210464
247	0x3d28d366	0.04121723
248	0xbd2078db	-0.039177757
249	0x3cdeb9e3	0.027188247
250	0x3d02264c	0.031774804
251	0x3d8da4ac	0.06916174
252	0xbd99ab72	-0.07503404
253	0x3d55ec5e	0.05222737
254	0x3d3b4609	0.045721088
255	0x3d48b13f	0.04899716

layers.0.bias f4 [128]
0	0x3c323904	0.010877851
1	0x3e7a6135	0.24451144
2	0xbe43b684	-0.19112593
3	0x3d35c8cd	0.04438095
4	0x3cff6187	0.031174434
5	0xbd56444b	-0.052311223
6	0xbe0b9eb7	-0.13634764
7	0x3c9f779a	0.01946621
8	0x3d9d046f	0.07666861
9	0x3de10edf	0.109891646
10	0x3e22f364	0.15913159
11	0x3dc440e3	0.09582689
12	0x3df1c507	0.11805158
13	0x3d5ede2e	0.054411106
14	0x3def097a	0.116717294
15	0x3cc2af85	0.023765335
16	0x3ca038e3	0.019558376
17	0x3d72fe5e	0.059324615
18	0xbba132ea	-0.0049193995
19	0xbdef7f74	-0.11694232
20	0x3e594d06	0.21220788
21	0x3cba4478	0.022737727
22	0x3e130dd3	0.14360742
23	0x3d7412cb	0.059588235
24	0xbdf94702	-0.12171747
25	0xbb23a2fc	-0.0024968972
26	0xbde88bc0	-0.1135478
27	0xbc8b9df1	-0.017043086
28	0x3e0e59dd	0.13901468
29	0xbc545e1c	-0.012961891
30	0x3d3614ef	0.044453558
31	0xbddc6ff1	-0.10763539
32	0x3d2762fb	0.04086588
33	0x3d67c95b	0.056588512
34	0xbd8b8efc	-0.068143815
35	0xbe0e41d9	-0.13892306
36	0xbd5525a1	-0.05203784
37	0xbe03e399	-0.1287979
38	0xbec6b641	-0.38810924
39	0x3db8299c	0.08992311
40	0x3db2c3a2	0.0872872
41	0x3d9eac12	0.077476636
42	0xbd62f903	-0.055413257
43	0x3d353184	0.044236675
44	0x3ce88c55	0.028387228
45	0xbe1690a3	-0.14703612
46	0x3e638d9f	0.22221993
47	0x3e8b3d2e	0.27195114
48	0x3e249a3e	0.16074464
49	0xbd37dfc8	-0.04489115
50	0x3db1711d	0.08664153
51	0x3d16502e	0.03669756
52	0x3eb1733a	0.34658223
53	0x3d3ff348	0.04686287
54	0x3e93d903	0.28876504
55	0xbe1c2029	-0.15246643
56	0xbb808796	-0.003922413
57	0x3de84807	0.11341863
58	0x3dbef81a	0.09324665
59	0x3de2ec79	0.1108026
60	0xbd60782e	-0.054802112
61	0xbc1f1eae	-0.009711904
62	0x3d123a5b	0.035700183
63	0x3da25a43	0.07927372
64	0x3b3041cf	0.0026894694
65	0xbcd324f5	-0.025774458
66	0xbd4c8d71	-0.049939577
67	0xbc81a7e8	-0.015827134
68	0xbd3c1206	-0.045915626
69	0xbe075569	-0.13216175
70	0xbcfbc1f4	-0.030732132
71	0xbe588b2c	-0.2114684
72	0x3e1d0878	0.15335262
73	0xbd26f75b	-0.04076324
74	0x3e4486aa	0.19191995
75	0x3dfd6c84	0.12374213
76	0x3cca341a	0.024683047
77	0x3dce3604	0.100688964
78	0xbdb204ff	-0.08692359
79	0x3e7ff9fd	0.24997707
80	0x3d8718b3	0.06596508
81	0xbdf531ac	-0.11972365
82	0x3bd77338	0.0065750144
83	0xbdc3b0e2	-0.09555222
84	0x3df7a17b	0.12091347
85	0x3dcfc799	0.10145492
86	0xba9f72ac	-0.0012164912
87	0xbca0396e	-0.019558635
88	0xbd5e6ba3	-0.05430187
89	0x3d059f82	0.03262282
90	0x3e37c154	0.17944843
91	0xbbf9e531	-0.0076261987
92	0x3c12fdd8	0.008971654
93	0x3df6b75a	0.1204669
94	0xbd550f2a	-0.052016415
95	0x3de166b0	0.11005914
96	0xbd0e5642	-0.03475023
97	0xbce428a5	-0.027851412
98	0x3d671e9c	0.056425676
99	0x3e464648	0.19362748
100	0xbe35f7ec	-0.17770356
101	0x3e65a056	0.22424445
102	0x3e401278	0.18757045
103	0xbe257eae	-0.16161606
104	0xbdd18ee7	-0.102323346
105	0xbd298e99	-0.041395757
106	0x3e0e7702	0.13912585
107	0x3e3b7a3c	0.18308347
108	0xbd7b537e	-0.06135892
109	0x3e95a9ac	0.29231012
110	0x3dafef5d	0.08590577
111	0x3e214f93	0.15753011
112	0x3dadbee5	0.08483676
113	0xbdb3599e	-0.087573275
114	0x3d97e53d	0.074167706
115	0x3d01a263	0.031649005
116	0x3bd0d4a1	0.0063730036
117	0x3cd61f43	0.026137954
118	0xbde8d658	-0.11369008
119	0xbddb87c4	-0.107192546
120	0x3e091441	0.13386633
121	0x3e63c3c5	0.22242649
122	0x3e150eaf	0.14556383
123	0xbcb78989	-0.022404449
124	0x3e233179	0.15936841
125	0xbda98aa9	-0.082784005
126	0x3e0dd2eb	0.1384999
127	0x3e4837b2	0.19552496

layers.1.weight f4 [128, 128]
0	0x3da532a8	0.080663025
1	0xbc838b0a	-0.01605751
2	0xbcab102e	-0.020881739
3	0xbc8300eb	-0.015991649
4	0x3ccfd994	0.025372304
5	0x3d27c1a6	0.040956162
6	0x3dbd01f6	0.0922889
7	0x3ced5c77	0.028974755
8	0x3dab179f	0.08354115
9	0xbd022adb	-0.03177915
10	0xbe0b9766	-0.13631973
11	0xbc2da380	-0.0105980635
12	0x3df89ac5	0.12138895
13	0xbd03308c	-0.03202872
14	0xbc344b59	-0.011004292
15	0x3d8fd971	0.070238955
16	0xbe1e2e31	-0.15447308
17	0xbdf18620	-0.117931604
18	0xbc244e2c	-0.010028403
19	0xbce106d2	-0.027469072
20	0x3dc3f475	0.09568111
21	0x3d31c07a	0.04339645
22	0x3de38fdd	0.11111424
23	0xbd8f724f	-0.070042245
24	0xbdad96a6	-0.084759995
25	0xbd8e7139	-0.06955189
26	0xbe263535	-0.16231234
27	0x3da8232a	0.08209832
28	0xbc7c90b5	-0.01541536
29	0xbe30f737	-0.17281805
30	0x3e64696d	0.22305842
31	0xbda2eab3	-0.079549216
32	0x3d81762a	0.06321366
33	0x3d003707	0.03130248
34	0xbd2d0aac	-0.042246506
35	0x3db7173e	0.0893998
36	0x3c15c626	0.009141481
37	0xbc800d24	-0.015631266
38	0x3d02776b	0.031852167
39	0x3c547130	0.012966439
40	0xbca42e53	-0.02004162
41	0x3d88d75e	0.06681703
42	0xbda78a12	-0.08180632
43	0x3d853c1e	0.06505607
44	0xba9bf8b1	-0.0011899677
45	0xbdb42fe5	-0.08798198
46	0x3da52dd3	0.08065381
47	0x3d49c3a5	0.049258847
48	0x3d87c90a	0.06630142
49	0xbb3b514b	-0.002858239
50	0x3c6e441c	0.014542606
51	0x3c8a4545	0.016878733
52	0x3e0ead26	0.13933238
53	0xbd5db73c	-0.054129824
54	0xbdd21e00	-0.10259628
55	0xbdce0444	-0.10059407
56	0x3dd9e153	0.1063868
57	0x3de4127f	0.1113634
58	0x3d278aa1	0.04090369
59	0xbd1985d3	-0.03748114
60	0x3d6925b6	0.05692073
61	0x3e03ee14	0.12883788
62	0x3e11e4e8	0.14247477
63	0xbcd1a169	-0.025589662
64	0xbcfece8f	-0.031104354
65	0x3dc620c9	0.09674222
66	0x3d08f18d	0.033433486
67	0x3db99360	0.09061313
68	0xbc9131ee	-0.017724004
69	0xbcc656bf	-0.024211286
70	0xbd6863f5	-0.05673595
71	0xbb507528	-0.0031808112
72	0x3d445a04	0.047937408
73	0xbdaa2fc8	-0.08309895
74	0x3cb28876	0.021793585
75	0xbd00abcc	-0.03141384
76	0x3c9048ea	0.017612893
77	0x38375490	4.3709355e-05
78	0x3dde34e7	0.10849934
79	0x3e066758	0.1312536
80	0x3d566382	0.05234099
81	0x3dca8079	0.098877855
82	0xba4d6453	-0.0007835079
83	0x3da1c629	0.07899124
84	0xbd901f9b	-0.07037278
85	0x3bc387bd	0.005967109
86	0xbb250d33	-0.002518487
87	0xbd8e8ac1	-0.06960059
88	0x3ce47f0b	0.02789261
89	0xbd39f4a9	-0.04539934
90	0xbdaf0d98	-0.08547515
91	0x3c0e1fbd	0.008674559
92	0x3d89b2f2	0.06723584
93	0xbd258d97	-0.040418234
94	0x3d32f309	0.043688808
95	0xbdc786f5	-0.09742538
96	0xbd433fd0	-0.04766828
97	0xbe596a7d	-0.21232028
98	0xbdb0dd9e	-0.0863602
99	0x3be009c5	0.006837102
100	0xbbe0b458	-0.006857436
101	0x3b3cd6e9	0.002881462
102	0xbdd4846a	-0.103768185
103	0x3cd716d1	0.026255997
104	0x3d61a787	0.055091407
105	0x3df05d54	0.11736551
106	0xbb883a84	-0.004157366
107	0x3ca42aa7	0.02003987
108	0x3d9c872d	0.0764297
109	0x3b24a2aa	0.002512137
110	0xbe2cb148	-0.16864502
111	0xbe181fbd	-0.14855857
112	0x3b09eabe	0.0021044458
113	0x3db0e179	0.086367555
114	0xbdb9cd31	-0.0907234
115	0x3d9cf1fe	0.07663344
116	0x3dd9ecb6	0.10640852
117	0xbc0f1c36	-0.008734753
118	0x3d946779	0.07246298
119	0xbe3a2dbf	-0.18181513
120	0x3c6bac8e	0.014384402
121	0xbe289804	-0.1646424
122	0xba8d12f7	-0.0010763098
123	0x3cbbda8f	0.022931365
124	0x3dc65ceb	0.096856914
125	0xbd513d0c	-0.05108361
126	0x3dba5cbb	0.09099718
127	0xbe04206e	-0.12902996
128	0x3ccb5fdc	0.024825983
129	0x3b6067b4	0.00342415
130	0x3dafee4f	0.08590376
131	0xbd76915a	-0.06019721
132	0xbd985e1b	-0.07439824
133	0xbcb31c03	-0.021863943
134	0x3e121a22	0.14267781
135	0xbd130642	-0.03589464
136	0xbdeccc69	-0.11562426
137	0xbe3e1e63	-0.18566279
138	0xbb8e1773	-0.0043362915
139	0xbba0d18f	-0.004907794
140	0x3c643de2	0.01393077
141	0xbce22509	-0.02760555
142	0xbc3543bb	-0.0110635115
143	0x3e040072	0.12890795
144	0x3cbc9462	0.023019973
145	0xbd118a7d	-0.035532463
146	0xbd508052	-0.050903626
147	0x3df4b084	0.1194773
148	0xbe501ee2	-0.20324281
149	0xbdb72cc6	-0.08944087
150	0xbc94eb83	-0.018178707
151	0x3c9f1548	0.019419327
152	0xbd775789	-0.060386214
153	0xbc7d8579	-0.015473717
154	0xbe336316	-0.17518267
155	0xbe13b709	-0.14425291
156	0xbdc7254e	-0.09723912
157	0xbde5fe5d	-0.112301566
158	0x3e7b2643	0.24526314
159	0xbc8da3ae	-0.017289963
160	0xbd5f7685	-0.05455639
161	0xbe253c16	-0.16136202
162	0xbda0a016	-0.07843034
163	0x3da6f44e	0.08152066
164	0xbd3217d6	-0.043479763
165	0xbd858a66	-0.06520538
166	0x3df4b615	0.11948792
167	0x3b2c1d97	0.0026262754
168	0xbe1249b7	-0.14285932
169	0xbe6c7dc2	-0.23094848
170	0x3cd3cf70	0.02585575
171	0x3dc35f82	0.09539701
172	0xbd370a81	-0.04468775
173	0x3c255976	0.01009213
174	0x3dc4f8ca	0.09617765
175	0xbd18456a	-0.037175573
176	0xbd87ad2e	-0.06624828
177	0xbddeab48	-0.10872513
178	0x3da20b6d	0.079123355
179	0xbd6775eb	-0.05650894
180	0x3e135467	0.14387666
181	0xbe3407be	-0.17581078
182	0xbdeb98a5	-0.11503724
183	0xbdc6a6e6	-0.09699802
184	0x3e76bc7b	0.24095337
185	0xbd858666	-0.06519775
186	0xbe123e3c	-0.14281553
187	0xbce44efb	-0.027869692
188	0x3e1d4e4a	0.15361896
189	0x3e86a12c	0.2629484
190	0x39afada7	0.00033507982
191	0xbd5fb83b	-0.054619055
192	0xbd8310bd	-0.06399677
193	0x3dd59d1b	0.10430356
194	0x3d38bc31	0.04510135
195	0x3cc12a71	0.023579808
196	0x3ba6a0bd	0.0050850795
197	0x3c30dd38	0.01079493
198	0xbd6f097f	-0.058358666
199	0x3c82dbd3	0.015973961
200	0x3cbced6b	0.023062428
201	0xbe89e486	-0.26932162
202	0xbe260967	-0.16214524
203	0x3d1157d6	0.035484158
204	0xbc21d4cd	-0.009877396
205	0x3e434396	0.1906875
206	0xbd81aa3d	-0.063312985
207	0xbe00ad20	-0.12566042
208	0x3d2ca4de	0.042149417
209	0x3e01efb9	0.12689103
210	0x3d4f57cc	0.05062084
211	0x3ddcd1c7	0.10782199
212	0xbc6d3676	-0.0144783165
213	0x3caab000	0.020835876
214	0xbb407324	-0.0029365504
215	0xbcc60ca9	-0.024175959
216	0xbe3aab2c	-0.1822936
217	0xbded15d0	-0.11576426
218	0xbd114320	-0.035464406
219	0x3cf929a1	0.030415358
220	0xbcf52654	-0.029925503
221	0x3e314dc6	0.17314824
222	0x3d7367aa	0.059425034
223	0xbda840b8	-0.08215469
224	0x3d6a18bd	0.0571525
225	0xbd822025	-0.06353787
226	0xbd7e3f7b	-0.06207226
227	0xbd78bde9	-0.060727987
228	0xbdf9ad09	-0.12191207
229	0x3c582c35	0.0131941335
230	0xbe42f212	-0.19037655
231	0x3db56c88	0.08858591
232	0xbd278e5c	-0.04090725
233	0x3da0b48f	0.07846939
234	0xbc7a93d7	-0.015294037
235	0x3d0c603c	0.034271464
236	0xbdb5921c	-0.08865759
237	0xbd731797	-0.05934867
238	0xbdea5a08	-0.11442953
239	0xbd0c98e1	-0.034325484
240	0xbbe53674	-0.0069950167
241	0xbc795bac	-0.01521961
242	0xbdeff251	-0.1171614
243	0xbd95d399	-0.0731575
244	0xbd56277c	-0.05228375
245	0x3da27f1f	0.07934403
246	0xbd239b1b	-0.039942842
247	0x3dcb24a9	0.09919102
248	0x3de275ac	0.110576004
249	0xbd61c11b	-0.0551158
250	0x3c97a862	0.018512908
251	0x3e12d96e	0.14340755
252	0xbd895545	-0.06705717
253	0x3d0a8d7d	0.03382634
254	0x3c80caee	0.015721764
255	0x3d095f72	0.03353829

layers.1.bias f4 [128]
0	0x3e0e2b80	0.13883781
1	0xbdab3a0d	-0.08360682
2	0xbd4e4782	-0.050361164
3	0x3dd7473f	0.10511636
4	0x3e482c69	0.19548191
5	0xbd8bd3bd	-0.06827495
6	0x3e2824ba	0.1642026
7	0x3d5707ae	0.05249756
8	0x3d7388ca	0.059456624
9	0x3e42c5a0	0.190207
10	0x3d991acc	0.07475814
11	0x3da59677	0.080853395
12	0xbdaae2f1	-0.08344067
13	0xbd97dd5f	-0.0741527
14	0x3c3f120e	0.011662019
15	0x3d3526ae	0.04422634
16	0x3d1c1802	0.038108833
17	0x3db19341	0.086706646
18	0xbd3ed8b0	-0.046593368
19	0x3e0fbef7	0.14037691
20	0xbc6384b3	-0.013886618
21	0x3e2642e2	0.16236451
22	0x3d3e18c7	0.04641035
23	0xbb7a90e9	-0.0038233346
24	0xbde82a26	-0.11336164
25	0xbdff0a8e	-0.12453185
26	0xbcea2e55	-0.028586546
27	0x3e182599	0.14858092
28	0x3de5715b	0.112032615
29	0xbe838dbf	-0.2569408
30	0xbdd190e9	-0.102327175
31	0x3e4e0df4	0.2012251
32	0x3de62255	0.11237017
33	0x3deccdbb	0.115626775
34	0x3d8ce439	0.068794675
35	0x3e737356	0.23774466
36	0xbcacaad0	-0.021077543
37	0x3e9e2102	0.30884558
38	0xbe12a307	-0.14320002
39	0xbc84a349	-0.016191142
40	0xbdabe409	-0.08393104
41	0xbde994ed	-0.114053585
42	0x3e2882b9	0.16456117
43	0x3dbdea9f	0.09273266
44	0xbe110e83	-0.14165692
45	0xbc4ca11a	-0.0124895815
46	0xbd0c0f1d	-0.0341941
47	0x3d15ad69	0.03654233
48	0xbd80157a	-0.06254096
49	0xbdc46066	-0.09588699
50	0x3d20d297	0.039263334
51	0xbd1aab73	-0.037761163
52	0xbe178edf	-0.14800595
53	0xbdd20e83	-0.10256674
54	0x3e686ad7	0.22697006
55	0xbe344c0e	-0.17607138
56	0x3e480680	0.1953373
57	0xbd6f9abb	-0.05849717
58	0x3d986774	0.07441607
59	0x3e05c71c	0.13064235
60	0x3d296dcc	0.041364476
61	0x3d970617	0.073742084
62	0xbe003c39	-0.12522973
63	0xbcb15ec0	-0.021651626
64	0xbe02097a	-0.12698928
65	0xbd6562de	-0.05600249
66	0xbd4765b8	-0.04868099
67	0x3c051df2	0.008124815
68	0xbd1b6b0d	-0.03794389
69	0xbcfd3afd	-0.030911917
70	0xbd46d9a8	-0.048547417
71	0x3e16eff4	0.14739972
72	0xbc08f5a4	-0.008359347
73	0xbd462aa0	-0.048380494
74	0x3e2f5833	0.17123489
75	0xbdf32350	-0.1187197
76	0x3cbcc77b	0.023044338
77	0x3dd4c0d6	0.10388343
78	0xbddb324d	-0.107029535
79	0x3e33bf29	0.1755339
80	0x3d2eb950	0.042657197
81	0x3df896b4	0.12138119
82	0x3d52eb92	0.05149419
83	0xbdc3fd60	-0.09569812
84	0x3e34b480	0.1764698
85	0x3dbd233f	0.09235238
86	0xbdaafcbc	-0.083489865
87	0xbd999e92	-0.07500948
88	0x3e43cc60	0.19120932
89	0x3e829681	0.2550545
90	0xbd870aac	-0.065938324
91	0xbc900cfc	-0.017584316
92	0x3cb7c06c	0.022430621
93	0x3e017e51	0.12645842
94	0x3d2f343a	0.042774417
95	0x3deff18e	0.11715995
96	0xbc8ab7ee	-0.016933408
97	0xbdd9c38e	-0.10633002
98	0x3e1f1e08	0.155388
99	0xbdaae1a1	-0.083438165
100	0x3d0d2a6d	0.03446429
101	0x3e63df0c	0.22253054
102	0x3e02b078	0.1276263
103	0x3e68dcbe	0.22740456
104	0xbd9767f3	-0.073928736
105	0xbd9c411c	-0.07629606
106	0xbd2dcf18	-0.042433828
107	0xbd470f87	-0.048598792
108	0xbbb577a4	-0.005537944
109	0x3d3accb3	0.045605373
110	0xbe40fecf	-0.18847202
111	0x3e7458d1	0.23862006
112	0xbd8bb0c4	-0.06820825
113	0x3cd2a434	0.025713064
114	0xbdb395e0	-0.08768821
115	0xbb538912	-0.0032277745
116	0x3d6a1ae6	0.05715456
117	0x3e674e97	0.22588573
118	0x3e2e0e9f	0.16997765
119	0x3df113a4	0.11771324
120	0xbde5afb2	-0.11215152
121	0xbda21c55	-0.0791556
122	0xbc98e6d6	-0.018664759
123	0xbdb6a48d	-0.08918104
124	0x3e37c48a	0.17946067
125	0x3e168289	0.14698233
126	0x3d8c2640	0.06843233
127	0xbc62b697	-0.013837478

layers.2.weight f4 [128, 128]
0	0xbbcfe536	-0.0063444627
1	0x3def8bd6	0.116965935
2	0x3e54aa0e	0.20767996
3	0xbe531622	-0.20613912
4	0x3d7d19ab	0.061792057
5	0x3cfab80b	0.030605337
6	0x3d04c6a3	0.032415997
7	0xbd337f77	-0.04382273
8	0x3d8a3d90	0.06750023
9	0x3d9393f4	0.07205954
10	0x3d3f1938	0.04665491
11	0x3d67e15d	0.056611408
12	0xbe937db6	-0.28806847
13	0xbd57ada6	-0.05265584
14	0x3e592cf4	0.21208555
15	0xbeafc4b9	-0.34329775
16	0xbd090038	-0.033447474
17	0xbc896fd9	-0.016776966
18	0xbc84b384	-0.016198881
19	0xbc42e11a	-0.011894489
20	0xbeb4e4a9	-0.35330704
21	0xbdc2d6a7	-0.09513598
22	0xbeab49cd	-0.33454743
23	0x3dd02c38	0.10164684
24	0x3cd164a6	0.025560688
25	0x3ea1d901	0.31610873
26	0x3df126a5	0.11774949
27	0x3ce669ba	0.028126586
28	0x3e0ce756	0.13760123
29	0x3d84db73	0.06487169
30	0x3ee04877	0.43805286
31	0x3e07de04	0.13268286
32	0x3e3f9331	0.18708493
33	0xbb9abad8	-0.0047219805
34	0x3e4d590b	0.20053498
35	0x3e007abc	0.1254682
36	0xbe4c5c6b	-0.1995713
37	0xbb1d3a41	-0.002399102
38	0x3e277e6c	0.1635682
39	0x3c67a4b7	0.014138392
40	0xbd2f51dd	-0.04280268
41	0x3d4b9426	0.049701832
42	0xbb613ca1	-0.0034368413
43	0x3d845970	0.06462371
44	0x3dbb96e8	0.091596425
45	0x3cf86368	0.030320838
46	0x3b35e160	0.0027752742
47	0xbd48f48f	-0.049061354
48	0x3e4a67d7	0.19766174
49	0x3e16d0df	0.14728115
50	0xbd9c4a10	-0.07631314
51	0xbe446dda	-0.1918253
52	0xbd1e1ac4	-0.038599744
53	0xbd6a91b4	-0.05726786
54	0xbd1d5889	-0.03841451
55	0x3e61fe91	0.22069766
56	0x3dabc13a	0.083864644
57	0x3c197406	0.009366041
58	0x3dad22c0	0.08453894
59	0x3da46bd5	0.0802838
60	0x38c113b9	9.206631e-05
61	0xbe996f08	-0.29967523
62	0x3d2b1be2	0.041774638
63	0x3e0fbb20	0.14036226
64	0x3de04ea0	0.109524965
65	0xbdb326ba	-0.08747621
66	0x3daa04e4	0.08301714
67	0x3d553190	0.05204922
68	0x3e9d8f28	0.30773282
69	0xbe349d0f	-0.17638038
70	0x3e9374ab	0.28799948
71	0x3ceca672	0.028887961
72	0x3e00f8d5	0.12594922
73	0xbd0c904d	-0.034317303
74	0xbe504ad9	-0.20341052
75	0xbdf4b55b	-0.11948653
76	0xbc98064c	-0.01855769
77	0x3c7a9556	0.0152943935
78	0xbd37e293	-0.044893812
79	0x3d8c62d0	0.068547845
80	0x3ded1d7b	0.115778886
81	0xbd11fea6	-0.035643242
82	0x3dbb5a07	0.09148031
83	0x3e751e9b	0.23937456
84	0x3c9bfaf4	0.019040562
85	0xbdafa7cd	-0.08576927
86	0xbd6f08c0	-0.058357954
87	0x3e33292a	0.17496172
88	0x3dbd2431	0.092354186
89	0x3d54d52f	0.05196112
90	0xbe4480bc	-0.19189733
91	0x3d536e07	0.051618602
92	0xbd63f91c	-0.05565749
93	0xbda9084f	-0.08253538
94	0xbea16032	-0.31518704
95	0xbde2a205	-0.11066059
96	0xbd612ce3	-0.054974448
97	0x3deb986c	0.115036815
98	0xbd83e4db	-0.06440135
99	0x3ec2a427	0.38015863
100	0xbdbd62e3	-0.09247377
101	0x3e42f6af	0.19039415
102	0x3e5f68cb	0.21817319
103	0x3e3d9f85	0.18517883
104	0x3da28f2e	0.079374656
105	0x3e866cde	0.26254934
106	0x3da1801b	0.07885762
107	0x3ee9177d	0.45525733
108	0xbda22612	-0.079174176
109	0x3e9f09e2	0.31062227
110	0xbd7b3b43	-0.061335813
111	0x3e43083f	0.19046114
112	0xbe50eeac	-0.20403546
113	0xbdc685d7	-0.09693497
114	0xbd242aff	-0.040080067
115	0x3dfdc8c5	0.123918094
116	0x3d2de685	0.04245617
117	0x3e392601	0.18080904
118	0xbb64522d	-0.003483902
119	0xbd73eea1	-0.059553746
120	0x3e6c15c2	0.23055175
121	0xbe196ad9	-0.14982165
122	0x3d13556a	0.03597013
123	0xbc6ff673	-0.01464616
124	0x3cf594a1	0.029978098
125	0x3db20e8b	0.0869418
126	0x3e846a55	0.25862375
127	0xbe002ff8	-0.12518299
128	0xbda33a1d	-0.079700686
129	0x3ced7ec0	0.028991103
130	0xbe59424d	-0.21216698
131	0x3e1bd554	0.15218097
132	0xbdafba33	-0.085804366
133	0xbccbfbf8	-0.024900422
134	0x3dc3ab86	0.095542
135	0x3a50ffca	0.0007972686
136	0x3d15e40f	0.036594447
137	0xbda10e8e	-0.07864104
138	0x3d8a3a8c	0.06749448
139	0x3d073d77	0.0330176
140	0xbd6313dd	-0.055438865
141	0xbd09dfc5	-0.03366067
142	0xbdb2f1e1	-0.08737541
143	0x3eb5f580	0.35538864
144	0x3db9131a	0.090368465
145	0x3e27f88b	0.16403405
146	0xbcdb492a	-0.026768286
147	0x3d04f2d2	0.032458134
148	0x3e44363f	0.19161318
149	0x3be4396f	0.0069648544
150	0x3e0ef316	0.13959917
151	0xbcfe2bba	-0.03102671
152	0x3d40d6d9	0.047079895
153	0xbf0634cb	-0.52424306
154	0xbd4c8524	-0.04993166
155	0xbd86a38a	-0.06574161
156	0xbd4ed8ec	-0.05049984
157	0xbdf23235	-0.118259825
158	0xbea46e8e	-0.32115597
159	0xbd01ca00	-0.031686783
160	0xbd4deb69	-0.050273333
161	0xbc481a42	-0.012213292
162	0xbedea717	-0.43486854
163	0xbd84e00b	-0.06488045
164	0x3b400765	0.0029301282
165	0x3dc89ce9	0.09795553
166	0xbed4bdba	-0.41551
167	0x3d979881	0.07402135
168	0xbbc9d30a	-0.006159191
169	0x3dab8b67	0.08376198
170	0xbcbf4e87	-0.023352874
171	0x3b05d768	0.0020422582
172	0x3bc8656b	0.0061156056
173	0xbc8dccfd	-0.01730966
174	0xbce965ab	-0.028490862
175	0x3db5060c	0.08839044
176	0xbe4af1d0	-0.19818807
177	0xbe315124	-0.17316109
178	0x3e5d1f68	0.21594012
179	0xbd42c348	-0.047549516
180	0x3d7359e6	0.059411906
181	0xbcb62ece	-0.022239115
182	0xbd358093	-0.04431207
183	0xbe99fae3	-0.30074224
184	0x3d74d8d2	0.05977709
185	0x3da2fa4e	0.07957898
186	0xbd6dbada	-0.058039524
187	0x3d396910	0.04526621
188	0xbdcc5fe5	-0.09979228
189	0x3ebb6df5	0.36607328
190	0xbda51e6c	-0.08062443
191	0x3d3d3f0a	0.046202697
192	0x3b6f0883	0.003647358
193	0xbd97e531	-0.07416762
194	0x3cc80c50	0.024419934
195	0xbd772a89	-0.0603433
196	0xbeb4c982	-0.35309988
197	0x3e6391e7	0.22223626
198	0xbee2ea3e	-0.44319338
199	0x3dbebec2	0.09313728
200	0xbec17bcc	-0.37789762
201	0x3dba2acd	0.09090195
202	0x3e7a7c1e	0.2446141
203	0xbd11ac3c	-0.035564646
204	0xbcb8e5ca	-0.02257051
205	0x3d48dac2	0.04903675
206	0x3e4204e3	0.18947177
207	0x3e40de25	0.18834741
208	0x3d1f4a0e	0.038888983
209	0x3d79d065	0.060989756
210	0x3c44d10b	0.01201273
211	0xbe204821	-0.15652515
212	0xbc5c7fc6	-0.013458198
213	0xbd4944a6	-0.049137734
214	0x3c165ea4	0.0091778375
215	0xbe87358d	-0.26408044
216	0xbd79869d	-0.060919393
217	0x3dd1ebc7	0.10250049
218	0x3be6835e	0.007034703
219	0xbdd238a4	-0.102647096
220	0xbb4a373e	-0.003085568
221	0x3de1ee4b	0.11031779
222	0x3e32291b	0.17398493
223	0xbd845209	-0.064609595
224	0x3dbb2bba	0.091391996
225	0xbcc07cbc	-0.023496978
226	0x3e22dba4	0.15904099
227	0xbe8d446f	-0.27591273
228	0x3e08b083	0.13348584
229	0xbe45b243	-0.19306283
230	0xbdc2371d	-0.09483168
231	0xbded6973	-0.115923785
232	0xbdd209dc	-0.10255787
233	0xbe80a924	-0.25129044
234	0xbe2a3d8e	-0.16625044
235	0xbeec067c	-0.46098697
236	0xbd99b016	-0.07504289
237	0xbe96977c	-0.29412448
238	0xbd0bea08	-0.034158736
239	0x3cdc3c7e	0.026884314
240	0x3dd6adef	0.10482394
241	0x3d1cf093	0.038315367
242	0xbd907f0d	-0.07055483
243	0xbe77f69c	-0.24215168
244	0x3c527bf2	0.012846934
245	0xbe08d2da	-0.13361683
246	0x3b455ed0	0.0030116327
247	0x3d1cf11d	0.03831588
248	0xbe8326e9	-0.25615624
249	0x3df5a59c	0.11994478
250	0x3d8303f7	0.063972406
251	0x3d3b88cd	0.04578476
252	0x3e10ca70	0.14139724
253	0x3dc3107c	0.095246285
254	0xbe127f06	-0.14306268
255	0x3c8ecbe4	0.017431207

layers.2.bias f4 [128]
0	0xbc558cb3	-0.013034034
1	0xbd44f6c1	-0.048086885
2	0x3e64c125	0.22339304
3	0xbd90f6c3	-0.07078316
4	0x3dbef203	0.09323504
5	0x3cc798c1	0.02436483
6	0x3e0d73e3	0.13813739
7	0x3dbef2dd	0.09323666
8	0x3deb5f4b	0.11492785
9	0x3d992c49	0.0747915
10	0x3debc6fd	0.115125634
11	0x3e5c639d	0.21522374
12	0xbd03baaf	-0.032160457
13	0xbca384c6	-0.019960772
14	0x3d942bba	0.07234903
15	0x3daa3a05	0.083118476
16	0xbdbfd769	-0.09367258
17	0xbdaf6e0a	-0.0856591
18	0x3d93c6f4	0.07215682
19	0x3e062931	0.13101651
20	0x3cc47ede	0.023986276
21	0xbd9066d6	-0.070508644
22	0xbde313b3	-0.11087742
23	0x3e62b243	0.22138314
24	0xbd163169	-0.036668215
25	0xbd39b128	-0.045334965
26	0x3dc6b309	0.09702117
27	0x3e0c16d5	0.13680585
28	0xbd74742c	-0.059681103
29	0xbd209e67	-0.039213564
30	0x3eb1dad6	0.3473727
31	0x3e825e7f	0.2546272
32	0xbd67c79b	-0.056586843
33	0x3e2ca78b	0.16860788
34	0x3e653a81	0.22385599
35	0x3ea1b249	0.31581333
36	0xbe1868d7	-0.14883743
37	0x3cfddee2	0.030990068
38	0x3db3934a	0.087683275
39	0xbb982283	-0.004642786
40	0x3c922db9	0.017844068
41	0x3da78507	0.0817967
42	0xbd2300af	-0.039795574
43	0x3dcccf79	0.1000051
44	0xbc9a6d78	-0.018851027
45	0x3cddbb91	0.027066978
46	0x3dbe9aa1	0.09306837
47	0x3d9d1a84	0.07671073
48	0x3d32fbb6	0.04369708
49	0x3dcc0378	0.09961599
50	0xbd2d9231	-0.042375747
51	0x3e9c7829	0.30560425
52	0xbd6da5f3	-0.05801959
53	0x3d6babae	0.057536773
54	0x3e03e406	0.12879953
55	0x3dbd4c11	0.09243024
56	0xbd4b74d1	-0.04967195
57	0x3dfbf0b8	0.12301773
58	0x3cc7a7dc	0.024372034
59	0x3e931047	0.28723356
60	0x3e93391f	0.28754517
61	0x3e9aa2f3	0.30202445
62	0x3d1d7215	0.038438875
63	0xbdcc9be4	-0.09990671
64	0xbcf8c664	-0.030368038
65	0xbe579776	-0.21053872
66	0x3eacbe73	0.3373905
67	0x3d8eeb2d	0.0697845
68	0x3d9aa357	0.07550686
69	0xbdecb633	-0.11558189
70	0x3d7cb644	0.06169726
71	0x3e9e6f41	0.30944255
72	0x3d966e92	0.07345308
73	0x3c67a9e4	0.014139626
74	0x3c813562	0.015772525
75	0x3b0abdae	0.0021170187
76	0xbdab8377	-0.08374684
77	0x3d8ea307	0.06964689
78	0x3da6d6a7	0.081464104
79	0x3e996240	0.2995777
80	0x3d8bb6d1	0.06821979
81	0xbe008887	-0.12552081
82	0x3e04dace	0.12974092
83	0x3da9a5be	0.08283566
84	0x3c530864	0.012880418
85	0xbcc9c347	-0.024629248
86	0x3dae2e81	0.08504964
87	0xbd4e2909	-0.050332103
88	0x3e948063	0.290042
89	0x3ebf8cd6	0.37412137
90	0x3d6bf016	0.05760201
91	0x3d799e2d	0.060941864
92	0x3df19915	0.11796776
93	0xbd8cd3fd	-0.06876371
94	0xbd947301	-0.07248498
95	0x3d98b482	0.07456304
96	0xbd45ace3	-0.04826058
97	0xbda0b767	-0.07847481
98	0x3d40aadb	0.04703794
99	0x3ccaa62e	0.024737444
100	0x3e80f076	0.25183457
101	0x3dee2b8e	0.11629401
102	0x3d944e90	0.07241547
103	0xbe30cb25	-0.17264993
104	0x3d87c889	0.06630046
105	0xbe2aa9f4	-0.16666394
106	0xbddebb32	-0.108755484
107	0xbc28827e	-0.010285018
108	0x3d3c33d0	0.04594785
109	0x3db3c8fd	0.0877857
110	0x3da26c8e	0.079308614
111	0x3cd14e91	0.025550159
112	0x3c93380d	0.017971063
113	0xbdd9a878	-0.10627836
114	0xbdd73a37	-0.105091505
115	0xbca03cbf	-0.019560216
116	0x3dd27e83	0.102780364
117	0x3c6dc574	0.0145124085
118	0x3d59f46d	0.05321162
119	0xbdbb6838	-0.091507375
120	0x3dcb6f22	0.09933306
121	0x3db67a0d	0.08909998
122	0xbe02c67d	-0.1277103
123	0x3d94e0a5	0.0726941
124	0x3cdf6724	0.027270861
125	0xbd7f2132	-0.062287517
126	0x3cf7f855	0.030269781
127	0x3e45bc9f	0.19310234

layers.3.weight f4 [1, 128]
0	0xbe4295d5	-0.19002469
1	0x3e2df67f	0.16988562
2	0xbeaac377	-0.33352253
3	0xbdc7be1d	-0.09753058
4	0x3ea4845c	0.32132232
5	0x3e962c0d	0.29330483
6	0xbea8d0f8	-0.3297193
7	0x3e5ef9b6	0.21774945
8	0x3e4ad766	0.1980873
9	0xbef3dc12	-0.47628838
10	0x3e215e3a	0.15758601
11	0xbf151468	-0.5823426
12	0x3e8df238	0.2772386
13	0x3e94bc0d	0.2904972
14	0x3e33d74c	0.17562598
15	0xbea8676b	-0.32891402
16	0xbd817832	-0.063217536
17	0x3e35c7db	0.1775202
18	0xbe44745d	-0.19185014
19	0x3de8579d	0.11344836
20	0x3e4c8436	0.1997231
21	0x3bbb6770	0.005719118
22	0xbcb0de8f	-0.0215905
23	0xbec25cd4	-0.37961447
24	0x3e36671e	0.17812774
25	0xbd1a4565	-0.037663836
26	0x3e31b850	0.17355466
27	0x3e36e303	0.17860036
28	0xbd07089e	-0.032967202
29	0xbd5ffb81	-0.054683212
30	0xbf0a255e	-0.5396327
31	0xbea450e3	-0.32092962
32	0xbc8bfd24	-0.01708848
33	0xbeccdacd	-0.40010682
34	0xbed27303	-0.41103372
35	0xbef4e385	-0.47829834
36	0x3e8d6018	0.27612376
37	0x3df03409	0.11728675
38	0xbe814295	-0.2524611
39	0x3e3a57f8	0.1819762
40	0x3e088e6a	0.13335577
41	0x3decc4c1	0.11560965
42	0xbea8589e	-0.3288011
43	0x3df67298	0.12033576
44	0x3e258c5b	0.16166823
45	0x3de953ef	0.11392962
46	0x3e4ebc52	0.20189026
47	0x3e0b7b84	0.13621336
48	0x3e13b9ca	0.14426342
49	0x3e051880	0.12997627
50	0xbe9bb99b	-0.30415043
51	0xbf08164e	-0.53159034
52	0xbd18059d	-0.03711473
53	0x3e50ed26	0.20402965
54	0x3e36ea99	0.1786293
55	0x3e0ceae1	0.13761474
56	0xbced50ca	-0.028969187
57	0x3e0ccef2	0.13750818
58	0x3eb961da	0.36207467
59	0xbf1fd516	-0.6243452
60	0xbee5a14d	-0.44849625
61	0xbe98bc64	-0.2983123
62	0x3dfd5b9a	0.12370987
63	0x3e7e6b3e	0.24845597
64	0xbd118656	-0.035528503
65	0x3ef03462	0.46914965
66	0xbf15613e	-0.58351505
67	0x3e83f17d	0.25770178
68	0x3e145368	0.14484942
69	0x3eb88bff	0.3604431
70	0x3e3c6a15	0.18399842
71	0xbeda3fac	-0.42626703
72	0x3e91365a	0.2836178
73	0x3e9a413c	0.30127895
74	0x3e3db70a	0.18526855
75	0x3e03fbd2	0.1288903
76	0xbd560c89	-0.05225805
77	0x3e894bfa	0.26815778
78	0x3e6f2634	0.23354417
79	0xbed6ab6a	-0.41927654
80	0xbe7cab5f	-0.24674748
81	0x3b8723bc	0.004124133
82	0x3debc48d	0.115120985
83	0x3e7b932d	0.24567862
84	0x3e846001	0.25854495
85	0xbed0e365	-0.40798488
86	0xbeb3cc3b	-0.35116753
87	0xbdb3360e	-0.087505445
88	0xbec45ee6	-0.38353652
89	0xbee0238e	-0.43777126
90	0x3df54b59	0.11977262
91	0x3dcf88df	0.10133528
92	0x3decaaa8	0.115559876
93	0xbc2da58e	-0.010598553
94	0x3e0b8223	0.13623862
95	0x3dff8ce1	0.124780424
96	0xbee26048	-0.44214082
97	0x3dab6116	0.08368127
98	0x3e52623d	0.20545287
99	0x3e20a843	0.15689187
100	0xbe9f6db8	-0.31138396
101	0x3e9a8953	0.30182895
102	0x3e3c471f	0.18386506
103	0x3ef399c7	0.4757826
104	0x3e36bbcb	0.17845075
105	0x3edc9988	0.43085885
106	0xba3b4f37	-0.0007145288
107	0x3e1f3ec1	0.15551282
108	0x3e670c66	0.22563323
109	0x3e04badb	0.12961905
110	0x3e6caadd	0.23112054
111	0xbe04f476	-0.1298388
112	0x3e2d496b	0.16922538
113	0x3ed0449b	0.40677342
114	0xbd5a88ec	-0.053353235
115	0xbb3f9c00	-0.002923727
116	0x3e00c6fc	0.12575907
117	0x3e2f866d	0.17141123
118	0x3e30936f	0.17243741
119	0xbd41c200	-0.047304153
120	0x3e1c3359	0.15253963
121	0x3e2d3dd6	0.1691812
122	0xbee78f1f	-0.4522638
123	0x3e11a466	0.1422287
124	0x3e30ff89	0.17284979
125	0xbe1f646d	-0.15565653
126	0x3e5c5b7c	0.21519274
127	0xbe10f853	-0.14157228
