new_models/base+wp_16849288/qf2_best.pth (torch, 186572 bytes, 7 tensors)

layers.0.weight f4 [128, 98]
0	0x3cdc2c30	0.026876539
1	0x3d44d732	0.04805679
2	0x3ca8b87f	0.020595787
3	0xbd96e0ab	-0.07367071
4	0xbddf1928	-0.1089347
5	0x3ceae12f	0.028671829
6	0x3d9a8857	0.07545536
7	0xbda18358	-0.0788638
8	0x3ca448f5	0.02005432
9	0x3cf60b51	0.030034693
10	0x3b840659	0.004029077
11	0x3d5be0bb	0.053681117
12	0x3d87d2f7	0.06632035
13	0x3db5ad61	0.0887096
14	0x3d489358	0.048968643
15	0xbcd89083	-0.026436096
16	0xbe1b1cb8	-0.15147674
17	0x3dd81c25	0.10552243
18	0xbd673d32	-0.056454845
19	0x3d043058	0.032272667
20	0xbc11b288	-0.008892663
21	0xbe07b1ab	-0.13251369
22	0xbddb4750	-0.10706961
23	0xbddc048e	-0.10743056
24	0xbd6cd396	-0.05781897
25	0xbdbbbffb	-0.09167477
26	0x3d4385a1	0.04773486
27	0xbdcfbede	-0.10143827
28	0x3dac66ff	0.084180824
29	0xbd88e62c	-0.06684527
30	0x3d417317	0.0472289
31	0x3daf1fd9	0.08550996
32	0xbd712b39	-0.05887911
33	0xbbbd673e	-0.0057801297
34	0xbcc518d5	-0.024059692
35	0x3d090d29	0.033459816
36	0xbe06ba0c	-0.13156909
37	0xbd87b14c	-0.066256136
38	0xbc914140	-0.017731309
39	0xbe002d22	-0.12517217
40	0xbd2767d4	-0.040870503
41	0xbd85f8e8	-0.06541616
42	0xbd94bcb7	-0.07262557
43	0xbce4dc3f	-0.027937053
44	0xb989e879	-0.00026303882
45	0xbd439a40	-0.047754526
46	0xbdb2b8cc	-0.087266535
47	0xbcc0a9a5	-0.023518393
48	0x3df85086	0.121247336
49	0x3dc7cbb5	0.09755651
50	0xbd57d75b	-0.052695613
51	0xbd4f3b2c	-0.05059354
52	0x3d8dc6d7	0.06922691
53	0x3c924bd3	0.017858421
54	0xbe326371	-0.17420746
55	0xbe18e253	-0.14930086
56	0xbe07e82a	-0.13272157
57	0x3c8f86c3	0.017520314
58	0xbe23e06c	-0.16003579
59	0xbdefe5e7	-0.11713772
60	0x3bc4233a	0.0059856446
61	0xbbc5704f	-0.006025351
62	0xbdb3e79f	-0.087844126
63	0xbdeca82f	-0.11555516
64	0xbc510204	-0.012756828
65	0xbd2e68d8	-0.042580456
66	0x3d532e03	0.051557552
67	0x3d87af45	0.06625227
68	0x3d171417	0.036884394
69	0x3e0919c4	0.13388735
70	0xbd3b1f15	-0.04568394
71	0xbd2d53de	-0.04231631
72	0xbd50e03e	-0.050995104
73	0x3d695a0c	0.05697064
74	0xbe13f011	-0.14447047
75	0xbbf7cee5	-0.0075625055
76	0x3e1261b4	0.14295083
77	0x3d32987d	0.043602455
78	0x3b7fc91f	0.003902979
79	0xbcf6b114	-0.030113734
80	0xbc76bf95	-0.015060325
81	0xbcfc6d94	-0.03081397
82	0x3d81d4ef	0.06339442
83	0x3dd3b702	0.1033764
84	0x3e29f1f2	0.16596201
85	0xbe2f1aad	-0.1710002
86	0xbd8d5d83	-0.069026016
87	0x3dd7022a	0.1049846
88	0x3e71904d	0.23590203
89	0xbcf12185	-0.029434929
90	0x3eb7d15f	0.35901925
91	0x3d765db4	0.060147956
92	0xbdea9b31	-0.11455382
93	0x3d8d003b	0.068848096
94	0x3c8fdff2	0.01756284
95	0x3e6a4eb1	0.22881581
96	0x3dc5c3aa	0.096564606
97	0x3ddc4ca4	0.107568055
98	0x3ce57468	0.028009608
99	0xbd88c7b1	-0.06678713
100	0xbd59deb8	-0.053190917
101	0x3c26a807	0.010171897
102	0xbdea89ab	-0.11452039
103	0xbda863ed	-0.08222184
104	0xbd879ded	-0.06621919
105	0x3d91f2fd	0.071264245
106	0xba2bdf1d	-0.0006556379
107	0x3c5fd7b7	0.01366227
108	0x3d24774f	0.040152844
109	0x3c3ff5ee	0.011716349
110	0xba8141d1	-0.0009861534
111	0x3dba7044	0.09103444
112	0x3d33844f	0.04382735
113	0x3d18ec58	0.03733477
114	0xbdb85ba4	-0.09001854
115	0xbdb2e1e3	-0.08734491
116	0x3d6ccdab	0.057813328
117	0xbc3b9101	-0.011448146
118	0x3db3dfd2	0.08782925
119	0x3d4cd56a	0.050008215
120	0xbd834b09	-0.06410796
121	0x3d859b6c	0.06523785
122	0x3d86e16d	0.06585965
123	0xbd4ad77e	-0.049521916
124	0xbd580876	-0.052742444
125	0xbb8a6d52	-0.004224458
126	0x3b84436b	0.004036357
127	0xbd7cba52	-0.061701126
128	0xbd95c44d	-0.07312832
129	0xbd7da519	-0.061925028
130	0xbdfbfc5f	-0.12303995
131	0x3c277b79	0.010222309
132	0xbddb8ece	-0.10720597
133	0xbce62825	-0.028095314
134	0xbd152ce2	-0.036419757
135	0xbc9c0101	-0.019043447
136	0x3c56e45f	0.013115971
137	0xbbdff391	-0.0068344553
138	0xbd187045	-0.037216444
139	0x3d274631	0.040838424
140	0x3c8aa7b4	0.01692567
141	0x3b9c22dc	0.0047648977
142	0xbd975b89	-0.07390506
143	0xbd903909	-0.070421286
144	0x3c958ae9	0.018254714
145	0xbd9a374e	-0.0753008
146	0xbda51579	-0.08060736
147	0x3d563d82	0.052304752
148	0x3d301128	0.04298511
149	0xbcfe3cce	-0.031034853
150	0xbd2886d2	-0.0411442
151	0x3d0a8d57	0.0338262
152	0x3d8bf2fd	0.06833456
153	0x3e03f37c	0.1288585
154	0x3c9ae2cd	0.018906975
155	0xbd3a3ba5	-0.045467038
156	0xbdbbc0fd	-0.09167669
157	0xbd8f53fa	-0.06998439
158	0xbe0ae57a	-0.13564101
159	0x3ba4bb02	0.005027176
160	0xbe23988b	-0.1597616
161	0x3cc53703	0.024074083
162	0x3d9fd935	0.07805101
163	0x3d8bd8ec	0.06828484
164	0xbd3fe52c	-0.046849415
165	0x3e0c6241	0.13709356
166	0x3d867576	0.06565373
167	0xbe80a71b	-0.2512749
168	0x3cdc7856	0.02691285
169	0xbde13964	-0.109972745
170	0xbe3e2bbc	-0.18571371
171	0x3cca68f6	0.024708252
172	0xbc737fb8	-0.0148619935
173	0x3ca6541e	0.020303782
174	0xbe937e7c	-0.28807437
175	0x3d659039	0.056045745
176	0xbe435556	-0.19075522
177	0x3bb9def2	0.005672329
178	0x3da49cf3	0.08037748
179	0x3cabcea8	0.020972565
180	0x3e3e1173	0.18561344
181	0xbdecb4c6	-0.11557917
182	0x3de1867d	0.1101198
183	0xbe10772b	-0.14107959
184	0x3d9d637b	0.0768499
185	0x3e2d219f	0.16907357
186	0x3d4b1a2b	0.049585503
187	0x3e8643f5	0.26223722
188	0xbe05e91d	-0.13077207
189	0xbe474867	-0.19461213
190	0xbe195e73	-0.14977436
191	0x3f002d7c	0.50069404
192	0x3d9d8206	0.07690816
193	0xbd8ce50f	-0.06879627
194	0xbe11562a	-0.14193025
195	0xbe84cb56	-0.25936383
196	0x3d9df204	0.077121764
197	0x3c1d7266	0.009609794
198	0xbd9836eb	-0.0743235
199	0xbdc187f2	-0.09449758
200	0x3de2f3fc	0.110816926
201	0x3b8b29f1	0.004246943
202	0xbe22ffee	-0.15917942
203	0x3c99ffb1	0.018798681
204	0xbd9745cb	-0.07386359
205	0xbd1ac98d	-0.03778987
206	0x3d529f00	0.051421165
207	0xbc91a576	-0.017779093
208	0xbe00ce00	-0.12578583
209	0x3d5b22f8	0.053500146
210	0xbce98585	-0.02850605
211	0x3d314863	0.043281924
212	0x3db55883	0.08854773
213	0xbcfa8192	-0.030579362
214	0x3c8f92a0	0.017525971
215	0xbcd1c6df	-0.025607524
216	0xbcbac80d	-0.02280047
217	0x3cb4cefe	0.022071358
218	0xbddaf429	-0.10691101
219	0x3d49ab3a	0.04923556
220	0xbd05934d	-0.03261118
221	0x3cd06a3b	0.02544128
222	0xbd3315ce	-0.043721966
223	0x3d0ca56c	0.034337446
224	0xbd31e227	-0.043428566
225	0xbd556a6c	-0.052103445
226	0x3cc19d9a	0.02363472
227	0x3c426119	0.01186397
228	0x3d45f1cb	0.048326295
229	0x3d6addaa	0.0573403
230	0x3de05da0	0.109553576
231	0x3c893f06	0.016753685
232	0x3d85677e	0.0651388
233	0xba833328	-0.0010009753
234	0xbd45b3e8	-0.048267275
235	0x3d1325ec	0.035924837
236	0xbdaf8d19	-0.08571834
237	0x3d624863	0.055244815
238	0x3d93f970	0.07225311
239	0x3c8d4cab	0.017248472
240	0x3d35bbc9	0.04436854
241	0xbd133eb2	-0.035948463
242	0xbce4258d	-0.027849937
243	0xbdb44eef	-0.08804118
244	0x3d64775f	0.055777904
245	0x3ddca83e	0.10774277
246	0x3dd61c2c	0.10454592
247	0x3d2999f8	0.0414066
248	0xbd212a00	-0.039346695
249	0x3ccfc5c7	0.025362862
250	0x3cf87123	0.030327385
251	0x3d8aff8b	0.06787022
252	0xbd9cbc42	-0.07653095
253	0x3d54bc87	0.051937606
254	0x3d3e3865	0.0464405
255	0x3d4f0025	0.050537247

layers.0.bias f4 [128]
0	0x3c0ad698	0.008474015
1	0x3e7b514f	0.24542736
2	0xbe44bbe0	-0.19212294
3	0x3d349830	0.04409045
4	0x3cf899f4	0.030346848
5	0xbd59b8f1	-0.05315489
6	0xbe0d897e	-0.1382198
7	0x3c96103c	0.018318288
8	0x3da174a6	0.07883577
9	0x3de03082	0.10946752
10	0x3e2272f9	0.15864171
11	0x3dc4e5a0	0.0961411
12	0x3df3cae2	0.11903931
13	0x3d62e701	0.055396084
14	0x3def38dd	0.11680768
15	0x3cbcae90	0.023032457
16	0x3c9d611f	0.01921135
17	0x3d76ada5	0.060224194
18	0xbb6e3030	-0.003634464
19	0xbdf17cbe	-0.11791371
20	0x3e5c4a63	0.21512751
21	0x3cb9d79a	0.022685815
22	0x3e0d9055	0.1382459
23	0x3d6869d9	0.05674157
24	0xbdf1a151	-0.11798347
25	0xbafa699c	-0.001910496
26	0xbde61719	-0.11234874
27	0xbc862ddf	-0.016379295
28	0x3e108dcb	0.1411659
29	0xbc4b0ec0	-0.012393653
30	0x3d365196	0.0445114
31	0xbddc13a1	-0.107459314
32	0x3d28a71c	0.041174993
33	0x3d69af38	0.057051867
34	0xbd8f08d2	-0.06984104
35	0xbe0fbbcf	-0.14036487
36	0xbd4dee9d	-0.050276387
37	0xbe03612f	-0.12830041
38	0xbec75105	-0.38929
39	0x3dbb8d60	0.091578245
40	0x3db5e760	0.08882022
41	0x3da1136b	0.07865032
42	0xbd5c3c25	-0.053768296
43	0x3d33a018	0.04385385
44	0x3cfc4e5b	0.030799082
45	0xbe15ae69	-0.14617313
46	0x3e625169	0.22101368
47	0x3e8adbbd	0.27120772
48	0x3e244ec3	0.1604567
49	0xbd390ea9	-0.045179997
50	0x3db541c0	0.088504314
51	0x3d12a6fd	0.035803784
52	0x3eb0b50a	0.34513122
53	0x3d4507f5	0.04810329
54	0x3e933c0a	0.28756744
55	0xbe1db9ea	-0.15402952
56	0xbbae74d7	-0.005323987
57	0x3de71a2e	0.1128429
58	0x3dbd4871	0.09242333
59	0x3de4436f	0.111456744
60	0xbd6be244	-0.05758883
61	0xbc362154	-0.0111163445
62	0x3d08d126	0.033402584
63	0x3da29b93	0.0793983
64	0x3b25596c	0.0025230302
65	0xbcd22071	-0.025650235
66	0xbd5c184f	-0.05373412
67	0xbc88fa3f	-0.01672089
68	0xbd33a183	-0.0438552
69	0xbe06f440	-0.13179111
70	0xbcfc0388	-0.030763403
71	0xbe59c653	-0.21267061
72	0x3e1c5803	0.15267949
73	0xbd1d5200	-0.03840828
74	0x3e456f4d	0.19280739
75	0x3df7ae3d	0.1209378
76	0x3ccf3457	0.025293512
77	0x3dce20e7	0.100648694
78	0xbdad1026	-0.08450346
79	0x3e8115bd	0.25211897
80	0x3d855e9a	0.065121844
81	0xbdeffb46	-0.117178485
82	0x3bb48c76	0.0055099083
83	0xbdc88ee3	-0.097928785
84	0x3df270d9	0.1183793
85	0x3dd426b0	0.103589416
86	0xba3795ac	-0.0007003199
87	0xbca08abb	-0.019597402
88	0xbd5c9a4b	-0.053858083
89	0x3d175153	0.03694279
90	0x3e36dec6	0.17858419
91	0xbbaea28f	-0.005329437
92	0x3c0cd009	0.008594521
93	0x3df66c73	0.12032404
94	0xbd5870f7	-0.052842107
95	0x3ddcb6ff	0.10777091
96	0xbd185827	-0.037193444
97	0xbcefb56e	-0.029261317
98	0x3d697c40	0.05700326
99	0x3e46467e	0.19362828
100	0xbe36c0e3	-0.17847018
101	0x3e6b4d51	0.22978713
102	0x3e42a099	0.19006576
103	0xbe25e208	-0.16199505
104	0xbdd1f07a	-0.102509454
105	0xbd2df53e	-0.04247021
106	0x3e0f84da	0.14015523
107	0x3e3cb217	0.18427311
108	0xbd777899	-0.060417745
109	0x3e972e95	0.29527727
110	0x3daf2ff7	0.085540704
111	0x3e21fcab	0.15819041
112	0x3db05a28	0.08610946
113	0xbdb4495a	-0.08803053
114	0x3da00732	0.078138724
115	0x3cfe1890	0.031017572
116	0x3bf04fbb	0.0073337234
117	0x3ccd2d8f	0.025046138
118	0xbded4ef8	-0.11587328
119	0xbddbb379	-0.10727591
120	0x3e0b4008	0.13598645
121	0x3e65bc7d	0.22435184
122	0x3e141f2d	0.14465018
123	0xbcc4b739	-0.024013149
124	0x3e251bba	0.16123858
125	0xbdac4054	-0.08410707
126	0x3e0e9d2c	0.13927144
127	0x3e4a7fea	0.19775358

layers.1.weight f4 [128, 128]
0	0x3dad9ecd	0.084775545
1	0xbc8e33d8	-0.017358705
2	0xbcbbb248	-0.02291216
3	0xbc83204b	-0.01600661
4	0x3cc6da71	0.024274083
5	0x3d31bbe5	0.04339208
6	0x3db8b1ee	0.090183124
7	0x3cf8e852	0.030384216
8	0x3da49917	0.08037012
9	0xbd0a9752	-0.033835717
10	0xbe122435	-0.14271624
11	0xbc52fa4c	-0.012877058
12	0x3dfbf87e	0.123032555
13	0xbcff5fd5	-0.031173626
14	0xbc976bb6	-0.018483978
15	0x3d935551	0.07194007
16	0xbe19eb22	-0.15031102
17	0xbdeefa85	-0.116688766
18	0xbb7762ad	-0.0037748024
19	0xbcf0fc89	-0.029417293
20	0x3dc0bce4	0.09411028
21	0x3d20d9f9	0.039270375
22	0x3de5ff0b	0.11230286
23	0xbd8abc20	-0.06774163
24	0xbdacd440	-0.08438921
25	0xbd877b6d	-0.066153385
26	0xbe26cf9d	-0.16290136
27	0x3da8b6e1	0.082380064
28	0xbc85fc78	-0.016355738
29	0xbe312f5f	-0.17303227
30	0x3e6530a3	0.22381835
31	0xbdac51d4	-0.08414045
32	0x3d84f23d	0.06491516
33	0x3cfb4d82	0.030676607
34	0xbd210416	-0.039310537
35	0x3db909ba	0.09035058
36	0x3c2968e8	0.010339953
37	0xbc537f24	-0.012908731
38	0x3d036f94	0.03208883
39	0x3c2ddf29	0.010612288
40	0xbcabcf03	-0.020972734
41	0x3d8bfa0b	0.06834801
42	0xbda43203	-0.080173515
43	0x3d86afe2	0.06576516
44	0xb9c66fc4	-0.00037848775
45	0xbdb37608	-0.08762747
46	0x3da68be6	0.08132152
47	0x3d4e98ca	0.05043868
48	0x3d83f434	0.064430624
49	0xb9a3274d	-0.00031119064
50	0x3c565d7f	0.013083815
51	0x3c983020	0.018577635
52	0x3e0c8d9e	0.13725898
53	0xbd54d8ba	-0.0519645
54	0xbddaa51d	-0.10676024
55	0xbdceb701	-0.10093499
56	0x3dd53aa2	0.10411574
57	0x3de6f42e	0.11277042
58	0x3d24a5ad	0.040197063
59	0xbd16effc	-0.03684996
60	0x3d6b62b4	0.057467178
61	0x3e00bb71	0.12571503
62	0x3e1410c9	0.14459528
63	0xbcc623e5	-0.024187038
64	0xbd036b46	-0.032084726
65	0x3dbad12c	0.091219276
66	0x3d05402a	0.032531895
67	0x3dc3fe38	0.09569973
68	0xbc96945e	-0.018381294
69	0xbcb64102	-0.022247795
70	0xbd64307f	-0.055710312
71	0xbb02a72a	-0.0019936063
72	0x3d3f5ec0	0.04672122
73	0xbda6226b	-0.081120335
74	0x3cb76d61	0.022391023
75	0xbd0b30ca	-0.033982076
76	0x3caaa680	0.020831347
77	0xbb15fc87	-0.0022886114
78	0x3dde1494	0.10843769
79	0x3e05f7fa	0.13082877
80	0x3d3c804f	0.046020802
81	0x3ddb3914	0.10704246
82	0xba7a7ed4	-0.0009555642
83	0x3da124b9	0.078683324
84	0xbd8d96e4	-0.06913546
85	0x3b2410e6	0.0025034486
86	0x3b72a873	0.0037026673
87	0xbd8f0f99	-0.06985397
88	0x3cd96f86	0.026542436
89	0xbd2a0ce5	-0.041516203
90	0xbdb03a28	-0.086048424
91	0x3c109dc6	0.008826679
92	0x3d8a8055	0.06762759
93	0xbd2a5bcc	-0.04159145
94	0x3d3e532c	0.046466038
95	0xbdd54135	-0.10412828
96	0xbd3c1b06	-0.04592421
97	0xbe5bf5e0	-0.21480513
98	0xbdaae215	-0.08343903
99	0x3bf672a0	0.0075209886
100	0xbba0bc2e	-0.0049052453
101	0xb94a1751	-0.00019272907
102	0xbdd27bcf	-0.10277521
103	0x3cd8d54b	0.026468894
104	0x3d5f25ba	0.05447934
105	0x3df6206a	0.12017901
106	0xbb045408	-0.0020191688
107	0x3cb16300	0.021653652
108	0x3d999e07	0.075008444
109	0x38b86036	8.7917244e-05
110	0xbe260eea	-0.16216627
111	0xbe18203b	-0.14856045
112	0x3b2da7b7	0.002649767
113	0x3dadfa4d	0.08495007
114	0xbdd2df3d	-0.102964856
115	0x3d9dce2f	0.07705342
116	0x3dde9ec7	0.10870128
117	0xbc0348b0	-0.0080129355
118	0x3d9c1996	0.07622068
119	0xbe3a7a23	-0.18210654
120	0x3c5debd5	0.013544996
121	0xbe2a9821	-0.16659595
122	0xba214995	-0.0006152627
123	0x3cdfe878	0.02733253
124	0x3dc6fa03	0.09715655
125	0xbd56e96f	-0.052468713
126	0x3db79692	0.08964266
127	0xbe03ff23	-0.12890296
128	0x3cd8dfa0	0.02647382
129	0x3bb4d5cf	0.005518652
130	0x3db3992b	0.08769449
131	0xbd83ee4a	-0.064419344
132	0xbd922186	-0.071353
133	0xbca13422	-0.01967818
134	0x3e147da2	0.1450105
135	0xbd129508	-0.03578666
136	0xbdf1001e	-0.117676005
137	0xbe4473bd	-0.19184776
138	0xbac0a931	-0.001469886
139	0xbb9951a4	-0.004678922
140	0x3c6d24aa	0.014474073
141	0xbcf70489	-0.03015353
142	0xba4d67da	-0.00078356045
143	0x3e04e57b	0.12978165
144	0x3c997c67	0.018736077
145	0xbd11faa2	-0.035639413
146	0xbd4b633b	-0.04965518
147	0x3df5fe20	0.12011361
148	0xbe4af376	-0.19819435
149	0xbdb108c6	-0.086442515
150	0xbca2da00	-0.019879341
151	0x3cb6c9fa	0.022313107
152	0xbd6e3c2c	-0.058162853
153	0xbc96e2ff	-0.018418787
154	0xbe39065a	-0.18068829
155	0xbe159562	-0.14607766
156	0xbdc90003	-0.09814455
157	0xbde3f6bb	-0.111310445
158	0x3e7470bb	0.23871128
159	0xbca45932	-0.020062063
160	0xbd638762	-0.055549033
161	0xbe23d87f	-0.16000555
162	0xbd9e244f	-0.07721769
163	0x3da94e1c	0.08266851
164	0xbd2d19c3	-0.042260896
165	0xbd8c297f	-0.06843852
166	0x3df7916b	0.12088283
167	0x3b90a892	0.0044146264
168	0xbe0e6642	-0.13906196
169	0xbe6bbdde	-0.23021647
170	0x3cc98ee0	0.02460426
171	0x3dc55673	0.096356295
172	0xbd43c561	-0.047795657
173	0x3bfb8a93	0.0076764314
174	0x3dc8ced6	0.09805076
175	0xbd156c58	-0.036480278
176	0xbd889258	-0.06668538
177	0xbddd83e6	-0.10816173
178	0x3da20a49	0.07912118
179	0xbd6692f1	-0.056292478
180	0x3e18284f	0.14859127
181	0xbe361737	-0.17782293
182	0xbdf3606c	-0.118836254
183	0xbdd0db23	-0.10198047
184	0x3e758c6f	0.23979352
185	0xbd89474c	-0.06703052
186	0xbe0e389c	-0.13888782
187	0xbcdd82d4	-0.027039923
188	0x3e1eef8b	0.15521066
189	0x3e856d1d	0.2605981
190	0xb98e1704	-0.000271015
191	0xbd5f1aa9	-0.054468784
192	0xbd8abd77	-0.06774419
193	0x3dd80305	0.10547451
194	0x3d341afd	0.04397105
195	0x3c8b0cb1	0.016973825
196	0x3ba49d10	0.005023606
197	0x3c350bea	0.011050204
198	0xbd7de0e1	-0.06198204
199	0x3c89db6f	0.016828267
200	0x3c6df90f	0.014524712
201	0xbe8a6a99	-0.27034453
202	0xbe26f04a	-0.163026
203	0x3d0f2c8b	0.03495459
204	0xbc137a1f	-0.009001284
205	0x3e4356db	0.19076101
206	0xbd74bf18	-0.059752554
207	0xbe032116	-0.1280559
208	0x3d28da54	0.04122384
209	0x3e03746a	0.12837377
210	0x3d5796f6	0.052634202
211	0x3ddf0ad3	0.108907364
212	0xbc9bd9c0	-0.01902473
213	0x3c9a682e	0.018848505
214	0x3a258019	0.00063133385
215	0xbd067969	-0.03283063
216	0xbe402e4b	-0.1876766
217	0xbdde3ff7	-0.10852044
218	0xbd10fad1	-0.035395447
219	0x3d033d23	0.032040726
220	0xbcece3eb	-0.028917274
221	0x3e300507	0.17189418
222	0x3d70d699	0.058798406
223	0xbda4a32f	-0.08038937
224	0x3d6d648e	0.057957225
225	0xbd7eb6ce	-0.062186055
226	0xbd816c89	-0.063195296
227	0xbd868bec	-0.06569657
228	0xbdfa6bba	-0.122275785
229	0xb976624d	-0.00023497008
230	0xbe44bf8f	-0.19213699
231	0x3db2917e	0.08719157
232	0xbd3117f9	-0.043235753
233	0x3da2c59d	0.07947848
234	0xbcb0a8a6	-0.021564793
235	0x3d0fc93b	0.035104018
236	0xbdcd17a4	-0.10014275
237	0xbd816410	-0.063179135
238	0xbdef0422	-0.1167071
239	0xbd0482e7	-0.0323514
240	0xbba5b396	-0.0050568087
241	0xbc88ca55	-0.016698042
242	0xbdf67b2e	-0.120352134
243	0xbd893f08	-0.067014754
244	0xbd576e12	-0.052595206
245	0x3da12558	0.07868451
246	0xbd2926c5	-0.04129674
247	0x3dd8828f	0.10571777
248	0x3dec96f2	0.11552228
249	0xbd748d3e	-0.05970501
250	0x3c91bf0b	0.017791292
251	0x3e14b930	0.14523768
252	0xbd80262e	-0.06257282
253	0x3d07e949	0.033181462
254	0x3c6a309c	0.014293816
255	0x3d11c4aa	0.035587944

layers.1.bias f4 [128]
0	0x3e109dee	0.14122745
1	0xbdade2e0	-0.084905386
2	0xbd504143	-0.05084349
3	0x3dd722d7	0.10504692
4	0x3e49a3e1	0.19691421
5	0xbd8bd3f4	-0.06827536
6	0x3e2741ef	0.16333745
7	0x3d5e6d87	0.054303672
8	0x3d76dd75	0.06026979
9	0x3e4410b3	0.19146995
10	0x3d98140c	0.07425699
11	0x3da848c2	0.082170025
12	0xbdad0274	-0.084477335
13	0xbd9a7f49	-0.07543809
14	0x3c5adacd	0.01335783
15	0x3d34389d	0.043999303
16	0x3d1a863e	0.03772568
17	0x3db4f0da	0.08835001
18	0xbd3ed90c	-0.04659371
19	0x3e109a7a	0.14121428
20	0xbc548306	-0.012970692
21	0x3e288e83	0.16460614
22	0x3d4b225e	0.049593322
23	0xbb16f996	-0.0023036948
24	0xbde883c2	-0.11353256
25	0xbe01376e	-0.12618801
26	0xbcdb8f95	-0.026801864
27	0x3e18adf4	0.14910108
28	0x3de53e07	0.111934714
29	0xbe853549	-0.26017216
30	0xbdd50713	-0.1040174
31	0x3e4f8813	0.20266752
32	0x3dea838b	0.11450871
33	0x3df06cd9	0.11739511
34	0x3d8e66ed	0.06953225
35	0x3e757535	0.23970492
36	0xbca407b6	-0.020023208
37	0x3e9effe7	0.31054613
38	0xbe12de5c	-0.14342636
39	0xbc876b69	-0.01653071
40	0xbdad02e0	-0.08447814
41	0xbdeb05b7	-0.114756994
42	0x3e294ba6	0.16532764
43	0x3dbb4588	0.091441214
44	0xbe12899a	-0.14310303
45	0xbc559c48	-0.013037749
46	0xbd0c0f4e	-0.034194283
47	0x3d125ae3	0.035731208
48	0xbd831503	-0.06400492
49	0xbdc0b695	-0.09409825
50	0x3d246332	0.040133663
51	0xbd215125	-0.039384026
52	0xbe188bd3	-0.14897089
53	0xbdd370bb	-0.10324236
54	0x3e6bb59e	0.230185
55	0xbe36474b	-0.17800634
56	0x3e487687	0.19576465
57	0xbd6f9af7	-0.058497395
58	0x3d9be4db	0.0761201
59	0x3e06c396	0.13160548
60	0x3d20d40f	0.039264735
61	0x3d9e3643	0.07725193
62	0xbe007429	-0.12544312
63	0xbcc90039	-0.024536239
64	0xbe029dab	-0.12755458
65	0xbd6dafbd	-0.058028925
66	0xbd49e141	-0.049287084
67	0x3b961536	0.0045801653
68	0xbd16c046	-0.03680446
69	0xbcf59880	-0.029979944
70	0xbd50d9e6	-0.050989054
71	0x3e18c137	0.14917456
72	0xbc1cb612	-0.009564893
73	0xbd48c4a7	-0.049015667
74	0x3e2fe16e	0.17175838
75	0xbdf4a4ac	-0.11945471
76	0x3cb7e6b0	0.022448868
77	0x3dd576eb	0.104230724
78	0xbde2301e	-0.11044334
79	0x3e317f87	0.17333804
80	0x3d2fd076	0.042923413
81	0x3dfb988a	0.12284954
82	0x3d5556f1	0.052084867
83	0xbdcb12ef	-0.09915721
84	0x3e3895ab	0.18025844
85	0x3dbd4c86	0.09243111
86	0xbdae8489	-0.08521373
87	0xbd993fb8	-0.074828565
88	0x3e44acb5	0.19206508
89	0x3e83598e	0.25654262
90	0xbd8c91e1	-0.06863762
91	0xbc98804d	-0.018615866
92	0x3cbb61b7	0.022873743
93	0x3e027c78	0.12742794
94	0x3d2dd94e	0.042443566
95	0x3df87606	0.12131886
96	0xbc83af10	-0.016074687
97	0xbde19e31	-0.11016501
98	0x3e20329f	0.1564431
99	0xbdaac478	-0.08338255
100	0x3d21867e	0.039434902
101	0x3e65d951	0.22446181
102	0x3e01b248	0.12665665
103	0x3e6885db	0.22707312
104	0xbd96a7bd	-0.07356212
105	0xbd9bbbd9	-0.076041885
106	0xbd2f11d0	-0.042741597
107	0xbd4c2b39	-0.049845908
108	0xbb858090	-0.0040741637
109	0x3d36dbeb	0.044643324
110	0xbe41b0bd	-0.18915077
111	0x3e74e3bd	0.23915
112	0xbd90d7dd	-0.07072423
113	0x3cc86d5b	0.024466207
114	0xbdb39649	-0.08768899
115	0xbbd23369	-0.00641482
116	0x3d66b017	0.056320276
117	0x3e68db4a	0.22739902
118	0x3e2f6a9f	0.17130516
119	0x3df47f73	0.119383715
120	0xbde0147e	-0.109414086
121	0xbd975b80	-0.07390499
122	0xbca5677d	-0.020190949
123	0xbdbe72ec	-0.09299263
124	0x3e36801d	0.17822309
125	0x3e168fe4	0.14703327
126	0x3d8b54c2	0.06803276
127	0xbc57f592	-0.013181107

layers.2.weight f4 [128, 128]
0	0xbbec8829	-0.00721838
1	0x3dea2edd	0.1143472
2	0x3e53f62f	0.2069938
3	0xbe528dc0	-0.20561886
4	0x3d824fce	0.06362878
5	0x3cfab7c6	0.030605208
6	0x3d02af29	0.031905327
7	0xbd47abf7	-0.048747983
8	0x3d867c1f	0.06566643
9	0x3d9821b8	0.07428306
10	0x3d42a3f5	0.047519643
11	0x3d642d11	0.05570704
12	0xbe96801f	-0.29394624
13	0xbd53ae05	-0.05167963
14	0x3e589a4a	0.21152607
15	0xbeb00547	-0.34379026
16	0xbd0bc32d	-0.03412168
17	0xbc844da0	-0.016150296
18	0xbc84b33d	-0.016198749
19	0xbc69c856	-0.014268955
20	0xbeb59b07	-0.3546984
21	0xbdbec658	-0.09315175
22	0xbeab7d5c	-0.3349408
23	0x3dcbf4ac	0.09958777
24	0x3cc02ebc	0.023459785
25	0x3ea15dde	0.31516927
26	0x3df1b5a7	0.118022256
27	0x3cd9f363	0.026605314
28	0x3e0b0a1e	0.13578078
29	0x3d78cd67	0.060742762
30	0x3ee17ea6	0.44041938
31	0x3e0aadc3	0.13542847
32	0x3e40a692	0.18813542
33	0xbbbed951	-0.005824246
34	0x3e4d0b5c	0.20023865
35	0x3dff6a31	0.12471426
36	0xbe4eb535	-0.20186312
37	0xbb8d0daa	-0.0043046074
38	0x3e2640d5	0.16235669
39	0x3c5b0b3b	0.013369377
40	0xbd358367	-0.04431477
41	0x3d49d118	0.049271673
42	0xbaf38c74	-0.0018581287
43	0x3d888b57	0.06667202
44	0x3dbcbe83	0.09216025
45	0x3cf1ed8d	0.029532218
46	0x3b35e208	0.0027753133
47	0xbd4db8f3	-0.05022521
48	0x3e49728f	0.19672607
49	0x3e14e4ad	0.14540358
50	0xbda013bc	-0.07816264
51	0xbe45d524	-0.19319588
52	0xbd211624	-0.039327756
53	0xbd6f8c1b	-0.058483224
54	0xbd2241bc	-0.03961347
55	0x3e61e300	0.2205925
56	0x3da896ce	0.08231889
57	0x3c19745a	0.009366119
58	0x3dac4678	0.08411878
59	0x3da03948	0.078234255
60	0xba820193	-0.0009918682
61	0xbe9895a6	-0.29801673
62	0x3d2801ad	0.041017223
63	0x3e106f88	0.14105046
64	0x3de2718d	0.11056814
65	0xbdb37565	-0.087626256
66	0x3dabba72	0.08385171
67	0x3d4137ab	0.04717223
68	0x3ea053d0	0.31313944
69	0xbe32f740	-0.17477131
70	0x3e950a4a	0.29109412
71	0x3ce89480	0.028391123
72	0x3e00055d	0.12502046
73	0xbd111680	-0.03542185
74	0xbe5206aa	-0.20510355
75	0xbdf3f6e6	-0.119123265
76	0xbca40667	-0.020022584
77	0x3c4845ec	0.012223702
78	0xbd22c238	-0.039736003
79	0x3d88c06c	0.066773266
80	0x3deaf178	0.11471838
81	0xbd1d3d75	-0.038388688
82	0x3db98fc3	0.090606235
83	0x3e759136	0.23981175
84	0x3cb1cd91	0.021704467
85	0xbdb127e9	-0.086501904
86	0xbd74161e	-0.059591405
87	0x3e35f449	0.17768969
88	0x3dbefc6c	0.093254894
89	0x3d52fe38	0.051511973
90	0xbe43a342	-0.19105247
91	0x3d468bd5	0.048473198
92	0xbd69c56e	-0.05707305
93	0xbdadec31	-0.084923156
94	0xbea2357e	-0.31681436
95	0xbde92e9a	-0.11385842
96	0xbd60bb8f	-0.05486637
97	0x3de974d2	0.11399235
98	0xbd7f263b	-0.06229232
99	0x3ec123e8	0.37722707
100	0xbdc19bd2	-0.094535485
101	0x3e453f46	0.19262418
102	0x3e60dbc6	0.21958837
103	0x3e3cafb3	0.18426399
104	0x3da47025	0.08029202
105	0x3e85be35	0.2612168
106	0x3da5ca8e	0.08095275
107	0x3ee5c6e3	0.448783
108	0xbdb0540f	-0.08609783
109	0x3e9eac11	0.3099065
110	0xbd73faaf	-0.059565242
111	0x3e429c16	0.19004855
112	0xbe4d9368	-0.20075762
113	0xbdcfd070	-0.10147178
114	0xbd242b34	-0.040080264
115	0x3df00c5b	0.117211066
116	0x3d28c8be	0.041207068
117	0x3e39930d	0.18122502
118	0xbbcb3c75	-0.0062022754
119	0xbd784e58	-0.06062159
120	0x3e6c1a7b	0.23056976
121	0xbe17295f	-0.14761876
122	0x3d177240	0.03697419
123	0xbc642ddc	-0.013926949
124	0x3cf1db6d	0.029523576
125	0x3daf3d91	0.08556665
126	0x3e849d02	0.25901037
127	0xbe00874a	-0.12551609
128	0xbda18d4b	-0.078882776
129	0x3cf71b08	0.030164257
130	0xbe5aaa3c	-0.21354002
131	0x3e1e0ba5	0.1543413
132	0xbdabdb79	-0.083914705
133	0xbccbfb2e	-0.024900045
134	0x3dbff41c	0.09372732
135	0x3b0e82ac	0.0021745367
136	0x3d17bc8e	0.037045054
137	0xbda200d6	-0.07910316
138	0x3d8cdadf	0.06877684
139	0x3d0c819b	0.03430329
140	0xbd70c146	-0.05877807
141	0xbd0a9862	-0.03383673
142	0xbdbe0695	-0.09278599
143	0x3eb46b03	0.35237893
144	0x3db9a15f	0.09063982
145	0x3e27bfb6	0.16381726
146	0xbcdb49e2	-0.026768629
147	0x3d03f017	0.03221139
148	0x3e485ace	0.19565889
149	0x3ba397c6	0.004992458
150	0x3e12349c	0.14277881
151	0xbd00b325	-0.031420846
152	0x3d40d779	0.04708049
153	0xbf06d9fa	-0.52676356
154	0xbd4ba324	-0.04971613
155	0xbd8b6bec	-0.06807694
156	0xbd58eeb6	-0.052962027
157	0xbdef2fbf	-0.11679029
158	0xbea511b5	-0.32240072
159	0xbd0f4495	-0.034977514
160	0xbd46661c	-0.048437223
161	0xbc449b66	-0.0119999405
162	0xbedf6551	-0.43631986
163	0xbd8b8d94	-0.06814113
164	0x3b73d715	0.0037207056
165	0x3dc73d76	0.097285196
166	0xbed546fe	-0.41655725
167	0x3d97f908	0.07420546
168	0xbbe33fba	-0.006935087
169	0x3dab8b03	0.08376124
170	0xbcc23c05	-0.02371026
171	0xba06e01b	-0.00051450887
172	0x3b8d9b51	0.0043214937
173	0xbc8be0e7	-0.017075015
174	0xbce9662b	-0.0284911
175	0x3db3a616	0.08771913
176	0xbe4b1db0	-0.19835544
177	0xbe31c0e6	-0.17358741
178	0x3e5c4fa3	0.21514754
179	0xbd373ea1	-0.044737462
180	0x3d70a0f9	0.058747265
181	0xbcb37868	-0.021908
182	0xbd369b1a	-0.04458151
183	0xbe9a3d39	-0.30124834
184	0x3d730d8b	0.059339087
185	0x3da2f9b0	0.0795778
186	0xbd6b062e	-0.05737894
187	0x3d385f37	0.04501268
188	0xbdcc236c	-0.09967694
189	0x3ebd8e76	0.37022752
190	0xbdac5b36	-0.084158346
191	0x3d3dd867	0.046348955
192	0x3b946770	0.0045289323
193	0xbd9d314a	-0.07675417
194	0x3cd8bbc1	0.026456716
195	0xbd74d9d3	-0.059778046
196	0xbeb50bf7	-0.3536069
197	0x3e65674a	0.22402683
198	0xbee5508b	-0.44788012
199	0x3dbfe3c9	0.093696184
200	0xbec29993	-0.38007793
201	0x3dbac7f4	0.09120169
202	0x3e78cd6d	0.24297114
203	0xbd1671f6	-0.036729775
204	0xbcb80c5f	-0.022466836
205	0x3d46c1de	0.04852473
206	0x3e428688	0.18996632
207	0x3e3ddc6c	0.18541116
208	0x3d23cd8e	0.039990954
209	0x3d751b4c	0.059840485
210	0x3c33dfd4	0.010978658
211	0xbe21433a	-0.15748301
212	0xbc838c77	-0.01605819
213	0xbd488921	-0.0489589
214	0x3c23d36f	0.00999914
215	0xbe870bfa	-0.26376325
216	0xbd75536e	-0.059894018
217	0x3dcd509e	0.10025142
218	0x3bb7c1cc	0.005607819
219	0xbdd4c9e6	-0.103900716
220	0xbb820c14	-0.003968725
221	0x3de19dab	0.11016401
222	0x3e34d080	0.17657661
223	0xbd7f3464	-0.062305823
224	0x3db99ee3	0.09063508
225	0xbcbbd334	-0.022927858
226	0x3e1c5083	0.15265088
227	0xbe8e47b9	-0.27789095
228	0x3e094359	0.13404597
229	0xbe445e96	-0.19176707
230	0xbdc4a83c	-0.09602401
231	0xbdef31b1	-0.116794
232	0xbdcf3207	-0.10116964
233	0xbe80a895	-0.25128618
234	0xbe2aa6da	-0.16665211
235	0xbeeb8851	-0.4600244
236	0xbd9da331	-0.07697142
237	0xbe96e61c	-0.29472435
238	0xbd0b5b51	-0.034022633
239	0x3cdc112e	0.02686366
240	0x3dd5f9fb	0.104480706
241	0x3d173e47	0.036924627
242	0xbd907e8e	-0.070553884
243	0xbe6d7edf	-0.23192929
244	0x3c5756ae	0.013143225
245	0xbe0843d4	-0.13307124
246	0x3b371c5c	0.0027940487
247	0x3d1ffee7	0.039061453
248	0xbe850103	-0.25977334
249	0x3dfb931e	0.1228392
250	0x3d80e595	0.06293789
251	0x3d3b107b	0.045670014
252	0x3e0df362	0.13862374
253	0x3dc2f3aa	0.095191315
254	0xbe140993	-0.14456777
255	0x3c8ecb9a	0.01743107

layers.2.bias f4 [128]
0	0xbc5c29b4	-0.013437677
1	0xbd437852	-0.04772217
2	0x3e668c3d	0.22514434
3	0xbd9169f8	-0.0710029
4	0x3dc0b135	0.094087996
5	0x3cc6b923	0.024258202
6	0x3e0f949e	0.14021537
7	0x3dbd7fe7	0.09252911
8	0x3debf988	0.11522204
9	0x3d9d6a01	0.07686234
10	0x3dec1164	0.115267545
11	0x3e5f36e9	0.2179829
12	0xbcf66728	-0.030078486
13	0xbc9cef2d	-0.019157017
14	0x3d951bcc	0.072806925
15	0x3daa7e85	0.08324913
16	0xbdbcaf2a	-0.092130974
17	0xbda9f3bd	-0.082984425
18	0x3d975fc8	0.07391316
19	0x3e05fb4c	0.13084143
20	0x3cbcfd21	0.02306992
21	0xbd9066cd	-0.07050858
22	0xbde313d7	-0.110877685
23	0x3e657090	0.2240622
24	0xbd0f0e74	-0.034925893
25	0xbd39b16c	-0.04533522
26	0x3dc55c79	0.096367784
27	0x3e0c0cc2	0.13676742
28	0xbd7dbad5	-0.061945755
29	0xbd209f1c	-0.03921424
30	0x3eb2e298	0.34938502
31	0x3e834db8	0.25645232
32	0xbd67c7c6	-0.056587003
33	0x3e2de1db	0.16980688
34	0x3e677052	0.2260144
35	0x3ea2a788	0.3176844
36	0xbe18fce8	-0.14940226
37	0x3cfc5261	0.030801
38	0x3db27c9b	0.08715173
39	0xbb30afe5	-0.002696031
40	0x3c933525	0.017969677
41	0x3da60897	0.08107107
42	0xbd22b078	-0.039719075
43	0x3dcdac2f	0.10042607
44	0xbc9c8ebf	-0.019111035
45	0x3cdbc496	0.026827138
46	0x3dc00221	0.09375406
47	0x3d9d56c2	0.07682563
48	0x3d33f1fe	0.043931954
49	0x3dca5625	0.09879712
50	0xbd2e0383	-0.042483818
51	0x3e9cdde4	0.3063804
52	0xbd6da690	-0.058020175
53	0x3d72660e	0.05917936
54	0x3e02f211	0.12787654
55	0x3dbd613d	0.09247062
56	0xbd4b7538	-0.049672335
57	0x3dfb1094	0.122590214
58	0x3cc1a4ac	0.023638092
59	0x3e944993	0.28962383
60	0x3e934c76	0.28769273
61	0x3e9b4eb6	0.3033349
62	0x3d1add65	0.037808795
63	0xbdd051aa	-0.10171826
64	0xbcf8c6ab	-0.03036817
65	0xbe56c81f	-0.20974778
66	0x3ead1750	0.3380685
67	0x3d91b150	0.07113898
68	0x3d9b3ce0	0.0757997
69	0xbde9e07e	-0.114197716
70	0x3d810f4a	0.06301744
71	0x3e9ef1c1	0.3104382
72	0x3d9a9cd9	0.075494476
73	0x3c66c0b0	0.014084026
74	0x3c82e4a6	0.015978169
75	0x3b195ea9	0.002340237
76	0xbdab8371	-0.0837468
77	0x3d8d3c60	0.06896281
78	0x3da83e22	0.08214976
79	0x3e9a43ef	0.30129954
80	0x3d8ae394	0.06781688
81	0xbe0088ee	-0.12552235
82	0x3e04326d	0.12909861
83	0x3da980df	0.08276533
84	0x3c60fa8e	0.013731612
85	0xbce0d829	-0.027446823
86	0x3dae08ec	0.084977955
87	0xbd43b9a8	-0.047784477
88	0x3e962829	0.29327515
89	0x3ec1032f	0.3769774
90	0x3d6d9810	0.058006346
91	0x3d78ec41	0.060772184
92	0x3df0faad	0.117665626
93	0xbd8cd44f	-0.06876432
94	0xbd9a2837	-0.075272016
95	0x3d987215	0.074436344
96	0xbd3a836a	-0.045535482
97	0xbda0b801	-0.07847596
98	0x3d4322fa	0.047640778
99	0x3cce4763	0.025180524
100	0x3e817e5e	0.25291723
101	0x3df151c8	0.11783177
102	0x3d96d2b2	0.07364406
103	0xbe339afa	-0.17539588
104	0x3d862f7c	0.06552026
105	0xbe2cd69c	-0.16878742
106	0xbddebb89	-0.10875613
107	0xbc04ae06	-0.008098131
108	0x3d47bf0e	0.04876619
109	0x3db35538	0.087564886
110	0x3da244f4	0.07923308
111	0x3cd5ab73	0.02608273
112	0x3c8ea4d0	0.017412573
113	0xbddb9fbb	-0.107238255
114	0xbdde7e30	-0.10863912
115	0xbca03ce3	-0.019560283
116	0x3dd1dc29	0.1024707
117	0x3c64d776	0.0139673855
118	0x3d5d344c	0.054004952
119	0xbdbb6887	-0.091507964
120	0x3dca8758	0.09889096
121	0x3db5ef10	0.08883488
122	0xbe02b1bd	-0.12763114
123	0x3d968e7b	0.07351395
124	0x3cdd7afd	0.027036184
125	0xbd7fa40c	-0.062412307
126	0x3cfeae4d	0.031088972
127	0x3e47ff73	0.1953104

layers.3.weight f4 [1, 128]
0	0xbe427ca2	-0.18992856
1	0x3e2d8e1b	0.1694874
2	0xbeaabfbd	-0.3334941
3	0xbdce4408	-0.1007157
4	0x3ea465a7	0.32108805
5	0x3e965d4d	0.29368058
6	0xbeab7119	-0.33484724
7	0x3e5e7a89	0.21726431
8	0x3e4b0606	0.19826517
9	0xbef80dee	-0.48448128
10	0x3e21ab70	0.15788054
11	0xbf175cb1	-0.5912581
12	0x3e8d9c45	0.27658287
13	0x3e94b4e5	0.29044262
14	0x3e33a466	0.17543182
15	0xbea994c9	-0.33121327
16	0xbd85ad10	-0.0652715
17	0x3e36f293	0.17865972
18	0xbe4583c9	-0.19288553
19	0x3de8747a	0.11350341
20	0x3e4c964b	0.19979207
21	0x3bbb67a9	0.0057191444
22	0xbcb0ddcc	-0.021590136
23	0xbec2d5d7	-0.38053772
24	0x3e35f9a3	0.1777101
25	0xbd1a44af	-0.037663158
26	0x3e31b63d	0.17354675
27	0x3e36c074	0.17846853
28	0xbd070d21	-0.032971505
29	0xbd5ffaed	-0.05468266
30	0xbf0aec63	-0.5426695
31	0xbea76f70	-0.32702208
32	0xbc8bfc57	-0.017088098
33	0xbecc75a2	-0.39933497
34	0xbed3f9b4	-0.41401446
35	0xbef9164a	-0.48649818
36	0x3e8ee4cc	0.27908933
37	0x3df15ae0	0.11784911
38	0xbe82e168	-0.25562596
39	0x3e39b46f	0.18135236
40	0x3e082fde	0.1329951
41	0x3dec0bdd	0.115257
42	0xbea9a92e	-0.33136886
43	0x3df6cc19	0.12050647
44	0x3e259f7d	0.16174121
45	0x3de9d3ef	0.11417376
46	0x3e4e3ef3	0.201412
47	0x3e0befd6	0.13665709
48	0x3e144770	0.14480376
49	0x3e04e621	0.12978412
50	0xbe9e54b8	-0.3092401
51	0xbf09076e	-0.5352696
52	0xbd1804ec	-0.03711407
53	0x3e50cfe3	0.20391802
54	0x3e365f03	0.17809682
55	0x3e0ba843	0.13638406
56	0xbced503b	-0.02896892
57	0x3e0ca024	0.13732964
58	0x3eba3520	0.36368656
59	0xbf21864d	-0.6309555
60	0xbee715b9	-0.4513376
61	0xbe98e490	-0.2986188
62	0x3dfd62cd	0.123723604
63	0x3e810f88	0.25207162
64	0xbd1186f0	-0.035529077
65	0x3ef42e28	0.47691464
66	0xbf1794eb	-0.59211606
67	0x3e83f8e4	0.25775826
68	0x3e140d01	0.14458086
69	0x3eb8dbfe	0.3610534
70	0x3e3bf0c0	0.18353558
71	0xbedb187d	-0.4279212
72	0x3e91503f	0.28381535
73	0x3e9a581e	0.30145353
74	0x3e3c67b8	0.1839894
75	0x3e04403b	0.12915127
76	0xbd560c15	-0.052257616
77	0x3e88dbee	0.26730293
78	0x3e6ec7d6	0.23318419
79	0xbed7934a	-0.4210456
80	0xbe7e145d	-0.24812455
81	0x3b87231a	0.0041240575
82	0x3deb437b	0.1148748
83	0x3e7b6c68	0.24553072
84	0x3e842ec1	0.2581692
85	0xbed4fa4c	-0.4159721
86	0xbeb5ed98	-0.35532832
87	0xbdb2f646	-0.08738379
88	0xbec529a7	-0.3850834
89	0xbee240f3	-0.44190177
90	0x3df55f5c	0.11981079
91	0x3dcf29f0	0.10115421
92	0x3deba973	0.11506929
93	0xbc2da50c	-0.010598432
94	0x3e0f3b50	0.1398747
95	0x3dff94ad	0.124795295
96	0xbee49182	-0.44642264
97	0x3dab60b4	0.08368054
98	0x3e52dcd4	0.20592052
99	0x3e2109a0	0.15726328
100	0xbea26fc7	-0.31725904
101	0x3e9a6856	0.30157727
102	0x3e3cfad9	0.18455066
103	0x3ef3850b	0.4756244
104	0x3e371366	0.17878494
105	0x3edf8fdc	0.43664443
106	0xba3b4e7f	-0.0007145181
107	0x3e1f4c70	0.15556502
108	0x3e66e3aa	0.22547784
109	0x3e046c40	0.12931919
110	0x3e6c3a21	0.2306905
111	0xbe051737	-0.12997137
112	0x3e2d1da6	0.16905841
113	0x3ed2d33d	0.41176787
114	0xbd633bec	-0.055477068
115	0xbb3f9c46	-0.0029237433
116	0x3e0071d5	0.12543423
117	0x3e2f2751	0.17104842
118	0x3e315e12	0.17321041
119	0xbd41c1b1	-0.04730386
120	0x3e1babff	0.1520233
121	0x3e2d9e29	0.16954865
122	0xbee89d6f	-0.45432612
123	0x3e11e62a	0.14247957
124	0x3e30d775	0.1726969
125	0xbe20b021	-0.15692188
126	0x3e5c6958	0.2152456
127	0xbe11ddfd	-0.14244838
