new_models/base+wp_16849288/qf2_target_final.pth (torch, 186668 bytes, 7 tensors)

layers.0.weight f4 [128, 98]
000000 66 91 90 3d 96 0c d2 3d 33 f8 dd 3c 5b c7 a8 bd
       0.070589826 0.10256307 0.02709589 -0.08241149
000010 cb 7a f8 bd af 65 a6 3c 61 e8 9f 3d fb 6a 9e bd
       -0.12132796 0.020312158 0.07807995 -0.07735249
000020 af 8e b6 3c fb 91 05 3d 5c d9 1c ba fe 0a 5e 3d
       0.022284834 0.03260992 -0.0005983317 0.0542097
000030 c6 3f 92 3d f1 47 c2 3d f0 2a 8a 3d 87 f9 d8 b9
       0.0714107 0.09486378 0.06746471 -0.00041384643
000040 7a a6 f2 bd 43 11 e8 3d 45 50 cf bc 6f ea 20 3d
       -0.11848159 0.113314174 -0.02530683 0.039286073
000050 bd 40 f2 bc b7 68 30 be d0 8f fa bd bc f1 df bd
       -0.029571885 -0.17227446 -0.12234461 -0.10934779
000060 08 bb 8f bd 6d 71 a3 bd c2 dd 49 3d 4a 0f d2 bd
       -0.07018095 -0.079806186 0.04928375 -0.102568224
000070 48 fb 96 3d 25 1d 89 bd 6c a0 19 3d cd d6 a5 3d
       0.07372147 -0.06695012 0.037506506 0.080976106
000080 b7 03 0d bd 83 a2 14 3d 1f d2 10 bd d4 4d f4 3c
       -0.03442737 0.036287796 -0.035356637 0.029822268
000090 a7 97 11 be 06 cd a4 bd 6e 65 5f bd 85 36 22 be
       -0.14218007 -0.080469176 -0.05454009 -0.1584111
0000a0 b1 ff a5 bd 62 f3 c8 bd ef ea 88 bd 2a 72 55 bc
       -0.0810541 -0.098120466 -0.06685435 -0.013027707
0000b0 e6 e3 66 ba 45 3d 5b bd 6f 12 de bd 4c 86 2b bd
       -0.0008807763 -0.053525228 -0.1084336 -0.041876122
0000c0 fb 4e e7 3d 92 3f bf 3d 62 32 df bc 3b 98 86 bd
       0.11294361 0.09338297 -0.027245704 -0.065720044
0000d0 78 8e 89 3d 43 e9 a4 bc 1f 6d 4b be ff 8d 4a be
       0.06716627 -0.02013076 -0.19865845 -0.1978073
0000e0 11 15 44 be 07 e0 43 bd 79 09 65 be 71 08 0d be
       -0.19148661 -0.04782107 -0.22366895 -0.13772751
0000f0 8f 4d 98 3c 73 bf f7 bb c6 3d bb bd c4 dd 0b be
       0.01859167 -0.0075606643 -0.09142642 -0.13658816
000100 b2 d3 08 bd b2 82 be bd 16 77 08 3d 0b e9 74 3d
       -0.033405013 -0.09302272 0.033316694 0.05979256
000110 ac df 5b 3c 84 7f 55 3e 1d 8e 63 bd 8d f2 08 bd
       0.013420027 0.20849425 -0.05555545 -0.03343444
000120 60 06 a6 bd c3 c6 b1 3d 97 ac 0d be 21 bb a0 bc
       -0.08106685 0.08680489 -0.13835369 -0.01962048
000130 32 f4 59 3e 35 5a 8f 3d 06 50 3a 3c 13 ce aa bd
       0.2128456 0.069996275 0.011371618 -0.08340087
000140 d8 89 53 3c c1 a0 84 bd 17 84 94 3d 4b bb 24 3e
       0.0129112825 -0.06475974 0.07251757 0.16087072
000150 d5 13 42 3e 0c 15 29 be 63 c3 af bd b3 38 08 3e
       0.18952878 -0.16511935 -0.08582189 0.13302879
000160 71 b4 5e 3e d6 20 d6 bc ce 3d df 3e a6 cd 48 3d
       0.2174852 -0.026138704 0.4360184 0.049024247
000170 96 ac de bd 53 c5 cf 3d f7 75 37 3d cf d2 3d 3e
       -0.10872762 0.101450585 0.044790234 0.18537448
000180 03 35 b5 3d 2c b4 ed 3d 81 56 5a 3d 38 51 5d bd
       0.08848002 0.11606631 0.053305153 -0.054032534
000190 fc 11 80 bd 88 5b 97 39 78 ee eb bd f7 26 ae bd
       -0.0625343 0.0002886916 -0.11520094 -0.08503526
0001a0 f7 af 94 bd 8b fb 8f 3d da e2 a9 bb 6b 4c 01 3c
       -0.07260125 0.070304 -0.0051845135 0.007891755
0001b0 42 23 12 3d d4 da 68 3c 33 40 26 3c 76 41 c2 3d
       0.035678156 0.014212329 0.010147142 0.09485142
0001c0 4d 6d 4c 3d fa 7c 4c 3d f9 41 bd bd 40 84 a1 bd
       0.049908925 0.049923874 -0.09241099 -0.07886553
0001d0 92 27 82 3d 6a 0a 9f bc 19 ce a6 3d 14 b3 f3 3c
       0.06355204 -0.019414145 0.08144779 0.029748477
0001e0 59 59 81 bd 53 c7 7e 3d da 1e 82 3d c0 59 6c bd
       -0.0631587 0.06220181 0.06353541 -0.05770278
0001f0 c8 47 5d bd 01 52 96 3b 34 ad c7 3c e6 dc 5b bd
       -0.054023534 0.0045874123 0.024374582 -0.053677462
000200 25 c1 94 bd e4 a5 8d bd 89 fb 09 be 32 06 c7 3c
       -0.07263402 -0.06916407 -0.1347486 0.024294946
000210 11 0e cf bd 51 79 f4 bc 48 5f 67 bd 5d e2 d0 bc
       -0.10110105 -0.029843004 -0.05648735 -0.025498563
000220 67 08 a6 3c b3 80 fe 3b 87 48 da bc 99 b4 1d 3d
       0.020267678 0.007766807 -0.026645912 0.03850231
000230 9d ec 2d 3c 98 2f ba bb 19 b7 8a bd 0a dc 8f bd
       0.010615495 -0.005681943 -0.06773204 -0.07024391
000240 83 ad 07 3d 4f 0d 98 bd 2e 8a c5 bd 26 f6 ce 3c
       0.033124458 -0.074244134 -0.09645496 0.025263857
000250 07 74 e3 3c c0 90 dd bc 9c f4 35 bd d2 54 7a 3c
       0.027765287 -0.027046561 -0.04442273 0.015279012
000260 96 d9 82 3d 50 b5 0f 3e 4d 78 48 3d 85 01 38 bd
       0.063891575 0.14034009 0.048942853 -0.044923324
000270 97 f8 a5 bd 51 5a 6a bd 3b 00 09 be c0 5e 45 bc
       -0.081040554 -0.05721504 -0.13378994 -0.012046516
000280 73 6e 31 be bf 66 ae 3c 34 dd 64 3d 08 d6 55 3d
       -0.1732729 0.021289228 0.05587502 0.05220607
000290 f7 cc 69 bd ef 96 fa 3d 0d 9f 89 3d e9 f9 6b be
       -0.057080235 0.122358195 0.0671979 -0.23044552
0002a0 44 ca d7 3b 2d cb 24 be f7 f1 33 be e4 68 21 3d
       0.0065853912 -0.1609313 -0.17572771 0.039406672
0002b0 61 c0 b0 3c 49 7f 86 3c d9 e8 ae be 5e 83 3e 3d
       0.021576108 0.016418116 -0.34162024 0.046512
0002c0 be 80 83 be 74 91 3a 3c 9b 88 c2 3d 18 b6 39 3d
       -0.2568416 0.011387218 0.09498712 0.045339674
0002d0 f1 bc 3c 3e 7b ad 2f be 46 74 0b 3e e4 79 5d be
       0.1843145 -0.17156021 0.13618574 -0.21628529
0002e0 d7 89 38 3d fb e2 3b 3e e8 8f a3 3d 5a a6 7a 3e
       0.04505333 0.18348305 0.07986432 0.2447752
0002f0 98 55 19 be a4 e9 7d be ab 6d 6b be f9 f2 12 3f
       -0.14974058 -0.24796158 -0.22991054 0.57401997
000300 d9 de ba 3d a4 bd ba bd 34 8f 1e be f8 f6 81 be
       0.09124536 -0.09118202 -0.15484315 -0.25383735
000310 b8 4e 9e 3d ef 23 86 bc e9 cd af bd c4 e2 b8 bd
       0.07729858 -0.016374556 -0.08584196 -0.09027627
000320 19 49 fa 3d b0 30 01 3c 98 83 26 be a8 86 d3 3c
       0.122209735 0.007885143 -0.16261137 0.025821045
000330 17 15 73 bd 0f d9 ef bc bb d5 61 3d b8 d7 8e bc
       -0.059346285 -0.029278306 0.05513547 -0.017436847
000340 be ed 02 be 66 86 7a 3d 39 68 66 bc fc 03 0f 3d
       -0.12786004 0.06116333 -0.014062935 0.03491591
000350 32 ce a8 3d 2a 4e 25 bd 98 20 1a 3c 36 65 b7 bc
       0.08242454 -0.040357746 0.009407185 -0.022387128
000360 eb fc a1 bc c6 c0 b4 3c 1d d4 d1 bd 0d 4c 22 3d
       -0.019773921 0.022064578 -0.102455355 0.03962331
000370 1c 9f 19 bd d2 0f 96 3c b9 7c e6 bc 00 bc 41 3c
       -0.037505254 0.01831809 -0.028135644 0.011824608
000380 38 fc 85 bd 0b 3f 4c bd 04 6f b9 3c 79 8a 07 3d
       -0.065422475 -0.04986481 0.022635944 0.033091042
000390 80 87 a3 3d d6 12 9b 3d e9 06 fd 3d 3f 49 2a 3c
       0.07984829 0.07571952 0.12354834 0.01039344
0003a0 58 62 9f 3d 69 96 36 3b 56 be 78 bd f2 cb 05 3c
       0.077824295 0.0027860648 -0.060728393 0.0081663
0003b0 5a 35 bb bd 80 1f 4c 3d 3b 1c c0 3d aa 34 3a 3d
       -0.091410354 0.04983473 0.093803845 0.04546038
0003c0 41 f1 01 3d 05 0c 9d bd 02 84 2f bd 97 f3 d0 bd
       0.03172422 -0.07668308 -0.0428505 -0.10202711
0003d0 bc 87 a6 3d 87 5c 12 3e 82 f2 0e 3e ad 64 8e 3d
       0.08131358 0.14293109 0.13959697 0.06952796
0003e0 41 db fd bc 06 f5 ae 3c e1 86 a7 3c 7b 6d 1f 3d
       -0.030988337 0.02135707 0.020450057 0.038922768
0003f0 1d 3c be bd 6e 97 04 3d eb 97 87 3d 0e ef dc 3d
       -0.092888094 0.032370977 0.06620773 0.107877836

layers.0.bias f4 [128]
000000 66 61 8c bc 45 ce 92 3e 2e 85 88 be 07 67 6e 3d
       -0.017136287 0.28672996 -0.26664108 0.058203723
000010 b8 36 b7 3c e5 b1 d0 bc 4f fc 3c be 05 6a 3d 3d
       0.02236496 -0.025475452 -0.18455623 0.046243686
000020 2d 08 b0 3d 61 cd 27 3e 12 62 1f 3e 89 07 be 3d
       0.085953094 0.1638694 0.15564755 0.09278781
000030 5f d0 20 3e e0 15 0d 3c 73 75 01 3e 49 6b 77 3d
       0.15704487 0.008611172 0.1264246 0.06040505
000040 b0 12 da 3b b8 7b 12 3d 2e ee 3b 3b d2 c5 26 be
       0.0066550598 0.03576252 0.0028675902 -0.162864
000050 28 08 83 3e 78 d4 96 3c 4f 64 33 3e 07 18 ac 3d
       0.2559216 0.01841186 0.17518733 0.0840302
000060 a5 1f 1a be cd 44 d0 3c f1 49 22 be 44 f9 9d 3c
       -0.15051134 0.025423432 -0.15848519 0.019283898
000070 4d 7c 27 3e b5 c0 48 bc 88 b0 18 3d 64 3c 09 be
       0.1635601 -0.012252976 0.03727773 -0.13401943
000080 07 4e f7 3c aa ad dd 3d b7 35 15 be b2 82 2f be
       0.030188574 0.108241394 -0.14571272 -0.171397
000090 28 c4 50 bd 87 40 19 be 8d 55 df be 9b a2 cd 3d
       -0.05096832 -0.14966021 -0.43619958 0.1004078
0000a0 25 91 b2 3d 34 27 a5 3d 64 4f 10 bd 9a 94 d0 3c
       0.0871909 0.08064118 -0.035231963 0.025461484
0000b0 1e a0 7d 3c fb a1 3a be b8 b4 85 3e 88 3f a1 3e
       0.015480069 -0.18225853 0.2611444 0.31493783
0000c0 f2 bd 37 3e 46 4e 88 bd 5d 06 98 3d 74 b6 f6 3c
       0.17943552 -0.066555545 0.07423089 0.030116297
0000d0 cf c2 bf 3e 51 41 91 3d 8b 58 a7 3e 64 2f 4c be
       0.37453315 0.07092536 0.3268474 -0.19939953
0000e0 ac b3 0b bc 53 4d 0a 3e a8 62 f6 3d 27 06 d3 3d
       -0.008526724 0.1350606 0.12030536 0.10303908
0000f0 ef fd 51 bd fc d9 95 bc 74 e5 31 3d 57 5a c7 3d
       -0.05126756 -0.01829242 0.043431714 0.09734028
000100 d5 2c 03 bd a1 68 3d 3c 11 1b ac bd 8e 0a 56 bd
       -0.032025177 0.01156059 -0.084036 -0.05225616
000110 60 27 54 bd 53 57 17 be 02 5f 4d bd 60 90 81 be
       -0.051795363 -0.14779405 -0.050139435 -0.25305462
000120 8d b4 5d 3e b5 18 b8 bc 88 1a 50 3e 6c cd 08 3e
       0.21650906 -0.022472719 0.20322621 0.13359612
000130 81 e8 79 3d 65 e7 cd 3d 86 f4 33 bd bd 72 91 3e
       0.06101275 0.10053901 -0.043934368 0.2840785
000140 f7 04 87 3d a2 ce 02 be 32 0c 87 3c de 2c f0 bd
       0.06592744 -0.12774137 0.016485307 -0.11727308
000150 e4 db 1b 3e f4 ae 0c 3e cd 89 77 3d 9b c3 6d bd
       0.152206 0.13738614 0.06043415 -0.058047872
000160 26 06 7f bd 7e 3f a0 3d 8d a2 62 3e a3 f6 e5 ba
       -0.062261723 0.0782461 0.2213232 -0.0017544817
000170 21 3e 07 ba cb 1c 2f 3e 19 c2 90 bd e5 f4 14 3e
       -0.0005159099 0.17100827 -0.07068271 0.14546545
000180 36 ee 13 bd 87 70 2f bc 69 5a 25 3d 56 b8 54 3e
       -0.036115848 -0.010707981 0.040369425 0.20773444
000190 27 4a 4a be dc c7 8e 3e ce d6 59 3e 06 39 55 be
       -0.1975485 0.27886856 0.21273348 -0.20822534
0001a0 b8 c2 f2 bd c8 69 a4 bd d4 fd 5f 3e f6 ca 66 3e
       -0.11853546 -0.08027989 0.21874171 0.22538361
0001b0 89 f8 74 bd 39 d6 9c 3e da c8 b4 3d 1d 9e 37 3e
       -0.059807334 0.3063219 0.08827372 0.17931409
0001c0 52 89 d1 3d d1 ee d4 bd 3a 59 92 3d 04 84 d4 3c
       0.1023127 -0.10397113 0.07145925 0.025941856
0001d0 06 82 bc 3d 90 3e 32 3d d8 2b 12 be 09 ea 06 be
       0.092044875 0.043516695 -0.14274538 -0.13175215
0001e0 f5 f9 05 3e 13 15 70 3e 2a 90 24 3e d5 09 98 bc
       0.13083632 0.23445539 0.16070619 -0.018559376
0001f0 f1 88 1f 3e 6c 9b d8 bd 59 62 2d 3e dd d9 53 3e
       0.15579583 -0.10576519 0.16932048 0.20688577

layers.1.weight f4 [128, 128]
000000 af ae c4 3d 51 98 8a 3c ec 49 34 bd 1a 4f 74 3a
       0.09603631 0.016918333 -0.04401581 0.00093196484
000010 b1 b4 36 3d df ab 1f bd 1d b5 e8 3d 99 53 40 3d
       0.044605915 -0.03898227 0.113626696 0.046954725
000020 f8 e1 c6 3d fe 95 de 3c 6c 0f 23 be f2 39 a2 bc
       0.09711069 0.027171131 -0.15923852 -0.019803021
000030 1c 13 12 3e ce 79 84 bd 9c 8c 23 bc 76 54 34 3d
       0.14265102 -0.06468545 -0.009982254 0.04402586
000040 1b 85 0b be 07 eb 96 bd e6 db ba bc a1 05 24 bd
       -0.13624994 -0.07369047 -0.022809934 -0.04004443
000050 9d d8 bf 3d 0a c0 c0 3d 9b 2e 14 3e 24 ee 53 bd
       0.093674876 0.094116285 0.14470904 -0.05174078
000060 b1 fa 9a bd e0 1f 1a bd db 07 21 be 28 09 45 3d
       -0.07567347 -0.037628055 -0.15725653 0.048104435
000070 4f eb 62 bd 65 02 2c be b1 5e 82 3e 2d bf f1 bd
       -0.05540019 -0.16797788 0.2546287 -0.11804042
000080 2a d3 45 3d b3 3f 82 3d a5 d4 40 bb c1 05 97 3d
       0.048297085 0.06359806 -0.002942362 0.07374144
000090 1b dc b6 3c 60 0d 11 bb b4 9e 2a 3c 80 bb 7d 3b
       0.022321751 -0.0022133216 0.010413814 0.0038716495
0000a0 85 4f 01 bd 73 d8 d0 3d 2e 1e 60 bd 1f 1a 90 3d
       -0.031569976 0.101975344 -0.05471628 0.07036232
0000b0 15 50 8f bc 93 28 ba bd b4 f7 a6 3d ea 37 91 3d
       -0.01749424 -0.0908977 0.08152714 0.07090743
0000c0 b3 fc 8f 3d c1 19 7c bc ff 20 00 3b 0e 0e 20 3d
       0.070306204 -0.015387 0.0019550917 0.039075904
0000d0 f2 15 e3 3d a0 7f 46 bd 00 f9 27 be 0b 9c 17 be
       0.1108817 -0.048461556 -0.1640358 -0.1480562
0000e0 b1 f8 0a 3e 2e 9a f0 3d 9a ba 24 3d 61 53 c5 bd
       0.1357143 0.117481574 0.04021702 -0.09635044
0000f0 71 8a 12 3d 7d 40 05 3e a0 01 fc 3d 80 03 ce 3c
       0.03577656 0.13012882 0.123049974 0.025148153
000100 68 75 f6 bc 5a 61 e7 3d 8d 04 1e 3d 3e 3a 1a 3e
       -0.03008528 0.11297865 0.03857856 0.1506128
000110 7b 51 78 3d 77 6e 6b bc 7f c1 3b bd 9e 0e c0 bc
       0.06062458 -0.014369599 -0.04583883 -0.02344447
000120 99 25 3a 3b b7 76 14 bd 20 3e 54 3a 13 70 28 bd
       0.0028403758 -0.036246028 0.00080964155 -0.041122507
000130 03 83 ec bc f4 d9 23 bd 0b 89 d2 3d 00 d8 f5 3d
       -0.028871065 -0.04000278 0.10280045 0.12004089
000140 6e f1 d8 3d 88 f4 95 3d e3 72 09 3d f7 a2 8b 3d
       0.10592924 0.07322031 0.03355683 0.068181925
000150 e3 18 e0 bd f3 7a 8f 3d fb 26 42 3d 46 7a b3 bd
       -0.10942247 0.070058726 0.047400456 -0.08763556
000160 ee 2f a1 bd ce 3d d3 bd 12 eb 09 be bf 4f 7d 3d
       -0.0787047 -0.10314523 -0.13468578 0.06184363
000170 6f e2 8c 3d 9e b8 4e bd 64 69 5f 3d 69 e1 f2 bd
       0.06879126 -0.050469033 0.054543868 -0.118594
000180 d9 c6 fe bc e9 68 9a be c8 21 7a bd 81 ac 31 3d
       -0.031100677 -0.30158165 -0.061067373 0.043377403
000190 ea 0b db 3c 91 7f 6e bc 73 3f ef bd e9 cb 33 3d
       0.02673908 -0.014556781 -0.11682024 0.043895636
0001a0 cc 75 aa 3d 51 6f 10 3e 61 74 de bc e8 15 6a 3c
       0.08323249 0.14104964 -0.027155103 0.014287449
0001b0 66 9a 81 3c 6e 1f 38 bc bc 3b c7 bd 52 4e 0a be
       0.015820693 -0.011237962 -0.0972819 -0.1350644
0001c0 2d 8e 62 bd 05 de 72 3d b3 28 da bc 5c 56 5d 3d
       -0.05531137 0.059293766 -0.026630735 0.054037437
0001d0 da 36 b0 3d a4 ab a6 bc b3 78 20 3e de ec 8a be
       0.08604212 -0.020345517 0.15671043 -0.2713384
0001e0 6d 6c 3f bc ca d2 45 be 8f cf 0a 3c 0a 6a 1b 3d
       -0.011683566 -0.19318691 0.008472337 0.037942924
0001f0 9f f9 e5 3d 17 7d 7c bc 84 20 93 3d 4d b0 b5 bd
       0.11229252 -0.015410683 0.07183936 -0.08871517
000200 32 4d e5 3d 82 8f 8b 3d 7f 2b 25 3e 58 7b d7 bd
       0.111963645 0.06814481 0.16129874 -0.10521573
000210 9e 09 58 bd cc 56 9c bd df f4 1e 3e 74 e4 54 bd
       -0.052743547 -0.07633743 0.15523098 -0.051975682
000220 8c d1 94 bd 9c 25 3b be f1 3f 2b bd 33 12 c1 bc
       -0.072665304 -0.18276066 -0.041809026 -0.023568248
000230 ad ba 59 bd 81 2a 89 bd 52 2f 98 bc fd f8 02 3e
       -0.053156544 -0.0669756 -0.018577252 0.12790294
000240 1a ca 76 bc 55 89 0e 3d 43 8c cc bd a9 8a 21 3e
       -0.015062833 0.03479894 -0.0998769 0.15775551
000250 3c 2b 16 be a7 0f 91 bd d0 23 43 3c 15 2b 30 3d
       -0.1466493 -0.070830636 0.011910394 0.043009836
000260 36 83 1e bd 49 7c ae bd 82 51 90 bd 30 3d 1f be
       -0.03869935 -0.08519799 -0.070467964 -0.15550685
000270 01 1c 90 bd e2 48 e5 bd 0d f1 5f 3e f6 dd a4 bd
       -0.07036591 -0.11195542 0.21869297 -0.08050148
000280 08 ae 0c bd 99 28 3c be 2c c6 dd 3a b7 cc df 3d
       -0.034345657 -0.18374862 0.0016920022 0.10927718
000290 1a 18 36 bd 65 43 21 be c4 d2 17 3e 95 83 8d 3c
       -0.04445658 -0.15748365 0.14826494 0.017274657
0002a0 d4 a0 39 be 82 11 18 be 42 9a 8d 3d 17 6b c7 3d
       -0.18127757 -0.14850429 0.06914188 0.09737223
0002b0 c0 82 bb bd 19 4c b7 bb 15 f2 01 3e fe 76 75 3c
       -0.09155798 -0.0055937883 0.12690003 0.014981983
0002c0 a8 b2 ef bc 28 e6 dd bd 35 72 0b 3d b0 31 40 bd
       -0.029259995 -0.108349144 0.034044463 -0.046922386
0002d0 11 82 6a 3e d1 c4 5e be 96 06 29 be a6 36 de bd
       0.22901179 -0.21754767 -0.16506419 -0.10850267
0002e0 de 17 60 3e c5 ed 64 bd a4 b2 9f be ef c4 0c 3d
       0.21884105 -0.055890817 -0.3119098 0.034367498
0002f0 0f 36 3c 3e 3a 61 5b 3e e6 10 be 3b ca ab b5 bd
       0.18379997 0.21423808 0.0058003543 -0.08870657
000300 8c 76 f4 bd 7c 82 29 3e 79 f8 3d 3d 47 c0 8f 3d
       -0.119366735 0.16553682 0.04637954 0.07019096
000310 57 ce 9b bd be 2c 8c 3a 8e b1 e1 bc e7 63 cf 3c
       -0.076077156 0.0010694487 -0.027550485 0.025316192
000320 5c 15 73 bd 46 d4 89 be ca c6 30 be 48 ee a5 3d
       -0.05934654 -0.26919764 -0.17263332 0.08102089
000330 ad b3 05 be c8 a0 3f 3e b3 4a 75 bd 60 0f eb bd
       -0.13056822 0.18713677 -0.05988569 -0.11477542
000340 19 91 47 3c 62 10 73 3e bd ec 3b 3d 1b df e2 3d
       0.01218059 0.23736718 0.045880068 0.1107771
000350 6f 15 75 bd 76 e7 bf 3a d1 cc 07 3e 46 dd 05 3d
       -0.059834894 0.0014641124 0.13261725 0.032681726
000360 ca ff 42 be e1 fb 2b be 49 1f c9 bd ea 0e 33 3e
       -0.19042888 -0.16795303 -0.0982042 0.17486158
000370 89 c5 ff bc 49 de d4 3d ac a9 6b 3d 14 4e db 3a
       -0.031222122 0.1039396 0.05753486 0.0016731643
000380 58 08 3f 3d 82 51 69 bd 44 ed e3 bd 93 00 80 bd
       0.046638817 -0.056962498 -0.11129239 -0.062501095
000390 c0 59 1e be c0 df 84 3c 03 6f 74 be 6a c0 c7 3d
       -0.15463924 0.016219974 -0.23870473 0.09753497
0003a0 0c cb f5 bd ad 1b b6 3d f9 e5 c9 bd 22 e2 a3 3c
       -0.12001619 0.088919975 -0.09858317 0.02000529
0003b0 fa f0 b5 be 2c 89 bc bd a9 0e 30 be b4 4b 13 bd
       -0.35535413 -0.09205851 -0.17193092 -0.035960868
0003c0 58 9f 40 3d 5d 31 8f bc ff 65 07 be 78 bf 6d bc
       0.047026962 -0.017479593 -0.13222502 -0.014510982
0003d0 9f 37 b8 bd ed 63 9e 3d d5 76 4f 3c 16 b1 2b 3e
       -0.08994984 0.07733903 0.012662609 0.16766772
0003e0 7d 9b 06 3e 6a 28 ed bd 23 06 a7 bb b6 59 8e 3d
       0.13145252 -0.11579974 -0.005097167 0.06950705
0003f0 bf fd 4a bc 31 69 12 ba 13 a0 7b bd 62 c5 3e 3d
       -0.012389599 -0.0005585133 -0.061431956 0.046574958

layers.1.bias f4 [128]
000000 42 96 57 3e 85 26 fb bd c5 e0 98 bd 64 57 15 3e
       0.21053413 -0.122632064 -0.074647464 0.14584118
000010 d8 96 70 3e bd d3 8b bd b7 00 63 3e 2a c4 a2 3d
       0.23495042 -0.06827495 0.22168241 0.079475716
000020 7a 17 bd 3d 80 fa 64 3e a0 5d e9 3d e3 bf b1 3d
       0.092329934 0.22361183 0.11394811 0.086791776
000030 e8 18 4f bd 22 76 fa bd a6 3d 22 bb e3 f5 65 3d
       -0.05056086 -0.12229563 -0.0024755984 0.0561427
000040 07 a4 88 3d 9a cb df 3d b0 d8 3e bd 3a 8c 70 3e
       0.06671911 0.10927506 -0.046593368 0.23490992
000050 ad 5a 89 3c 91 b8 3d 3e c8 5b a0 3d 5a 5e 1b 3d
       0.01676687 0.18527438 0.07830006 0.037931778
000060 f4 f9 f8 bd fd 36 18 be a0 74 f8 bc ba 48 1c 3e
       -0.1215705 -0.14864726 -0.030329049 0.15262118
000070 3a 37 06 3e 86 1f a9 be c9 64 ef bd 16 f0 68 3e
       0.13107005 -0.33031863 -0.11689145 0.22747836
000080 46 af 06 3e 8b e4 22 3e eb 12 24 3d bd ec 8b 3e
       0.13152799 0.15907495 0.040057104 0.27329054
000090 00 4b fa bb c9 81 d0 3e 1b d9 3a be e2 80 c1 3b
       -0.007638335 0.40724018 -0.18246882 0.0059052566
0000a0 d1 eb c3 bd 6e cd 0a be c6 2d 35 3e e3 fb bd 3d
       -0.09566463 -0.13554928 0.17693242 0.09276559
0000b0 a2 4a 62 be fc ee 59 ba 65 92 09 bd 5d 3e f0 3c
       -0.22098783 -0.00083135045 -0.03358688 0.029326612
0000c0 82 31 c9 bd 8b e3 17 be 4f cb cf 3d fb c9 d4 bd
       -0.09823896 -0.14832895 0.101462 -0.10390087
0000d0 7b 3c 3c be 8c ed bd bd fd 6d 99 3e 7d 66 4d be
       -0.18382446 -0.09273824 0.29966727 -0.20058627
0000e0 4c c7 86 3e bb 9a 6f bd 69 fd 8a 3d f0 9c 57 3e
       0.26323926 -0.05849717 0.067866154 0.2105596
0000f0 c7 88 6b 3c c9 eb 8d 3d 69 23 0a be 33 05 13 bd
       0.014375872 0.06929738 -0.1349007 -0.03589363
000100 8f 9a 2c be c4 ca f3 bd a4 f2 a6 bd 26 f3 69 3c
       -0.16855834 -0.11903909 -0.08151749 0.0142791625
000110 dd 8c 79 bd e2 7d ec bc d8 cd a6 bd 6d 4a 25 3e
       -0.060925353 -0.02886862 -0.0814473 0.16141672
000120 90 db 12 bd d0 4a 4e bd 12 51 54 3e e6 0a 31 be
       -0.035853922 -0.050364316 0.20734051 -0.17289314
000130 9c df 5a 3d 66 4d 0d 3e e3 1e bd bd cc d3 54 3e
       0.053435907 0.13799056 -0.09234407 0.20783919
000140 a2 4e 7a 3d 90 69 38 3e 84 9f 24 3d ac e7 07 be
       0.061110146 0.18009019 0.04019119 -0.1327197
000150 9b 40 46 3e 59 68 11 3e fb 3b 09 be e1 c9 c8 bd
       0.19360583 0.14199962 -0.13401787 -0.0980413
000160 98 cb 85 3e 27 a4 ad 3e 6d af df bd 67 14 3e bd
       0.26131892 0.339143 -0.10922132 -0.046406176
000170 ec 92 28 3d 38 16 2b 3e a2 ef d3 bb ea 4b 1b 3e
       0.04115574 0.16707695 -0.0064677754 0.15165678
000180 aa 22 47 bb 00 2b 04 be 0a c5 48 3e fc b1 17 be
       -0.0030385652 -0.12907028 0.19606414 -0.1481399
000190 7b 52 94 3c 25 11 8e 3e 1c 82 f6 3d 2f 2e 85 3e
       0.018105736 0.27747455 0.12036535 0.26011798
0001a0 d0 b2 09 be 64 b6 c1 bd 7c 5c 95 bd 82 06 76 bd
       -0.13447118 -0.094586164 -0.072930306 -0.0600648
0001b0 a2 b2 73 3c ac b3 d4 3c 9f 40 82 be 7c 1a 94 3e
       0.014874132 0.02596458 -0.25439927 0.28926456
0001c0 79 48 02 be f9 fc df 3c e0 95 b3 bd 33 24 1a 3b
       -0.12722959 0.027342306 -0.08768821 0.0023520112
0001d0 6d 1b b2 3d 17 bd 8b 3e a5 77 4b 3e 4a fb 3c 3e
       0.08696637 0.27292702 0.1986986 0.18455234
0001e0 ad a8 0e be 37 00 8f bd 5d 10 04 bd ad 86 1d be
       -0.13931532 -0.06982463 -0.032242168 -0.15383406
0001f0 81 d7 75 3e aa 94 55 3e 3f 76 a1 3d 36 bb a0 bb
       0.2400799 0.20857492 0.07883882 -0.00490513

layers.2.weight f4 [128, 128]
000000 3b 42 91 3a 45 dc b1 3d 5e 1e 6a 3e 1b 94 80 be
       0.001108236 0.08684591 0.22863147 -0.25112996
000010 94 44 dd 3d 0b b8 fa 3c 43 04 bb bd ab 12 02 be
       0.10804096 0.030605337 -0.09131672 -0.12702434
000020 14 df 9f 3d fc 61 ab 3d 25 29 c3 3d 03 6f a5 3d
       0.07806221 0.083682984 0.09529332 0.080778144
000030 08 fa a3 be 55 7e 66 bd f5 ba 2e 3e 63 fc a0 be
       -0.32026696 -0.056272823 0.17063506 -0.31442556
000040 b6 31 66 bd 30 e8 b8 bb 84 b3 84 bc 5e 1f e5 bc
       -0.05619975 -0.0056429133 -0.016198881 -0.027969059
000050 1b 65 c4 be 86 53 e8 bd 62 61 b2 be c4 72 e1 3d
       -0.38358387 -0.11344056 -0.34839922 0.11008218
000060 bf bf b8 3c fe 83 a5 3e bb a9 20 3e 67 28 45 3d
       0.02255237 0.32327265 0.15689747 0.048134234
000070 28 b6 12 3e da 72 4d 3b 2a 43 03 3f 37 bf 8b 3d
       0.143273 0.0031348974 0.5127436 0.06823581
000080 df 70 26 3e 3f 4d 81 3c 23 03 3e 3e 31 1f ef 3d
       0.16253994 0.015783904 0.18555884 0.11675871
000090 68 76 55 be 86 ac 6b bd 10 85 22 3e 4e 9f 0d 3d
       -0.2084595 -0.057537578 0.15871072 0.034575753
0000a0 92 97 63 bd 93 d2 52 3d 3d 1e d0 bc 27 a8 e5 3d
       -0.05556447 0.05147035 -0.025405044 0.11213713
0000b0 11 7c d5 3d 3e 19 e7 3c 4b 79 79 3a 7e 27 20 bd
       0.104240544 0.028210279 0.000951667 -0.039100163
0000c0 fa 93 61 3e 9a ea 0b 3e 7c 88 e9 bd ab 61 46 be
       0.22029105 0.13663712 -0.114029855 -0.19373195
0000d0 10 55 ae bb ac ad 81 bd f7 93 41 bd 6c 0f 11 3e
       -0.005320199 -0.063319534 -0.04726025 0.14166039
0000e0 a1 26 a3 3d 06 74 19 3c c4 b5 d4 3d 69 3a 38 3c
       0.07966352 0.009366041 0.103862315 0.011244395
0000f0 41 59 2a bd 41 e3 88 be b9 19 30 3d 5f be 03 3e
       -0.041589025 -0.2673588 0.04299328 0.1286559
000100 06 f2 0d 3e d0 0c 6a bd 0b db ea 3d 00 7a ee 3c
       0.13861856 -0.057141125 0.114675604 0.029110909
000110 7e 2a b3 3e 6e ac 28 be b8 b3 a3 3e eb d5 3d 3d
       0.34993356 -0.16472027 0.31973052 0.046346586
000120 5e 04 14 3e 48 3f 08 bd 99 20 85 be 1d a6 27 be
       0.14454791 -0.033263475 -0.26001433 -0.16371961
000130 2d 09 92 bd 3b df 69 bc e0 d4 94 3c e9 cb aa 3d
       -0.071306564 -0.014274414 0.018167913 0.08339674
000140 e1 39 22 3e fc 89 8c bd e9 84 cd 3d 81 6e 67 3e
       0.15842392 -0.06862256 0.10035116 0.22600748
000150 84 54 fa 3c 44 8c 81 bd 95 ca 9e bd a8 00 32 3e
       0.030557878 -0.06325582 -0.07753483 0.17383063
000160 4b 14 d8 3d ef 32 82 bc 47 6c 6e be 81 ae 91 3d
       0.105507456 -0.015893428 -0.23283492 0.07113362
000170 df 06 a7 bd e6 05 a7 bd 96 e6 96 be 84 fb f7 bd
       -0.081556074 -0.08155422 -0.29472798 -0.1210852
000180 21 4c 42 bd 5d be 02 3e b8 39 87 bd 61 08 d4 3e
       -0.047435883 0.1276793 -0.06602806 0.41412643
000190 72 85 8b bd fe 24 6b 3e cb c3 62 3e b6 7b 61 3e
       -0.06812562 0.2296333 0.22145002 0.22019848
0001a0 bf ca e2 3d 4d 7f 9c 3e d5 2c e6 3d 41 41 ee 3e
       0.11073827 0.30565873 0.1123902 0.4653416
0001b0 0d 74 84 bd 3a 61 9b 3e d8 7d 4b bc f6 93 34 3e
       -0.064674474 0.30347615 -0.01242014 0.17634568
0001c0 38 de 5a be 9a f4 d5 bd ff 2a 24 bd 59 31 bd 3d
       -0.21373832 -0.10447045 -0.040080067 0.09237928
0001d0 86 fa 87 3c 10 3c 31 3e 29 02 5c bb 79 ea 3d bd
       0.016598951 0.17308068 -0.0033570623 -0.04636619
0001e0 8f 0b 40 3e 13 44 ce bd 9f 0a e2 3c 61 8d bb bb
       0.18754409 -0.10071578 0.027592955 -0.005723641
0001f0 ed 53 73 3c b0 a0 62 3d a4 a2 9b 3e ca 82 ee bd
       0.014851552 0.055329025 0.30397522 -0.1164604
000200 93 be 76 bd 70 b8 ff 3c 5f c9 34 be b7 12 36 3e
       -0.06024034 0.031215876 -0.17654942 0.17780577
000210 53 a2 3d be f8 fb cb bc b4 ac 5a 3e ad 25 67 bb
       -0.18518953 -0.024900422 0.21354944 -0.003527026
000220 3c f3 bf 3c 5d 14 00 be aa ed c3 3d 0b 5f 01 3d
       0.023431413 -0.12507768 0.09566815 0.03158478
000230 15 aa 9a bd 3d 24 89 bd c3 a1 25 bd b0 27 ce 3e
       -0.07551972 -0.06696365 -0.04043747 0.40264654
000240 6b ce d0 3d 7c 21 f9 3d 2a 49 db bc a5 a1 c9 3c
       0.10195621 0.1216459 -0.026768286 0.024613211
000250 c9 0b 92 3e 30 02 c6 3c 42 3b 04 3e ec 17 55 bd
       0.28524616 0.024170965 0.1291323 -0.052024767
000260 d9 d6 40 3d 29 d0 27 bf b3 ea d1 3b 0e 24 9e bd
       0.047079895 -0.65552 0.006406152 -0.07721721
000270 e8 cd 85 bd 7a fd 36 be 2d 43 81 be 2f b6 62 bd
       -0.06533414 -0.17870131 -0.25246564 -0.055349525
000280 6e 61 ac b9 49 86 4c bd 04 23 e3 be 84 f0 4c bd
       -0.00032878987 -0.04993275 -0.44362652 -0.05003406
000290 2d 24 0e bc 5d 5f 0a 3e e3 a5 d4 be 5a f6 b7 3d
       -0.008675617 0.1351294 -0.41532812 0.08982535
0002a0 d8 97 6e bc 7e d5 a8 3d 4b 8e 8b 3a 51 ea f2 bc
       -0.01456257 0.082438454 0.0010647265 -0.029652746
0002b0 36 f9 8e bc 0c 06 80 bc da de e0 bc 74 d5 c4 3d
       -0.017452817 -0.015627883 -0.027450014 0.096110255
0002c0 b2 5f 5a be b0 5f 32 be 52 9d 3c 3e 98 b5 1e be
       -0.21325567 -0.17419314 0.18419388 -0.1549896
0002d0 f1 d5 40 3d 05 50 e1 bc 48 4f 84 bc ce 8f a5 be
       0.04707903 -0.027503977 -0.016151085 -0.32336277
0002e0 61 97 9d 3d 4e fa a2 3d 4a f5 31 bd 08 e0 05 3d
       0.07694889 0.07957898 -0.043446817 0.032684356
0002f0 16 2e de bd bd 28 b7 3e bb 20 9f bd 5f 44 c4 3c
       -0.10848634 0.35773268 -0.07769915 0.023958383
000300 55 c6 05 bd 58 ac c7 bd 54 57 c6 bc 12 f5 e6 bd
       -0.032659847 -0.09749669 -0.024211563 -0.11277212
000310 dd d6 cc be 2b 76 74 3e 80 4e 17 bf 2c 8c b9 3d
       -0.40007678 0.23873203 -0.59104156 0.09059939
000320 2e 73 d5 be 5a 2a c7 3d b8 2c 59 3e d4 21 33 bd
       -0.41689438 0.09724875 0.21208465 -0.043733433
000330 10 d1 d2 bc 81 e1 4d 3d 82 f5 5e 3e 5d 2d 56 3e
       -0.025734454 0.050263885 0.21773341 0.20915742
000340 e0 32 76 3d 76 57 58 3d 3e cf 77 3c 5e 5b 04 be
       0.060107112 0.052817784 0.015125094 -0.12925479
000350 d8 84 c4 3c 0b cf 2a bd fb 03 f7 3c 50 f2 90 be
       0.023989126 -0.041701358 0.030153265 -0.2830987
000360 34 ae 24 bd 76 72 00 3e 3f 8b 23 bc 2e 35 1f be
       -0.040205196 0.12543663 -0.009981929 -0.1554763
000370 ee 5c 6a bc 27 fa fb 3d 22 a0 c6 3d df 7a a1 bd
       -0.014304383 0.12303572 0.09698512 -0.07884764
000380 8a aa 9d 3d 74 56 4b bd b6 e2 f5 3d ce ac 98 be
       0.07698543 -0.049642995 0.12006132 -0.2981934
000390 a6 52 02 3e 80 f0 79 be dc bd c9 bc ae cb e4 bd
       0.1272684 -0.2440815 -0.024626665 -0.11171661
0003a0 48 8e 0c be 24 a9 80 be 8c a4 3e be ad 2a e3 be
       -0.13726151 -0.25129044 -0.18617457 -0.44368497
0003b0 05 df a6 bd fd 8a 8e be 1e 0c e5 bd 52 f3 db 3d
       -0.08148006 -0.27840415 -0.11183952 0.10739769
0003c0 a9 aa 2a 3c 1b 27 23 3c 0d 7f 90 bd d0 83 a2 be
       0.010416665 0.009958054 -0.07055483 -0.3174119
0003d0 fb 55 0a 3c 42 58 09 be 09 bb 1d ba 27 b1 1a 3d
       0.008443351 -0.13412574 -0.0006016945 0.037766602
0003e0 5b 73 9e be fc ec 32 3e 2a 29 81 3d ca e6 75 bc
       -0.30947384 0.17473215 0.063066795 -0.015008638
0003f0 46 eb 0b 3e c3 3e bb 3d 8d 3a 17 be ff 65 cf bd
       0.13663968 0.0914283 -0.14768429 -0.10126876

layers.2.bias f4 [128]
000000 d3 05 f5 3c bf e8 d7 3b 52 87 9d 3e db f3 be bd
       0.029910004 0.006589025 0.30767304 -0.093238555
000010 d4 a5 2b 3e ac 53 bc 3d 5c a1 58 3e 45 75 df 3d
       0.16762477 0.09195647 0.21155304 0.10911039
000020 d4 f1 2c 3e 2a c2 05 3e fe ac 09 3e a4 3a 94 3e
       0.16889125 0.13062349 0.13444898 0.2895099
000030 4d 2f 98 bc 3a 40 21 3d ce 67 ec 3d 6c 89 e0 3d
       -0.018577242 0.03936789 0.11543237 0.10963711
000040 36 04 d5 bd d7 32 b4 bd 5f 99 ed 3d 58 34 24 3e
       -0.10401194 -0.087987594 0.11601519 0.16035593
000050 41 b5 56 3d d6 66 90 bd b3 13 e3 bd 9f 32 a2 3e
       0.05241895 -0.070508644 -0.11087742 0.31679246
000060 72 be 01 3d 28 b1 39 bd 2e 17 06 3e 03 b3 28 3e
       0.031675763 -0.045334965 0.1309478 0.16474538
000070 b1 c1 16 be 67 9e 20 bd 58 fe d4 3e d4 8a aa 3e
       -0.14722325 -0.039213564 0.416003 0.33309042
000080 4d 5e 8a bd dd 2e 6e 3e 1c d7 97 3e 7e 45 bd 3e
       -0.06756268 0.23260064 0.29656303 0.3696708
000090 ee d6 2b be c7 ca 52 3d 02 a0 16 3e 16 7c 95 3d
       -0.16781208 0.051462915 0.14709476 0.07299058
0000a0 53 e7 60 3d 6c 5a d6 3d bc b2 02 be f2 5e 08 3e
       0.054908108 0.10466465 -0.12763494 0.13317469
0000b0 b5 77 8b bb 0f 04 59 3d 34 10 1b 3e 7d 56 cd 3d
       -0.0042562135 0.052982386 0.151429 0.10026262
0000c0 9b 6a 85 3d 6f 38 04 3e e0 80 00 bd f3 88 af 3e
       0.06514474 0.12912153 -0.031372905 0.3428417
0000d0 f3 a5 6d bd 72 78 03 3e 21 4b 29 3e 24 14 f0 3d
       -0.05801959 0.12838915 0.16532566 0.117225915
0000e0 d1 74 4b bd a4 62 31 3e 4f c6 d2 3c 36 fc b2 3e
       -0.04967195 0.17322785 0.025729327 0.34958047
0000f0 ff f8 ae 3e 1b 9a b6 3e 71 40 7f 3d 6c f5 23 be
       0.34174344 0.35664448 0.062317315 -0.1601159
000100 db 28 dc bc 3b 22 7e be a8 09 d1 3e 4e f2 f1 3d
       -0.02687495 -0.24817745 0.4082768 0.11813794
000110 0d 07 c1 3d b1 20 c0 bd d4 38 bb 3d e5 31 c2 3e
       0.09425173 -0.093812354 0.091416985 0.37928692
000120 46 ac f4 3d b5 91 8f 3d 38 c6 af 3d f4 04 2c 3c
       0.11946921 0.07010213 0.08582729 0.010499228
000130 d1 a9 c8 bd 8e 73 cc 3d d4 f5 0d 3e 4c 6b bd 3e
       -0.09798015 0.09982978 0.13863307 0.36995924
000140 21 71 cf 3d 5d 79 0c be cc 0a 2a 3e 23 79 d4 3d
       0.101289995 -0.13718171 0.16605681 0.103746675
000150 a4 f8 99 3d ec 23 58 bd 03 b6 fb 3d e9 0c af bc
       0.075181276 -0.052768633 0.12290575 -0.02136846
000160 93 c6 b8 3e 65 f6 e4 3e 19 15 9f 3d 53 f4 b3 3d
       0.36089 0.44719234 0.07767696 0.087868355
000170 b6 a3 12 3e fd d3 8c bd 01 65 0d be e3 53 de 3d
       0.14320263 -0.06876371 -0.13808061 0.10855844
000180 96 3b 69 bc 67 b7 a0 bd 79 9f 84 3d 14 35 7e 3d
       -0.014235398 -0.07847481 0.064757295 0.062062338
000190 a3 67 97 3e 39 71 35 3e 96 da 0e 3e f1 19 6f be
       0.29571256 0.17718972 0.13950571 -0.2334974
0001a0 b3 e2 a8 3d a2 f4 56 be d6 ca e8 bd 04 8a 2d 3d
       0.082463644 -0.20991758 -0.11366813 0.04236795
0001b0 7c b1 d7 3d 5f c7 e6 3d 16 a8 f7 3d 31 6e 17 3d
       0.10531899 0.11268496 0.12092607 0.03697032
0001c0 6b 72 25 3d c6 3d 03 be 75 e7 d7 bd bf 3c a0 bc
       0.04039232 -0.12816533 -0.10542194 -0.019560216
0001d0 4f 82 0c 3e 66 17 0b 3d 08 eb b4 3d aa 60 d5 bd
       0.13721584 0.03395786 0.08833891 -0.10418828
0001e0 81 24 07 3e 2c 6f ee 3d ed 53 18 be 81 0f df 3d
       0.13197519 0.11642298 -0.14875765 0.10891629
0001f0 5a d7 6d 3d 89 28 d7 bd 29 6c db 3d 26 25 89 3e
       0.058066703 -0.10505778 0.10713989 0.26786155

layers.3.weight f4 [1, 128]
000000 19 6f 5c be 67 c5 34 3e ea db c5 be b8 fa 2b be
       -0.21526755 0.17653428 -0.38644344 -0.1679486
000010 4f ae 9c 3e b9 bf 97 3e ff 7b eb be 44 a9 6e 3e
       0.30601737 0.2963846 -0.4599304 0.23306757
000020 3f bc 5a 3e 6d 47 50 bf 72 11 30 3e 79 50 56 bf
       0.21360873 -0.8135899 0.17194155 -0.8371654
000030 15 b1 8c 3e 03 05 90 3e a4 c8 45 3e a4 8b dd be
       0.27478853 0.28128824 0.1931482 -0.432706
000040 4f 77 8b be b7 e7 5e 3e 63 23 88 be 8b 5f fd 3d
       -0.27239463 0.2176808 -0.26589498 0.12371739
000050 f8 84 51 3e 70 67 bb 3b 8f de b0 bc d1 2b 00 bf
       0.2046088 0.005719118 -0.0215905 -0.5006686
000060 21 2a 32 3e 65 45 1a bd e7 11 4d 3e b7 63 4a 3e
       0.17398883 -0.037663836 0.2002636 0.197646
000070 a1 2c b5 be 81 fb 5f bd 9e 9d 26 bf 62 3c fe be
       -0.35385612 -0.054683212 -0.65084255 -0.49655443
000080 7e 2d ae bc 98 e2 04 bf 60 f8 0e bf 48 23 3a bf
       -0.021261927 -0.51908255 -0.5584774 -0.72710085
000090 cb d5 ce 3e a9 1e 01 3e bc f9 c5 be 2d 00 44 3e
       0.40397486 0.12609352 -0.38667095 0.19140692
0000a0 c6 d4 19 3e 09 cb 05 3e cd 9e 20 bf 47 a8 05 3e
       0.15022573 0.13065733 -0.6274231 0.13052474
0000b0 a9 a3 2a 3e 9f bb fd 3d d1 97 6a 3e fa 4e 15 3e
       0.16663994 0.123893015 0.22909476 0.14580908
0000c0 58 4c 1f 3e 26 d5 0e 3e 76 9a de be 95 84 29 bf
       0.15556467 0.13948497 -0.4347722 -0.6621793
0000d0 9d 05 18 bd a3 8e 59 3e a1 06 51 3e ea 1c 19 3e
       -0.03711473 0.21245818 0.20412685 0.14952436
0000e0 ca 50 ed bc 51 fc 35 3e be 86 df 3e dd 24 4a bf
       -0.028969187 0.17772032 0.43657488 -0.789625
0000f0 75 1d 20 bf a4 03 bb be c2 db f9 3d 47 fa f1 3e
       -0.6254495 -0.36526215 0.122001186 0.4726126
000100 5f 3e 05 bd 1d 1d 20 3f 33 0b 4f bf f2 f3 77 3e
       -0.032530185 0.62544423 -0.80876464 0.24214152
000110 71 e5 1e 3e 97 79 ce 3e 51 0b 4f 3e b8 82 06 bf
       0.15517212 0.4032714 0.2021916 -0.5254321
000120 6e 18 90 3e 0a 48 99 3e b4 cd 51 3e ad 0b 0b 3e
       0.28143638 0.29937774 0.20488626 0.13578673
000130 99 a9 ee bd 54 51 8e 3e 88 95 70 3e 79 bc fe be
       -0.11653442 0.27796423 0.23494542 -0.49753168
000140 b3 27 b6 be 23 78 eb bb 03 2d 13 3e b4 2d 81 3e
       -0.35577163 -0.0071859523 0.1437264 0.2523018
000150 f7 2e 89 3e 1f 92 0f bf b6 68 1a bf 18 ee 82 be
       0.26793644 -0.5608234 -0.60316026 -0.25572276
000160 dc 16 f2 be 1e fa 16 bf 62 10 ff 3d 1a 6a d3 3d
       -0.47283065 -0.589754 0.12454297 0.10322972
000170 23 b2 0b 3e 8e a5 2d bc fb 5d b5 3e 16 1d 18 3e
       0.13642173 -0.010598553 0.35423264 0.14854845
000180 2b a0 1b bf 16 61 ab 3d e2 45 5b 3e 8e c0 35 3e
       -0.6079127 0.08368127 0.21413377 0.17749235
000190 86 b7 f5 be 75 14 9d 3e 67 96 47 3e 24 c6 0f 3f
       -0.4799158 0.3067967 0.19490968 0.56161714
0001a0 d1 94 4a 3e ce 1c 34 3f 5c 02 f2 ba 6e 59 34 3e
       0.19783331 0.7035645 -0.0018463838 0.1761224
0001b0 24 86 69 3e 1b 1a 14 3e b1 2d 77 3e 30 1d 22 be
       0.22805077 0.14463083 0.24138524 -0.15831447
0001c0 e6 f9 31 3e 17 6e 04 3f af 90 41 be 00 9c 3f bb
       0.17380485 0.51730484 -0.18902849 -0.002923727
0001d0 67 4e 19 3e 93 1f 36 3e 99 5c 4f 3e ac eb 0d bd
       0.14971314 0.17785482 0.20250167 -0.034648582
0001e0 c4 b9 34 3e aa 24 3f 3e 76 50 fd be 7d 9c 2d 3e
       0.17648989 0.1866633 -0.4947545 0.16954227
0001f0 d6 5b 3a 3e 14 03 4b be 5f 9a 66 3e 7d 60 54 be
       0.18199095 -0.19825393 0.22519825 -0.20739932
