new_models/base+wp_16849288/qf3_target_final.pth (torch, 186668 bytes, 7 tensors)

layers.0.weight f4 [128, 98]
-0.09089446 0.005571999 -0.06369921 0.025949376 0.02114223 0.037262473 -0.0608011 0.028610129
0.06383722 -0.01803399 -0.0656552 -0.023634452 -0.08119316 0.051827133 0.039219398 0.03099284
-0.071652666 0.040623635 0.04772721 -0.006226229 0.032830916 0.02189072 0.01984477 0.040906407
-0.06275279 -0.05965625 0.025182826 -0.037576392 0.009315537 -0.07269737 0.06656682 -0.049407262
-0.14863956 0.11487954 0.037380442 0.122432336 0.10366345 0.017618187 -0.033958804 -0.070358716
-0.051305704 -0.0014770203 0.022769032 -0.054183934 0.0656671 0.02008869 -0.071487136 0.016483089
0.11908033 0.026849277 -0.011554113 -0.12819861 0.0076232105 -0.06739068 -0.17125566 -0.07621036
-0.07581253 0.08205356 0.08560434 0.08419618 0.113472395 0.041666485 -0.044162583 0.13277447
0.07088208 0.023987655 0.008504611 0.0769315 -0.031136207 -0.42404446 0.017928634 0.003998017
0.013451752 0.05486737 0.12037634 -0.039574694 -0.17932698 -0.059728876 0.008680604 -0.031080486
0.10653456 -0.069332056 -0.11931874 -0.1570273 -0.004094175 0.10882011 0.14189121 -0.04702328
-0.069523 -0.11869673 -0.6408449 0.010906608 0.1868138 0.9595403 -0.03540803 -0.19289933
0.046145465 0.039763816 -0.06940032 0.09516773 0.036146455 -0.0074130856 -0.05950091 -0.092511274
0.0033572135 -0.10569367 0.015768504 -0.04259924 -0.03780047 0.04105554 -0.04630854 -0.05001987
-0.07354864 -0.02363717 -0.058519762 0.037780996 0.06747136 -0.08151415 -0.031149318 -0.0022076522
0.08848719 -0.11007132 0.06504195 0.013769261 0.012528543 -0.12981904 0.014275038 -0.05478903
-0.022219082 -0.100780696 -0.0428797 0.060453296 -0.034637395 0.0061776065 0.045028754 -0.053195976
0.042287383 0.03266774 0.010779983 -0.0005501726 0.07066176 -0.07134941 -0.032744758 -0.07474139
-0.018403698 0.08547745 0.047808163 0.017904552 0.054629687 -0.012136875 -0.12288728 -0.03780016
0.082365006 0.0652771 0.1324646 0.19324486 0.052810173 -0.00073089066 -0.012403559 0.092864364
0.12341951 0.05000506 0.08675248 0.108526014 0.14420292 0.17304873 -0.06508876 0.029526439
0.06222373 0.05178278 0.09555294 -0.005830223 -0.0389444 -0.0067084203 0.035606273 0.01863806
0.031400654 -0.047350492 0.0048062988 0.043886922 0.050965205 0.03702392 0.10890012 -0.030703666
-0.064457044 -0.0051869685 -0.046733063 -0.027784934 0.21763912 0.013395118 -0.12278062 -0.2390139
0.12880453 -0.10047438 -0.02455674 0.02461217 0.07783877 -0.11391295 0.0008473737 0.0045490004
0.020256614 0.05586275 -0.05179334 0.08904809 0.14819379 -0.04126011 0.05037776 0.029046733
-0.016497929 0.027843729 -0.004120215 0.06568817 0.036647785 -0.011693784 0.0044130865 0.011823086
0.058939032 -0.017323151 -0.03550294 0.003405658 0.09715547 0.1462567 0.061926577 0.028413182
0.049274173 -0.025260715 0.09092615 0.054905556 0.0036669974 0.11369002 -0.13020256 0.01076371
0.13806635 0.025531357 -0.03141721 -0.014767392 0.03142575 -0.031754043 -0.024939932 0.008781441
-0.021704411 -0.024669582 0.053632468 0.09252469 0.0035888497 0.019371709 0.07332063 -0.08931403
-0.06743415 0.07579523 -0.040977687 -0.07114157 0.057440262 0.063500874 -0.0022048177 -0.12944189
00000000: e026 babd 5195 b63b bb74 82bd c993 d43c
00000010: 7832 ad3c 89a0 183d 930a 79bd ca5f ea3c
00000020: 17bd 823d 05bc 93bc 3c76 86bd 0a9d c1bc
00000030: 9948 a6bd b048 543d 85a4 203d b2e4 fd3c
00000040: a2be 92bd f864 263d 9b7d 433d 6505 ccbb
00000050: b679 063d 2b54 b33c 8091 a23c 7a8d 273d
00000060: 8984 80bd 1d5a 74bd 374c ce3c b4e9 19bd
00000070: 32a0 183c 5ce2 94bd 2f54 883d 455f 4abd
00000080: f834 18be f745 eb3d 3c1c 193d cebd fa3d
00000090: 814d d43d 0454 903c 6318 0bbd 3b18 90bd
000000a0: ee25 52bd 9498 c1ba 1f86 ba3c f9ef 5dbd
000000b0: 797c 863d 0991 a43c d967 92bd 8b07 873c
000000c0: 63e0 f33d 04f3 db3c 764d 3dbc 7f46 03be
000000d0: 20cc f93b 2004 8abd a55d 2fbe 2d14 9cbd
000000e0: 9a43 9bbd b20b a83d 5451 af3d 0c6f ac3d
000000f0: 3764 e83d 7aaa 2a3d d3e3 34bd 08f6 073e
00000100: a02a 913d c281 c43c ed56 0b3c 438e 9d3d
00000110: 5c11 ffbc 5b1c d9be 12df 923c cc01 833b
00000120: bd64 5c3c 9bbc 603d df87 f63d 1319 22bd
00000130: 7ea1 37be 44a6 74bd 1839 0e3c 819c febc
00000140: cb2e da3d f7fd 8dbd 625d f4bd c4cb 20be
00000150: 6e28 86bb 14dd de3d ee4b 113e 7c9b 40bd
00000160: 1362 8ebd 4517 f3bd 690e 24bf a1b1 323c
00000170: 1e4c 3f3e 6fa4 753f 0308 11bd 6787 45be
00000180: 0703 3d3d 62df 223d c121 8ebd 4ce7 c23d
00000190: 4e0e 143d 78e9 f2bb 3ab7 73bd 8d76 bdbd
000001a0: b204 5c3b ec75 d8bd f32c 813c 8a7c 2ebd
000001b0: aad4 1abd db29 283d 06ae 3dbd a3e1 4cbd
000001c0: aba0 96bd bda2 c1bc 6bb2 6fbd 3fc0 1a3d
000001d0: 6d2e 8a3d e4f0 a6bd db2c ffbc 42ae 10bb
000001e0: c638 b53d 126d e1bd b734 853d 7798 613c
000001f0: 8544 4d3c 48ef 04be d9e1 693c 766a 60bd
00000200: cb04 b6bc 1c66 cebd a0a2 2fbd e09d 773d
00000210: f1df 0dbd 856d ca3b 1270 383d 06e4 59bd
00000220: 8935 2d3d 9cce 053d 879e 303c 7539 10ba
00000230: 1db7 903d a41f 92bd 5e1f 06bd 0412 99bd
00000240: 5ac3 96bc cd0e af3d 7ed2 433d 91ac 923c
00000250: 61c3 5f3d bed9 46bc 54ac fbbd 57d4 1abd
00000260: fcae a83d 00b0 853d cda4 073e fbe1 453e
00000270: 7b4f 583d 3e99 3fba 4c38 4bbc ac2f be3d
00000280: 5ec3 fc3d 1bd2 4c3d 49ab b13d e342 de3d
00000290: eea9 133e b033 313e 414d 85bd 6ee1 f13c
000002a0: 4fde 7e3d 2e1a 543d 43b1 c33d 750b bfbb
000002b0: 2a84 1fbd 4fd2 dbbb e2d7 113d d8ae 983c
000002c0: f99d 003d 97f2 41bd 287e 9d3b c6c2 333d
000002d0: e4c0 503d 65a6 173d 0707 df3d 4186 fbbc
000002e0: 0e02 84bd 72f7 a9bb 2b6b 3fbd 3b9d e3bc
000002f0: cadc 5e3e 3277 5b3c 6874 fbbd 0fc0 74be
00000300: 56e5 033e 83c5 cdbd 372b c9bc 769f c93c
00000310: ef69 9f3d 314b e9bd 4922 5e3a c80f 953b
00000320: 33f1 a53c 57d0 643d 4125 54bd d85e b63d
00000330: 1dc0 173e 5c00 29bd e958 4e3d 6af3 ed3c
00000340: aa26 87bc 8818 e43c de02 87bb 8587 863d
00000350: fd1b 163d 4997 3fbc a79b 903b 9eb5 413c
00000360: 0e6a 713d 48e9 8dbc 886b 11bd 7631 5f3b
00000370: 72f9 c63d 51c4 153e b9a6 7d3d c3c2 e83c
00000380: b7d3 493d 8fef cebc 7d37 ba3d a6e4 603d
00000390: 0252 703b 50d6 e83d d253 05be 465a 303c
000003a0: 4461 0d3e 2327 d13c 55af 00bd eef2 71bc
000003b0: 4ab8 003d 8710 02bd d44e ccbc 08e0 0f3c
000003c0: 73cd b1bc dd17 cabc b8ad 5b3d 967d bd3d
000003d0: e832 6b3b 6bb1 9e3c 2029 963d 46ea b6bd
000003e0: ea1a 8abd 883a 9b3d 38d8 27bd acb2 91bd
000003f0: 7b46 6b3d bf0c 823d b47e 10bb 6a8c 04be

layers.0.bias f4 [128]
0.051643897 -0.2038914 0.1522769 0.018649075 0.01875011 -0.06588805 0.22832529 -0.2582252
0.067738295 -0.075661555 0.26423287 -0.02904764 -0.2665138 0.21337952 0.11815195 0.24502145
0.35189816 -0.060514376 0.43995005 -0.0139754275 -0.31597096 0.20564206 0.11182205 0.11194487
0.1805644 0.13035195 -0.15543666 0.033680547 0.21154983 0.21603493 0.059905827 -0.0873656
0.093839884 0.12392725 0.10672373 -0.20080493 0.06751266 0.072415546 0.046913043 0.008379105
0.19549535 -0.014735427 -0.041920327 0.064028084 0.032947622 -0.0002106286 -0.023773778 0.31701282
0.11271064 0.16117024 0.19911794 -0.19371256 -0.10259587 -0.13295412 0.052796435 -0.30411777
0.1905435 0.11321743 0.27376193 0.35841897 -0.052427843 0.15147805 -0.10263933 0.013210456
0.01681551 0.15911262 -0.19840197 -0.03773183 0.16767673 0.072322324 -0.035610385 0.07360972
0.17045285 0.0055328836 -0.09340113 0.09933335 0.11297866 0.1298016 0.17526752 0.23758265
-0.09600084 -0.10964079 0.10692244 0.13694964 0.19204763 -0.015141256 0.020676859 0.045369346
-0.024734717 0.093476236 0.061623916 -0.064830944 -0.022469897 0.1176838 -0.18319005 0.133319
0.024816846 0.071186714 0.17044823 0.051536486 0.011921224 0.095725544 -0.065206125 -0.29229194
-0.14683433 0.22012922 0.19406639 0.090582296 0.055747308 0.10845822 0.0923812 -0.047611278
0.2660212 -0.30824208 -0.079494216 0.26539898 -0.094918095 0.08083412 0.13842909 0.22937879
0.14110439 0.34155175 0.07923915 0.1597348 -0.03504292 0.2514584 -0.013908862 -0.09124142
00000000: 8d88 533d e8c8 50be 7aee 1b3e f2c5 983c
00000010: d599 993c 50f0 86bd 1bce 693e 1836 84be
00000020: 60ba 8a3d 72f4 9abd 8849 873e 51f5 edbc
00000030: 7f74 88be 2980 5a3e a6f9 f13d e7e6 7a3e
00000040: ff2b b43e ecdd 77bd 2241 e13e 31f9 64bc
00000050: f2c6 a1be d593 523e f502 e53d 5a43 e53d
00000060: e0e5 383e fb7a 053e ca2a 1fbe 9df4 093d
00000070: 85a0 583e 4338 5d3e d05f 753d bcec b2bd
00000080: 202f c03d 92cd fd3d f991 da3d cf9f 4dbe
00000090: 1444 8a3d 9a4e 943d e427 403d 8348 093c
000000a0: ef2f 483e dc6c 71bc a6b4 2bbd 2821 833d
000000b0: 16f4 063d 2fdc 5cb9 3ac1 c2bc 814f a23e
000000c0: d6d4 e63d d009 253e 93e5 4b3e 965c 46be
000000d0: c91d d2bd 2025 08be 1341 583d 53b5 9bbe
000000e0: d61d 433e 8ade e73d 862a 8c3e b182 b73e
000000f0: 94be 56bd 101d 1b3e 9234 d2bd ab70 583c
00000100: aec0 893c 6bee 223e e329 4bbe b18c 1abd
00000110: 73b3 2b3e ba1d 943d 32dc 11bd b1c0 963d
00000120: 318b 2e3e 314d b53b 1749 bfbd 496f cb3d
00000130: 5b61 e73d b6ea 043e 5479 333e de48 733e
00000140: 179c c4bd 5a8b e0bd 27fa da3d 873c 0c3e
00000150: 22a8 443e 0813 78bc 8462 a93c 35d5 393d
00000160: 76a0 cabc 7870 bf3d 5c69 7c3d 16c6 84bd
00000170: ca12 b8bc 3404 f13d 2c96 3bbe c784 083e
00000180: b34c cb3c 57ca 913d fb89 2e3e ec17 533d
00000190: 3d51 433c c10b c43d ca8a 85bd 4aa7 95be
000001a0: bd5b 16be 8e69 613e 57b9 463e 3683 b93d
000001b0: 4a57 643d 581f de3d 5b32 bd3d 0b04 43bd
000001c0: ee33 883e e8d1 9dbe ddcd a2bd 60e2 873e
000001d0: 6b64 c2bd 5c8c a53d 5bc0 0d3e 46e2 6a3e
000001e0: ab7d 103e dfdf ae3e 2348 a23d 8591 233e
000001f0: 2a89 0fbd 28bf 803e ffe1 63bc c8dc babd

layers.1.weight f4 [128, 128]
-0.024821999 0.12065583 0.043683954 0.12718736 0.023638507 0.04892425 0.008509763 0.09199735
0.05012656 -0.16725656 0.10876008 0.08683983 -0.035202708 -0.006045333 -0.021546397 -0.05834258
0.08023361 -0.02421614 -0.053918976 -0.13820603 -0.023906372 0.09128614 0.14579882 0.01752674
-0.018075986 -0.07547626 0.08248516 -0.06249406 0.045779206 0.02767405 0.069499955 -0.081625156
0.0074675535 0.047315836 0.062050756 0.11611299 -0.07100269 0.030715644 0.056853276 -0.17188635
-0.08331985 0.045579486 -0.015819496 0.04781742 -0.12546423 0.05291806 0.03431277 0.044888157
-0.012786518 -0.059619706 -0.00603137 0.029543292 -0.10876095 -0.03651187 -0.12088787 0.039296497
-0.025913546 0.018538758 0.045125384 0.038680412 -0.012881633 0.036328103 0.094286084 -0.01525609
0.16687967 0.15925175 0.11615511 0.011735519 0.077402696 0.042278636 0.016145587 -0.15510695
-0.07854366 0.02063379 0.116011105 0.096301876 0.021283595 0.022792524 0.13967024 -0.0741391
0.021066753 -0.07289367 -0.0034717806 0.049554065 -0.039522015 -0.11956238 -0.0042387405 0.16198608
-0.10062162 0.07604979 0.041901905 0.101804644 -0.02674511 0.032562718 0.07010494 0.0070879697
0.16109999 -0.061684523 0.026267825 0.026468 -0.0154909305 0.075550355 -0.15260684 0.056367997
-0.06851053 0.02704833 -0.03950423 0.10804169 -0.18558216 0.04275292 0.02061439 0.048423525
0.0648614 0.105832644 -0.025343366 -0.09550338 -0.065038145 0.12887745 -0.06399667 0.100526154
0.014967403 -0.027847234 0.06787439 0.06935849 -0.17164874 -1.3587545e-05 -0.08615988 0.008953767
0.08488074 0.042603374 -0.088666 0.021310968 0.04295462 -0.095320605 -0.10891294 -0.014904624
0.069877006 -0.21152568 0.1378777 0.010408355 0.005129627 -0.09602047 -0.04714889 -0.022748936
-0.016753985 0.05120427 -0.0049181236 -0.13947928 0.08088443 -0.07471967 0.115536556 0.09817079
-0.075576276 -0.1790134 -0.03371661 -0.054272946 0.047238257 -0.076546825 0.01604174 0.11288502
-0.1444068 -0.07018064 0.023091022 0.16779791 -0.15356883 0.029410006 0.039884493 -0.19406377
0.041077778 -0.016471203 -0.013314235 0.02770708 -0.061953947 -0.15932539 0.114528194 -0.06642547
0.0585874 0.025793228 0.03043963 0.10031844 0.059774686 0.06903057 -0.07505847 0.097568795
0.08836519 -0.03921835 -0.13883047 0.01962858 0.038278397 -0.025710255 0.04173106 -0.047534514
0.06145462 -0.0048708287 0.13784558 0.04532632 0.007942346 -0.12071334 -0.05369698 0.06012942
-0.15689096 0.020398105 -0.0032912137 -0.0930283 0.15935214 -0.053874303 -0.020710517 -0.017878285
0.002010723 -0.12562223 -0.30745408 0.19031021 -0.0213656 -0.02484955 0.03986609 -0.15265119
-0.005876879 -0.070189655 0.011551205 -0.047768123 -0.13417487 -0.0894367 0.12715025 -0.22005385
-0.0076398347 -0.12627588 0.0048339763 0.0056403726 0.09870308 -0.007820378 -0.037053477 0.13549905
-0.16554056 -0.08853091 0.06469816 0.0038247122 -0.1376632 -0.10491472 0.13920572 -0.015431589
0.010967406 0.13912204 0.03997372 -0.20852193 -0.0435589 -0.014904817 0.077481106 -0.038701627
-0.18027547 -0.032411564 0.002066642 -0.030461328 -0.10247515 -0.083050065 -0.009661071 -0.09122112
00000000: 8157 cbbc 671a f73d f2ed 323d 673d 023e
00000010: 8ba5 c13c cb64 483d 886c 0b3c 1b69 bc3d
00000020: 8251 4d3d 4e45 2bbe 9bbd de3d 15d9 b13d
00000030: b730 10bd ee17 c6bb 1282 b0bc a1f8 6ebd
00000040: 8551 a43d ed60 c6bc 25da 5cbd e285 0dbe
00000050: 4cd7 c3bc 3af4 ba3d 494c 153e 3d94 8f3c
00000060: 1714 94bc 4c93 9abd fbed a83d c5f9 7fbd
00000070: fa82 3b3d b0b4 e23c fe55 8e3d 172b a7bd
00000080: 61b2 f43b 40ce 413d ef28 7e3d a6cc ed3d
00000090: dc69 91bd 609f fb3c fbde 683d fa02 30be
000000a0: 99a3 aabd 8eb1 3a3d e397 81bc 33dc 433d
000000b0: b279 00be 9cc0 583d 8c8b 0c3d a5dc 373d
000000c0: 8b7e 51bc cb33 74bd cca2 c5bb c604 f23c
000000d0: 10be debd 788d 15bd 0f94 f7bd 5df5 203d
000000e0: a548 d4bc 98de 973c 65d5 383d 5a6f 1e3d
000000f0: 7c0d 53bc c7cc 143d 1019 c13d aef4 79bc
00000100: 81e2 2a3e e412 233e bbe2 ed3d 5646 403c
00000110: 4e85 9e3d 5d2c 2d3d c043 843c 5bd4 1ebe
00000120: 80db a0bd 3208 a93c 3b97 ed3d eb39 c53d
00000130: ef5a ae3c 63b7 ba3c b705 0f3e 3ed6 97bd
00000140: 2f94 ac3c 4749 95bd d086 63bb 34f9 4a3d
00000150: d6e1 21bd 1fdd f4bd 22e5 8abb aedf 253e
00000160: b512 cebd febf 9b3d 55a1 2b3d f47e d03d
00000170: 9018 dbbc 7c60 053d 2e93 8f3d 3342 e83b
00000180: 65f7 243e e9a8 7cbd 9f2f d73c 6bd3 d83c
00000190: accd 7dbc 25ba 9a3d f844 1cbe 21e2 663d
000001a0: 404f 8cbd 7694 dd3c 30cf 21bd f644 dd3d
000001b0: 4009 3ebe b01d 2f3d 82df a83c bf57 463d
000001c0: 0ed6 843d c9be d83d e49c cfbc 4797 c3bd
000001d0: b832 85bd 73f8 033e b010 83bd a8e0 cd3d
000001e0: d739 753c e21f e4bc ba01 8b3d d30b 8e3d
000001f0: b0c4 2fbe 10f6 63b7 9774 b0bd d2b2 123c
00000200: f4d5 ad3d e080 2e3d 8596 b5bd 5794 ae3c
00000210: 2ff1 2f3d 7337 c3bd bf0d dfbd 8632 74bc
00000220: ad1b 8f3d 309a 58be d02f 0d3e ce87 2a3c
00000230: 6e16 a83b 61a6 c4bd 321f 41bd fa5b babc
00000240: a73f 89bc 92bb 513d 3628 a1bb a8d3 0ebe
00000250: bca6 a53d a006 99bd 6e9e ec3d c40d c93d
00000260: bcc7 9abd 4a4f 37be 6e1a 0abd 4f4d 5ebd
00000270: e77c 413d 95c4 9cbd f869 833c 4330 e73d
00000280: 60df 13be deba 8fbd 6229 bd3c 37d3 2b3e
00000290: 2641 1dbe 41ed f03c ec5d 233d a7b8 46be
000002a0: 2c41 283d 9eee 86bc f323 5abc f5f9 e23c
000002b0: 6cc3 7dbd 3226 23be c28d ea3d 140a 88bd
000002c0: 57f9 6f3d 524c d33c 885c f93c c173 cd3d
000002d0: 4dd6 743d e65f 8d3d 41b8 99bd 26d2 c73d
000002e0: cff8 b43d 6ca3 20bd 9329 0ebe 1ecc a03c
000002f0: cfc9 1c3d 509e d2bc 30ee 2a3d 8db3 42bd
00000300: d7b7 7b3d 799b 9fbb 6427 0d3e 17a8 393d
00000310: 9d20 023c 8e38 f7bd 5df1 5bbd 444a 763d
00000320: 06a8 20be ed19 a73c 67b1 57bb 9f85 bebd
00000330: 352d 233e 4dab 5cbd 1aa9 a9bc 7b75 92bc
00000340: 56c6 033b 1da3 00be 9f6a 9dbe aee0 423e
00000350: e906 afbc 4991 cbbc a04a 233d 9850 1cbe
00000360: d692 c0bb 98bf 8fbd 4441 3d3c 82a8 43bd
00000370: 2365 09be 972a b7bd ad33 023e cc55 61be
00000380: 9457 fabb 774e 01be 5566 9e3b e0d2 b83b
00000390: d724 ca3d 0b21 00bc 63c5 17bd 43c0 0a3e
000003a0: 7783 29be b24f b5bd 7880 843d 06a8 7a3b
000003b0: 95f7 0cbe 87dd d6bd f28b 0e3e c7d4 7cbc
000003c0: a3b0 333c 0276 0e3e 7cbb 233d c686 55be
000003d0: d16a 32bd 5533 74bc 6aae 9e3d 9985 1ebd
000003e0: 229a 38be fdc1 04bd 8070 073b 098a f9bc
000003f0: 7ede d1bd 2716 aabd 7849 1ebc 23d2 babd

layers.1.bias f4 [128]
-0.05510011 0.07959908 0.29704 0.08600348 -0.054053996 0.37578744 0.12377716 -0.04144123
0.03418492 0.07426415 0.10656764 0.031790316 0.050326537 0.23986652 0.030620674 -0.08958887
-0.007422698 0.07195392 -0.056127533 -0.16921212 -0.061945982 -0.121529415 0.11218404 0.0013223393
-0.13197953 0.1544834 0.1360267 0.2227174 0.14766875 -0.1977217 0.10081015 0.13209909
-0.056129005 0.11751126 0.00678204 0.097465634 0.21380812 0.21349776 0.039543904 -0.09608949
0.085812934 0.058142412 0.07002241 0.12690008 -0.044406507 0.17756341 0.07239156 0.066005915
-0.15251985 -0.102880664 -0.034600157 -0.031473618 0.058594726 -0.27406758 -0.11809794 0.06335612
0.087878056 0.01581632 -0.26652417 -0.09544606 -0.10543751 -0.03997692 -0.026113963 0.02477843
0.093854755 -0.11136532 -0.12540458 0.19096556 0.3920655 0.18673353 0.2193614 -0.20724034
-0.078634255 0.19389495 0.24836108 -0.0037442066 0.31328392 0.28597578 0.115979746 0.029773101
0.18265377 0.18578175 0.10020938 0.017309668 0.040340103 0.087962076 -0.022804247 0.3067485
0.12940775 -0.14248243 0.15380237 -0.046896365 0.20446247 -0.0027809562 0.15618402 0.08435773
0.049581226 0.11070369 0.0007064522 0.06189198 -0.10236736 0.048110798 0.1904804 -0.112948805
0.122524664 0.035622485 0.10893258 -0.02677104 0.014779557 0.05948234 -0.09120433 -0.052323677
0.22087346 -0.089624785 0.08598575 -0.24639332 0.11879018 0.18237172 -0.09788347 -0.039815385
-0.1720261 -0.13093202 -0.027050028 0.31020674 0.36576405 -0.0722491 0.051426187 0.08782728
00000000: a7b0 61bd d804 a33d a015 983e 9822 b03d
00000010: b967 5dbd 3667 c03e e17e fd3d 47be 29bd
00000020: 7d05 0c3d cd17 983d 2340 da3d 9036 023d
00000030: 3323 4e3d 929f 753e 35d8 fa3c 5f7a b7bd
00000040: 1b3a f3bb 945c 933d fce5 65bd f145 2dbe
00000050: 12bb 7dbd 6ae4 f8bd bfc0 e53d 5852 ad3a
00000060: a425 07be e530 1e3e 954a 0b3e 0810 643e
00000070: 7a36 173e 8f77 4abe 8d75 ce3d fc44 073e
00000080: 87e7 65bd bea9 f03d e03b de3b 109c c73d
00000090: 84f0 5a3e 289f 5a3e caf8 213d 91ca c4bd
000000a0: b1be af3d bd26 6e3d e967 8f3d 18f2 013e
000000b0: 99e3 35bd 2fd3 353e 0742 943d 1c2e 873d
000000c0: 2a2e 1cbe 19b3 d2bd e5b8 0dbd 7bea 00bd
000000d0: 0601 703d 9652 8cbe 55dd f1bd dac0 813d
000000e0: 69f9 b33d 3a91 813c db75 88be 3979 c3bd
000000f0: 9fef d7bd d7be 23bd f3ec d5bc 22fc ca3c
00000100: ec36 c03d 8013 e4bd 0f6a 00be 7a8c 433e
00000110: cfbc c83e 1337 3f3e 46a0 603e d036 54be
00000120: ff0a a1bd 668c 463e 5e52 7e3e 5d61 75bb
00000130: c066 a03e 6b6b 923e ca86 ed3d b8e6 f33c
00000140: 9709 3b3e 923d 3e3e 933a cd3d 01cd 8d3c
00000150: aa3b 253d 7625 b43d f9cf babc 240e 9d3e
00000160: 7783 043e eae6 11be 5e7e 1d3e 6716 40bd
00000170: 9c5e 513e b440 36bb b4ee 1f3e bfc3 ac3d
00000180: af15 4b3d 9eb8 e23d 3431 393a 7282 7d3d
00000190: faa5 d1bd d40f 453d 4b0d 433e b451 e7bd
000001a0: 36ee fa3d e2e8 113d 0b18 df3d f14e dbbc
000001b0: f425 723c c1a3 733d 56c9 babd 5a51 56bd
000001c0: a72c 623e 338d b7bd 4c19 b03d 884e 7cbe
000001d0: 4448 f33d a7bf 3a3e 2177 c8bd 7515 23bd
000001e0: 9c27 30be 0b13 06be 0598 ddbc 6bd3 9e3e
000001f0: 6d45 bb3e 56f7 93bd 44a4 523d cade b33d

layers.2.weight f4 [128, 128]
0.03153877 0.07351282 0.014216821 0.08911818 0.10660014 0.061695363 0.12613446 0.075904764
0.22320327 0.109237954 0.07435416 -0.16621271 -0.10445906 0.09434798 0.020867331 0.02659162
0.12717113 0.13333093 -0.14438082 -0.034298833 -0.13862136 0.037136886 0.022478579 0.0028547086
-0.009195517 0.14648186 0.2261272 -0.17292982 0.048111737 0.19706847 0.07256752 0.25345832
0.179706 0.23001496 0.12409889 -0.16894975 0.11247723 0.0821066 -0.07033076 -0.00855523
0.123800054 0.34483674 -0.010074849 0.1627435 0.04754692 -0.22850016 -0.49488878 -0.045841925
-0.24819906 0.012653764 -0.039662834 0.0416108 0.12663034 0.026859943 0.122738466 0.48861867
0.07455546 0.20949197 0.014288055 -0.46104118 -0.04481424 -0.025592573 -0.026460534 -0.104914084
0.16334799 0.0012676481 -0.016542355 -0.03795946 0.12487434 0.124625295 0.02958306 0.119240284
0.053381596 0.042340614 -0.22719087 0.086109295 0.12077138 0.05120376 0.0026035553 -0.091327384
0.060276087 0.16892238 -0.018982885 -0.038026966 0.087692514 -0.49901935 0.22431968 0.04159386
-0.032675505 -0.19587395 0.0106240995 -0.12247757 0.13504273 0.029931122 0.19190216 -0.07211106
0.123172216 0.043244272 -0.2705122 0.10325079 0.010693548 -0.02889251 -0.0045490484 -0.19905692
0.061530083 -0.20938817 0.09091757 0.11348312 0.07083671 0.2122236 -0.10343981 0.091352254
0.04173868 0.01801489 0.3039365 -0.17412722 0.0016597895 0.13142705 0.03155935 -0.110681534
0.086983316 -0.020164024 0.10047547 0.027711557 -0.24830599 -0.083901815 -0.013592457 0.0014132097
-0.08370714 -0.06005361 0.09940555 -0.10201269 -0.17980976 0.09173253 -0.20843473 -0.15938711
-0.099966206 -0.0760598 -0.2365294 0.16007943 0.05057504 -0.07797774 0.004830918 -0.25842595
-0.23004769 -0.2894896 0.1714855 -0.14990652 -0.06203937 0.041378763 -0.0038855916 0.012487221
-0.16280575 -0.009446699 0.03982987 0.15443899 -0.15021884 -0.10478439 -0.14494295 -0.17855494
-0.18456219 -0.10247015 -0.028765649 0.0036852858 0.17918842 0.20412262 -0.10797137 -0.0026538298
0.035420403 -0.1475167 -0.18640926 -0.03252313 0.046273176 0.26516068 -0.13343692 -0.06459143
0.020968575 -0.1685785 0.03534447 0.22026156 -0.37554467 0.06318711 -0.19776693 -0.11831487
-0.21094696 -0.03137176 0.016795946 -0.12038447 -0.29214305 -0.027814923 -0.12049703 -0.20451747
-0.068643175 -0.1165695 0.053007577 0.13225433 0.08010073 -0.19313899 0.21485603 0.0024704253
0.032105703 -0.048148565 0.052797697 -0.14709951 0.06942591 0.028384827 0.058977697 0.006526822
0.03737294 -0.22780883 0.034934133 0.08085899 -0.09750052 -0.22125651 -0.05125222 0.015082563
0.1843458 0.082124695 -0.096715555 -0.09474273 -0.06743659 -0.014309574 -0.068196714 0.11265712
0.022966146 -0.1271099 0.1929834 -0.07740637 -0.06227983 0.01700622 0.08249983 -0.20471314
-0.16616644 0.20835893 0.120803915 -0.16340667 0.048532598 -0.1436315 0.089644805 -0.23004524
0.1727098 -0.12331155 -0.24823907 -0.006741954 0.09709837 -0.0025051057 0.122263275 0.1061735
-0.10978846 0.15256776 -0.14900246 0.07362399 0.23975015 0.03287311 -0.0031593917 -0.49258405
00000000: cc2e 013d e48d 963d abed 683c 9883 b63d
00000010: 2d51 da3d 47b4 7c3d 6429 013e f573 9b3d
00000020: 668f 643e 26b8 df3d fe46 983d aa33 2abe
00000030: a2ee d5bd 8439 c13d f7f1 aa3c abd6 d93c
00000040: 2639 023e e787 083e 91d8 13be ef7c 0cbd
00000050: c2f2 0dbe d91c 183d ff24 b83c 1016 3b3b
00000060: cba8 16bc 57ff 153e e48d 673e 8414 31be
00000070: d010 453d 51cc 493e 489e 943d 4ac5 813e
00000080: da04 383e 0b89 6b3e 8f27 fe3d 2a01 2dbe
00000090: 765a e63d 8127 a83d 9309 90bd 3c2b 0cbc
000000a0: e28a fd3d 718e b03e fb10 25bc 3ba6 263e
000000b0: 8fc0 423d f2fb 69be 1062 fdbe bec4 3bbd
000000c0: e527 7ebe bc51 4f3c 7f75 22bd 1670 2a3d
000000d0: 62ab 013e 6209 dc3c 4e5e fb3d 3a2c fa3e
000000e0: 88b0 983d 1085 563e 7218 6a3c 970d ecbe
000000f0: 238f 37bd 84a7 d1bc c3c3 d8bc 32dd d6bd
00000100: b244 273e 3627 a63a d583 87bc 617b 1bbd
00000110: 1ebe ff3d 8c3b ff3d 2c58 f23c 4034 f43d
00000120: a9a6 5a3d 5a6d 2d3d b9a4 68be 125a b03d
00000130: fc56 f73d 09bb 513d 69a0 2a3b da09 bbbd
00000140: 0fe4 763d fdf9 2c3e ff81 9bbc 2ac2 1bbd
00000150: 2298 b33d 777f ffbe 0fb4 653e 535e 2a3d
00000160: c0d6 05bd 2e93 48be b410 2e3c 85d5 fabd
00000170: a448 0a3e 1d32 f53c 0082 443e f7ae 93bd
00000180: b741 fc3d e820 313d 9380 8abe 2675 d33d
00000190: fe33 2f3c fcaf ecbc 2f10 95bb 94d5 4bbe
000001a0: f806 7c3d da69 56be fe32 ba3d d769 e83d
000001b0: d612 913d 2551 593e 40d8 d3bd e416 bb3d
000001c0: 2ef6 2a3d f693 933c 919d 9b3e 684e 32be
000001d0: 4b8d d93a d094 063e 6144 013d 00ad e2bd
000001e0: 4f24 b23d 062f a5bc 15c6 cd3d 5903 e33c
000001f0: ed43 7ebe b7d4 abbd e6b2 5ebc 733b b93a
00000200: a66e abbd c6fa 75bd 2395 cb3d 07ec d0bd
00000210: 0d20 38be 44de bb3d ea6f 55be 6036 23be
00000220: 15bb ccbd 3ec5 9bbd c334 72be ddeb 233e
00000230: c627 4f3d cbb2 9fbd ad4c 9e3b 6850 84be
00000240: 9f91 6bbe fb37 94be e599 2f3e 1881 19be
00000250: ff1c 7ebd c77c 293d 69a5 7ebb 3397 4c3c
00000260: 8db6 26be 54c6 1abc a524 233d 4125 1e3e
00000270: f8d2 19be 3399 d6bd ed6b 14be 1bd7 36be
00000280: dffd 3cbe dfdb d1bd f0a5 ebbc d684 713b
00000290: 2b7d 373e 8505 513e 1820 ddbd e0eb 2dbb
000002a0: fc14 113d 9e0e 17be 12e2 3ebe f936 05bd
000002b0: f188 3d3d 24c3 873e b0a3 08be 8348 84bd
000002c0: 4ac6 ab3c d89f 2cbe 5dc5 103d 3f8c 613e
000002d0: 6447 c0be 3e68 813d 6a83 4abe 114f f2bd
000002e0: 7b02 58be ad7f 00bd a797 893c 228c f6bd
000002f0: c693 95be 1fdc e3bc 26c7 f6bd 076d 51be
00000300: cb94 8cbd fdbb eebd 791e 593d ae6d 073e
00000310: da0b a43d 3ac6 45be 3803 5c3e dce6 213b
00000320: 4581 033d 6e37 45bd 6642 583d 41a1 16be
00000330: 2c2f 8e3d 4c87 e83c 9992 713d f4de d53b
00000340: 5e14 193d b846 69be 1817 0f3d 6699 a53d
00000350: 5aae c7bd 1191 62be d9ed 51bd db1c 773c
00000360: 25c5 3c3e fe30 a83d ce12 c6bd 7a08 c2bd
00000370: 321c 8abd b472 6abc b8aa 8bbd c7b8 e63d
00000380: 8023 bc3c 1929 02be 719d 453e 3b87 9ebd
00000390: 2319 7fbd a150 8b3c acf5 a83d 52a0 51be
000003a0: 8927 2abe 0b5c 553e 0b68 f73d 1454 27be
000003b0: 1eca 463d 2314 13be b297 b73d fb90 6bbe
000003c0: d6da 303e c48a fcbd 6232 7ebe 9ceb dcbb
000003d0: 83db c63d b32c 24bb 2b65 fa3d 7e71 d93d
000003e0: c6d8 e0bd b93a 1c3e 1a94 18be 2dc8 963d
000003f0: 1081 753e f4a5 063d cc0d 4fbb fa33 fcbe

layers.2.bias f4 [128]
0.029331759 0.32111412 -0.21274005 -0.23141867 0.04247752 0.36763144 0.11669543 0.109030515
0.14293441 0.059773725 0.10172453 0.3517483 0.1265841 0.3143319 0.013623403 0.10254569
0.03294744 0.02870803 -0.08770572 0.04274143 -0.17456192 0.40009776 0.054855015 0.054085955
0.002492306 0.06856514 0.25579524 0.11815662 0.12639672 0.04544265 0.0064104237 0.17657176
0.19447492 -0.3264127 0.021610025 0.07311889 -0.16805285 0.11959611 0.064801924 -0.16032921
0.38463128 0.053959068 -0.07688783 0.010798183 -0.08360918 0.037411243 0.27838808 -0.03680547
0.4326916 0.033271868 -0.070118435 0.10562962 0.38197526 0.11577049 -0.24078444 -0.08348607
-0.10727431 0.32349345 0.28215763 -0.16664554 0.16813502 0.22200781 0.19994265 0.1553039
0.111193314 0.11132023 -0.09198719 0.09615427 0.017150635 0.47308862 0.13656385 -0.19495802
-0.18938428 0.074467935 0.083800554 0.044542186 -0.18499309 0.07772421 0.0058019683 0.07782346
0.023701103 -0.021658622 0.24319743 0.049709883 0.043752354 -0.11466678 -0.1061813 -0.054992367
0.25094494 0.027021479 0.081836894 -0.0683263 0.107774675 0.21573277 0.064240806 0.12426928
0.06805582 0.28502712 -0.059845075 -0.1316676 0.42596895 -0.10205716 0.13450933 -0.13188829
0.009970522 0.129522 -0.019832361 0.44196054 0.012351822 0.30891654 -0.095723815 0.115480304
0.11992259 -0.1032048 0.11574436 0.036091648 0.38266993 0.03422258 -0.087138355 0.12546895
0.07054831 0.04168102 -0.11155542 0.24113359 0.18212894 -0.030806089 0.08540958 0.36125845
00000000: 2849 f03c 1269 a43e 87d8 59be 04f9 6cbe
00000010: e8fc 2d3d 303a bc3e 03fe ee3d 644b df3d
00000020: 665d 123e 4bd5 743d f354 d03d 5a18 b43e
00000030: 439f 013e 1cf0 a03e b234 5f3c 7a03 d23d
00000040: e5f3 063d 1a2d eb3c 0e9f b3bd a311 2f3d
00000050: 5cc0 32be 9dd9 cc3e a7af 603d 3c89 5d3d
00000060: f555 233b e16b 8c3d 98f7 823e 19fc f13d
00000070: 246e 013e 1222 3a3d 880e d23b 3acf 343e
00000080: 6f24 473e 911f a7be 8207 b13c 5bbf 953d
00000090: 0c16 2cbe ceee f43d dfb6 843d 572d 24be
000000a0: 64ee c43e 2f04 5d3d 5e77 9dbd ddea 303c
000000b0: 4a3b abbd 883c 193d e288 8e3e 55c1 16bd
000000c0: c189 dd3e 1548 083d 419a 8fbd 5854 d83d
000000d0: 4392 c33e 1419 ed3d 3290 76be bffa aabd
000000e0: a2b2 dbbd efa0 a53e f776 903e 21a5 2abe
000000f0: 962b 2c3e 0456 633e c4bd 4c3e fc07 1f3e
00000100: 52b9 e33d dcfb e33d c863 bcbd 88ec c43d
00000110: 7d7f 8c3c ac38 f23e 65d7 0b3e 13a3 47be
00000120: f4ed 41be a582 983d a09f ab3d de71 363d
00000130: d46e 3dbe df2d 9f3d 701e be3b e861 9f3d
00000140: d128 c23c 6c6d b1bc bf08 793e 979c 4b3d
00000150: ab35 333d 6bd6 eabd 9575 d9bd ad3f 61bd
00000160: db7b 803e 265c dd3c 1a9a a73d a9ee 8bbd
00000170: f8b8 dc3d 0de9 5c3e af90 833d e480 fe3d
00000180: da60 8b3d 13ef 913e 1c20 75bd dfd3 06be
00000190: 9a18 da3e 5803 d1bd d0bc 093e b90d 07be
000001a0: 665b 233c 6aa1 043e 7a77 a2bc a748 e23e
000001b0: 4c5f 4a3c 4f2a 9e3e d90a c4bd f080 ec3d
000001c0: fa99 f53d 0a5d d3bd 610b ed3d d6d4 133d
000001d0: 50ed c33e fa2c 0c3d 9875 b2bd ef7a 003e
000001e0: a27b 903d b8b9 2a3d 2b77 e4bd b9eb 763e
000001f0: 0280 3a3e 0d5d fcbc 38eb ae3d def6 b83e

layers.3.weight f4 [1, 128]
0.14777778 -0.3083953 0.51981544 -0.28345388 -0.3269842 -0.50465286 0.21807735 0.15701826
0.09692772 -0.42714193 0.23237841 -0.49773115 0.14876127 -0.48499197 -0.42896613 0.20494764
-0.35741496 0.19981356 0.41039398 0.1466251 -0.22478071 -0.37956822 0.29561478 0.68879783
0.1405422 0.108014524 -0.14810877 0.10113364 0.2139281 0.13910307 -0.6449847 -0.44082183
-0.7364539 -0.44215432 0.09302742 0.2620689 0.4993539 0.18007733 0.26059192 0.003280331
-0.4481919 -0.31545752 0.011402099 0.16272396 -0.3195508 -0.5718263 -0.38205832 -0.21170259
-0.5869128 0.19833969 0.5081976 -0.39233646 -0.6004541 0.1511151 0.56315345 -0.017639825
-0.004726979 -0.6934308 -0.40868723 0.6727828 0.20082158 -0.505475 0.20785183 0.16250622
0.16537976 0.31547895 -0.026798086 0.1095177 -0.15647763 -0.579744 0.35201296 0.56092
-0.5666496 0.2117412 -0.1704591 0.22493656 0.35885802 0.3952059 0.35088062 0.0886983
0.22712411 0.13724291 -0.42114335 0.12458222 -0.3877324 -0.4643703 -0.19462974 0.36633024
-0.40466934 0.11519324 0.17131539 -0.286457 0.23050873 -0.18097591 0.2193629 0.10499949
0.1428792 -0.46314782 0.41209844 0.40269622 -0.46653906 0.28068402 0.24537742 0.43017945
0.1784823 0.16045329 -0.025961312 -0.9741999 0.2902041 -0.5289939 -0.4099442 0.15107164
0.17538536 0.011258862 0.12290265 0.1572822 -0.72532237 0.30291882 0.0021592036 0.17089541
-0.29391822 -0.41624132 -0.032924518 -0.38149464 -0.70693076 -0.59443754 0.15116066 -0.4051575
00000000: 0f53 173e fde5 9dbe a012 053f de20 91be
00000010: 796a a7be ee30 01bf ab4f 5f3e 65c9 203e
00000020: 0a82 c63d 59b2 dabe 9bf4 6d3e 9ed6 febe
00000030: e054 183e de50 f8be 73a1 dbbe cbdd 513e
00000040: 18ff b6be ed9b 4c3e 291f d23e e424 163e
00000050: ea2c 66be c456 c2be d25a 973e 0e55 303f
00000060: 4bea 0f3e b836 dd3d d3a9 17be 271f cf3d
00000070: f80f 5b3e 0971 0e3e b81d 25bf 66b3 e1be
00000080: 3e88 3cbf 0d62 e2be 2985 be3d e52d 863e
00000090: 50ab ff3e 3166 383e 4e6c 853e d2fa 563b
000000a0: 6979 e5be a683 a1be dfcf 3a3c 1ca1 263e
000000b0: 2a9c a3be 3563 12bf 269d c3be 90c8 58be
000000c0: eb3f 16bf 8f19 4b3e 3d19 023f 53e0 c8be
000000d0: 5cb7 19bf ebbd 1a3e d32a 103f 6581 90bc
000000e0: c6e4 9abb ae84 31bf 743f d1be 7e3b 2c3f
000000f0: 2ca4 4d3e cf66 01bf 1cd7 543e 0868 263e
00000100: 5059 293e 7586 a13e a987 dbbc d14a e03d
00000110: ac3b 20be 1a6a 14bf 0b3b b43e 7498 0f3f
00000120: f30f 11bf afd2 583e d58c 2ebe c555 663e
00000130: 3dbc b73e 6d58 ca3e a0a6 b33e 74a7 b53d
00000140: 3993 683e 6889 0c3e 1aa0 d7be f724 ff3d
00000150: dc84 c6be f2c1 edbe 054d 47be a38f bb3e
00000160: d230 cfbe 6fea eb3d 4d6d 2f3e 7eaa 92be
00000170: 7b0a 6c3e c051 39be aba0 603e f909 d73d
00000180: ed4e 123e b621 edbe 91fe d23e 332e ce3e
00000190: 35de eebe d1b5 8f3e 3844 7b3e 7b40 dc3e
000001a0: 10c4 363e de4d 243e d1ac d4bc 2a65 79bf
000001b0: a295 943e 256c 07bf 35e4 d1be 86b2 1a3e
000001c0: 3898 333e 1777 383c 62b4 fb3d 960e 213e
000001d0: baae 39bf 2d18 9b3e 6d81 0d3b 35ff 2e3e
000001e0: 737c 96be 951d d5be dcdb 06bd 4453 c3be
000001f0: 6af9 34bf 0f2d 18bf dcc9 1a3e ce70 cfbe
