new_models/base+wp_16849288/qf3_final.pth (torch, 186584 bytes, 7 tensors)

layers.0.weight f4 [128, 98]
-0.08799534 0.006843224 -0.062160835 0.02683258 0.022835484 0.038097084 -0.059681244 0.029500954
0.06351514 -0.017742552 -0.064694814 -0.022401491 -0.080235235 0.052875586 0.040546875 0.03278266
-0.069528 0.04194198 0.0490956 -0.0054460014 0.033335116 0.022188537 0.020107277 0.041101303
-0.0631302 -0.059750546 0.025563786 -0.036701728 0.010792138 -0.0715186 0.067761175 -0.048852637
-0.14772227 0.11788215 0.037892465 0.12267185 0.10302829 0.016155768 -0.034886234 -0.07171335
-0.052160133 -0.0015954281 0.022761704 -0.053903274 0.06634991 0.019872079 -0.070509814 0.018170787
0.119771324 0.027207362 -0.009012823 -0.12823886 0.007036449 -0.06806637 -0.1726367 -0.078008
-0.07707387 0.08252357 0.08715182 0.08608715 0.11488346 0.042697087 -0.044727176 0.13413404
0.07187987 0.024709042 0.010502 0.078938134 -0.029032616 -0.42338514 0.017736644 0.003383502
0.009815227 0.057191633 0.120710865 -0.036903825 -0.17498742 -0.06122709 0.008150779 -0.03403114
0.108895816 -0.069395326 -0.118466794 -0.15626235 -0.0072080023 0.108004704 0.1379699 -0.044680037
-0.07015585 -0.11850922 -0.64396834 0.006085643 0.18786395 0.9593268 -0.03319509 -0.19351083
0.04696259 0.036061283 -0.068884954 0.09531525 0.036683314 -0.0077752336 -0.06064819 -0.093722306
0.0022791445 -0.10627578 0.016240658 -0.042274494 -0.036939193 0.04207719 -0.045963865 -0.049641017
-0.07313186 -0.022352934 -0.057462845 0.0393027 0.068516485 -0.08089858 -0.031137781 -0.0027216426
0.08752136 -0.11032703 0.06490265 0.014103504 0.013143165 -0.12933496 0.014328878 -0.05426003
-0.021619916 -0.100160554 -0.04259902 0.060974233 -0.033011332 0.0072178203 0.046582688 -0.05216541
0.042380907 0.03243146 0.0109843295 -0.00027389114 0.07097842 -0.07088915 -0.032034356 -0.074099824
-0.017283646 0.08567017 0.048274588 0.017905895 0.055049352 -0.011830265 -0.12241408 -0.037817307
0.082963414 0.06587052 0.13283099 0.19523913 0.05377296 -0.00044431188 -0.0128070945 0.09285614
0.12441169 0.051384613 0.08791373 0.10941602 0.1447998 0.1738592 -0.06496041 0.026534554
0.06169673 0.052488916 0.09513699 -0.0064363736 -0.04145877 -0.0071935016 0.030623397 0.016302498
0.032250606 -0.046719227 0.004434475 0.040762313 0.049742103 0.032602582 0.10966266 -0.029904159
-0.06481249 -0.0054887566 -0.04661009 -0.02909404 0.21412274 0.014489828 -0.12225891 -0.23787439
0.12865126 -0.100491844 -0.025632197 0.02655696 0.07804642 -0.11387503 0.00076632795 0.0051866206
0.021483293 0.056252126 -0.05165089 0.0889215 0.14747986 -0.042325307 0.049406752 0.028005429
-0.017436512 0.026208747 -0.005193528 0.06555741 0.036523603 -0.01241708 0.0042731087 0.012198346
0.059777804 -0.016543481 -0.03480436 0.0039960328 0.09695896 0.14575922 0.06119224 0.028177945
0.048983224 -0.026107142 0.08988233 0.05357891 0.0031566392 0.11265629 -0.12990242 0.011353855
0.13916062 0.026910717 -0.029786764 -0.0131342225 0.03166599 -0.03252265 -0.025405357 0.008093424
-0.02196847 -0.024049314 0.05380191 0.0907369 0.001893778 0.017912624 0.071841836 -0.08858855
-0.06583805 0.07714615 -0.039727155 -0.0694674 0.058212914 0.062928736 -0.0028875791 -0.12984665
00000000: e736 b4bd 203d e03b 5c9c 7ebd 00d0 db3c
00000010: 7b11 bb3c b00b 1c3d 5274 74bd fcab f13c
00000020: 3a14 823d d458 91bc b77e 84bd 5583 b7bc
00000030: 5f52 a4bd 1294 583d 7b14 263d 1c47 063d
00000040: b264 8ebd 5bcb 2b3d 7818 493d 5f74 b2bb
00000050: 678a 083d bcc4 b53c 04b8 a43c d759 283d
00000060: 684a 81bd fdbc 74bd 256b d13c 8d54 16bd
00000070: 82d1 303c 5878 92bd 5fc6 8a3d b419 48bd
00000080: 8244 17be 326c f13d 2135 1b3d 613b fb3d
00000090: 7f00 d33d 1a59 843c dee4 0ebd 73de 92bd
000000a0: dda5 55bd af1d d1ba c176 ba3c aec9 5cbd
000000b0: 76e2 873d c5ca a23c 7367 90bd e7da 943c
000000c0: ab4a f53d f9e1 de3c 85aa 13bc 0c51 03be
000000d0: 0392 e63b 6266 8bbd adc7 30be a9c2 9fbd
000000e0: e8d8 9dbd 1e02 a93d a77c b23d 764e b03d
000000f0: 0548 eb3d 24e3 2e3d d833 37bd 6f5a 093e
00000100: c135 933d 9e6a ca3c 9510 2c3c 51aa a13d
00000110: cfd5 edbc f0c5 d8be 704c 913c bebd 5d3b
00000120: 0cd0 203c c641 6a3d 4237 f73d 7728 17bd
00000130: e72f 33be 42c9 7abd d88a 053c 3d64 0bbd
00000140: c504 df3d 231f 8ebd b89e f2bd 3d03 20be
00000150: 1b31 ecbb 9231 dd3d fb47 0d3e 6a02 37bd
00000160: dfad 8fbd f6b4 f2bd 1cdb 24bf 136a c73b
00000170: 685f 403e 7196 753f 93f7 07bd b427 46be
00000180: d85b 403d ffb4 133d 8e13 8dbd a434 c33d
00000190: 3e41 163d 63c7 febb 3d6a 78bd 7bf1 bfbd
000001a0: b35d 153b 1ea7 d9bd 210b 853c 0528 2dbd
000001b0: 8d4d 17bd 2259 2c3d 9b44 3cbd 6154 4bbd
000001c0: 28c6 95bd 801d b7bc 295e 6bbd defb 203d
000001d0: 5f52 8c3d 28ae a5bd a914 ffbc 965d 32bb
000001e0: 663e b33d 23f3 e1bd aeeb 843d 6212 673c
000001f0: 6e56 573c 6270 04be acc3 6a3c c43f 5ebd
00000200: 401c b1bc fa20 cdbd 4f7c 2ebd 1ec0 793d
00000210: e436 07bd 7783 ec3b 7dcd 3e3d 66ab 55bd
00000220: 9a97 2d3d dad6 043d 9ef7 333c 0c99 8fb9
00000230: 225d 913d 552e 91bd 7536 03bd a6c1 97bd
00000240: 6f96 8dbc d873 af3d 93bb 453d 62af 923c
00000250: 6e7b 613d bad3 41bc 3cb4 fabd 52e6 1abd
00000260: b9e8 a93d 20e7 863d d904 083e c4ec 473e
00000270: 0941 5c3d 88f2 e8b9 d9d4 51bc 5c2b be3d
00000280: 8ecb fe3d ac78 523d 1d0c b43d 8215 e03d
00000290: 6646 143e 2508 323e f709 85bd fe5e d93c
000002a0: b6b5 7c3d 9efe 563d 2fd7 c23d 37e8 d2bb
000002b0: acd0 29bd 77b7 ebbb ebdd fa3c d18c 853c
000002c0: 3619 043d a95c 3fbd 134f 913b 62f6 263d
000002d0: 60be 4b3d 498a 053d d196 e03d 91f9 f4bc
000002e0: 69bc 84bd 07db b3bb 39ea 3ebd a056 eebc
000002f0: fe42 5b3e be66 6d3c e162 fabd 5895 73be
00000300: 28bd 033e abce cdbd 9dfa d1bc fb8d d93c
00000310: cdd6 9f3d 5037 e9bd 66e3 483a 87f4 a93b
00000320: bbfd af3c a168 663d e28f 53bd 7a1c b63d
00000330: f604 173e 4d5d 2dbd bc5e 4a3d a46b e53c
00000340: 04d7 8ebc bab3 d63c 782e aabb f742 863d
00000350: c699 153d 0271 4bbc 6f05 8c3b 92db 473c
00000360: 92d9 743d 3286 87bc 048f 0ebd 27f1 823b
00000370: 6b92 c63d e841 153e b7a4 7a3d 6fd5 e63c
00000380: a2a2 483d a5de d5bc 3a14 b83d 8f75 5b3d
00000390: 9edf 4e3b 57b8 e63d 2405 05be 8505 3a3c
000003a0: 1f80 0e3e dd73 dc3c 5f03 f4bc ec30 57bc
000003b0: 32b4 013d 7836 05bd e51e d0bc 489a 043c
000003c0: 39f7 b3bc 1103 c5bc 645f 5c3d 45d4 b93d
000003d0: a538 f83a 7fbd 923c d021 933d ea6d b5bd
000003e0: 19d6 86bd cdfe 9d3d f1b8 22bd ed44 8ebd
000003f0: aa70 6e3d c8e0 803d 8a3d 3dbb 85f6 04be

layers.0.bias f4 [128]
0.05308154 -0.2045836 0.1523822 0.026673857 0.019185485 -0.06302989 0.22710423 -0.25577703
0.06770136 -0.07691593 0.26476526 -0.03411427 -0.2670114 0.21437508 0.115172565 0.24855788
0.35557652 -0.0639285 0.4407666 -0.014320738 -0.31746686 0.2073229 0.11007158 0.111439034
0.18349557 0.13153237 -0.15680605 0.032849308 0.21223995 0.21456257 0.06516859 -0.086996146
0.093364894 0.11986689 0.10504254 -0.20132737 0.068929106 0.07400951 0.04561158 0.00785902
0.1943583 -0.024257509 -0.041273788 0.06325844 0.031493757 -0.0010513911 -0.013808661 0.31943542
0.11581332 0.1657121 0.20097704 -0.19473094 -0.096134305 -0.13285644 0.050860044 -0.30470923
0.19630022 0.10824871 0.26983997 0.35862592 -0.05056747 0.15479651 -0.10441985 0.015247453
0.016974047 0.16002028 -0.19917648 -0.039626326 0.16471338 0.07324096 -0.03550643 0.08224482
0.16992112 0.0028241856 -0.09445425 0.09850624 0.111415796 0.12928396 0.17448248 0.23907465
-0.09639931 -0.10911062 0.09848945 0.13621017 0.19195089 -0.014148489 0.018321732 0.044124886
-0.030480294 0.09064245 0.066525936 -0.063282214 -0.026390452 0.11952764 -0.18383333 0.13243558
0.0321218 0.07585325 0.16958873 0.051213868 0.0121028675 0.09700124 -0.061847854 -0.29291144
-0.14651851 0.223691 0.1939226 0.09328724 0.05559741 0.10995999 0.09293006 -0.04767529
0.26856402 -0.30958018 -0.0789987 0.26411754 -0.09693411 0.08396069 0.13823429 0.22958936
0.14045237 0.34379977 0.08045472 0.15815249 -0.033994686 0.25317335 -0.014219248 -0.09174576
00000000: 076c 593d 5d7e 51be 140a 1c3e 2283 da3c
00000010: e12a 9d3c d115 81bd 038e 683e 35f5 82be
00000020: 03a7 8a3d 1986 9dbd 508f 873e 68bb 0bbd
00000030: b8b5 88be 2485 5b3e 98df eb3d f585 7e3e
00000040: 200e b63e f2ec 82bd 29ac e13e 87a1 6abc
00000050: 048b a2be 744c 543e 356d e13d 263a e43d
00000060: 43e6 3b3e 6cb0 063e c491 20be ff8c 063d
00000070: 6e55 593e 4ab6 5b3e 1c77 853d 092b b2bd
00000080: 1836 bf3d c67c f53d 8b20 d73d c328 4ebe
00000090: b42a 8d3d 4c92 973d 35d3 3a3d 1ec3 003c
000000a0: dd05 473e afb7 c6bc b40e 29bd a48d 813d
000000b0: 99ff 003d d5ce 89ba b93d 62bc 0a8d a33e
000000c0: 892f ed3d 6fb0 293e edcc 4d3e 8c67 47be
000000d0: 10e2 c4bd 850b 08be 9f52 503d d902 9cbe
000000e0: ed02 493e 80b1 dd3d 7728 8a3e d19d b73e
000000f0: d61f 4fbd fa82 1e3e 13da d5bd 74d0 793c
00000100: 280d 8b3c 5bdc 233e ebf4 4bbe 374f 22bd
00000110: a0aa 283e 5bff 953d 316f 11bd f96f a83d
00000120: cdff 2d3e f915 393b 3b71 c1bd a4bd c93d
00000130: f72d e43d 0463 043e 89ab 323e fccf 743e
00000140: 006d c5bd 6475 dfbd d6b4 c93d ae7a 0b3e
00000150: c68e 443e 10cf 67bc 7517 963c 4cbc 343d
00000160: cfb1 f9bc c0a2 b93d c03e 883d 1b9a 81bd
00000170: ca30 d8bc e8ca f43d ce3e 3cbe 319d 073e
00000180: 2692 033d f358 9b3d aba8 2d3e a2c5 513d
00000190: 1b4b 463c 96a8 c63d 2d54 7dbd 7df8 95be
000001a0: f308 16be 410f 653e a593 463e 610d bf3d
000001b0: 1cba 633d b432 e13d 1e52 be3d 2a47 43bd
000001c0: 3981 893e 4b81 9ebe 12ca a1bd 6a3a 873e
000001d0: 6485 c6bd 95f3 ab3d 4a8d 0d3e 7919 6b3e
000001e0: bfd2 0f3e 8606 b03e 72c5 a43d baf2 213e
000001f0: 033e 0bbd f09f 813e d9f7 68bc 33e5 bbbd

layers.1.weight f4 [128, 128]
-0.024494575 0.12075153 0.043842163 0.12270963 0.023311967 0.05003363 0.008460005 0.09129599
0.050829686 -0.16847259 0.10708681 0.08526808 -0.03601932 -0.00527398 -0.022753576 -0.059745938
0.07522028 -0.0242212 -0.052726716 -0.14091428 -0.024525149 0.0913009 0.14561072 0.018234355
-0.01844202 -0.07653881 0.082862765 -0.06689945 0.043981094 0.029766964 0.067971095 -0.07748714
0.0071314992 0.043335307 0.06169845 0.11617854 -0.06962985 0.030699993 0.059663102 -0.17330538
-0.0811195 0.04170447 -0.01815543 0.044513248 -0.12543471 0.053051095 0.033884853 0.046181805
-0.012002943 -0.059009884 -0.005554452 0.030877199 -0.11418441 -0.036556184 -0.12165859 0.03907866
-0.026388705 0.019391008 0.046655983 0.038427923 -0.01017031 0.03369164 0.0948439 -0.014024961
0.16692677 0.15652955 0.11838538 0.011079048 0.077209964 0.04104816 0.017579144 -0.15227988
-0.07814337 0.021526108 0.11796552 0.097704224 0.022807516 0.02146339 0.14243212 -0.07564851
0.020795058 -0.0747237 -0.0035664914 0.047500193 -0.031857297 -0.11785554 0.0023030061 0.16248973
-0.08936587 0.074461766 0.043793067 0.1009493 -0.02496271 0.03220232 0.06964003 0.0065223854
0.16093935 -0.06328311 0.023003994 0.02606576 -0.013591797 0.07563101 -0.15717316 0.055786908
-0.07086443 0.027252289 -0.03840927 0.1078708 -0.18456027 0.043516118 0.018229617 0.049903166
0.061695006 0.10706137 -0.02500755 -0.096762955 -0.065469645 0.13043135 -0.067767665 0.09969654
0.014076416 -0.026909266 0.067905985 0.067171164 -0.16974674 -0.0006932965 -0.08675478 0.009794299
0.08628404 0.043043204 -0.08706177 0.016342696 0.043216567 -0.0938673 -0.110514976 -0.0114103295
0.073065504 -0.21547915 0.13911285 0.010819537 0.00530572 -0.09193772 -0.045106277 -0.021997552
-0.01981363 0.052839838 -0.002786944 -0.14629209 0.078945525 -0.07403942 0.11520007 0.10342768
-0.07386962 -0.18241705 -0.033182856 -0.05139519 0.049374633 -0.07569665 0.0049053207 0.11889672
-0.14791319 -0.06886969 0.023444265 0.16805865 -0.15325408 0.030594828 0.04664094 -0.19690213
0.04206258 -0.016173452 -0.013759877 0.020612089 -0.06145465 -0.16609831 0.11452753 -0.06413688
0.061790995 0.028228814 0.03177074 0.09963384 0.057891436 0.07100266 -0.07646482 0.09665026
0.094552994 -0.039727513 -0.12638909 0.023250071 0.039101556 -0.029695662 0.045014523 -0.043360423
0.061751172 -0.0046429997 0.14075825 0.046311274 0.0128791975 -0.12436029 -0.05083627 0.051255867
-0.1566124 0.02718433 -0.0010987413 -0.087521166 0.16459024 -0.052481424 -0.01556128 -0.013378861
0.0018698839 -0.13129373 -0.30317408 0.19094114 -0.008957807 -0.02415557 0.043719925 -0.15866707
0.00048701224 -0.070364036 0.013394639 -0.04952813 -0.12238379 -0.08814262 0.13132383 -0.22007686
-0.008245992 -0.1333872 0.0035518822 0.005522519 0.10133137 -0.007323055 -0.03769424 0.13538827
-0.16605881 -0.08489027 0.06733362 -0.003127279 -0.1348058 -0.10152702 0.13696264 -0.011975765
0.012822859 0.13858041 0.04307159 -0.20710276 -0.043155525 -0.01202606 0.07214674 -0.03912716
-0.17947371 -0.023534589 0.00245136 -0.025268827 -0.10093974 -0.08415348 -0.009980396 -0.09066901
00000000: d9a8 c8bc 944c f73d d793 333d 304f fb3d
00000010: bdf8 be3c 10f0 4c3d d59b 0a3c 64f9 ba3d
00000020: ca32 503d 1484 2cbe 5450 db3d 08a1 ae3d
00000030: ff88 13bd 5ad1 acbb b565 babc 28b8 74bd
00000040: 170d 9a3d 8a6b c6bc f8f7 57bd d54b 10be
00000050: f7e8 c8bc f7fb ba3d fa1a 153e 3760 953c
00000060: b813 97bc 61c0 9cbd f4b3 a93d 9402 89bd
00000070: 8525 343d d9d9 f33c 6e34 8b3d 94b1 9ebd
00000080: 5aaf e93b 5d80 313d 84b7 7c3d 04ef ed3d
00000090: 189a 8ebd 8d7e fb3c 4c61 743d f776 31be
000000a0: fb21 a6bd 4ed2 2a3d b2ba 94bc 8653 363d
000000b0: f571 00be 1b4c 593d d8ca 0a3d 2229 3d3d
000000c0: fea7 44bc 59b4 71bd 1f02 b6bb 2ef2 fc3c
000000d0: 84d9 e9bd f0bb 15bd 2428 f9bd f210 203d
000000e0: 202d d8bc e4d9 9e3c 581a 3f3d 9966 1d3d
000000f0: 5fa1 26bc 3f00 0a3d 853d c23d f3c8 65bc
00000100: daee 2a3e 4849 203e 0974 f23d e584 353c
00000110: 4220 9e3d 1e22 283d 2302 903c 42ef 1bbe
00000120: a209 a0bd 8557 b03c e897 f13d 2719 c83d
00000130: d4d6 ba3c fed3 af3c bad9 113e 9bed 9abd
00000140: 665a aa3c bd08 99bd ccbb 69bb 908f 423d
00000150: cc7c 02bd 3f5e f1bd 08ee 163b b563 263e
00000160: 7405 b7bd 697f 983d 5c60 333d 82be ce3d
00000170: 997e ccbc 94e6 033d 6f9f 8e3d bcb9 d53b
00000180: 49cd 243e 939a 81bd df72 bc3c dc87 d53c
00000190: 21b0 5ebc 6ee4 9a3d 00f2 20be d080 643d
000001a0: 5f21 91bd 3140 df3c 0a53 1dbd 5eeb dc3d
000001b0: 5efd 3cbe f53d 323d 4756 953c 4367 4c3d
000001c0: e7b3 7c3d fe42 db3d a2dc ccbc a82b c6bd
000001d0: f314 86bd cc8f 053e c6c9 8abd b32d cc3d
000001e0: c5a0 663c d270 dcbc 4b12 8b3d 0991 893d
000001f0: 17d2 2dbe 57be 35ba 7dac b1bd 4478 203c
00000200: b0b5 b03d 124e 303d 714d b2bd 1ee1 853c
00000210: db03 313d 803d c0bd ad55 e2bd 64f2 3abc
00000220: 5ea3 953d 91a6 5cbe 9973 0e3e 6d44 313c
00000230: 9bdb ad3b d849 bcbd 5cc1 38bd 3634 b4bc
00000240: 3250 a2bc 966e 583d 29a5 36bb 98cd 15be
00000250: 31ae a13d fba1 97bd 04ee eb3d e4d1 d33d
00000260: f548 97bd 89cb 3abe bfea 07bd c383 52bd
00000270: 0e3d 4a3d d806 9bbd d0bc a03b 2080 f33d
00000280: 8e76 17be 8d0b 8dbd 300e c03c 9117 2c3e
00000290: a3ee 1cbe 01a2 fa3c 920a 3f3d b6a0 49be
000002a0: d049 2c3d 307e 84bc 1b71 61bc afda a83c
000002b0: dfb7 7bbd ad15 2abe 698d ea3d 325a 83bd
000002c0: 8e18 7d3d 1d40 e73c 0922 023d d40c cc3d
000002d0: 921f 6d3d d869 913d 9699 9cbd 92f0 c53d
000002e0: 00a5 c13d 51b9 22bd 246c 01be ef76 be3c
000002f0: f428 203d 5144 f3bc 2661 383d b39a 31bd
00000300: ccee 7c3d 4e24 98bb ee22 103e e4b0 3d3d
00000310: 4503 533c 9cb0 febd b139 50bd acf1 513d
00000320: 005f 20be acb1 de3c a403 90ba 4c3e b3bd
00000330: 588a 283e c3f6 56bd bdf4 7ebc 0333 5bbc
00000340: e416 f53a dd71 06be a239 9bbe 1386 433e
00000350: c4c3 12bc e7e1 c5bc aa13 333d 9f79 22be
00000360: ad55 ff39 051b 90bd 3075 5b3c 02de 4abd
00000370: 5aa4 fabd 1e84 b4bd c179 063e d45b 61be
00000380: 321a 07bc a796 08be b2c6 683b 3ff6 b43b
00000390: d286 cf3d 3df6 efbb 4765 1abd 39a3 0a3e
000003a0: 520b 2abe f3da adbd 35e6 893d 09f3 4cbb
000003b0: 880a 0abe 66ed cfbd ef3f 0c3e 0036 44bc
000003c0: f816 523c 06e8 0d3e d66b 303d bf12 54be
000003d0: d9c3 30bd f408 45bc acc1 933d cd43 20bd
000003e0: f5c7 37be 9ccb c0bc ffa6 203b 9200 cfbc
000003f0: 7fb9 cebd a958 acbd d184 23bc adb0 b9bd

layers.1.bias f4 [128]
-0.055649467 0.07962046 0.29686305 0.089112155 -0.057112224 0.37863094 0.12714113 -0.041269794
0.04559627 0.07852211 0.108982116 0.030756097 0.04886012 0.23981877 0.031235658 -0.09105834
-0.006986676 0.06836652 -0.057213876 -0.1692189 -0.065137826 -0.12181361 0.11320459 0.0032944677
-0.13146305 0.15406874 0.13785076 0.22190839 0.14855844 -0.19933675 0.09849159 0.1313205
-0.05326713 0.12060012 0.0075699557 0.09879977 0.21675323 0.21440667 0.040594615 -0.0960904
0.09010706 0.06939859 0.06901766 0.12638518 -0.04660438 0.17935807 0.06820409 0.06501767
-0.15321892 -0.1042976 -0.03460044 -0.029663011 0.055329695 -0.27488256 -0.11858023 0.0671505
0.08772173 0.017652432 -0.26668695 -0.09754924 -0.10680064 -0.040669702 -0.024918916 0.02256575
0.09477809 -0.11102582 -0.12540561 0.19251826 0.3945389 0.19017313 0.22092643 -0.20870522
-0.07863542 0.19682983 0.24832782 -0.00445023 0.31567457 0.2878765 0.11577744 0.030386796
0.18139766 0.18613628 0.10263446 0.016806448 0.03830434 0.087455146 -0.023274496 0.30865604
0.1314251 -0.14266635 0.15641162 -0.049618043 0.20801297 -0.0042646034 0.15868962 0.0799073
0.047485918 0.112831645 0.001965425 0.061963428 -0.10236845 0.048483294 0.19319935 -0.11497082
0.12451503 0.035771705 0.10747771 -0.026508952 0.014423244 0.063499495 -0.09122194 -0.053317614
0.22190417 -0.0939327 0.09549355 -0.24713708 0.11928614 0.18341282 -0.099697135 -0.040575564
-0.17529124 -0.13137573 -0.027501602 0.3099142 0.36671782 -0.072249874 0.05096564 0.0855129
00000000: b2f0 63bd 0d10 a33d 6ffe 973e 6f80 b63d
00000010: 82ee 69bd eadb c13e 4931 023e 840a 29bd
00000020: 28c3 3a3d 33d0 a03d 0432 df3d 36f4 fb3c
00000030: 8d21 483d 0d93 753e ece1 ff3c cc7c babd
00000040: 7cf0 e4bb bf03 8c3d 1959 6abd b847 2dbe
00000050: fb66 85bd 6a79 f9bd cfd7 e73d ffe7 573b
00000060: 409e 06be 32c4 1d3e c028 0d3e f43b 633e
00000070: b41f 183e ef1e 4cbe f5b5 c93d e278 063e
00000080: a22e 5abd 32fd f63d 640d f83b 8957 ca3d
00000090: 8ff4 5d3e 6c8d 5b3e 8a46 263d 0bcb c4bd
000000a0: 0d8a b83d d920 8e3d 2259 8d3d 1e6b 013e
000000b0: 3ce4 3ebd a4a9 373e 96ae 8b3d fc27 853d
000000c0: 6ce5 1cbe fb99 d5bd 31b9 0dbd d8ff f2bc
000000d0: 64a1 623d 68bd 8cbe 31da f2bd 3486 893d
000000e0: 73a7 b33d d59b 903c 318b 88be e5c7 c7bd
000000f0: 4bba dabd 4695 26bd c122 ccbc cfdb b83c
00000100: 041b c23d 8161 e3bd 546a 00be 8223 453e
00000110: 0101 ca3e bfbc 423e 8a3a 623e d2b6 55be
00000120: 9b0b a1bd c28d 493e a649 7e3e 3cd3 91bb
00000130: 19a0 a13e 8c64 933e b91c ed3d bbed f83c
00000140: 4fc0 393e 829a 3e3e 0432 d23d adad 893c
00000150: 03e5 1c3d af1b b33d 28aa bebc 2a08 9e3e
00000160: 4d94 063e 2117 12be 5e2a 203e 4a3c 4bbd
00000170: 5a01 553e 16be 8bbb 887f 223e 70a6 a33d
00000180: 9880 423d 4714 e73d 5cce 003b 5dcd 7d3d
00000190: 8da6 d1bd 6b96 463d 0dd6 453e d275 ebbd
000001a0: bc01 ff3d 5a85 123d 461d dc3d 4d29 d9bc
000001b0: 784f 6c3c 060c 823d 92d2 babd 9263 5abd
000001c0: d93a 633e ca5f c0bd 1f92 c33d 8111 7dbe
000001d0: 4b4c f43d 92d0 3b3e 032e ccbd 9032 26bd
000001e0: 8c7f 33be 5c87 06be 0a4b e1bc 13ad 9e3e
000001f0: 70c2 bb3e bef7 93bd 59c1 503d 6321 af3d

layers.2.weight f4 [128, 128]
0.030375 0.07460938 0.013785365 0.089892425 0.107112184 0.060236275 0.12491411 0.07630091
0.226366 0.108430244 0.07451514 -0.16919936 -0.10961778 0.094303794 0.019915396 0.03032688
0.1339334 0.13273539 -0.14566772 -0.034698185 -0.1407088 0.035940476 0.02243264 0.0067605996
-0.0085077975 0.14515413 0.22713952 -0.17564662 0.048334457 0.19938816 0.071595535 0.25585163
0.18035384 0.23012742 0.12307207 -0.17732607 0.112611 0.08274261 -0.06995797 -0.008555143
0.12437999 0.353962 -0.010304781 0.16082972 0.046504475 -0.2262522 -0.49350217 -0.046839472
-0.24820818 0.013307264 -0.039662857 0.04441564 0.12645754 0.02674493 0.12297438 0.48977953
0.07333573 0.21217233 0.013966092 -0.46492818 -0.04370789 -0.025914362 -0.023612546 -0.10282955
0.16176243 0.0007882365 -0.016542632 -0.029591704 0.12373063 0.12495785 0.027219048 0.119297266
0.053381138 0.044393085 -0.22169933 0.08791653 0.119345635 0.049452443 0.0019955053 -0.091726966
0.059871495 0.16799946 -0.01635547 -0.038658466 0.08706011 -0.49873212 0.22544031 0.040196244
-0.03156382 -0.19595097 0.011118476 -0.12085732 0.13409112 0.028271848 0.19219515 -0.06734107
0.12551492 0.04229172 -0.27349246 0.10235097 0.010693496 -0.030524746 -0.002337057 -0.19923027
0.061578438 -0.21212718 0.09175328 0.1129397 0.068848915 0.21864115 -0.10491877 0.09234537
0.040681183 0.022055527 0.31249142 -0.17587899 0.00034663826 0.13176651 0.035073776 -0.11250579
0.08939159 -0.021699427 0.09965059 0.030685078 -0.24978577 -0.08390196 -0.01376938 0.00050543976
-0.08286119 -0.06171685 0.09959993 -0.09947717 -0.18094847 0.09179835 -0.20657992 -0.16302538
-0.10825149 -0.07221113 -0.23962209 0.16473414 0.04087236 -0.081566975 0.0044098254 -0.2588284
-0.23150763 -0.2879824 0.17186944 -0.14974302 -0.060232565 0.04236111 -0.0069921846 0.012554817
-0.16539964 -0.005386449 0.039697003 0.15656945 -0.14886498 -0.1073687 -0.14190736 -0.18135051
-0.18438502 -0.10440409 -0.02876993 0.0036697448 0.18033852 0.20242785 -0.108678825 -0.0026538298
0.037383214 -0.15733992 -0.1846625 -0.030762332 0.047195166 0.26179817 -0.13535443 -0.065295234
0.021186786 -0.17145209 0.03534419 0.22561134 -0.3746908 0.06200239 -0.19958176 -0.11831685
-0.21181212 -0.03025559 0.018477216 -0.11802366 -0.2916254 -0.031103222 -0.12114352 -0.20058195
-0.05950019 -0.116047844 0.053007316 0.12878953 0.08036844 -0.20157798 0.21394217 0.00152322
0.03210573 -0.050430443 0.05174614 -0.14599796 0.06935751 0.030205308 0.060457464 0.011465284
0.029735232 -0.2294756 0.034211803 0.083859086 -0.09696691 -0.21753003 -0.05250552 0.015003354
0.18508819 0.08194752 -0.10110653 -0.09635511 -0.068641655 -0.013807598 -0.06447966 0.1150309
0.02337478 -0.12632282 0.1946793 -0.075500846 -0.062279526 0.0147532895 0.08140393 -0.20208165
-0.17150158 0.21101183 0.12228609 -0.16336036 0.051016923 -0.14454591 0.09449799 -0.23491828
0.17382988 -0.12512907 -0.25802034 -0.0049579083 0.09727556 -0.0027399517 0.11696882 0.10771005
-0.10758436 0.15279648 -0.14990674 0.07058568 0.23998898 0.032872833 -0.0048956578 -0.49362877
00000000: fed4 f83c cdcc 983d 03dc 613c 8519 b83d
00000010: a25d db3d 50ba 763d f8d2 ff3d a743 9c3d
00000020: 7dcc 673e ad10 de3d 659b 983d 9942 2dbe
00000030: 497f e0bd 5922 c13d 9d25 a33c 1470 f83c
00000040: d625 093e c9eb 073e eb29 15be af1f 0ebd
00000050: f815 10be 5236 133d a8c4 b73c 0588 dd3b
00000060: 4a64 0bbc 49a3 143e 4397 683e b5dc 33be
00000070: 5afa 453d 692c 4c3e aea0 923d fcfe 823e
00000080: adae 383e 86a6 6b3e 360d fc3d f794 35be
00000090: 99a0 e63d f574 a93d 2046 8fbd df2a 0cbc
000000a0: f0ba fe3d 823a b53e 62d5 28bc 8cb0 243e
000000b0: 7a7b 3e3d a8ae 67be 51ac fcbe bfda 3fbd
000000c0: 492a 7ebe b606 5a3c 8575 22bd 2ded 353d
000000d0: 167e 013e 2f18 db3c fed9 fb3d 62c4 fa3e
000000e0: 0b31 963d b443 593e 09d2 643c 110b eebe
000000f0: 0b07 33bd 5b4a d4bc 196f c1bc 4d98 d2bd
00000100: 0da5 253e a8a1 4e3a 6a84 87bc 4d6a f2bc
00000110: 7c66 fd3d e7e9 ff3d 7bfa de3c 2052 f43d
00000120: 2ea6 5a3d 86d5 353d 2605 63be 950d b43d
00000130: 7c6b f43d a58e 4a3d 06c7 023b 59db bbbd
00000140: d03b 753d 0d08 2c3e e8fb 85bc 5758 1ebd
00000150: 924c b23d d159 ffbe d3d9 663e d1a4 243d
00000160: 1049 01bd 5fa7 48be 452a 363c 0b84 f7bd
00000170: 2f4f 093e 5d9a e73c cece 443e 1dea 89bd
00000180: fc86 003e 153a 2d3d 3407 8cbe 639d d13d
00000190: c633 2f3c 080f fabc 4f29 19bb 0503 4cbe
000001a0: ac39 7c3d de37 59be 25e9 bb3d ee4c e73d
000001b0: a900 8d3d 77e3 5f3e a7df d6bd 921f bd3d
000001c0: 50a1 263d cbad b43c e0fe 9f3e 9f19 34be
000001d0: 00bd b539 cded 063e 85a9 0f3d 7069 e6bd
000001e0: f012 b73d ffc2 b1bc 9c15 cc3d 465f fb3c
000001f0: d7c7 7fbe cad4 abbd f798 61bc 7d7f 043a
00000200: 21b3 a9bd cfca 7cbd 0cfb cb3d b0ba cbbd
00000210: 8e4a 39be c600 bc3d b089 53be 20f0 26be
00000220: f5b2 ddbd 6ee3 93bd 7e5f 75be 11b0 283e
00000230: c769 273d 960c a7bd 4c80 903b 2885 84be
00000240: 5610 6dbe 6e72 93be 8bfe 2f3e 3c56 19be
00000250: 6cb6 76bd d882 2d3d b21e e5bb b8b2 4d3c
00000260: 865e 29be cf80 b0bb 5399 223d be53 203e
00000270: 1070 18be 1fe4 dbbd 2a50 11be f3b3 39be
00000280: 6dcf 3cbe d0d1 d5bd ebae ebbc 1a80 703b
00000290: a9aa 383e 3f49 4f3e 0193 debd e0eb 2dbb
000002a0: 241f 193d b71d 21be 2b18 3dbe 4901 fcbc
000002b0: b84f 413d 690a 863e 5a9a 0abe 82b9 85bd
000002c0: e98f ad3c 2391 2fbe 12c5 103d a906 673e
000002d0: 79d7 bfbe 38f6 7d3d 295f 4cbe 1b50 f2bd
000002e0: 47e5 58be 92da f7bc 885d 973c 63b6 f1bd
000002f0: ed4f 95be 2fcc febc 181a f8bd 5b65 4dbe
00000300: 79b6 73bd 7eaa edbd 331e 593d 67e1 033e
00000310: 3598 a43d 756a 4ebe a813 5b3e c8a6 c73a
00000320: 4c81 033d 2790 4ebd c3f3 533d 7d80 15be
00000330: 4f0b 8e3d 1f71 f73c 3fa2 773d e3d8 3b3c
00000340: 4d97 f33c a7fb 6abe ad21 0c3d 50be ab3d
00000350: 9696 c6bd 31c0 5ebe 0710 57bd a1d0 753c
00000360: c287 3d3e 1ad4 a73d f110 cfbd d455 c5bd
00000370: ff93 8cbd 4339 62bc e90d 84bd 5295 eb3d
00000380: 777c bf3c c55a 01be 035a 473e 30a0 9abd
00000390: d118 7fbd c8b7 713c 1bb7 a63d 7eee 4ebe
000003a0: 1c9e 2fbe 7c13 583e 2171 fa3d f047 27be
000003b0: 1ff7 503d d803 14be 2a88 c13d 6b8e 70be
000003c0: 7600 323e d621 00be 3e1b 84be f375 a2bb
000003d0: 6938 c73d c390 33bb 598d ef3d 1697 dc3d
000003e0: 3055 dcbd ae76 1c3e 2781 19be 3a8f 903d
000003f0: acbf 753e aaa5 063d c16b a0bb e9bc fcbe

layers.2.bias f4 [128]
0.028336298 0.32284644 -0.2142265 -0.23252392 0.043072037 0.3689185 0.117226385 0.10953938
0.14281589 0.05952208 0.102222785 0.3530045 0.1272447 0.3159752 0.014302163 0.102119274
0.03396035 0.027916519 -0.08689972 0.042212088 -0.17134827 0.40207937 0.0564069 0.054455623
0.002869545 0.069377795 0.25936973 0.117658645 0.12727231 0.04471011 0.0039033354 0.178117
0.19694346 -0.3259766 0.021468231 0.07324881 -0.17047773 0.12077578 0.06713594 -0.16033122
0.38561285 0.056466706 -0.07688781 0.012394475 -0.083236024 0.03624248 0.27957365 -0.0348133
0.43440542 0.0330332 -0.07191221 0.10758437 0.38430744 0.11674206 -0.2401254 -0.08348611
-0.10727442 0.32450143 0.28323802 -0.16596834 0.16896354 0.22354412 0.20082164 0.15602416
0.111605324 0.11330081 -0.091987684 0.09664345 0.019427542 0.4747244 0.13864382 -0.19823597
-0.19081126 0.0749687 0.085977994 0.04466574 -0.18725987 0.07801342 0.0058195293 0.07802437
0.02377625 -0.021494944 0.24519368 0.050801918 0.043744117 -0.113160245 -0.10673884 -0.056938738
0.2510967 0.026873983 0.08198297 -0.070014015 0.109603375 0.21817186 0.06409713 0.12371615
0.06767729 0.28649837 -0.06362519 -0.13197184 0.42699578 -0.10135411 0.13439037 -0.13059255
0.010154638 0.13010053 -0.019246949 0.44418272 0.012791041 0.31134057 -0.0946327 0.11453245
0.120319605 -0.10320603 0.1155182 0.03660754 0.3849306 0.034698218 -0.087138765 0.12606566
0.0702309 0.042215426 -0.11155679 0.24400292 0.18263243 -0.03243076 0.08602397 0.36330265
00000000: 8621 e83c 214c a53e 315e 5bbe c01a 6ebe
00000010: 4e6c 303d e3e2 bc3e 6314 f03d 2f56 e03d
00000020: 543e 123e 6dcd 733d 2e5a d13d 01bd b43e
00000030: 6f4c 023e 80c7 a13e 9f53 6a3c e923 d13d
00000040: 021a 0b3d 2fb1 e43c 7bf8 b1bd 95e6 2c3d
00000050: ec75 2fbe 59dd cd3e ec0a 673d dc0c 5f3d
00000060: fa0e 3c3b f215 8e3d 1ccc 843e 04f7 f03d
00000070: ac53 023e f321 373d 1acf 7f3b 4e64 363e
00000080: 8cab 493e 68e6 a6be 25de af3c 7903 963d
00000090: b791 2ebe 4b59 f73d 917e 893d de2d 24be
000000a0: 0c6f c53e a249 673d 5b77 9dbd 3212 4b3c
000000b0: a677 aabd ff72 143d 4724 8f3e 6498 0ebd
000000c0: 636a de3e d24d 073d b546 93bd 3255 dc3d
000000d0: f2c3 c43e 7616 ef3d 6fe3 75be c4fa aabd
000000e0: b1b2 dbbd 0d25 a63e 9304 913e 9bf3 29be
000000f0: c704 2d3e c0e8 643e 30a4 4d3e ccc4 1f3e
00000100: 5591 e43d 410a e83d 0a64 bcbd 00ed c53d
00000110: 8226 9f3c 140f f33e a5f8 0d3e 5ffe 4abe
00000120: 0764 43be 3189 993d 3b15 b03d 6cf3 363d
00000130: 0dc1 3fbe 80c5 9f3d c0b1 be3b 3ecb 9f3d
00000140: 69c6 c23c 2a16 b0bc 0d14 7b3e ac15 503d
00000150: 082d 333d 8fc0 e7bd e599 dabd 9838 69bd
00000160: bf8f 803e d426 dc3c b0e6 a73d 8263 8fbd
00000170: bc77 e03d 7268 5f3e 5b45 833d e55e fd3d
00000180: 649a 8a3d eaaf 923e ec4d 82bd a023 07be
00000190: 319f da3e be92 cfbd a19d 093e 0eba 05be
000001a0: a45f 263c 1339 053e c7ab 9dbc eb6b e33e
000001b0: 8491 513c 0868 9f3e cace c1bd fd8f ea3d
000001c0: 206a f63d af5d d3bd ce94 ec3d caf1 153d
000001d0: a015 c53e b81f 0e3d cf75 b2bd 5b17 013e
000001e0: 38d5 8f3d 15ea 2c3d e377 e4bd e7db 793e
000001f0: ff03 3b3e 1ed6 04bd 562d b03d ce02 ba3e

layers.3.weight f4 [1, 128]
0.14798205 -0.310649 0.52090204 -0.28340358 -0.32826346 -0.5070933 0.2184484 0.15745232
0.097451344 -0.42870754 0.23174927 -0.4992736 0.14922735 -0.48609573 -0.43227586 0.20487326
-0.3604243 0.198631 0.41687202 0.14705977 -0.22595212 -0.38204983 0.2950596 0.6946653
0.14099519 0.10873043 -0.15081535 0.102213174 0.21456029 0.13928737 -0.6482973 -0.44159085
-0.7406286 -0.44365662 0.093270995 0.26100397 0.5068464 0.18061891 0.26179352 0.0032803726
-0.4492308 -0.3168405 0.011401978 0.16305716 -0.32055834 -0.5729958 -0.3835779 -0.21196984
-0.5895183 0.19757701 0.5049891 -0.39330524 -0.6036981 0.151195 0.5654713 -0.017639736
-0.004727064 -0.69804484 -0.41141117 0.67732865 0.20083839 -0.50718075 0.20760798 0.16322128
0.16590679 0.31485897 -0.026797744 0.11023103 -0.16017602 -0.5821763 0.35201257 0.5632261
-0.567848 0.21176438 -0.17338584 0.22454332 0.36459216 0.39406607 0.35448968 0.08931733
0.22657497 0.13802516 -0.42347792 0.12523963 -0.3895477 -0.46421716 -0.1988731 0.37209117
-0.40672404 0.115962215 0.17168729 -0.28897768 0.23110335 -0.18367192 0.21890695 0.105308935
0.14353019 -0.4671587 0.41386896 0.40630215 -0.46880624 0.28317547 0.24420238 0.42930064
0.1780312 0.16064902 -0.026356969 -0.97673786 0.28876296 -0.5316505 -0.41772774 0.15156111
0.17598024 0.011258786 0.12371566 0.15680191 -0.7297867 0.3020781 0.0021592202 0.17187616
-0.2965963 -0.42197394 -0.03292388 -0.38292205 -0.70983225 -0.594517 0.15203282 -0.40807903
00000000: 9b88 173e 630d 9fbe d659 053f 461a 91be
00000010: 2612 a8be ded0 01bf f0b0 5f3e 2e3b 213e
00000020: 9294 c73d 8e7f dbbe ae4f 6d3e caa0 ffbe
00000030: 0ecf 183e 8ae1 f8be 4353 ddbe 4cca 513e
00000040: 8989 b8be ed65 4b3e 4070 d53e d696 163e
00000050: fe5f 67be 099c c3be 0d12 973e 96d5 313f
00000060: 0b61 103e 0fae de3d 576f 1abe 2455 d13d
00000070: b1b5 5b3e 59a1 0e3e d0f6 25bf 3218 e2be
00000080: d699 3dbf f626 e3be dd04 bf3d 50a2 853e
00000090: b0c0 013f 2af4 383e cd09 863e 85fb 563b
000000a0: 9401 e6be eb38 a2be 5dcf 3a3c 75f8 263e
000000b0: 3920 a4be daaf 12bf 5364 c4be 9f0e 59be
000000c0: acea 16bf a151 4a3e f746 013f 4e5f c9be
000000d0: f58b 1abf ddd2 1a3e bac2 103f 3581 90bc
000000e0: 7de5 9abb 11b3 32bf 7ca4 d2be 6965 2d3f
000000f0: 94a8 4d3e 99d6 01bf 3097 543e 7b23 273e
00000100: 78e3 293e 3235 a13e f186 dbbc cec0 e13d
00000110: 2f05 24be 8209 15bf fe3a b43e 962f 103f
00000120: 7d5e 11bf c3d8 583e 0f8c 31be afee 653e
00000130: d3ab ba3e 07c3 c93e ac7f b53e 01ec b63d
00000140: 4503 683e 7856 0d3e 19d2 d8be d13e 003e
00000150: cc72 c7be dfad edbe 64a5 4bbe bc82 be3e
00000160: 223e d0be 997d ed3d cbce 2f3e e2f4 93be
00000170: 5ba6 6c3e 7e14 3cbe 2529 603e 36ac d73d
00000180: 94f9 123e 6d2f efbe a2e6 d33e d606 d03e
00000190: 5f07 f0be 60fc 903e 3010 7a3e 4bcd db3e
000001a0: d04d 363e 2d81 243e 92ea d7bc 7e0b 7abf
000001b0: bdd8 933e 3f1a 08bf 69e0 d5be d632 1b3e
000001c0: 2a34 343e c576 383c a35e fd3d ae90 203e
000001d0: 4dd3 3abf fba9 9a3e b481 0d3b 4e00 303e
000001e0: 78db 97be f80c d8be 31db 06bd 5c0e c4be
000001f0: 91b7 35bf 4432 18bf 7eae 1b3e bcef d0be
