new_models/base+wp_16849288/qf3_best.pth (torch, 186572 bytes, 7 tensors)

layers.0.weight f4 [128, 98]
00000000: d922 eebd 2bf0 28bc ff3d 9cbd 4612 a53b
00000010: d1d2 00bb 5181 e13c 70c9 58bd 5e24 813c
00000020: 1388 8e3d 7cf6 1cbc 5108 85bd 1bb4 88bc
00000030: 1a33 93bd 91f8 5f3d 0a53 273d b7e6 f33c
00000040: 8a21 81bd f75d d23c 9ecb c13c af1f eebc
00000050: 1db8 c83b 6b99 e53c 81c7 e73c 320d 473d
00000060: dd75 48bd 89d0 15bd 888f 0c3d a2f4 1abd
00000070: 3c61 1e3c 209c 9bbd e26e a23d d166 1ebd
00000080: bf03 11be 52da db3d 50c3 d63b e520 d13d
00000090: ab7b a13d 368e 973c 832e eabc b470 84bd
000000a0: 3978 20bd b0bc c1bb 39a6 233d dbac 27bd
000000b0: 1666 5a3d 51b4 b93c 321c 88bd 0784 bc3b
000000c0: 2b5f ea3d 1a75 323d bf9d d6bb 94fa 06be
000000d0: 5ee8 faba e742 76bd b7b4 1bbe be7b 59bd
000000e0: 2fb2 62bd 03b0 9d3d da6c a13d 2b71 a63d
000000f0: 962c c83d 46aa 053d f58a eebc 639b 013e
00000100: 75dc a13d cc1b d23c 7b80 383c 28b4 a33d
00000110: bb04 1abd b833 cfbe d350 2f3d d208 b73c
00000120: 8432 0d3d e4f6 393d e94a 0a3e 134e 65bd
00000130: 6719 7dbe 1663 85bd 8127 113d 7e4b c63b
00000140: d97f c53d 0e21 92bd 2272 e6bd 2166 00be
00000150: 763e 9dbb 789f e03d 690d 303e 6838 65bd
00000160: 5c7f e4bd 990f cebd 30c9 f0be 2267 f23a
00000170: 5def 133e eaec 5e3f 827e 30bd 7acf 56be
00000180: 06db 123d b49b 063d 2966 99bd 6989 c73d
00000190: 3486 c63c fa39 03bc c1c4 81bd 86d5 9bbd
000001a0: dcfa 063c 33ec cbbd 8a8e 563c bbb9 f1bc
000001b0: e18e cfbc 04d6 203d 90a5 29bd bdf6 32bd
000001c0: 27b1 b0bd 84a0 11bd 759e 74bd 0dc1 cf3c
000001d0: cfd5 863d fcad d2bd f0cb 22bd 2fd7 bfbb
000001e0: 5130 9b3d a89d e4bd f6b5 af3d d132 a53c
000001f0: a6f2 513c f06a 00be e526 cc3c 8009 5cbd
00000200: dd89 b6bc ada1 d8bd 0c57 21bd ea33 7a3d
00000210: 6699 4cbd 1d24 b8bb 7f25 e53c b23b 5abd
00000220: 8b2a 743d a635 333d fccb c93c 48da 3f3c
00000230: 6344 9f3d c6c4 89bd 9414 adbc eba6 98bd
00000240: cfe1 2cbd a968 af3d fd1a 573d 9120 b43c
00000250: 4e48 403d 779b 3a3c 7b7c c6bd 77ef 16bd
00000260: d0d5 b73d 954f 673d b867 d23d 25dd 183e
00000270: b08a a63c b649 46ba 5729 523c 4804 ee3d
00000280: 99d7 d83d d4b3 c43c bd65 283d c59e 8f3d
00000290: ab91 ee3d 8a7b 193e 8bf3 67bd 1c90 753d
000002a0: 6bf7 b43d d17a 3f3d 3617 fb3d ba89 433d
000002b0: 307d 2fbd f47a 1ebb 2652 313e 63a0 773c
000002c0: 010e af3c a746 debc 00a2 283d 8acb 6f3d
000002d0: b779 3e3d b223 273e 358f d73d fba5 ccbc
000002e0: 5262 a5bc 6100 3b3c 363a 89bd 1770 8cbc
000002f0: 89c8 3e3e 61df dc3c 6478 c5bd f2b3 4cbe
00000300: ead4 043e a4c1 fcbd 507c 1cbc 1c46 8e3c
00000310: c490 ae3d 3885 efbd 11e1 d33b adcf 1dbc
00000320: ab92 4c3c bdab a83d 41b4 36bd a7b0 dd3d
00000330: 3ba4 213e b875 32bd 8c50 453d 668f 113d
00000340: 6b5a 3ebc 042b 603d 00b6 e63c bca2 9f3d
00000350: 2f88 3d3d c28e 31bc b1a2 253c 253f 8a3c
00000360: 1266 8a3d 7a6e 60bb b3e9 bcbc 474b 843b
00000370: f737 c33d 8ac2 093e d6b0 7e3d 97e9 9c3c
00000380: 74e9 423d 8bd0 3bbc 74ce d83d af3d 9f3d
00000390: b72b cb3c 42be e53d e851 17be b242 7c3b
000003a0: ec50 1a3e 10db 2f3d 0ddc b8bc ce5b f0bc
000003b0: 5ba5 c53c bdfa 18bd 287e 12bd 913f fcba
000003c0: 8ef8 bfbc f9d0 debc 9b1d 513d 194d d93d
000003d0: 30c0 583c 56b2 6d3c da26 923d 556e babd
000003e0: 39f9 a1bd c0da 9c3d 5296 e9bc b19b b2bd
000003f0: 10d8 6e3d 6ca0 9d3d 7be0 dcbc 3552 14be
-0.116277404 -0.010311167 -0.07629012 0.0050375788 -0.0019656906 0.027527483 -0.05292648 0.015764412
0.06959548 -0.009580251 -0.06495727 -0.016687443 -0.07187481 0.05468041 0.040850677 0.0297731
-0.06305225 0.025679572 0.023656663 -0.029067842 0.0061254636 0.028027257 0.028293373 0.04859657
-0.04894053 -0.036575828 0.03431657 -0.037830956 0.009666737 -0.07598138 0.079313055 -0.038672272
-0.14161585 0.10735001 0.006554045 0.10211352 0.07884916 0.018500429 -0.028586632 -0.06466809
-0.039177153 -0.005912386 0.039953444 -0.040936332 0.053320013 0.02266899 -0.06646003 0.0057530436
0.11443933 0.043568708 -0.0065495665 -0.13181525 -0.0019142737 -0.060122397 -0.15205656 -0.053096525
-0.05534571 0.07699587 0.0788209 0.08127054 0.09774129 0.03263309 -0.029118994 0.12656932
0.07903377 0.02564802 0.011261101 0.079933465 -0.037602168 -0.40469146 0.04280169 0.022343073
0.034472004 0.04540147 0.13505138 -0.05598266 -0.24716721 -0.0651304 0.035438064 0.00605148
0.09643526 -0.07135211 -0.11252238 -0.12538959 -0.0047987057 0.10967916 0.17192616 -0.055961996
-0.111571044 -0.10061569 -0.47028494 0.0018493871 0.14446779 0.8708025 -0.043089397 -0.20977584
0.03585341 0.032863334 -0.07490189 0.09743006 0.024233915 -0.008009428 -0.06336356 -0.07609086
0.0082385205 -0.09957161 0.013095507 -0.029507509 -0.025336685 0.0392666 -0.04141766 -0.04369234
-0.08627539 -0.03555347 -0.05972143 0.025360608 0.065837495 -0.10287091 -0.03974527 -0.0058545093
0.07577575 -0.11162883 0.08579628 0.020165833 0.0128142 -0.12540793 0.02492089 -0.053719997
-0.022282535 -0.10577712 -0.039389655 0.061084665 -0.04995098 -0.0056195394 0.027971981 -0.053279586
0.059610885 0.043752335 0.0246334 0.011709757 0.077767156 -0.06726985 -0.021127976 -0.07453712
-0.042207535 0.08564884 0.052515972 0.021988185 0.046943955 0.011389605 -0.096917115 -0.036849465
0.089763284 0.05647238 0.10273689 0.1492811 0.020329803 -0.00075640844 0.012827239 0.1162191
0.10587997 0.02401153 0.04111265 0.07012705 0.11648878 0.14988533 -0.056628745 0.059951887
0.08836254 0.046747986 0.122602865 0.04773877 -0.042843997 -0.0024182172 0.17316493 0.015113923
0.021368982 -0.027133299 0.04117012 0.05854372 0.046502795 0.1632221 0.105253614 -0.02498149
-0.020188484 0.011413665 -0.06700556 -0.017143292 0.18631186 0.026961984 -0.09642103 -0.19990519
0.12971845 -0.123416215 -0.009551123 0.017367415 0.085237056 -0.11695331 0.006466039 -0.009632033
0.01248614 0.082358815 -0.044605497 0.108247094 0.15785305 -0.043569297 0.04817252 0.035537146
-0.011618237 0.054728523 0.028162956 0.07794711 0.046272453 -0.010837259 0.010109589 0.016875813
0.067577496 -0.0034245537 -0.023060655 0.004037294 0.09532159 0.13453117 0.062180363 0.019154353
0.04758592 -0.011463295 0.10586253 0.07775437 0.024801118 0.112179294 -0.14777339 0.0038491902
0.15069932 0.042933524 -0.022565866 -0.02934065 0.0241267 -0.037348498 -0.035764843 -0.0019245018
-0.02343395 -0.027199255 0.051053625 0.10610408 0.013229415 0.014507851 0.071363166 -0.091030754
-0.079088636 0.07658911 -0.028514061 -0.08721102 0.058311522 0.07696614 -0.02696251 -0.14484484

layers.0.bias f4 [128]
00000000: 789d 343d 890c 14be 384d a33d a6c7 123c
00000010: 6bcf cc3c cae5 fdbc 60b4 483e 7500 7fbe
00000020: f81b c13d 2d67 97bd 0144 613e 4bd0 693b
00000030: bf5e 40be 3373 5b3e 64d5 033e dc7d 583e
00000040: 2df2 a13e 25bd 30bd 38bd c43e dd08 7dbb
00000050: 1810 7dbe 19c0 163e d826 bb3d 24ba 9b3d
00000060: f825 213e 2ff0 fc3d e939 0cbe ffc8 ee3c
00000070: a847 493e ed09 6d3e 0cdf 153d b3f1 a1bd
00000080: 3ff8 ab3d 61b8 e63d 092c df3d d93b 21be
00000090: 66b1 2d3d ecc0 f83c 37a3 483d 2ddc cd3c
000000a0: 2049 3b3e 4eba 69bc 758b b6bc 72f5 3b3d
000000b0: 874b 883c fafe e4bb d7bf 99bb b95c 7f3e
000000c0: 7969 eb3d 7ba4 113e 6ce3 2a3e 91c2 1bbe
000000d0: b8b0 32be b9bd f3bd 86ad 923d 3cf9 92be
000000e0: bab6 323e f22d ae3d 657b 893e d61d 9d3e
000000f0: c6a2 77bd 9017 f73d 54cb 55bd 6d28 24bc
00000100: 483c f13c b459 003e 3e39 2ebe 6272 ecbc
00000110: ffc6 1e3e 6ec2 b63c d531 abbc b9cb 833d
00000120: c740 123e b0ed 0cbd d5c6 dfbd d665 aa3d
00000130: 8d67 fc3d 3b21 f43d e709 1f3e 9734 393e
00000140: b89a 38bd 2f63 a6bd 4d85 9d3d ce35 023e
00000150: 7167 7a3e c4eb 6e3c 4a67 253d adbb 9a3c
00000160: d5ea acbc 73b4 a73d cf27 2a3d e7df 98bd
00000170: 9c4b bfba 7da9 a03d 259f 37be 643c d43d
00000180: 5542 c93c 0571 893d 8a92 ec3d 3e75 433d
00000190: 6c38 aebc 2cff ac3d 46ca c1bd a5d7 6ebe
000001a0: 4f69 09be 0847 353e fd9e 4c3e 72ff 6e3d
000001b0: d204 9a3d 3962 9f3d f0b0 a23d c4de cbbb
000001c0: 263e 683e 9fec 7ebe 499d 55bd 4c6b 803e
000001d0: 01a7 babd 476a 883d 8070 133e 404a 463e
000001e0: 5711 f93d a62a 8f3e 07c0 863d fa6c 053e
000001f0: f956 86bc a516 4b3e fc10 1bbd 2de5 75bd
0.044095486 -0.14457907 0.07973713 0.008958733 0.025001248 -0.030993361 0.19600058 -0.24902518
0.09429163 -0.07392726 0.21998598 0.003567713 -0.18786143 0.21430664 0.12874371 0.21141762
0.31630078 -0.043149132 0.38425612 -0.003861002 -0.2471317 0.14721717 0.09138268 0.07603863
0.1573714 0.12350499 -0.13693966 0.029148577 0.19656241 0.23148318 0.036589667 -0.079074286
0.083969586 0.11265636 0.10897071 -0.15745486 0.04240551 0.03036543 0.04898378 0.025129402
0.18289614 -0.01426561 -0.022283295 0.04588837 0.016637577 -0.0069884034 -0.0046920585 0.24937715
0.11494727 0.142229 0.16688317 -0.1521094 -0.17450225 -0.11901421 0.07162003 -0.28705776
0.17452517 0.08504857 0.26851955 0.30686826 -0.060457967 0.12065041 -0.052195862 -0.010019404
0.02944769 0.12534219 -0.17014024 -0.028863136 0.15505598 0.022309508 -0.020897785 0.064353414
0.14282523 -0.034406364 -0.10926596 0.08320205 0.12324438 0.11920401 0.15531121 0.18086468
-0.045069426 -0.081243865 0.07691441 0.12715837 0.24453522 0.014582578 0.040381707 0.018888319
-0.02110807 0.08188715 0.04154187 -0.07464581 -0.0014594677 0.07844827 -0.17931803 0.10363081
0.024567762 0.0671101 0.115513876 0.047719233 -0.021267138 0.08447108 -0.09462409 -0.2332445
-0.13419078 0.17702878 0.19982524 0.05834908 0.07520451 0.07782406 0.079439044 -0.006221624
0.22679958 -0.24894951 -0.052151952 0.2508186 -0.09113885 0.06660896 0.14398384 0.19364262
0.121615104 0.27962226 0.06579595 0.13029853 -0.016398894 0.19832857 -0.037857994 -0.060033012

layers.1.weight f4 [128, 128]
00000000: 86d1 b63b 031a d53d f096 633d 331a ed3d
00000010: 221d b13c 017d 4c3d af7b 653c 2aa0 c03d
00000020: 9dec a63d 0e7c 10be ea4a 993d 1ce1 d03d
00000030: 3056 f4bc 758a 883c 8b0e f0bc ac21 0abd
00000040: 919b ba3d 13f0 55bd a6d9 86bd 7a9c bbbd
00000050: 093c a7bc 0e50 c53d e999 123e 3be4 0bbc
00000060: cb4f 44bb 84a1 47bd a769 a63d 3944 85bd
00000070: 813e b63c c6f3 a23c 0517 883d 25c1 50bd
00000080: c50d aa3c 630a 733d aece ab3d 791b d53d
00000090: 7e87 87bd c1f2 103d 39b2 a13b 0e31 1fbe
000000a0: f99c 02be a61e a23d fc14 9dbd 03d2 3c3d
000000b0: c16d 02be 4ec0 7c3d f24c a03d 763c 423d
000000c0: 9e2f 13bd 00be 8abd c9b2 2fbd f8a9 293d
000000d0: a691 33bd ab21 a9bd d903 eabd 9055 203d
000000e0: 9a51 3ebd f209 a13c 1da0 883d 520c 493d
000000f0: fb2a 54bc f416 a2bc 32b5 993d 6b78 49bd
00000100: ae03 183e ce98 f43d 8543 c53d c2b2 7e3c
00000110: 43ed 023d b900 533d 8375 8ebd c67d aebd
00000120: a366 6ebd 2f21 213d 4ac4 0a3e fa51 8d3d
00000130: f5a3 ccbc 93e6 873c 14ca 083e 7703 84bd
00000140: fd04 523d 18c5 aebd 5dc9 283c b76c 433d
00000150: 2a79 3ebd c9c5 00be 5637 42bb e410 123e
00000160: 2b05 f1bd 0fa3 ad3d d15c c93c e9c5 a53d
00000170: 660c 2bbb 508c 303b a011 9e3d d20b 993b
00000180: 2955 3c3e f6d9 83bd aba1 723d 7572 303c
00000190: f195 2cbc 65d1 893d 74aa 9bbd c15b 8f3d
000001a0: e94e 67bd 87dd 4e3b d670 2cbd 9ddd c13d
000001b0: a5d1 2cbe f289 163d 4e2b 353d f8f9 333d
000001c0: 69b2 f23c 7787 c93d a664 a5bc d4f2 bebd
000001d0: b317 f9bc 8523 bd3d 1ba4 8bbd b482 b03d
000001e0: b91f a63b 4a06 54bd 9d00 923d 7af2 8d3d
000001f0: 8330 40be 3f64 7f3b 17f7 fbbd 9f0a d33c
00000200: 99e3 073e 2de5 473d f903 a0bd 58ba a13d
00000210: cc9e 333d 9350 3abd bcf3 07be 4798 84bd
00000220: 65fe 813d 8b76 39be 8ab9 b93d 7766 863c
00000230: aeea 37bc 9ba8 c6bd 625a b63c 6b8d abbb
00000240: 8e29 dc3a aef0 3cbc df75 1c3c b39a e9bd
00000250: 7bda 493d a370 95bd 6c4d 023e 4caf cf3d
00000260: 96df 2fbb 7a20 11be 4199 21bd 47bb 66bc
00000270: a4bc 563c 57e9 e63c 8518 143e 192b 043e
00000280: e04e b7bd 55e2 50bd 0610 f93c 894f 0f3e
00000290: 9089 21be 76dd 4f3c 22d8 b8bc b4ab 09be
000002a0: 5966 94bc 8e47 4f3d ed97 733d c4e3 a1bc
000002b0: 289b 54bd a692 4abe c2ef 0a3e 7854 a4bd
000002c0: 45bd 453d abd7 a8bd 36de 87bc 8acc c43d
000002d0: 0bec d73d 6031 0b3d 2853 aabd 7bc6 b23d
000002e0: 59bb 6b3d d049 b5bd d66a 19bd d6e5 103d
000002f0: 0fff 913c 3845 a8bd 6675 583d 0933 abbd
00000300: 69b9 073d 9133 393c 2a12 853d 867d 353d
00000310: 8d3b 2cbc 28bf b1bd 8fe7 67bd 6920 d33d
00000320: 5e50 c1bd 4269 a03d 0333 37bd 0834 74bd
00000330: 62a4 b23d 6653 99ba 914b 0cbc 7077 4d3d
00000340: d2b9 aabc 8a52 c5bd 5a64 5fbe 5030 213e
00000350: 370a 9c3d 97eb 26bd a10a acbd 4c04 0ebe
00000360: 75d1 cabb 5414 25bd 323e 81bc cf0a 5dbd
00000370: 485e a43c ddc3 38bd 853b dbba 226b 3cbe
00000380: 99e3 853d 944c 27be 9818 003d fc5e e03c
00000390: 0a34 9b3c 6ad5 6d3c 27d1 c0bc ece9 083e
000003a0: ddea 14be d0c1 7ebd 9c1b 66bb 17d8 4f3d
000003b0: 5b3d 00be de1b b9bd 1d6f 173e 2cb4 f8bb
000003c0: 0e49 0f3d be61 ed3d 9e72 923d 6049 44be
000003d0: 62ae cfbc 78c0 09bd 36a6 2e3d 405d 21bd
000003e0: 87b6 33be 021d 903b b485 40bd 7491 09bc
000003f0: e8af f5bd 12f3 6bbd 8a2b 29bd d0e2 aabd
0.0055791764 0.10405352 0.055563867 0.11577263 0.021620337 0.0499239 0.014006539 0.09405549
0.08150599 -0.14109823 0.07484992 0.10199186 -0.029826254 0.016667584 -0.02930381 -0.03372352
0.09111703 -0.052230906 -0.06584482 -0.09160705 -0.02041437 0.0963441 0.14316525 -0.008538301
-0.0029954787 -0.048738018 0.0812562 -0.06507153 0.022246601 0.01989163 0.066450156 -0.050965447
0.020758519 0.059336077 0.083890304 0.104056306 -0.0661764 0.03538776 0.004934576 -0.15546057
-0.12755193 0.07916002 -0.07670018 0.04609872 -0.1273718 0.061706834 0.07827176 0.04742094
-0.035934083 -0.06774521 -0.042895112 0.04142186 -0.043840073 -0.08258375 -0.11426515 0.0391441
-0.04646454 0.019658063 0.06671164 0.049084015 -0.0129497005 -0.019786336 0.075052634 -0.049187105
0.14845154 0.11943208 0.09632019 0.015545549 0.03196455 0.05151436 -0.06956007 -0.08520083
-0.05820335 0.039338287 0.13551441 0.069004014 -0.024980525 0.016589439 0.13358337 -0.06445973
0.05127429 -0.085336864 0.010301915 0.0477111 -0.04650227 -0.12575449 -0.0029635034 0.14264256
-0.11768564 0.084783666 0.024580391 0.08094389 -0.002609992 0.0026939102 0.077182055 0.0046705985
0.18391861 -0.06438057 0.05923621 0.010769476 -0.010533796 0.06729392 -0.07600871 0.069999225
-0.05647174 0.0031565146 -0.042099796 0.094660975 -0.16876848 0.03675265 0.04423075 0.04393956
0.029626088 0.09840291 -0.020189594 -0.093236595 -0.030406808 0.092352904 -0.0681841 0.0861868
0.0050696996 -0.05176381 0.07129023 0.06931014 -0.18768506 0.0038969663 -0.12302988 0.0257619
0.13270415 0.048802543 -0.07813258 0.078968704 0.043852612 -0.045486998 -0.13276571 -0.06474357
0.0634735 -0.18111627 0.09068592 0.01640628 -0.011225386 -0.09700128 0.022259895 -0.005235364
0.0016797052 -0.011531992 0.009549587 -0.1140646 0.049280625 -0.072968744 0.12724847 0.10140857
-0.0026836148 -0.14172545 -0.039452795 -0.014082736 0.013106499 0.028187437 0.14462478 0.12907065
-0.08950591 -0.050997097 0.030403148 0.13995184 -0.15775132 0.012687078 -0.022563998 -0.13444406
-0.01811521 0.05060535 0.05947106 -0.019761927 -0.05190578 -0.19782504 0.13568023 -0.08023924
0.048276205 -0.082442604 -0.01658545 0.09609325 0.105430685 0.033982635 -0.08316642 0.087292634
0.057551716 -0.08851969 -0.037455402 0.03537544 0.017821817 -0.082163274 0.052846335 -0.083593436
0.033135805 0.011303798 0.06497605 0.04430916 -0.010512245 -0.08679038 -0.056617316 0.10308916
-0.09439157 0.07832576 -0.044726383 -0.059619933 0.0872276 -0.0011697828 -0.008562938 0.050162733
-0.02084056 -0.09634884 -0.21815625 0.15741086 0.07619136 -0.04075202 -0.08400465 -0.13868827
-0.00618952 -0.04030259 -0.015776727 -0.053965386 0.020064488 -0.045108665 -0.0016726112 -0.18400243
0.065375514 -0.16337806 0.031273454 0.027389042 0.018945713 0.014516214 -0.023537232 0.13370484
-0.14542718 -0.062196553 -0.0035111671 0.05074319 -0.12523405 -0.09038518 0.1478848 -0.0075898375
0.03498178 0.115909085 0.07150768 -0.19168615 -0.025351707 -0.033630818 0.04263898 -0.03939557
-0.17550097 0.0043979893 -0.04700251 -0.008396495 -0.11996442 -0.057604857 -0.041301288 -0.08344042

layers.1.bias f4 [128]
00000000: ffaf 6dbd 12ca aa3d 04e6 6b3e 70d8 8b3d
00000010: 5b1b b5bc 3337 8b3e c7ad c83d 9578 06bc
00000020: 221f 1a3d 43a1 6f3d 9e99 283d eb93 823d
00000030: 8073 803d 84c5 3e3e 83fa 723c 2fd2 5ebd
00000040: 9aef a5bb 851d 973d 94a6 01bd aa18 17be
00000050: b91b 4bbd 2e90 e1bd bc76 e13d 665b b2bc
00000060: e708 dbbd 370b e93d 1087 0f3e 82bc 413e
00000070: 3bfb 0a3e 5c14 01be 37f6 933d 8807 da3d
00000080: 08e8 8bbd 3233 d13d 3b2c 4bbc b372 843d
00000090: 4bd7 513e 1f43 313e f780 743d 0bcb c4bd
000000a0: 3d90 813d 7d54 e23c 5642 963d 5294 be3d
000000b0: 48fa 9c3a a782 053e 43a4 893d e471 a33d
000000c0: d354 01be e735 a9bd 31b9 0dbd c0c2 1fbd
000000d0: f8d0 373d ea0c 57be 4d99 85bd 52f9 6e3d
000000e0: f45e ad3d 470b 40bc 771a 4ebe a35d b3bd
000000f0: 7932 c3bd 21fc bfbc 0100 e6ba 44bc 423d
00000100: 9a15 ac3d 03ec b5bd 7fbd f3bd 3ac3 263e
00000110: 030f 993e 6060 133e 8c38 3c3e e9f6 0bbe
00000120: 9b0b a1bd 7a47 313e d9be 663e db03 40bb
00000130: 3434 663e 8ef3 6f3e 8385 b53d 58d8 553d
00000140: 5b4c 223e 021a 113e 4d60 b23d e440 193d
00000150: ff0c 173d 988f ab3d ba2b adbc c55f 563e
00000160: 4c5a e53d b019 f0bd d339 f83d ce1d a1bc
00000170: c747 0a3e 2b9f a53b 2349 073e 69ff ae3d
00000180: a4d8 b93c 8707 d93d 0b8d a23c 619d 553d
00000190: 90ce bbbd 2e94 2a3d f00c 1e3e 3e36 cbbd
000001a0: 607b a53d 4956 563d e315 a33d efe6 4bbc
000001b0: 9c1e 833b 3463 5a3d 6b7a 92bd ab2c 1cbd
000001c0: 1f45 443e 8be6 14bd 6db5 9b3d 5fe1 62be
000001d0: 49ef c13d ba8f fd3d c313 a6bd 0179 d1bc
000001e0: 38a7 1dbe d10f e6bd bcac d8bc 6bbc 833e
000001f0: fa69 a53e bef7 93bd d66a 803d 01d8 213d
-0.05802917 0.08339323 0.23036963 0.068283916 -0.02210777 0.2719055 0.097987704 -0.00820746
0.037627347 0.0585034 0.041162126 0.06375869 0.0627203 0.18630034 0.014830234 -0.054399665
-0.005063963 0.07378677 -0.031653002 -0.14755502 -0.049586985 -0.11013828 0.11008975 -0.021772098
-0.10695057 0.11379092 0.14016366 0.18919566 0.135724 -0.12605423 0.07224696 0.10645968
-0.06831366 0.10214843 -0.012400682 0.0646719 0.20492284 0.17310761 0.059693303 -0.0960904
0.063263394 0.027628178 0.07336871 0.093056336 0.0011976445 0.13038121 0.067207836 0.07980707
-0.12630014 -0.08262234 -0.03460044 -0.039004087 0.044877023 -0.2100102 -0.065233804 0.05834324
0.084653765 -0.011721439 -0.20127283 -0.08758094 -0.09531111 -0.023435654 -0.0017547609 0.047542825
0.08402558 -0.08882906 -0.11901378 0.1628541 0.29894266 0.14392233 0.18380946 -0.13668407
-0.07863542 0.17312422 0.2253374 -0.0029299173 0.22480851 0.23432752 0.08863356 0.052208275
0.1584944 0.14170077 0.08709774 0.0374154 0.03687763 0.08376998 -0.021139015 0.2093497
0.111988634 -0.117236495 0.12120404 -0.019667532 0.13503943 0.0050543747 0.13211493 0.08544809
0.02268631 0.10597139 0.019842645 0.05215204 -0.09170258 0.04164522 0.15434623 -0.09922455
0.080801725 0.05232838 0.07963159 -0.012445196 0.0040014517 0.053317264 -0.071522556 -0.038128536
0.19166993 -0.036352675 0.076029636 -0.22156285 0.09469468 0.12380929 -0.08109238 -0.025570394
-0.1539582 -0.112334855 -0.026449554 0.2572969 0.32307416 -0.072249874 0.06270377 0.039512638

layers.2.weight f4 [128, 128]
00000000: 27d5 2a3d 2f44 443d 4642 cb3c cad9 573d
00000010: acf6 6a3d 0f03 a03d 5e55 093e 2b2d b83d
00000020: 4600 5d3e 29d1 0b3e e2d1 723d d8eb 20be
00000030: 23e9 153d 7140 c33d a6f2 fb3c 3a8b a33b
00000040: eb35 e83d 2111 1d3e 865b 01be cade 80bc
00000050: e03f 22be bcd0 4f3d 0721 a93c e3ec 03bc
00000060: 2a3e 353b 69a4 0a3e acb6 5a3e 1603 09be
00000070: 0bd6 773d 5b4e 293e 7d2a 903d 8595 813e
00000080: 4d49 eb3d db9c 463e 23bf 113e 5f47 b5bd
00000090: a4b2 053e 1bf0 bf3d 6bf1 63bc df2a 0cbc
000000a0: dcc0 073e 4725 ba3e fa56 953b 2ca7 2c3e
000000b0: 05dd 373d 420f 2dbe 6b27 ccbe 59cb 02bd
000000c0: 9b17 3bbe d7b0 c73a 8575 22bd 1601 8a3d
000000d0: f3b9 2c3e c786 6a3c 6462 0f3e a5a3 013f
000000e0: 8d58 b53d c806 293e b8ea 06bd 9c53 97be
000000f0: 8420 f6bc 59d6 c63b 3b7f 9a3c 6e2c 45bd
00000100: 1cd6 e23d eee0 4d3c 6a84 87bc 376a 22bc
00000110: 1fde 083e 5ba2 c73d 4c2c 943d 5fba 0b3e
00000120: 2ea6 5a3d 71cd 623d e9b6 6dbe 560b ca3d
00000130: dc16 003e 5744 8f3d 7ef3 bc3c cb1d 67bd
00000140: d2e3 403d bee4 343e 8226 413c 4608 e5bd
00000150: 66a2 c63d 8560 f0be e7e8 0c3e 5e23 413d
00000160: aa88 c7bc 9e18 19be 6bfd f83c ffb7 27be
00000170: b419 243e 00ec 8a3d 4d60 2a3e 99bb 0abe
00000180: f564 863d 2612 8d3d 6294 89bd f7b6 d53d
00000190: c633 2f3c 1c08 8abc da88 813c f6e0 6abe
000001a0: 5444 3b3d 1d8b 59be 125e b93d 3c16 ef3d
000001b0: 3345 b33d 9d4a 1d3e d920 d8bd 8026 e43d
000001c0: ddd9 ca3d 0e67 a2bc e2e6 953e 4cd2 26be
000001d0: ff6f e43b d186 083e 87cd 823d 77f9 c9bd
000001e0: bc0e 9e3d 8308 8ebc 6568 e03d 1cba 853d
000001f0: f5b4 34be cad4 abbd 6f93 80bc 8abb eb3c
00000200: e8c6 bdbd 8171 573c ff7d 5e3d b3e9 dbbd
00000210: 0d1d 12be d746 903d 5c3b c6bd 86b7 b3bd
00000220: 2b7c b1bd 9789 a3bd 679d 37be 9d7b 1b3e
00000230: a9ef 9a3d 4a9e 85bc 701a 6cbd e1b0 6cbe
00000240: f7a7 44be 681d 80be 7630 203e da43 0dbe
00000250: 6f22 aabd 76ea fe3c b952 da3c 16c7 6c3d
00000260: 1023 d3bd 9090 853d 54b6 bd3c 334d bd3d
00000270: f6bf e0bd 2ade 8bbd 984a c7bd 68b5 13be
00000280: f3a6 bdbd 0ffd 52bd 490d 55bc 4a2c debc
00000290: 1ff0 fd3d 38bf 4b3e 3deb 54bd e0eb 2dbb
000002a0: 37de 5f3d 2e05 a7bd d61a 71be 55fe a6bd
000002b0: ef40 ba3c acb2 8b3e 6a41 3abe 7aa4 96bc
000002c0: 24a1 80ba d6a9 91bd 12c5 103d 6a44 183e
000002d0: 0bbe 97be 96ab c43c ffdb 1fbe 81f6 78bd
000002e0: 2f41 20be 2f60 aebb 8b89 1dbd bff2 6ebd
000002f0: c770 2fbe 8361 bb3b 0c75 08be 774c 28be
00000300: 3507 7abd 589f dfbd ba3b 793d 59e1 2b3e
00000310: 477c 9c3d 1280 74bd ce3b 413e 268b 4dbb
00000320: 4c81 033d 8669 08bd 02c6 063d f227 d0bd
00000330: db57 663d 85bc a93d 2578 083d 12ef efbc
00000340: 0f6f 0f3e 7cbe 95bd 2969 2b3d 92e5 a03d
00000350: 9191 b4bd 5165 5ebe ae51 44bd 3c44 4cbc
00000360: e06f 123e afcc ee3d b265 023d 17e0 85bd
00000370: 75e5 49bd ce94 17bd 4701 94bb c055 ab3d
00000380: b2c3 4cbd b0f6 edbd 0c7b 3d3e 22c5 f8bd
00000390: 827e 95bd 4a69 2fbd 02f1 893d 38b2 2fbe
000003a0: 7413 32bd 2ddb 453e 28b5 973d b1f7 1cbe
000003b0: 82c1 453c 6937 eabd f2ae d13d f0e9 f7bd
000003c0: 5abd 0e3e 537c aebd 1c1c 36be e0e3 d43b
000003d0: d3e0 813d 3c0e 193d f583 023d b396 da3d
000003e0: 359b 93bd 51d4 1d3e f8af f7bd 8c12 823d
000003f0: ee13 5d3e aaa5 063d 328a 8f3c 2eed ccbe
0.041707184 0.047916587 0.024811875 0.052697934 0.05736415 0.078130834 0.13411471 0.0899299
0.21582136 0.13654007 0.05928219 -0.15714967 0.03659929 0.095337756 0.030755352 0.0049909623
0.11338409 0.15338565 -0.1263257 -0.015731234 -0.15844679 0.050736174 0.020645631 -0.008052084
0.002765546 0.1353928 0.21358746 -0.13380083 0.06050686 0.16533796 0.07039354 0.25309387
0.114885904 0.19395773 0.14233069 -0.088515036 0.13056427 0.09371968 -0.013912539 -0.008555143
0.13257164 0.36356565 0.0045574876 0.16860646 0.044888515 -0.16900352 -0.39873824 -0.03193221
-0.18270724 0.0015235197 -0.039662857 0.067384884 0.16867809 0.01431436 0.14002377 0.50640327
0.0885478 0.16506493 -0.03293869 -0.29555976 -0.030044802 0.0060680327 0.018859496 -0.048138075
0.11075994 0.012565834 -0.016542632 -0.009913019 0.13365982 0.09747764 0.072350115 0.13645314
0.053381138 0.055371705 -0.23214306 0.098654434 0.1250872 0.06995457 0.023065325 -0.056424897
0.047092266 0.17665383 0.011788966 -0.11183219 0.09698944 -0.4694864 0.1376072 0.04715287
-0.024357159 -0.14950797 0.030394277 -0.16378783 0.1602543 0.06783295 0.16638298 -0.13548125
0.06562225 0.06888227 -0.06717755 0.104352884 0.010693496 -0.01684957 0.015812326 -0.22937378
0.04571946 -0.21244474 0.090511456 0.11674163 0.08753433 0.15360494 -0.1055314 0.11140156
0.099048354 -0.01982453 0.29277712 -0.1629116 0.006971359 0.13332678 0.063868575 -0.09862035
0.07717654 -0.017338043 0.10957412 0.06529638 -0.17647155 -0.08390196 -0.015695302 0.028775949
-0.09266454 0.01314962 0.054319378 -0.10737934 -0.14268894 0.07044762 -0.09679291 -0.08775239
-0.08666261 -0.079852276 -0.17931138 0.15183873 0.07565243 -0.01631083 -0.0576424 -0.23114349
-0.19204699 -0.25022435 0.15643486 -0.13795415 -0.08307349 0.031117659 0.026650773 0.05780705
-0.10309422 0.06521714 0.02315823 0.0924324 -0.10974114 -0.06829484 -0.097310245 -0.1442467
-0.09260359 -0.051510867 -0.013003656 -0.027120728 0.12399315 0.19897163 -0.051982153 -0.0026538298
0.05465528 -0.08155285 -0.23545393 -0.08153979 0.02273604 0.27284753 -0.18189016 -0.018388975
-0.0009813649 -0.07112472 0.03534419 0.14869848 -0.2963718 0.0240076 -0.15611266 -0.06078196
-0.15649866 -0.0053215246 -0.03846125 -0.05833697 -0.17132865 0.0057184114 -0.133259 -0.16435419
-0.06104203 -0.10919064 0.060847975 0.16785182 0.076408915 -0.05969245 0.1887047 -0.0031363457
0.03210573 -0.03330376 0.03290368 -0.10163869 0.05623613 0.0828791 0.033317704 -0.029288802
0.14007209 -0.07311723 0.041848335 0.07856287 -0.08816827 -0.21718337 -0.04792946 -0.01246744
0.1430049 0.11660134 0.031835265 -0.06536882 -0.049291093 -0.037007146 -0.004516754 0.08365965
-0.049991317 -0.116193175 0.1850397 -0.12146975 -0.0729952 -0.04282502 0.06735422 -0.17157829
-0.043475583 0.1932189 0.074076 -0.15328862 0.012070062 -0.1143635 0.10238446 -0.12105167
0.1393942 -0.08519807 -0.1778416 0.0064968914 0.0634171 0.03736709 0.031864125 0.10673275
-0.07207338 0.15413024 -0.1209411 0.06351194 0.21589634 0.032872833 0.017521951 -0.40024704

layers.2.bias f4 [128]
00000000: ea82 173d 8569 6f3e 15bf 33be 98fd 4bbe
00000010: c796 5f3d befb 9f3e 45b9 9b3d c5ca da3d
00000020: 076f f73d a6a7 b63c 4923 793d ad5d 963e
00000030: ab49 e03d 76d0 673e f487 fb3b 917c 993d
00000040: bdec a2bb f6ed bbba 9eef 8fbd b022 2f3c
00000050: 12a6 2fbe 098a a33e 31f3 9c3b 5014 6d3d
00000060: 49d2 2bbc 2709 813d ee89 463e ecac c93d
00000070: d984 cd3d fb9f 623d 32ab 473d 170e e93d
00000080: d9b3 153e 48dd 8fbe 57c0 5d3b ec13 ea3c
00000090: 620f d5bd 554d cb3d e13a b63c ee5a 17be
000000a0: 073a 973e 50b1 733c 5b77 9dbd 0021 abbc
000000b0: 4faa 41bd 5c07 2fbc a5c9 693e 07d3 c1bd
000000c0: ef20 b93e 0cdf 9ebb c1d5 95bd 62ac ab3d
000000d0: c637 a23e 2854 c63d 7afb 56be ef85 91bd
000000e0: baed c2bd ecbf 773e 6eb6 603e 7f59 11be
000000f0: 4001 033e 1bc5 2c3e 7c2d 093e e4c0 003e
00000100: 73e9 bb3d 847a 493d a097 a2bd 1f60 a43d
00000110: 935c 1ebc 04bb c73e 62f9 aa3d 997d 28be
00000120: 7cd3 1bbe 74a7 033d 1434 8b3d 7fcb 5d3c
00000130: 1db2 ffbd dd5c 863c 8629 333a 6e30 6c3d
00000140: 61ae bbbb 0018 36bd 2fa6 473e 8837 223d
00000150: 6134 2e3d 71c2 d8bd a2d0 acbd 3f8f 28bd
00000160: 0d41 513e c195 d03c 5927 903d 9dc4 87bd
00000170: 67e9 893d 595a 0e3e 13b0 fb3c c909 f13d
00000180: 9618 2b3d ab41 713e 9f4b a1bd 0de5 d9bd
00000190: a62b bb3e 08dd dbbd 213f c13d 973a d5bd
000001a0: 7841 03bc 22bc b63d d365 afbc c8d2 c73e
000001b0: 3c10 efbc 5123 753e a207 0abd 787d c73d
000001c0: b24b c53d af5d d3bd ba9b b13d c738 e1bb
000001d0: 1f5d 8e3e bb96 babb cf75 b2bd 837b a53d
000001e0: ca94 143d 2aea 313d e377 e4bd a3ee 2c3e
000001f0: f0fa 113e 36c0 c4bc a240 863d f393 953e
0.036990084 0.23380096 -0.17553361 -0.19920957 0.05458715 0.31246752 0.07603697 0.106832065
0.12081724 0.022296738 0.060824666 0.29368344 0.10951551 0.22638115 0.007676119 0.07494462
-0.004972069 -0.0014337886 -0.07028125 0.0106894225 -0.17153195 0.3194125 0.004789733 0.0578807
-0.010487148 0.06300574 0.19388554 0.09847435 0.10035104 0.05532835 0.04874725 0.113796405
0.14619388 -0.28098512 0.0033836567 0.028573953 -0.10403325 0.09926859 0.022244873 -0.1478078
0.2953646 0.014873818 -0.07688781 -0.020889759 -0.04728156 -0.010682907 0.22830828 -0.094640784
0.3615794 -0.0048483666 -0.07316161 0.08382489 0.31683177 0.0968402 -0.20994368 -0.07105624
-0.09517999 0.24194306 0.21944591 -0.14194296 0.12793446 0.16872065 0.13396257 0.12573582
0.09175386 0.049189106 -0.079390764 0.08026146 -0.009665626 0.3900987 0.08348347 -0.16454162
-0.15217394 0.032142118 0.067970425 0.013537287 -0.12485144 0.016401703 0.00068344956 0.057663374
-0.0057275747 -0.044456482 0.19496988 0.03960374 0.04253042 -0.10583962 -0.08438231 -0.041152235
0.20434971 0.025462033 0.07038755 -0.06629298 0.06733971 0.13901652 0.030723607 0.117694445
0.041771494 0.23560207 -0.07875752 -0.10639391 0.3655674 -0.10735518 0.09435869 -0.10411566
-0.008011214 0.08922602 -0.021410858 0.39028 -0.029182546 0.23939253 -0.033698685 0.09740728
0.09633578 -0.10320603 0.086722806 -0.0068732235 0.2780542 -0.005694238 -0.087138765 0.080801986
0.03627471 0.043436207 -0.11155679 0.16887908 0.14255881 -0.024017435 0.065552965 0.2921444

layers.3.weight f4 [1, 128]
00000000: 14b6 153e dbc8 52be 2308 e23e 843f 83be
00000010: 3728 7dbe fba8 cdbe f35a 2b3e 339b 153e
00000020: 9157 a63d df74 86be 6ed4 4a3e dd58 d8be
00000030: 1c9a 053e 576e b5be ba7c a7be 991e 363e
00000040: 6e20 98be 8f5f 3c3e 7690 913e 4db7 0e3e
00000050: bf76 4ebe 14cf 8cbe b33e 883e 08b0 083f
00000060: 0bc6 033e 06d9 d33d 5c3e bebd 0ce9 b33d
00000070: de0a 433e bfd2 123e a395 07bf 4bd3 b4be
00000080: 323a 0abf 6d76 a1be ba91 ac3d e0f5 6a3e
00000090: 793d 163e 691a 2a3e 6a9b 533e cf20 babb
000000a0: 8851 b9be 0359 8dbe 5dcf 3a3c 7b76 193e
000000b0: 02a3 8cbe a23b f5be 6a96 9cbe 118d 8fbd
000000c0: 5b98 e7be 0e46 2d3e 2409 d13e a8a1 b2be
000000d0: 9241 fcbe 8f1d fa3d b417 ef3e c5c1 f1bc
000000e0: 9a7b e83b 3318 e0be 5824 a0be a2af ff3e
000000f0: 5694 2b3e 4d01 d9be 64c9 253e ea88 013e
00000100: e00b 183e 9176 8f3e 9ede 1ebd c69d b93d
00000110: df52 94bc 8776 e7be 4391 a73e afdc f43e
00000120: a267 cfbe 472b 3c3e ef2e cabd d0a5 483e
00000130: adfe ec3d 4fcb ba3e e5ca 863e 369a a03d
00000140: b682 4c3e 546b fd3d e4e5 bcbe 63c6 e43d
00000150: d03f 9bbe c444 9cbe 04a1 d6bd 2d2c 0f3e
00000160: 23cf 96be 7f1c db3d 4278 223e ca0b 44be
00000170: d2f1 4c3e d0df b3bd 3f54 2f3e 4153 b23d
00000180: cf9d 043e aa98 abbe 6b8a b33e 3770 a73e
00000190: 5285 c1be 466d ca3c 3c6c 5d3e fc47 cf3e
000001a0: 0595 233e 05e9 003e bc34 77bc 76ce 5fbf
000001b0: 5910 893e 085a dabe 89ec 67be d652 e43d
000001c0: 11b8 133e c576 383c 6b79 d73d 352c 033e
000001d0: b1b0 fbbe 07ca 853e b481 0d3b 1ce6 103e
000001e0: c69d 24be 2d38 60be 31db 06bd 1ea3 96be
000001f0: cbe5 19bf f17c fabe ac95 003e cbf4 a0be
0.14620239 -0.20584433 0.44146833 -0.25634396 -0.24722372 -0.40167984 0.16733913 0.14609985
0.08122171 -0.2626104 0.19807598 -0.42255297 0.1304707 -0.35435745 -0.32712346 0.1778511
-0.29712242 0.18395828 0.28430527 0.13937111 -0.20162486 -0.27501738 0.26610336 0.533936
0.12868516 0.10344128 -0.09289238 0.087846845 0.19047114 0.14338206 -0.529627 -0.35317454
-0.5399505 -0.31535664 0.08426233 0.22945356 0.14671887 0.16611637 0.20664755 -0.0056801806
-0.36195016 -0.27606973 0.011401978 0.14986603 -0.27468115 -0.4789706 -0.30583507 -0.07009328
-0.45233425 0.16921255 0.40827286 -0.3488896 -0.49268776 0.12212669 0.46697772 -0.029511342
0.0070948126 -0.43768463 -0.31277728 0.49938685 0.16755804 -0.42383805 0.16190106 0.12649885
0.1484828 0.28020146 -0.038786523 0.09063296 -0.018105922 -0.45207617 0.32728013 0.47824618
-0.40508753 0.18375884 -0.09872233 0.19594502 0.11572013 0.36483237 0.2632667 0.078419134
0.19971737 0.12373987 -0.36894143 0.11170652 -0.30322123 -0.30521214 -0.1047993 0.13981695
-0.29454908 0.106987946 0.15866187 -0.19145122 0.20014122 -0.08782923 0.17121981 0.08707286
0.12950824 -0.3351491 0.35066542 0.327028 -0.37797028 0.024710309 0.2162332 0.40484607
0.15974815 0.1258889 -0.015088256 -0.8742441 0.26770285 -0.42646813 -0.22648825 0.11148612
0.14425685 0.011258786 0.105212055 0.12809832 -0.49158242 0.26130697 0.0021592202 0.1415028
-0.16075811 -0.2189643 -0.03292388 -0.29421324 -0.6011626 -0.48923448 0.12557095 -0.31436762
