new_models/base+wp_16849288/qf3_target_best.pth (torch, 186656 bytes, 7 tensors)

layers.0.weight f4 [128, 98]
0	0xbdecc1a3	-0.11560371
1	0xbc1e0efe	-0.009647129
2	0xbd9aefc8	-0.07565266
3	0x3bbe7028	0.00581171
4	0xb9f2c744	-0.000463063
5	0x3cea7f98	0.028625295
6	0xbd50ba6a	-0.05095903
7	0x3c82f360	0.01598519
8	0x3d8f00c3	0.06982567
9	0xbc152cb6	-0.009104898
10	0xbd849caf	-0.064751975
11	0xbc807511	-0.015680822
12	0xbd90c960	-0.07069659
13	0x3d648215	0.05578812
14	0x3d2bc0c3	0.04193188
15	0x3d00c3d1	0.031436745
16	0xbd7e60d2	-0.062104054
17	0x3cd94b4e	0.026525166
18	0x3cc6b4b9	0.024256097
19	0xbce9291b	-0.028461983
20	0x3be9658c	0.007122701
21	0x3cf165bb	0.029467454
22	0x3cf87682	0.030329946
23	0x3d49d2d9	0.049273346
24	0xbd482925	-0.048867363
25	0xbd14486d	-0.036201883
26	0x3d0efd78	0.034909695
27	0xbd196dd4	-0.037458256
28	0x3c27e743	0.010248008
29	0xbd99c4c5	-0.07508234
30	0x3da51b06	0.08061795
31	0xbd18e648	-0.03732899
32	0xbe0f88ab	-0.14016978
33	0x3ddd3269	0.108006306
34	0x3be181b8	0.0068819188
35	0x3dd35ec3	0.10320809
36	0x3da3ec0c	0.08004007
37	0x3ca296c7	0.019847287
38	0xbcd263a0	-0.02568227
39	0xbd837615	-0.06419007
40	0xbd2199be	-0.03945326
41	0xbbc2e730	-0.00594797
42	0x3d261390	0.040546
43	0xbd268c7f	-0.04066133
44	0x3d59c0a0	0.053162217
45	0x3cc21a39	0.023694145
46	0xbd864408	-0.06555945
47	0x3bd977e8	0.0066366084
48	0x3dec8689	0.11549098
49	0x3d392a4d	0.045206357
50	0xbbc5b6a4	-0.0060337353
51	0xbe059b64	-0.13047558
52	0x3ab937ba	0.0014130988
53	0xbd682e63	-0.056684863
54	0xbe18650f	-0.14882301
55	0xbd576548	-0.052586824
56	0xbd63b9f1	-0.05559725
57	0x3d9baf23	0.07601764
58	0x3da21316	0.079137966
59	0x3da5e56b	0.08100399
60	0x3dc70438	0.097176015
61	0x3d06fa74	0.032953694
62	0xbce643b4	-0.028108455
63	0x3e0266f3	0.12734585
64	0x3da43e29	0.080196686
65	0x3cdbc62f	0.0268279
66	0x3c387820	0.011259109
67	0x3da33b89	0.0797034
68	0xbd180023	-0.037109505
69	0xbecee327	-0.40407678
70	0x3d26a9a0	0.04068911
71	0x3cbac854	0.022800602
72	0x3d13c445	0.03607585
73	0x3d38f40a	0.04515461
74	0x3e0d6539	0.13808145
75	0xbd63d67d	-0.055624474
76	0xbe7e21a2	-0.24817517
77	0xbd833197	-0.06405943
78	0x3d1279d8	0.03576073
79	0x3c031a89	0.008001932
80	0x3dc53cee	0.09630762
81	0xbd8e32f1	-0.0694331
82	0xbde3a483	-0.111153625
83	0xbdf050f7	-0.11734193
84	0xbc0f3ff5	-0.008743276
85	0x3de18d28	0.110132515
86	0x3e3130b1	0.1730373
87	0xbd6518db	-0.055931907
88	0xbdde1acb	-0.10844954
89	0xbdcb1e35	-0.09917871
90	0xbeedf76a	-0.46477824
91	0x3a1b1e9e	0.0005917343
92	0x3e145c51	0.14488341
93	0x3f5dac8b	0.86591405
94	0xbd2fe4e8	-0.04294291
95	0xbe581edf	-0.21105526
96	0x3d1028a9	0.035195027
97	0x3d01f955	0.031731922
98	0xbd937688	-0.072003424
99	0x3dcdacbf	0.10042714
100	0x3cd92303	0.026505953
101	0xbbcd91c5	-0.0062734806
102	0xbd7a39b3	-0.061090183
103	0xbd97b21b	-0.07407018
104	0x3c252814	0.010080356
105	0xbdc6118f	-0.09671318
106	0x3c825d24	0.015913554
107	0xbcd98cd4	-0.02655641
108	0xbcba08b8	-0.022709236
109	0x3d259e86	0.040434383
110	0xbd26fd99	-0.040769193
111	0xbd2e9d60	-0.042630553
112	0xbdae3404	-0.08506015
113	0xbd0f0997	-0.034921255
114	0xbd7086cb	-0.0587223
115	0x3ceaa957	0.0286452
116	0x3d8c667e	0.06855486
117	0xbdce6af6	-0.10078995
118	0xbd1ae062	-0.037811644
119	0xbb8df4ac	-0.0043321457
120	0x3d9daee9	0.07699377
121	0xbddecf3a	-0.10879369
122	0x3db6688a	0.08906658
123	0x3cbb4394	0.022859372
124	0x3c7ca7ea	0.015420893
125	0xbdfbbb54	-0.122915894
126	0x3cddaaf4	0.027059056
127	0xbd57ee18	-0.0527173
128	0xbcaa519f	-0.020790873
129	0xbdd51cf5	-0.10405914
130	0xbd1c4f53	-0.038161587
131	0x3d7c8983	0.06165458
132	0xbd4010d2	-0.04689104
133	0xbb5a38b9	-0.003329797
134	0x3cf42279	0.029801594
135	0xbd565e74	-0.05233617
136	0x3d7a65e0	0.06113231
137	0x3d3b728d	0.04576354
138	0x3ce4b4e9	0.027918296
139	0x3c7a930d	0.015293849
140	0x3da4f17d	0.08053873
141	0xbd855a13	-0.06511321
142	0xbc9fcb81	-0.019506218
143	0xbd959d99	-0.0730545
144	0xbd27c864	-0.04096259
145	0x3db3d140	0.08780146
146	0x3d5fa95f	0.054604884
147	0x3cbb5f55	0.022872606
148	0x3d42ba96	0.047541223
149	0x3c75481c	0.0149708055
150	0xbdc30cb4	-0.09523907
151	0xbd14e69d	-0.036352742
152	0x3db92201	0.09039689
153	0x3d6a4cbd	0.05720209
154	0x3dd523ee	0.10407244
155	0x3e1b7528	0.1518141
156	0x3cbb80e9	0.022888618
157	0x3ab5f0a7	0.0013880924
158	0x3c762a5a	0.015024746
159	0x3defb513	0.11704459
160	0x3dd9f8d1	0.10643161
161	0x3ccd84e1	0.025087776
162	0x3d2c3c81	0.04204989
163	0x3d90dbec	0.07073197
164	0x3df0d0fe	0.11758612
165	0x3e19d97e	0.15024373
166	0xbd5be269	-0.05368272
167	0x3d8bca78	0.06825727
168	0x3dae8b40	0.085226536
169	0x3d3f850b	0.04675774
170	0x3df31d63	0.118708394
171	0x3d4ebb4e	0.050471596
172	0xbd3cb110	-0.046067297
173	0x3a93adc0	0.0011266991
174	0x3e3a3709	0.18185057
175	0x3c59bc66	0.013289547
176	0x3cb0cbe5	0.0215816
177	0xbd01e1b6	-0.031709395
178	0x3d321f8e	0.043487124
179	0x3d62a575	0.055333573
180	0x3d4e0e0e	0.050306372
181	0x3e2ced8c	0.16887492
182	0x3dd35052	0.10318054
183	0xbcc43376	-0.02395032
184	0xbcc13e83	-0.023589378
185	0x3c5ab81e	0.013349561
186	0xbd8a17df	-0.06742834
187	0xbc5d0cd2	-0.013491826
188	0x3e40abb3	0.18815498
189	0x3cdc934c	0.026925705
190	0xbdc37a1c	-0.09544775
191	0xbe502200	-0.2032547
192	0x3e068c4b	0.13139455
193	0xbdffb6dd	-0.1248605
194	0xbbd32154	-0.006443182
195	0x3c87cee3	0.016578143
196	0x3dadd638	0.084881246
197	0xbdf136a2	-0.117779985
198	0x3ba7f999	0.00512619
199	0xbc36c270	-0.011154756
200	0x3c41b563	0.011823031
201	0x3daa2d47	0.08309417
202	0xbd38cb63	-0.04511584
203	0x3dde3a41	0.10850955
204	0x3e216c29	0.15763916
205	0xbd357f24	-0.044310704
206	0x3d43ad0d	0.047772456
207	0x3d0ec868	0.03485909
208	0xbc507140	-0.012722313
209	0x3d5dad78	0.05412051
210	0x3ce3a25e	0.027787384
211	0x3d9e37da	0.077254966
212	0x3d3e2936	0.04642602
213	0xbc3f19e4	-0.011663888
214	0x3c0c41aa	0.008560577
215	0x3c859b86	0.01630951
216	0x3d89d81f	0.06730675
217	0xbb6585f9	-0.003502248
218	0xbcbdd5af	-0.023173181
219	0x3b4c3c56	0.0031163893
220	0x3dc2b34f	0.09506857
221	0x3e097c60	0.13426352
222	0x3d7d1f00	0.061797142
223	0x3c97b1d7	0.018517418
224	0x3d3fbd83	0.04681159
225	0xbc44a83d	-0.012003002
226	0x3dd7835d	0.105231024
227	0x3d9dd027	0.077057175
228	0x3cc4e0fe	0.024033066
229	0x3de4eff4	0.1117858
230	0xbe187d9b	-0.14891665
231	0x3b72d1d7	0.0037051344
232	0x3e1a4350	0.1506474
233	0x3d3074e7	0.043080237
234	0xbcc03447	-0.023462428
235	0xbcf75257	-0.03019063
236	0x3cc5b82e	0.024135675
237	0xbd1b4201	-0.037904743
238	0xbd148684	-0.036261097
239	0xbad331c3	-0.0016112853
240	0xbcc47ce9	-0.023985343
241	0xbce1fad0	-0.027585417
242	0x3d50f960	0.051019073
243	0x3dd90303	0.105962776
244	0x3c47d0cf	0.01219578
245	0x3c52b9ab	0.0128616495
246	0x3d90d024	0.0707095
247	0xbdb9cefd	-0.09072683
248	0xbda53353	-0.0806643
249	0x3d99f3ad	0.075171806
250	0xbcf00f0e	-0.029304054
251	0xbdb47a80	-0.088124275
252	0x3d6d1281	0.057878975
253	0x3d9dcfa8	0.07705623
254	0xbce0ff18	-0.027465388
255	0xbe14a3e8	-0.1451565

layers.0.bias f4 [128]
0	0x3d35365d	0.044241298
1	0xbe1021b5	-0.14075358
2	0x3da0c916	0.07850854
3	0x3c2353f8	0.00996875
4	0x3ccff9a3	0.02538759
5	0xbcf84732	-0.030307386
6	0x3e470378	0.19434917
7	0xbe7ece46	-0.24883375
8	0x3dbd507a	0.09243865
9	0xbd965fb0	-0.0734247
10	0x3e646ffa	0.2230834
11	0x3b7cddea	0.003858442
12	0xbe3e2287	-0.18567859
13	0x3e599c1f	0.21250962
14	0x3e02698c	0.12735575
15	0x3e58764d	0.21138878
16	0x3e9ffa5f	0.31245705
17	0xbd37797b	-0.044793587
18	0x3ec35105	0.3814775
19	0xbb8c2543	-0.004276903
20	0xbe7b8db5	-0.24565776
21	0x3e17aaa0	0.14811182
22	0x3dbad18c	0.09121999
23	0x3d9873d0	0.074439645
24	0x3e227ea9	0.1586863
25	0x3dfb30ae	0.12265144
26	0xbe0b4f58	-0.13604486
27	0x3cf4519a	0.029824067
28	0x3e4cf68b	0.20015924
29	0x3e6a736f	0.22895597
30	0x3d078fb9	0.03309605
31	0xbd9b6c67	-0.075890355
32	0x3dac451d	0.0841162
33	0x3de32cee	0.11092554
34	0x3de4cd37	0.11171954
35	0xbe1f4228	-0.1555258
36	0x3d2441ca	0.040101804
37	0x3cf3862d	0.029727066
38	0x3d4ec762	0.050483115
39	0x3caacbd9	0.020849155
40	0x3e3af33e	0.18256852
41	0xbc789749	-0.015172788
42	0xbcd6a97c	-0.026203863
43	0x3d3418e4	0.04396905
44	0x3c828fc7	0.015937699
45	0xbbce9ecb	-0.0063055507
46	0xbbb1bffb	-0.005424497
47	0x3e7d97ce	0.2476494
48	0x3de9419c	0.11389467
49	0x3e1041a5	0.14087541
50	0x3e2c225f	0.16809987
51	0xbe1a8d1d	-0.15092893
52	0xbe33c6dc	-0.17556328
53	0xbdef18c2	-0.11674644
54	0x3d92cd3b	0.07168051
55	0xbe92ed38	-0.2869661
56	0x3e3325f2	0.17494944
57	0x3daba30b	0.08380707
58	0x3e88c5c3	0.2671338
59	0x3e9c29b8	0.3050058
60	0xbd72b4f3	-0.059254598
61	0x3df721e3	0.1206701
62	0xbd4fc8fe	-0.05072879
63	0xbc15b664	-0.009137724
64	0x3cefa18c	0.029251836
65	0x3dffee9a	0.124966815
66	0xbe2c4660	-0.16823721
67	0xbcf12085	-0.029434452
68	0x3e1b0188	0.15137303
69	0x3caf1ad3	0.021375095
70	0xbca29fff	-0.019851683
71	0x3d8a416f	0.06750762
72	0x3e142ffa	0.14471427
73	0xbd0cb91b	-0.034356218
74	0xbddb2a33	-0.10701408
75	0x3dae0464	0.08496931
76	0x3dfbb432	0.12290229
77	0x3debe6b1	0.1151861
78	0x3e1dc374	0.1540659
79	0x3e3b3dd6	0.18285307
80	0xbd344a24	-0.04401602
81	0xbda2f9d8	-0.0795781
82	0x3d9b62b8	0.075871885
83	0x3e02c97a	0.1277217
84	0x3e78d4fd	0.24299999
85	0x3c5852bb	0.013203318
86	0x3d21f516	0.039540373
87	0x3c89858a	0.01678731
88	0xbccbad90	-0.024863034
89	0x3da6826e	0.08130346
90	0x3d1f496d	0.038888384
91	0xbd9904e4	-0.07471636
92	0xbb86c08e	-0.00411231
93	0x3da2f922	0.079576746
94	0xbe34c4b5	-0.17653163
95	0x3dd0cda6	0.10195474
96	0x3cbd61a0	0.02311784
97	0x3d865e1b	0.06560918
98	0x3de7f79f	0.11326527
99	0x3d4374ce	0.047718816
100	0xbcb0b49a	-0.021570493
101	0x3db19662	0.08671261
102	0xbdc20122	-0.09472872
103	0xbe6d8171	-0.23193909
104	0xbe0bd3ed	-0.13655062
105	0x3e32bb74	0.1745432
106	0x3e4aa4fc	0.19789499
107	0x3d5ec5d8	0.054387897
108	0x3d9be990	0.07612908
109	0x3d9e2aa1	0.077229746
110	0x3da613f9	0.08109278
111	0xbb8a0925	-0.004212516
112	0x3e6719b8	0.22568405
113	0xbe7c2865	-0.24624784
114	0xbd59d215	-0.053178865
115	0x3e80d111	0.25159505
116	0xbdb88e2f	-0.09011494
117	0x3d889638	0.06669277
118	0x3e0e8c06	0.13920602
119	0x3e44bdf1	0.19213082
120	0x3df8f260	0.12155604
121	0x3e8fb683	0.28068933
122	0x3d89bd16	0.067255184
123	0x3e028c95	0.1274894
124	0xbc69f6b0	-0.014280006
125	0x3e4b67af	0.19863771
126	0xbd23361c	-0.039846525
127	0xbd671e06	-0.056425117

layers.1.weight f4 [128, 128]
0	0x3b963418	0.004583847
1	0x3dd59787	0.10429292
2	0x3d6290fa	0.05531404
3	0x3de9451e	0.11390136
4	0x3cb3951e	0.02192169
5	0x3d4da9b3	0.050210666
6	0x3c685c48	0.014182158
7	0x3db61e13	0.08892455
8	0x3daa12a0	0.08304334
9	0xbe0e5377	-0.13899027
10	0x3d9fe817	0.078079395
11	0x3dd0d52e	0.10196911
12	0xbce8e530	-0.028429598
13	0x3c87e3ad	0.016588056
14	0xbcef8b2a	-0.029241163
15	0xbd1d3f1b	-0.03839026
16	0x3db3ef22	0.08785845
17	0xbd59962d	-0.053121734
18	0xbd84ec15	-0.064903416
19	0xbdbc2f77	-0.09188741
20	0xbca5ae5c	-0.020224743
21	0x3dc0c107	0.09411817
22	0x3e0f764a	0.14009967
23	0xbc12b893	-0.008955139
24	0xbb476ab5	-0.0030428593
25	0xbd3c6315	-0.04599293
26	0x3da5f8d0	0.08104098
27	0xbd825575	-0.06363956
28	0x3ca893c5	0.020578275
29	0x3c93359c	0.017969899
30	0x3d7c7764	0.061637297
31	0xbd54c13c	-0.051942095
32	0x3cb77b1f	0.022397576
33	0x3d823c19	0.06359119
34	0x3dac4ca1	0.08413053
35	0x3dd4f17c	0.10397622
36	0xbd82742a	-0.06369813
37	0x3d0a8f44	0.033828035
38	0x3a9d9f96	0.001202571
39	0xbe224463	-0.158464
40	0xbe046e0b	-0.12932603
41	0x3da15d2d	0.078791
42	0xbd95fc51	-0.07323516
43	0x3d451a16	0.04812058
44	0xbe02992f	-0.12753747
45	0x3d77de8d	0.060514975
46	0x3d9c0d88	0.076197684
47	0x3d3c98ea	0.046044268
48	0xbd1d0cd6	-0.03834232
49	0xbd90ca43	-0.07069828
50	0xbd2d0551	-0.0422414
51	0x3d2a49b1	0.041574184
52	0xbd353032	-0.044235416
53	0xbda85803	-0.08219912
54	0xbde5b284	-0.1121569
55	0x3d2269fa	0.03965185
56	0xbd32a84a	-0.043617524
57	0x3ca1be4c	0.019744061
58	0x3d89c7af	0.0672754
59	0x3d4f0950	0.05054599
60	0xbc7a024e	-0.015259339
61	0xbcbbec4f	-0.02293983
62	0x3d9b6935	0.07588426
63	0xbd4b3e04	-0.04961969
64	0x3e17dffb	0.14831536
65	0x3df4f53d	0.11960838
66	0x3dc2447d	0.09485719
67	0x3c740e97	0.014896057
68	0x3cfab659	0.030604528
69	0x3d4e0ef8	0.050307244
70	0xbd945c04	-0.07244113
71	0xbda9f79f	-0.08299183
72	0xbd6fb0ad	-0.0585181
73	0x3d1fb283	0.0389886
74	0x3e0c692c	0.13711995
75	0x3d8a8c23	0.0676501
76	0xbcbb8ea6	-0.022895169
77	0x3c0b8be7	0.008517242
78	0x3e06083f	0.13089083
79	0xbd86d184	-0.06582931
80	0x3d52175b	0.051291805
81	0xbdba7a0a	-0.09105308
82	0x3c38cedd	0.011279789
83	0x3d4354b1	0.04768819
84	0xbd429c78	-0.0475125
85	0xbe01dcb4	-0.12681848
86	0xb88c68aa	-6.6952154e-05
87	0x3e0d8b38	0.13822639
88	0xbde95545	-0.11393217
89	0x3dad0092	0.084473744
90	0x3cbadc5c	0.022810154
91	0x3da334c4	0.079690486
92	0xbba6f0ad	-0.0050946088
93	0x39dd1cb5	0.00042173793
94	0x3d9d8d16	0.07692926
95	0x3c133a3a	0.00898605
96	0x3e3afe5b	0.18261091
97	0xbd83f2b3	-0.064427756
98	0x3d804fc8	0.06265217
99	0x3c2a1e3a	0.010383183
100	0xbc648311	-0.013947264
101	0x3d864bd3	0.06557431
102	0xbd9b6d3a	-0.07589193
103	0x3d91c8d1	0.07118381
104	0xbd6bfa82	-0.05761195
105	0xbae00258	-0.0017090542
106	0xbd32451d	-0.043522943
107	0x3dbb20aa	0.091370896
108	0xbe2cd501	-0.1687813
109	0x3d13c7d8	0.036079258
110	0x3d2e9f58	0.04263243
111	0x3d3653fa	0.04451368
112	0x3cf31763	0.029674238
113	0x3dc6f7e2	0.09715249
114	0xbc9da8f9	-0.019245612
115	0xbdc776dd	-0.09739468
116	0xbd039bdf	-0.032131072
117	0x3dbd1cbe	0.09233998
118	0xbd8b873a	-0.06812902
119	0x3db14fa0	0.086577654
120	0x3b8c5c6b	0.004283478
121	0xbd5955b5	-0.053060252
122	0x3d92b19c	0.071627825
123	0x3d8e0d33	0.06936111
124	0xbe40fc20	-0.18846178
125	0x3b3bbe90	0.002864752
126	0xbdfba0bb	-0.12286516
127	0x3cdcf4f7	0.026972277
128	0x3e0658eb	0.13119857
129	0x3d4ae1ea	0.049531855
130	0xbd9a0229	-0.07519943
131	0x3da0d80b	0.07853707
132	0x3d296638	0.04135725
133	0xbd3bfff6	-0.0458984
134	0xbe08d780	-0.13363457
135	0xbd8bb3e2	-0.06821419
136	0x3d82a971	0.06379975
137	0xbe3c8a36	-0.18412098
138	0x3dc08334	0.09400025
139	0x3c8dd4e7	0.017313434
140	0xbc7538e9	-0.014967182
141	0xbdc6c570	-0.09705627
142	0x3cbf6b60	0.02336663
143	0xbb8ca6ba	-0.0042923363
144	0x3b3d93c9	0.0028927198
145	0xbc3159f4	-0.010824669
146	0x3c305232	0.010761784
147	0xbdf5a410	-0.11994183
148	0x3d463ac1	0.048395876
149	0xbd9039ac	-0.0704225
150	0x3e05390e	0.13010046
151	0x3dd5a5e2	0.1043203
152	0xb9b7550c	-0.00034967845
153	0xbe142e88	-0.14470875
154	0xbd26209a	-0.040558435
155	0xbc28dcfc	-0.010306593
156	0x3c52f550	0.01287587
157	0x3d01da7e	0.03170251
158	0x3e114b28	0.14188826
159	0x3e05a011	0.13049342
160	0xbdaf7265	-0.08566741
161	0xbd4db779	-0.0502238
162	0x3d032a36	0.032022677
163	0x3e0eef79	0.13958539
164	0xbe234256	-0.15943274
165	0x3c735def	0.0148539385
166	0xbcc5f71e	-0.024165686
167	0xbe075cda	-0.13219014
168	0xbcb8d2af	-0.0225614
169	0x3d47f991	0.04882199
170	0x3d62b063	0.055343997
171	0xbca6cf5b	-0.020362547
172	0xbd60206d	-0.054718424
173	0xbe46b808	-0.1940614
174	0x3e0aef9d	0.13567968
175	0xbd9ed5ab	-0.07755598
176	0x3d44e2a0	0.04806769
177	0xbdb26ca5	-0.087121285
178	0xbc644b0d	-0.013933909
179	0x3dc7279a	0.0972435
180	0x3dd3a11a	0.10333462
181	0x3d0eae43	0.034834158
182	0xbdada7de	-0.08479284
183	0x3dae834d	0.085211374
184	0x3d66abb2	0.056316085
185	0xbdad53e9	-0.0846327
186	0xbd1316b8	-0.03591034
187	0x3d0dfb64	0.034663573
188	0x3ca8b804	0.020595558
189	0xbdae37c5	-0.08506731
190	0x3d5660b7	0.05233833
191	0xbdad27bc	-0.08454844
192	0x3d05d530	0.032674015
193	0x3c7663bb	0.015038426
194	0x3d8532fb	0.065038644
195	0x3d2dbe2c	0.04241769
196	0xbc6f14cc	-0.014592361
197	0xbdae632e	-0.08515011
198	0xbd57bcc7	-0.052670266
199	0x3dd4320e	0.1036111
200	0xbdbff8aa	-0.09373601
201	0x3d9ee3d1	0.07758296
202	0xbd27579e	-0.040855043
203	0xbd7bbcd5	-0.06145938
204	0x3db4ad4d	0.08822117
205	0xbc13488a	-0.008989463
206	0xbc120b46	-0.008913821
207	0x3d2ffbda	0.042964794
208	0xbca449ca	-0.020054717
209	0xbdd53acd	-0.10411606
210	0xbe60f117	-0.21966968
211	0x3e223803	0.1584168
212	0x3da497a7	0.08036738
213	0xbd2d99dc	-0.04238306
214	0xbdac9b49	-0.08428056
215	0xbe08b39f	-0.1334977
216	0xbb305e0f	-0.0026911532
217	0xbd2328c1	-0.039833788
218	0xbc7517a6	-0.0149592515
219	0xbd5e69ba	-0.054300047
220	0x3cdd4850	0.02701202
221	0xbd356465	-0.044285197
222	0xba284904	-0.00064195716
223	0xbe3cf537	-0.18452917
224	0x3d883a54	0.0665175
225	0xbe248b1b	-0.1606869
226	0x3d1e7fa7	0.038695958
227	0x3cd2c558	0.025728866
228	0x3c77e4e1	0.015130253
229	0x3c80ecbd	0.015737886
230	0xbcbe0889	-0.02319743
231	0x3e06f45f	0.13179158
232	0xbe148048	-0.1450206
233	0xbd85dba4	-0.06536034
234	0xbb539378	-0.0032283943
235	0x3d429249	0.04750279
236	0xbe028d70	-0.12749267
237	0xbdb8970c	-0.09013185
238	0x3e1a02d3	0.1504014
239	0xbbe6375a	-0.0070256414
240	0x3d1c3958	0.038140625
241	0x3ded6456	0.11591403
242	0x3d90edca	0.07076605
243	0xbe43fe24	-0.19139916
244	0xbcb491f0	-0.022042245
245	0xbcefcddb	-0.029272964
246	0x3d227b24	0.039668217
247	0xbd23dd63	-0.040006053
248	0xbe32b6b0	-0.17452502
249	0xbadb9334	-0.0016752244
250	0xbd3988a1	-0.045296315
251	0xbc4ef6de	-0.0126321
252	0xbdfd7859	-0.1237647
253	0xbd63795e	-0.055535667
254	0xbd266ec4	-0.040632978
255	0xbdac2d60	-0.08407092

layers.1.bias f4 [128]
0	0xbd6cafe4	-0.05778493
1	0x3dac30a3	0.08407714
2	0x3e6b1b83	0.22959714
3	0x3d8c5ad9	0.06853265
4	0xbc94d4c9	-0.01816787
5	0x3e8914b2	0.26773602
6	0x3dc82fe7	0.09774762
7	0xbc0070e0	-0.0078394115
8	0x3d186cef	0.037213262
9	0x3d6afb47	0.057368543
10	0x3d18e9ad	0.037332226
11	0x3d853f2c	0.0650619
12	0x3d8543aa	0.065070465
13	0x3e3b2ce8	0.18278849
14	0x3c314ff0	0.010822281
15	0xbd559e48	-0.052152902
16	0xbb8d3d48	-0.004310284
17	0x3d9a90e5	0.07547168
18	0xbcf428ab	-0.029804548
19	0xbe164c8b	-0.14677636
20	0xbd41d5fc	-0.047323212
21	0xbde022d9	-0.10944147
22	0x3de043a9	0.10950405
23	0xbcc96130	-0.024582475
24	0xbdd95a0a	-0.10612877
25	0x3de25953	0.110521935
26	0x3e10380b	0.14083879
27	0x3e40a5a5	0.18813188
28	0x3e090e23	0.13384299
29	0xbdfe131e	-0.1240599
30	0x3d92fcdb	0.071771346
31	0x3dd306a6	0.103040025
32	0xbd911cb9	-0.070855565
33	0x3dd07fcd	0.10180626
34	0xbc3b2999	-0.011423492
35	0x3d86fd5a	0.06591292
36	0x3e4f5c1b	0.20249979
37	0x3e313479	0.17305173
38	0x3d7c2794	0.061561182
39	0xbdc4ca91	-0.09608949
40	0x3d77ee0c	0.060529754
41	0x3cce9bfc	0.025220864
42	0x3d980209	0.07422263
43	0x3db5d836	0.088791296
44	0x3b845339	0.004038241
45	0x3e02f6aa	0.12789407
46	0x3d89d9f4	0.067310244
47	0x3da13c31	0.07872809
48	0xbdfc805c	-0.1232917
49	0xbda6fac5	-0.08153299
50	0xbd0db8e5	-0.034600157
51	0xbd229040	-0.03968835
52	0x3d33e7a6	0.04392209
53	0xbe53bccf	-0.20677494
54	0xbd81b79b	-0.06333848
55	0x3d6aa448	0.057285577
56	0x3dae1748	0.08500534
57	0xbc59e5e7	-0.013299442
58	0xbe4e4d78	-0.2014674
59	0xbdae42b5	-0.08508817
60	0xbdc8c600	-0.098033905
61	0xbcbc722f	-0.023003666
62	0xbb102c9d	-0.0021999248
63	0x3d451ae7	0.04812136
64	0x3da2b889	0.079453535
65	0xbdb3c3b7	-0.08777564
66	0xbdf3bd54	-0.11901346
67	0x3e22ea60	0.1590972
68	0x3e97224b	0.2951835
69	0x3e0fc74a	0.14040866
70	0x3e37b011	0.17938258
71	0xbe0c48ac	-0.13699597
72	0xbda10aff	-0.078634255
73	0x3e2f63be	0.17127892
74	0x3e6868e4	0.22696263
75	0xba513feb	-0.0007982242
76	0x3e62d926	0.22153148
77	0x3e6dbcb9	0.23216523
78	0x3daecb13	0.08534827
79	0x3d54392e	0.051812343
80	0x3e215ac4	0.1575728
81	0x3e0f1a99	0.1397499
82	0x3db18ae9	0.08669073
83	0x3d23a9ff	0.039957043
84	0x3d1c3589	0.038136993
85	0x3dad431f	0.08460068
86	0xbc9db60f	-0.019251851
87	0x3e52c7d5	0.20584042
88	0x3ddc6aa6	0.10762529
89	0xbdf2036b	-0.11817058
90	0x3df14f79	0.11782736
91	0xbca8c267	-0.02060051
92	0x3e08e47f	0.13368414
93	0x3be19e0f	0.006885297
94	0x3e05bdb8	0.13060653
95	0x3db1dfe3	0.08685281
96	0x3cc856e9	0.024455504
97	0x3dd2a3bd	0.10285137
98	0x3cb47a01	0.022030832
99	0x3d4c402a	0.04986588
100	0xbdbbce90	-0.09170258
101	0x3d22a227	0.03970542
102	0x3e1d61b3	0.153693
103	0xbdc26ad9	-0.09493036
104	0x3da371ff	0.079807274
105	0x3d507985	0.05089714
106	0x3daaf4a1	0.083474405
107	0xbc09c588	-0.0084089115
108	0x3b8d6338	0.0043148063
109	0x3d625ce5	0.055264372
110	0xbd91be2a	-0.07116349
111	0xbd1a2c85	-0.037640113
112	0x3e440969	0.19144215
113	0xbd0d854e	-0.034550957
114	0x3d977792	0.07395853
115	0xbe61f866	-0.22067413
116	0x3dc152aa	0.09439595
117	0x3df71ae8	0.12065679
118	0xbda34658	-0.079724014
119	0xbccb5421	-0.02482039
120	0xbe1bdeeb	-0.15221755
121	0xbde6f5f4	-0.112773806
122	0xbccfab2c	-0.025350176
123	0x3e8280e9	0.25488976
124	0x3ea4994b	0.32148203
125	0xbd93f756	-0.0722491
126	0x3d84252b	0.06452402
127	0x3d1a0aa4	0.037607804

layers.2.weight f4 [128, 128]
0	0x3d290e4a	0.041273393
1	0x3d44cff7	0.048049893
2	0x3cdadafe	0.026715752
3	0x3d4fd97b	0.050744515
4	0x3d6b9fe0	0.057525516
5	0x3da29fdf	0.07940649
6	0x3e0979af	0.13425325
7	0x3dbe544c	0.09293422
8	0x3e5cf50d	0.21577854
9	0x3e0c4634	0.13698655
10	0x3d698089	0.057007346
11	0xbe21875f	-0.15774296
12	0x3d1b15e2	0.037862666
13	0x3dc01eb6	0.09380858
14	0x3d05acf7	0.032635655
15	0x3b8db4db	0.004324538
16	0x3de325bf	0.11091184
17	0x3e21c8ea	0.15799299
18	0xbe00b892	-0.12570408
19	0xbc7cf744	-0.015439812
20	0xbe213d70	-0.15746093
21	0x3d51b9e7	0.05120268
22	0x3ca717d9	0.020397114
23	0xbc3aee94	-0.0114094205
24	0x3b1d304a	0.0023985081
25	0x3e087b75	0.13328345
26	0x3e58df46	0.21178922
27	0xbe07462f	-0.13210367
28	0x3d78b11c	0.06071578
29	0x3e28e74b	0.16494481
30	0x3d8f5d85	0.07000259
31	0x3e8133f9	0.25234964
32	0x3de13d4f	0.10998022
33	0x3e4714a5	0.19441469
34	0x3e129c9b	0.14317553
35	0xbdb27cd9	-0.08715219
36	0x3e074c7d	0.13212772
37	0x3dbfc3ee	0.093635425
38	0xbc5922a7	-0.013252891
39	0xbc0c2b3c	-0.00855523
40	0x3e0690c6	0.13141164
41	0x3eb7f55e	0.35929388
42	0x3b91c6f7	0.0044487673
43	0x3e2c45cb	0.16823499
44	0x3d2aa1d5	0.04165824
45	0xbe2b63a7	-0.16737233
46	0xbec8c278	-0.39210868
47	0xbd0703ce	-0.032962613
48	0xbe384611	-0.17995478
49	0x3906093a	0.00012782673
50	0xbd22757f	-0.039662834
51	0x3d88e744	0.066847354
52	0x3e2c2d3d	0.16814132
53	0x3c685fe3	0.014183017
54	0x3e0f436c	0.13990563
55	0x3f00dd40	0.503376
56	0x3db554cc	0.08854064
57	0x3e258acd	0.1616623
58	0xbd046067	-0.0323185
59	0xbe94268f	-0.28935668
60	0xbcf119dd	-0.029431278
61	0x3bab07b0	0.0052194223
62	0x3c9ffa96	0.019528668
63	0xbd41e38c	-0.047336146
64	0x3ddb5ecd	0.10711441
65	0x3c4c21bd	0.012459216
66	0xbc8783d5	-0.016542355
67	0xbbd0ae1c	-0.0063684117
68	0x3e08f91d	0.13376279
69	0x3dc48355	0.09595362
70	0x3d96ff6e	0.07372938
71	0x3e09b0cb	0.13446347
72	0x3d5aa6a9	0.053381596
73	0x3d6620e2	0.056183703
74	0xbe6de725	-0.23232706
75	0x3dc5c420	0.096565485
76	0x3e006d5b	0.12541716
77	0x3d91ab6a	0.07112773
78	0x3cbd6ced	0.023123229
79	0xbd6b8294	-0.057497576
80	0x3d40206e	0.046905927
81	0x3e3559ef	0.17710088
82	0x3c58cc70	0.013232335
83	0xbdebc743	-0.115126155
84	0x3dc72a42	0.09724857
85	0xbef1e90e	-0.4724812
86	0x3e0c05ce	0.1367409
87	0x3d41e786	0.04733994
88	0xbcd24e65	-0.025672147
89	0xbe183122	-0.14862493
90	0x3cf6b25a	0.030114342
91	0xbe2a5f76	-0.16637978
92	0x3e24cff2	0.1609495
93	0x3d8c51c6	0.068515345
94	0x3e28f75d	0.16500612
95	0xbe0ce94e	-0.13760874
96	0x3d82e057	0.06390446
97	0x3d8f5fc1	0.070006855
98	0xbd7f962a	-0.062399067
99	0x3dd5217d	0.10406778
100	0x3c2f33fe	0.010693548
101	0xbc91694b	-0.017750403
102	0x3c807dd5	0.015685001
103	0xbe6c773c	-0.2309236
104	0x3d340e59	0.043958995
105	0xbe5fe0b4	-0.21863061
106	0x3dbbff37	0.09179538
107	0x3dee7a99	0.116444774
108	0x3db45260	0.08804774
109	0x3e1d35bc	0.1535253
110	0xbdd9b31e	-0.10629867
111	0x3de02964	0.10945395
112	0x3dca8263	0.098881505
113	0xbca12193	-0.01966933
114	0x3e9474e2	0.28995425
115	0xbe27a13d	-0.16370101
116	0x3bca26da	0.0061691822
117	0x3e07544a	0.13215747
118	0x3d880d33	0.066431426
119	0xbdc68ba9	-0.09694607
120	0x3d9d04ac	0.07666907
121	0xbc888174	-0.01666329
122	0x3de101af	0.10986649
123	0x3d87e8e7	0.066362195
124	0xbe337a14	-0.17527038
125	0xbdabd4b7	-0.083901815
126	0xbc9196e6	-0.01777215
127	0x3cddad9a	0.027060319
128	0xbdb808f4	-0.08986083
129	0x3c827f5c	0.01592987
130	0x3d5d3f92	0.054015703
131	0xbdcfc1e0	-0.101444006
132	0xbe0f71af	-0.1400821
133	0x3d921de2	0.07134606
134	0xbdb79d1d	-0.08965514
135	0xbdb2430b	-0.08704194
136	0xbdaa1a7e	-0.08305834
137	0xbd9c47f9	-0.07630915
138	0xbe2e293a	-0.17007914
139	0x3e1cd744	0.15316492
140	0x3d98f999	0.07469482
141	0xbc356ff7	-0.011074058
142	0xbd695ab6	-0.056971274
143	0xbe6cf07d	-0.23138614
144	0xbe40e4a9	-0.18837227
145	0xbe82b2f2	-0.2552715
146	0x3e1dfe90	0.15429139
147	0xbe0a721a	-0.13520089
148	0xbdab388b	-0.08360394
149	0x3d063d0c	0.032773063
150	0x3cfb5783	0.030681377
151	0x3d8b1450	0.06790984
152	0xbdc92714	-0.09821907
153	0x3d8fbfdd	0.07019017
154	0x3cac5008	0.021034256
155	0x3dbb9aa3	0.09160354
156	0xbdd9e4bd	-0.106393315
157	0xbd8a3c79	-0.067498155
158	0xbdc6da07	-0.09709554
159	0xbe107c51	-0.14109923
160	0xbda37b6e	-0.07982527
161	0xbd43d9ec	-0.04781525
162	0xbc3c7a3d	-0.011503753
163	0xbce90f92	-0.028449807
164	0x3df4f5ce	0.11960946
165	0x3e4d171c	0.20028347
166	0xbd45cc41	-0.048290495
167	0xbb2debe0	-0.0026538298
168	0x3d8238ad	0.06358466
169	0xbd9dd0c8	-0.077058375
170	0xbe7149c8	-0.23563302
171	0xbda3dec4	-0.080014735
172	0x3cec7892	0.028866086
173	0x3e8ca044	0.27466023
174	0xbe3a5af6	-0.18198761
175	0xbc8d6021	-0.017257752
176	0xbb9d7155	-0.00480477
177	0xbd899a40	-0.06718874
178	0x3d10c55d	0.03534447
179	0x3e17893a	0.14798442
180	0xbe977a73	-0.2958561
181	0x3cc5b7a0	0.02413541
182	0xbe1899a8	-0.14902365
183	0xbd6ba196	-0.057527147
184	0xbe1bf73d	-0.15231033
185	0xbaf2e7de	-0.0018532237
186	0xbd2d3221	-0.042284135
187	0xbd759ccf	-0.059963997
188	0xbe270dfa	-0.16313925
189	0x3c1e40a2	0.009658964
190	0xbe0b0d5b	-0.13579313
191	0xbe26843e	-0.16261384
192	0xbd68eba2	-0.056865342
193	0xbddbdc88	-0.107354224
194	0x3d793bba	0.060847975
195	0x3e2bd4a7	0.16780339
196	0x3d9ed79c	0.07755968
197	0xbd5c3ce7	-0.05376902
198	0x3e3d74db	0.18501608
199	0xb8ed7664	-0.000113230926
200	0x3d038145	0.032105703
201	0xbcf02b98	-0.029317662
202	0x3d04a568	0.032384306
203	0xbdd543d5	-0.104133286
204	0x3d6b2fc2	0.057418592
205	0x3daba8eb	0.08381828
206	0x3cfe62c7	0.03105296
207	0xbd041238	-0.032243937
208	0x3e0e3d6b	0.13890617
209	0xbd8f9273	-0.07010355
210	0x3d1ced84	0.03831245
211	0x3dad1991	0.08452142
212	0xbdaa5e00	-0.0831871
213	0xbe604f53	-0.2190526
214	0xbd3ebeb6	-0.046568595
215	0xbc31a996	-0.010843655
216	0x3e12b211	0.1432574
217	0x3ded28e5	0.11580066
218	0x3d17aaaf	0.03702801
219	0xbd84221e	-0.0645182
220	0xbd51a53b	-0.051182967
221	0xbd0e023b	-0.034670096
222	0x3b3f01af	0.002914529
223	0x3da344c6	0.07972102
224	0xbd50e7f7	-0.05100247
225	0xbdedafa7	-0.11605769
226	0x3e376c50	0.17912412
227	0xbe011bb6	-0.12608227
228	0xbd957ebd	-0.07299564
229	0xbd21e569	-0.039525423
230	0x3d8cea3c	0.06880614
231	0xbe300816	-0.17190585
232	0xbd20d168	-0.039262205
233	0x3e466505	0.19374473
234	0x3d9a4792	0.07533182
235	0xbe19cc77	-0.15019403
236	0x3c7aa468	0.015297987
237	0xbde8a8dd	-0.11360333
238	0x3dd67b06	0.104726836
239	0xbdf7f843	-0.12107899
240	0x3e0ff60b	0.14058702
241	0xbdabed95	-0.083949246
242	0xbe333a09	-0.17502607
243	0x3c214dd3	0.009845215
244	0x3d7ff3ac	0.062488243
245	0x3d2b191c	0.041771993
246	0x3d07a5d5	0.033117134
247	0x3ddbe527	0.10737067
248	0xbd8a042f	-0.06739079
249	0x3e1f196b	0.1553704
250	0xbdf238b5	-0.11827222
251	0x3d80124c	0.0625349
252	0x3e5cffff	0.2158203
253	0x3d06a5f4	0.03287311
254	0x3cb3c6a7	0.02194531
255	0xbec9ed47	-0.3943884

layers.2.bias f4 [128]
0	0x3d1a4bf8	0.037670106
1	0x3e6d38bb	0.23166172
2	0xbe3688e5	-0.17825659
3	0xbe491f0f	-0.19640754
4	0x3d65fd1a	0.05614958
5	0x3e9e0f81	0.30871204
6	0x3d985273	0.07437601
7	0x3ddb3cd1	0.10704959
8	0x3df83921	0.121202715
9	0x3c9edc0a	0.019392032
10	0x3d73ca5a	0.05951915
11	0x3e95c397	0.29250786
12	0x3de2460b	0.11048516
13	0x3e636278	0.22205532
14	0x3c15aaf4	0.009134997
15	0x3d99d88c	0.07512006
16	0xbbd81c73	-0.0065951883
17	0xbb3a7ad6	-0.0028454564
18	0xbd87199a	-0.0659668
19	0x3c15267f	0.009103416
20	0xbe2db17e	-0.16962239
21	0x3ea13bc1	0.314909
22	0x3b178908	0.0023122448
23	0x3d635f76	0.05551096
24	0xbc349c88	-0.011023648
25	0x3d82b388	0.06381899
26	0x3e44aae4	0.19205815
27	0x3dc95cc7	0.09832149
28	0x3dccd309	0.10001189
29	0x3d63ebb0	0.05564469
30	0x3d4ff64d	0.050772
31	0x3de50f94	0.11184612
32	0x3e12c368	0.14332354
33	0xbe8f2f6b	-0.27965865
34	0x3b8054b8	0.0039163493
35	0x3ccefb6e	0.025266375
36	0xbdcef5fc	-0.101055115
37	0x3dccb00d	0.099945165
38	0x3ca70503	0.020388132
39	0xbe175a86	-0.14780626
40	0x3e962477	0.29324695
41	0x3c7381cc	0.014862489
42	0xbd9d775e	-0.07688783
43	0xbca9f132	-0.020744894
44	0xbd3ac88f	-0.045601424
45	0xbc41b52b	-0.011822979
46	0x3e677cd3	0.2260621
47	0xbdbec8d3	-0.09315648
48	0x3eb810da	0.35950357
49	0xbbe8b307	-0.00710142
50	0xbd9587fa	-0.07301326
51	0x3da843cb	0.082160555
52	0x3ea16177	0.31519672
53	0x3dc8be7a	0.098019555
54	0xbe588d1e	-0.21147582
55	0xbd91858e	-0.07105552
56	0xbdc2ed39	-0.09517903
57	0x3e77184f	0.24130367
58	0x3e5c359c	0.21504825
59	0xbe11c8c8	-0.14236748
60	0x3e01abbf	0.12663172
61	0x3e2b8b18	0.16752279
62	0x3e06dcdd	0.1317019
63	0x3dff9059	0.12478704
64	0x3dbb7972	0.09154023
65	0x3d3e8aa8	0.04651895
66	0xbda29717	-0.07938974
67	0x3da3f809	0.08006293
68	0xbc8eb4c6	-0.017420184
69	0x3ec76732	0.3894592
70	0x3da5d70e	0.08097659
71	0xbe2868e7	-0.16446267
72	0xbe181d8f	-0.14855026
73	0x3d00f126	0.031479977
74	0x3d862455	0.065498985
75	0x3c3a5caf	0.011374637
76	0xbdfdf686	-0.12400536
77	0x3c69cf15	0.014270564
78	0xbabf4fef	-0.0014595966
79	0x3d6d1ef5	0.05789085
80	0xbbf1fc2c	-0.0073847976
81	0xbd35b595	-0.044362623
82	0x3e452f23	0.19256262
83	0x3d24b522	0.040211804
84	0x3d2856cb	0.041098397
85	0xbdd3d1c1	-0.10342742
86	0xbdad2aae	-0.08455406
87	0xbd30232b	-0.04300229
88	0x3e4fbb7d	0.20286365
89	0x3cd93417	0.026514096
90	0x3d90da06	0.07072835
91	0xbd8570af	-0.06515633
92	0x3d863ed1	0.0655495
93	0x3e0acb0c	0.13554019
94	0x3ce642fc	0.028108113
95	0x3df32d4f	0.11873876
96	0x3d298a42	0.04139162
97	0x3e6c3a16	0.23069033
98	0xbda46f22	-0.080290094
99	0xbddc840e	-0.10767375
100	0x3eb8fdde	0.36131185
101	0xbddd3914	-0.108019024
102	0x3dba4253	0.090946816
103	0xbdcc15e0	-0.0996511
104	0xbc09718a	-0.008388886
105	0x3db38d83	0.087672256
106	0xbcaf6537	-0.021410568
107	0x3ec69888	0.38788247
108	0xbd03d217	-0.03218278
109	0x3e73a22b	0.23792331
110	0xbd121e40	-0.03567338
111	0x3dc655f2	0.096843615
112	0x3dc4522f	0.09585988
113	0xbdd35d0a	-0.1032048
114	0x3db275ff	0.08713912
115	0xbc18604e	-0.009300305
116	0x3e8dde80	0.27708817
117	0xbc1356bb	-0.008992846
118	0xbdb27598	-0.087138355
119	0x3da4afef	0.08041369
120	0x3d09b907	0.03362372
121	0x3d1b5e9f	0.037932035
122	0xbde4772b	-0.11155542
123	0x3e2a27d5	0.16616757
124	0x3e1060e7	0.14099465
125	0xbcd68489	-0.026186245
126	0x3d85f160	0.06540179
127	0x3e947ea0	0.29002857

layers.3.weight f4 [1, 128]
0	0x3e15680d	0.14590473
1	0xbe4f1849	-0.20224108
2	0x3edf6005	0.43627945
3	0xbe833185	-0.25623718
4	0xbe7cdf58	-0.24694574
5	0xbecb2b48	-0.39681458
6	0x3e290f71	0.16509797
7	0x3e149364	0.1450935
8	0x3da49dc4	0.08037904
9	0xbe897c5e	-0.26852697
10	0x3e48ce6b	0.19609992
11	0xbed748bd	-0.42047682
12	0x3e047d04	0.12938315
13	0xbeb34143	-0.35010728
14	0xbea662fd	-0.32497397
15	0x3e34988f	0.17636321
16	0xbe96e635	-0.2947251
17	0x3e3b77e3	0.18307452
18	0x3e8e954a	0.27848274
19	0x3e0e2b70	0.13883758
20	0xbe4e37e9	-0.20138516
21	0xbe8a3f8f	-0.27001616
22	0x3e87ad4f	0.2649941
23	0x3f07dbbb	0.5306966
24	0x3e027997	0.12741695
25	0x3dd310fb	0.10305973
26	0xbdba2dcb	-0.090907656
27	0x3db25a8d	0.087086774
28	0x3e41d802	0.18930057
29	0x3e129f3e	0.14318559
30	0xbf05c16d	-0.5224827
31	0xbeb35b11	-0.35030416
32	0xbf085d1f	-0.5326709
33	0xbea067ce	-0.31329197
34	0x3daa80ca	0.08325346
35	0x3e69329d	0.22773214
36	0x3e11ecd2	0.14250496
37	0x3e2907ef	0.16506933
38	0x3e5153a5	0.20442064
39	0xbbba251a	-0.0056806924
40	0xbeb7ba35	-0.35884252
41	0xbe8c1b89	-0.27364758
42	0x3c3acfdf	0.011402099
43	0x3e183dae	0.14867279
44	0xbe8b65e9	-0.2722619
45	0xbef1bb43	-0.47213182
46	0xbe9b943e	-0.30386537
47	0xbd8a5103	-0.06753733
48	0xbee51182	-0.4473992
49	0x3e2b23d7	0.1671289
50	0x3ecc97a6	0.3995945
51	0xbeb3c4ae	-0.35110992
52	0xbefb4574	-0.49076426
53	0x3df76d30	0.12081373
54	0x3eec5d9a	0.46165162
55	0xbcf1c24b	-0.029511591
56	0x3be87b4b	0.007094776
57	0xbede831e	-0.4345941
58	0xbe9db9c2	-0.30805784
59	0x3efdbd57	0.49558517
60	0x3e29f3c3	0.16596894
61	0xbed7c575	-0.42142835
62	0x3e23cf6a	0.15997091
63	0x3dff5dfe	0.124690995
64	0x3e16e5b2	0.1473606
65	0x3e8ed064	0.27893364
66	0xbd1edebd	-0.03878664
67	0x3db84abf	0.08998632
68	0xbc9f43c3	-0.019441491
69	0xbee5731e	-0.4481439
70	0x3ea6b6eb	0.3256143
71	0x3ef303e3	0.47463903
72	0xbece2b48	-0.40267396
73	0x3e3a14ac	0.18171948
74	0xbdc42fbf	-0.09579419
75	0x3e464b5b	0.19364683
76	0x3de4a20c	0.111637205
77	0x3eba40bf	0.36377522
78	0x3e854fb6	0.26037377
79	0x3d9ed0c3	0.07754662
80	0x3e4a932d	0.19782706
81	0x3dfc263a	0.12311979
82	0xbebad2e8	-0.36489034
83	0x3de2786c	0.11058125
84	0xbe9ad4d1	-0.3024049
85	0xbe9748c3	-0.295477
86	0xbdd2a561	-0.1028545
87	0x3e0b3646	0.13594922
88	0xbe934b39	-0.28768328
89	0x3dd92fe9	0.10604841
90	0x3e21be18	0.15795171
91	0xbe439009	-0.19097914
92	0x3e4ad27a	0.19806853
93	0xbdad044c	-0.08448085
94	0x3e2d8faf	0.16949342
95	0x3db03410	0.0860368
96	0x3e03c123	0.12866645
97	0xbeaa11ef	-0.33216807
98	0x3eb29979	0.34882715
99	0x3ea5a132	0.32349545
100	0xbebf6e98	-0.37389064
101	0x3cc285a4	0.023745365
102	0x3e5b39fd	0.2140884
103	0x3ecede62	0.4040404
104	0x3e220afa	0.158245
105	0x3dfe74e9	0.124246426
106	0xbc7734d3	-0.015088278
107	0xbf5f566a	-0.8724123
108	0x3e886586	0.26639956
109	0xbed9527a	-0.42445737
110	0xbe67e010	-0.22644067
111	0x3de143c6	0.10999255
112	0x3e123b65	0.1428047
113	0x3c387717	0.011258862
114	0x3dd5df9b	0.1044304
115	0x3e00f7de	0.12594554
116	0xbef71067	-0.48254701
117	0x3e84e0e8	0.2595284
118	0x3b0d816d	0.0021592036
119	0x3e0f30e3	0.13983493
120	0xbe217b16	-0.1576961
121	0xbe551e99	-0.20812453
122	0xbd06dbdc	-0.032924518
123	0xbe945d08	-0.28977227
124	0xbf194962	-0.598776
125	0xbef6f1a8	-0.48231244
126	0x3dfe73b3	0.124244116
127	0xbe9f7bcc	-0.31149137
