new_models/base+wp_16849288/qf4_target_final.pth (torch, 186668 bytes, 7 tensors)

layers.0.weight f4 [128, 98]
0.0757078 -0.021226965 -0.04584246 -0.017691566 0.13923505 0.037532132 -0.105380684 0.03225038
-0.110347435 -0.17783633 -0.06320963 -0.10102334 -0.15992916 -0.17439988 -0.021468429 0.043916717
0.11327783 -0.071198516 -0.053670213 -0.07044949 -0.0008898188 -0.04764793 -0.0052302475 -0.05285356
-0.0933324 -0.111770034 -0.21158923 -0.14834872 -0.1989756 -0.17726015 -0.13907942 -0.20758966
-0.023175808 0.10506968 -0.05157396 -0.027875613 -0.08418536 0.066075675 0.06309983 -0.010569916
-0.12713487 -0.021119194 -0.13382308 -0.08944931 -0.07280712 -0.002583035 -0.033550102 -0.10403689
-0.09950044 -0.017303985 0.20464027 -0.00035521903 0.10904149 0.037489943 0.039373215 -0.067966454
-0.0026043395 -0.00624745 -0.06644862 -0.10131226 -0.09539532 0.03366915 -0.0028188848 0.02228136
-0.083636664 -0.041636243 0.059656218 0.11132378 -0.017352164 0.14000228 -0.07163531 -0.15134044
0.17270848 0.10198345 0.09282834 0.07219748 0.039612718 0.07453613 -0.16906077 0.15623829
-0.0109748645 -0.12006253 0.13788664 0.10799995 -0.052695177 -0.04302612 0.1490649 -0.039297678
-0.19226405 0.10843124 0.025533259 -0.016833503 0.37391195 0.13853398 0.0576276 -0.21527837
-0.0036137179 -0.057412345 0.02885483 0.015370109 0.032242514 -0.07895045 0.108668156 0.14210804
0.0977354 0.025755977 -0.023239013 0.048986077 0.072258 0.075633876 0.061373986 -0.07843419
0.0059981397 -0.088712834 0.039787248 0.04344753 0.0808799 0.0071328976 0.0034629288 0.03719642
-0.040141795 -0.018856807 0.06822063 0.052956637 0.086188674 0.0025474275 0.12484257 0.05828946
0.09843048 0.07851255 -0.042218864 -0.055164028 0.0074357484 -0.009995942 -0.031802636 0.025659645
0.047523577 -0.13592903 -0.11215682 -0.07714084 0.08412402 0.06077559 0.029050954 0.064884566
-0.03768513 -0.049250197 0.029572565 -0.12514667 -0.07798353 0.104239464 0.06302319 0.13640937
0.051237572 0.029036546 -0.03162628 0.0019918194 -0.039676774 0.005216322 0.051798932 -0.100304164
-0.08254848 -0.24782412 -0.16073713 -0.17939983 -0.21255513 -0.11481549 0.18571718 0.16022047
0.0043384302 0.057781 -0.06628742 -0.19016516 -0.06557158 0.21439356 -0.31008118 0.1575581
0.10396427 -0.3007896 -0.07433998 0.06775358 -0.077176616 0.009384548 0.24727201 0.111352965
-0.10290034 0.005114495 0.01198116 -0.33524063 -0.58577526 -0.046181995 0.052228123 -0.27642047
-0.16633832 -0.05593116 -0.13260143 -0.1446555 0.1012301 -0.040549316 -0.15102656 0.0032875014
0.026866859 0.048857365 0.026776792 0.04622162 -0.066281095 0.09467816 -0.08255573 0.013480666
-0.070334285 0.058876306 0.072246484 -0.02355986 0.03141665 0.00678409 0.05453701 0.03325125
-0.061044954 -0.044469543 -0.009056539 0.07465329 -0.009000574 0.05120978 0.03840287 -0.060479015
-0.0602473 -0.08657077 -0.033981618 -0.015286475 -0.0075317165 0.014178491 0.051715836 -0.06640961
-0.008113218 0.046219688 0.09904133 -0.014358635 0.0047135986 -0.028191537 0.0831641 0.04875532
-0.012539387 0.040490177 -0.14241578 -0.18070626 -0.11940435 -0.048044745 0.057253048 0.026131263
-0.0063414886 0.04591406 0.0113504045 0.03649686 0.05659633 0.0028616271 0.040686347 0.21171683
00000000: b10c 9b3d 2ce4 adbc 4ec5 3bbd e7ed 90bc
00000010: a293 0e3e 4bbb 193d d4d1 d7bd f918 043d
00000020: d6fd e1bd ba1a 36be 0d74 81bd 53e5 cebd
00000030: 78c4 23be e295 32be 8fde afbc 04e2 333d
00000040: 35fe e73d 87d0 91bd 4cd5 5bbd d247 90bd
00000050: bb42 69ba 7a2a 43bd 7f62 abbb f97c 58bd
00000060: 0f25 bfbd b0e7 e4bd d9aa 58be bae8 17be
00000070: 42c0 4bbe af83 35be d66a 0ebe 6292 54be
00000080: 31db bdbc c62e d73d 373f 53bd 665b e4bc
00000090: 6069 acbd af52 873d 7c3a 813d 712d 2dbc
000000a0: a52f 02be 2902 adbc eb08 09be 3331 b7bd
000000b0: e61b 95bd 2348 29bb d56b 09bd 4b11 d5bd
000000c0: e3c6 cbbd 16c1 8dbc 388d 513e b13c bab9
000000d0: 2551 df3d 0e8f 193d cf45 213d ff31 8bbd
000000e0: 91ad 2abb 69b7 ccbb 3716 88bd cd7c cfbd
000000f0: 9f5e c3bd aae8 093d 0abd 38bb 6687 b63c
00000100: b349 abbd c48a 2abd 145a 743d b9fd e33d
00000110: 2026 8ebc c25c 0f3e 89b5 92bd fdf8 1abe
00000120: 7eda 303e b3dc d03d c91c be3d 46dc 933d
00000130: f240 223d 66a6 983d 441e 2dbe eefc 1f3e
00000140: ebcf 33bc 58e3 f5bd 2832 0d3e 142f dd3d
00000150: e6d6 57bd 283c 30bd 78a4 183e 9af6 20bd
00000160: dee0 44be 3311 de3d 202b d13c 6ae6 89bc
00000170: 6371 bf3e dadb 0d3e eb0a 6c3d ef71 5cbe
00000180: 20d4 6cbb 3529 6bbd f760 ec3c e9d2 7b3c
00000190: ba10 043d c6b0 a1bd 698d de3d c584 113e
000001a0: 7f29 c83d 33fe d23c be5f bebc a0a5 483d
000001b0: 01fc 933d efe5 9a3d 4a63 7b3d 1ba2 a0bd
000001c0: 0b8c c43b 13af b5bd f4f7 223d 0af6 313d
000001d0: 5ca4 a53d 15bb e93b 4ef2 623b 465b 183d
000001e0: b96b 24bd 9779 9abc 42b7 8b3d 0fe9 583d
000001f0: b083 b03d bef2 263b 76ad ff3d eec0 6e3d
00000200: eb95 c93d 30cb a03d b0ed 2cbd adf3 61bd
00000210: 94a7 f33b 05c6 23bc 7b43 02bd 2d34 d23c
00000220: 15a8 423d fb30 0bbe 7ab2 e5bd 04fc 9dbd
00000230: 3749 ac3d d3ef 783d 44fc ed3c 33e2 843d
00000240: b95b 1abd 93ba 49bd 2a42 f23c 7326 00be
00000250: d4b5 9fbd 807b d53d 4d12 813d e6ae 0b3e
00000260: 7dde 513d 0dde ed3c 8f8a 01bd 2f89 023b
00000270: 1d84 22bd aeed aa3b 1e2b 543d 456c cdbd
00000280: 2d0f a9bd 9bc5 7dbe 4698 24be 97b4 37be
00000290: 0da8 59be 6224 ebbd a52c 3e3e d610 243e
000002a0: 6429 8e3b c5ab 6c3d b3c1 87bd a8ba 42be
000002b0: 644a 86bd fc89 5b3e f6c2 9ebe e956 213e
000002c0: 38eb d43d 1801 9abe 8f3f 98bd 64c2 8a3d
000002d0: c60e 9ebd a6c1 193c e034 7d3e 060d e43d
000002e0: 6abd d2bd 7e97 a73b a14c 443c a9a4 abbe
000002f0: 5ef5 15bf 5529 3dbd 28ed 553d fc86 8dbe
00000300: 9854 2abe 1218 65bd abc8 07be 9220 14be
00000310: ba51 cf3d 0a17 26bd b5a6 1abe 1f73 573b
00000320: e317 dc3c a91e 483d 015b db3c e252 3d3d
00000330: 62be 87bd a0e6 c13d fb12 a9bd 03de 5c3c
00000340: 6c0b 90bd 4828 713d f7f5 933d 9c00 c1bc
00000350: bfae 003d 124d de3b 3362 5f3d 7632 083d
00000360: 460a 7abd b225 36bd e161 14bc d3e3 983d
00000370: 2577 13bc 59c1 513d 544c 1d3d d8b8 77bd
00000380: dfc5 76bd 044c b1bd 4f30 0bbd 2074 7abc
00000390: 9ecc f6bb e74c 683c fcd3 533d c301 88bd
000003a0: 4ded 04bc db50 3d3d 2ed6 ca3d 7b40 6bbc
000003b0: 8874 9a3b f0f1 e6bc f151 aa3d a9b3 473d
000003c0: 0072 4dbc 07d9 253d 71d5 11be 100b 39be
000003d0: 458a f4bd 91ca 44bd 2c82 6a3d 3b11 d63c
000003e0: 43cc cfbb 6210 3c3d 0cf7 393c bb7d 153d
000003f0: 8ed1 673d 238a 3b3b baa6 263d 4ccc 583e

layers.0.bias f4 [128]
0.16693994 0.111214824 -0.009783588 0.07055882 0.016182339 -0.15702662 -0.39308214 -0.18453883
0.009454992 -0.3107875 0.09500851 -0.13473038 -0.13200772 0.29784763 -0.03232322 0.03709408
0.18678543 0.26880994 0.28532147 0.004693275 -0.026596267 0.13615325 0.116393924 -0.012790955
0.01844773 0.17458424 0.33450204 0.09463154 0.14757654 0.06552297 -0.1392045 0.011361583
-0.29208726 0.1597396 0.08481579 0.057516504 -0.38406092 0.33723497 -0.0022056545 0.07474733
-0.021876557 0.05365226 -0.043669015 0.104671374 -0.26293594 -0.26459107 0.18723468 0.09223293
-0.16422561 0.08718607 -0.09713602 0.17499875 -0.19187807 0.14983648 0.09904069 0.13679995
-0.08299505 -0.28434765 -0.05164631 0.05192249 0.046365835 -0.1401771 0.22989629 0.13823116
-0.26345417 -0.1970125 0.0514964 0.12557499 0.22879049 0.09796354 -0.13703887 -0.16220598
0.12777051 0.09969501 -0.12852113 0.14388494 0.013100234 0.0060030525 -0.016520051 0.11530845
0.019020105 -0.18198708 0.0069907615 0.1687453 0.0589492 0.029854923 0.12133235 0.21428715
-0.11595032 0.10615092 -0.012912091 -0.13790257 0.10016154 -0.21298903 0.06830555 0.16150278
0.04096314 -0.13422935 -0.09898156 -0.081091374 -0.2152491 0.18729754 0.16632134 0.1395042
0.094535656 -0.07505792 -0.029323537 0.11638859 0.094236135 -0.009310126 0.13155816 0.28566924
-0.0069198543 0.031792443 0.25360084 0.1499521 -0.07027751 -0.02280367 0.06841593 0.101720005
0.091736406 -0.041121718 0.104956545 0.11745084 0.10206461 -0.040763788 -0.06400092 0.079939
00000000: 4ef2 2a3e 99c4 e33d 584b 20bc 2581 903d
00000010: d390 843c 96cb 20be 1042 c9be bff7 3cbe
00000020: 1ce9 1a3c 8a1f 9fbe d293 c23d c3f6 09be
00000030: 082d 07be 7c7f 983e 5a65 04bd f6ef 173d
00000040: ae44 3f3e 75a1 893e a815 923e 0bca 993b
00000050: 6ae0 d9bc c26b 0b3e f05f ee3d 2791 51bc
00000060: b21f 973c 36c6 323e da43 ab3e 2ece c13d
00000070: 4e1e 173e e830 863d a08b 0ebe ef25 3a3c
00000080: 768c 95be c792 233e e7b3 ad3d 6d96 6b3d
00000090: a2a3 c4be 10aa ac3e be8c 10bb 2115 993d
000000a0: 7736 b3bc 79c2 5b3d 48de 32bd f25d d63d
000000b0: 8a9f 86be 7b78 87be 73ba 3f3e 9ee4 bc3d
000000c0: c22a 28be 9c8e b23d 40ef c6bd df32 333e
000000d0: af7b 44be bc6e 193e d8d5 ca3d 4915 0c3e
000000e0: 4ff9 a9bd 0496 91be 158b 53bd adac 543d
000000f0: 1aea 3d3d 968a 0fbe ef69 6b3e 788c 0d3e
00000100: 77e3 86be a5bd 49be e4ed 523d bb96 003e
00000110: 0e48 6a3e 1ca1 c83d eb53 0cbe 5319 26be
00000120: 46d6 023e e62c cc3d 0b9b 03be 9356 133e
00000130: 5da2 563c 41b5 c43b 0f55 87bc d626 ec3d
00000140: 0dd0 9b3c d25a 3abe c212 e53b 91cb 2c3e
00000150: b774 713d 5092 f43c 187d f83d 176e 5b3e
00000160: 5d77 edbd a765 d93d 3c8d 53bc 5536 0dbe
00000170: 7e21 cd3d cc19 5abe c8e3 8b3d fc60 253e
00000180: f7c8 273d 6b73 09be d8b6 cabd 3c13 a6bd
00000190: 436a 5cbe edca 3f3e 2450 2a3e 30da 0e3e
000001a0: e99b c13d f7b7 99bd ea37 f0bc 245d ee3d
000001b0: e0fe c03d 8089 18bc 2fb7 063e 3d43 923e
000001c0: f2bf e2bb cb38 023d f8d7 813e 0b8d 193e
000001d0: a8ed 8fbd c3ce babc a71d 8c3d 9452 d03d
000001e0: 4ce0 bb3d 3f6f 28bd 75f3 d63d 118a f03d
000001f0: 4007 d13d eef7 26bd ea12 83bd 0fb7 a33d

layers.1.weight f4 [128, 128]
0.055783615 0.03534172 0.08496675 -0.15028816 -0.013403396 -0.0964252 -0.07683057 -0.28691974
-0.10734776 0.03170689 -0.34636706 -0.10048007 -0.40650207 0.10757539 0.13410959 -0.08127245
0.021537492 0.045908265 -0.03958737 -0.14312476 0.078892246 0.12047812 -0.038413476 0.043736346
0.094833866 0.11635001 0.14859709 -0.07415607 -0.2161178 -0.054022003 -0.07477453 -0.17141446
0.10536287 0.04450867 0.021871768 0.083626606 -0.06645927 0.084520966 -0.18317264 0.11832878
0.031244764 0.072158635 0.11704798 0.023847105 0.06278293 0.07411247 0.12923674 0.08687308
0.021028724 -0.08192845 -0.24869101 -0.015504396 -0.19210382 -0.021262912 0.053460553 -0.03936565
0.06681761 0.10104026 -0.018045515 0.16436674 0.0066760676 -0.09708508 0.14741494 0.0058749113
-0.047701262 -0.09394506 0.013593383 0.10891972 0.0074994657 -0.0801552 0.048258252 -0.10050516
-0.010224981 -0.10967985 -0.15072702 0.01888206 -0.033921834 0.109408684 0.18375185 -0.08734058
0.19102146 0.013427579 -0.004559828 -0.027061915 -0.055353798 0.062388938 -0.13063043 -0.116222344
0.13122416 0.0037258842 0.10114963 0.0013456295 0.1302986 -0.019091431 -0.12525247 -0.0076840445
-0.04796003 -0.07209346 -0.08548796 0.013826638 0.07725841 0.06695683 0.06711441 -0.0351026
-0.04564508 -0.0027447343 -0.07476285 0.0016162627 -0.018353598 0.066715375 -0.056748353 0.08727846
0.06668769 0.064350046 0.01962842 0.17033218 0.059935037 -0.08282515 0.024950225 -0.13276194
0.006095589 -0.10579334 0.13765013 0.11612139 0.026535697 0.15813088 -0.1186938 0.090041794
0.12598495 -0.031866875 0.044155788 -0.076394945 0.024421241 0.036852386 -0.059541132 -0.14475732
0.18339439 0.13782856 -0.029865652 -0.074571535 -0.010669022 0.04748793 0.117293954 -0.019721787
-0.032326587 -0.06295718 0.054058615 0.059513003 -0.18531121 0.0086395135 -0.04493602 0.17383909
0.08291538 -0.1670892 0.071315035 -0.43499535 -0.21973617 0.019129807 -0.22495909 0.018150387
0.17642912 -0.05104776 -0.12936357 -0.16877621 0.051206402 -0.14522047 -0.1823183 -0.11208487
-0.22761315 0.13390781 0.11117543 -0.03509052 0.08022573 0.073005274 -0.14647488 0.053058784
-0.03847929 -0.10198513 0.06301558 0.15161702 -0.011815261 0.06610134 -0.10488907 -0.10188699
-0.008100943 -0.03182937 0.10917941 -0.09425132 0.083618745 0.2164158 -0.072055206 0.056232832
-0.07213766 0.049311556 -0.1718898 0.031146202 -0.08455564 -0.19030112 -0.08309816 0.0020555365
0.058262967 -0.31333387 0.1982733 -0.103382014 0.29625303 0.18266968 0.36506355 -0.06837724
0.38723117 -0.09979262 0.022952411 -0.055795413 0.022585997 -0.001809883 0.045160897 -0.042941015
0.11160155 0.038492005 -0.07676317 0.03369754 0.012305945 -0.11854196 -0.16402708 0.030714866
-0.18956202 0.09632164 0.033335034 -0.03631941 0.06273686 -0.024068434 0.011564596 -0.010331932
-0.01347274 0.0038567814 -0.15129204 0.035379604 -0.091954865 0.14047998 0.09558881 -0.03957422
0.05569585 0.044125624 0.099673375 -0.025374899 -0.16493304 -0.26454738 -0.12547159 -0.059767723
-0.039746087 0.0022127307 0.051622543 -0.036514707 -0.3819777 -0.07892462 0.107840784 0.14547138
00000000: 5c7d 643d 7bc2 103d 0c03 ae3d 24e5 19be
00000010: eb99 5bbc 937a c5bd 5959 9dbd 25e7 92be
00000020: 24d9 dbbd 15df 013d 0657 b1be 7fc8 cdbd
00000030: 0a21 d0be 7c50 dc3d 0654 093e 2c72 a6bd
00000040: 656f b03c 4e0a 3c3d 5e26 22bd 4c8f 12be
00000050: 4292 a13d 3cbd f63d 7357 1dbd e224 333d
00000060: 4238 c23d ea48 ee3d d629 183e 23df 97bd
00000070: fc4d 5dbe 2d46 5dbd 6423 99bd 4687 2fbe
00000080: 7dc8 d73d b94e 363d 6c2c b33c 6d44 ab3d
00000090: cc1b 88bd 5419 ad3d 9c91 3bbe 5c56 f23d
000000a0: 05f5 ff3c e8c7 933d dab6 ef3d 015b c33c
000000b0: 5694 803d 47c8 973d a356 043e 83ea b13d
000000c0: 6e44 ac3c 1aca a7bd dba8 7ebe 2606 7ebc
000000d0: ddb6 44be 8f2f aebc 74f9 5a3d e03d 21bd
000000e0: acd7 883d 32ee ce3d 30d4 93bc c14f 283e
000000f0: eac2 da3b 8bd4 c6bd f1f3 163e 5482 c03b
00000100: 6662 43bd 4566 c0bd c8b6 5e3c 4d11 df3d
00000110: 14be f53b 6928 a4bd 72aa 453d a6d5 cdbd
00000120: ae86 27bc d49f e0bd 2f58 1abe 8dae 9a3c
00000130: 9ff1 0abd a911 e03d 7229 3c3e 9edf b2bd
00000140: 219b 433e 59ff 5b3c 9c6a 95bb f3b0 ddbc
00000150: aaba 62bd 8b8b 7f3d fcc3 05be fb05 eebd
00000160: a05f 063e f72d 743b 8a27 cf3d d55f b03a
00000170: ff6c 053e a265 9cbc 2f42 00be 70ca fbbb
00000180: bd71 44bd bca5 93bd 5014 afbd 2089 623c
00000190: a839 9e3d aa20 893d 4873 893d bec7 0fbd
000001a0: 56f6 3abd 00e1 33bb 441d 99bd c7d8 d33a
000001b0: 495a 96bc 12a2 883d f670 68bd 0dbf b23d
000001c0: 8e93 883d f5c9 833d c8cb a03c 8f6b 2e3e
000001d0: 717e 753d 3ba0 a9bd 6a64 cc3c bff2 07be
000001e0: 82bd c73b 2eaa d8bd 28f4 0c3e 0dd1 ed3d
000001f0: 6461 d93c 10ed 213e bc15 f3bd d567 b83d
00000200: 3302 013e d786 02bd b3dc 343d f474 9cbd
00000210: 0e0f c83c 87f2 163d 67e1 73bd 433b 14be
00000220: bdcb 3b3e ee22 0d3e d0a8 f4bc f6b8 98bd
00000230: 1fcd 2ebc b482 423d d037 f03d 968f a1bc
00000240: e268 04bd b2ef 80bd 916c 5d3d e8c3 733d
00000250: 39c2 3dbe bf8c 0d3c d50e 38bd e002 323e
00000260: 8acf a93d 6e19 2bbe 9e0d 923d b6b7 debe
00000270: 8502 61be 1db6 9c3c ad5b 66be 1fb0 943c
00000280: d6a9 343e 7517 51bd e277 04be acd3 2cbe
00000290: cebd 513d adb4 14be a6b1 3abe c18c e5bd
000002a0: 6c13 69be 211f 093e f2af e33d 14bb 0fbd
000002b0: 634d a43d ca83 953d 83fd 15be 2b54 593d
000002c0: 769c 1dbd 94dd d0bd 500e 813d 7e41 1b3e
000002d0: cc94 41bc 2460 873d 15d0 d6bd 20aa d0bd
000002e0: d1b9 04bc 835f 02bd 7499 df3d d606 c1bd
000002f0: 4e40 ab3d 1a9c 5d3e ae91 93bd 6654 663d
00000300: e9bc 93bd eafa 493d e103 30be 5226 ff3c
00000310: 822b adbd 4cde 42be 5e2f aabd 2eb6 063b
00000320: 26a5 6e3d 4c6d a0be 2808 4b3e f3b9 d3bd
00000330: 7aae 973e c30d 3b3e 9ce9 ba3e 5e09 8cbd
00000340: 2a43 c63e 1360 ccbd b206 bc3c bb89 64bd
00000350: 4506 b93c 9939 edba a2fa 383d ebe2 2fbd
00000360: 5a8f e43d cba9 1d3d 0236 9dbd 6f06 0a3d
00000370: e09e 493c 21c6 f2bd b7f6 27be be9d fb3c
00000380: 8c1c 42be 4844 c53d 518a 083d a9c3 14bd
00000390: 2f7c 803d 2a2b c5bc 6e79 3d3c 4447 29bc
000003a0: c4bc 5cbc 0ec2 7c3b 4dec 1abe 34ea 103d
000003b0: d552 bcbd fcd9 0f3e 11c4 c33d 9418 22bd
000003c0: 5521 643d 12bd 343d 8e21 cc3d 05df cfbc
000003d0: 35e4 28be c172 87be a07b 00be 00cf 74bd
000003e0: cbcc 22bd 7603 113b 2972 533d 7290 15bd
000003f0: 9592 c3be 3ba3 a1bd a1db dc3d 73f6 143e

layers.1.bias f4 [128]
0.33426508 -0.066069685 0.18354529 0.158618 -0.13453825 0.070610404 -0.07703495 0.01890058
-0.13998169 0.11132884 0.21211189 -0.02018971 -0.029226843 0.111677796 0.14105196 0.27123412
0.09064503 0.13039637 0.13724318 0.12701087 0.04586105 0.0056989524 -0.0088285925 -0.08354121
-0.01804598 0.22546867 0.24370891 -0.06839611 -0.03411289 -0.06871414 0.024427228 -0.11146594
0.062130336 0.08868006 -0.17984535 -0.0073832395 0.09773309 -0.2292291 0.1735026 0.002466661
0.084910884 0.19258042 -0.18300393 0.24293546 0.05788644 0.05845132 0.025699753 0.32868865
0.12515442 -0.18912116 0.042580795 -0.057272326 0.17173235 0.057673056 0.21918824 0.09474383
0.0701109 -0.09394223 0.10102481 -0.016619122 -0.03505993 0.061697934 0.05785977 -0.05926485
0.242628 0.057718962 -0.043685965 -0.14021477 0.082247704 -0.0037190246 0.052396826 0.105139084
-0.015904063 0.21713221 0.1322517 -0.13352811 0.04484574 0.14794526 0.038891647 -0.106405556
0.23321615 0.01736714 -0.10982939 -0.060471777 -0.1382591 0.27745247 -0.13307783 0.3358916
-0.023989968 -0.10388957 -0.09155059 -0.03554949 0.036170844 0.14897805 0.17884342 0.31556165
-0.10043914 0.015163185 0.3219884 0.059628572 0.122239016 0.02218462 0.039289076 0.1786474
0.012687139 -0.1322523 -0.10321087 0.06891238 -0.09781118 -0.018762233 -0.10006821 0.21781181
0.033417467 0.09609633 -0.021641048 -0.03650474 0.003822597 0.14859062 0.28818297 0.21959531
-0.06623196 0.13880064 0.142569 -0.1111559 -0.07507344 -0.025270222 -0.030607687 0.017825821
00000000: cb24 ab3e 8b4f 87bd 4cf3 3b3e c26c 223e
00000010: 65c4 09be 309c 903d 80c4 9dbd 64d5 9a3c
00000020: 5c57 0fbe 6000 e43d dc33 593e e464 a5bc
00000030: 226d efbc 54b7 e43d ed6f 103e 33df 8a3e
00000040: 1aa4 b93d a086 053e 7a89 0c3e 230f 023e
00000050: ccd8 3b3d 47be ba3b cda5 10bc a717 abbd
00000060: 2ad5 93bc 42e1 663e d48e 793e 4213 8cbd
00000070: f5b9 0bbd 00ba 8cbd 9c1b c83c 4148 e4bd
00000080: 617c 7e3d e49d b53d 6129 38be 1aef f1bb
00000090: 4928 c83d 08bb 6abe aaaa 313e b4a7 213b
000000a0: c2e5 ad3d cd33 453e 6265 3bbe 13c4 783e
000000b0: 551a 6d3d a76a 6f3d 4a88 d23c e149 a83e
000000c0: 7b28 003e faa8 41be 3369 2e3d 6396 6abd
000000d0: 9bda 2f3e 953a 6c3d e272 603e 0e09 c23d
000000e0: 4e96 8f3d c964 c0bd 18e6 ce3d d324 88bc
000000f0: 009b 0fbd f9b6 7c3d 5efe 6c3d b3bf 72bd
00000100: 7973 783e b86a 6c3d 0ef0 32bd 7694 0fbe
00000110: 7c71 a83d e1ba 73bb 0e9e 563d 2953 d73d
00000120: 3d49 82bc e857 5e3e fd6c 073e 98bb 08be
00000130: 2bb0 373d f67e 173e d94c 1f3d 28eb d9bd
00000140: 37d0 6e3e 8845 8e3c 3bee e0bd 41b1 77bd
00000150: cb93 0dbe 400e 8e3e 8e45 08be fcf9 ab3e
00000160: 9c86 c4bc 0ec4 d4bd e07e bbbd 589c 11bd
00000170: e127 143d b48d 183e bb22 373e 4c91 a13e
00000180: 09b3 cdbd 026f 783c aadb a43e 173d 743d
00000190: 7358 fa3d 85bc b53c 95ed 203d 58ef 363e
000001a0: b8dd 4f3c 266d 07be 3860 d3bd ef21 8d3d
000001b0: 3a51 c8bd 41b3 99bc 90f0 ccbd 0f0a 5f3e
000001c0: c1e0 083d 27ce c43d 9148 b1bc ff85 15bd
000001d0: 8984 7a3b 2428 183e b88c 933e 98dd 603e
000001e0: 9fa4 87bd c121 0e3e 9cfd 113e b4a5 e3bd
000001f0: 1bc0 99bd 7f03 cfbc f9bc fabc 7507 923c

layers.2.weight f4 [128, 128]
-0.06813054 0.22721969 0.14160043 -0.19644101 -0.4372988 0.16922133 0.0046859733 0.48605242
-0.49176347 0.18082431 0.009831123 0.13074215 0.027085144 0.052386917 -0.14878602 -0.03438565
0.048788097 0.040790737 0.019577531 0.13060224 0.03195367 -0.025261052 0.07685671 -0.04235026
-0.06205553 -0.15042774 -0.034378882 -0.24971339 0.060614627 0.14877348 0.046352196 -0.37129995
0.07852224 -0.08079529 -0.20282559 -0.13484246 0.06696378 0.2156949 0.32910058 -0.23847394
-0.041358817 -0.004474301 -0.38487378 0.0041380334 -0.09052644 0.016890194 -0.28954604 0.086262815
0.050339617 -0.029752493 0.015450624 0.10520598 0.088854276 0.26926675 0.037094694 0.099811725
0.119556546 -0.06964735 0.18930557 0.036981273 0.10367917 0.07321124 0.028258054 -0.0063837324
0.24171017 -0.17183474 -0.19964853 0.15191731 0.17228621 0.21170585 0.045314055 -0.08709473
-0.08041017 -0.1722807 -0.03291315 0.018216787 -0.07696707 0.1612777 0.0234545 -0.30531806
-0.019022357 0.14165004 0.006524137 0.14805259 0.12967803 -0.068681024 -0.1470861 0.0831845
0.13062884 -0.0165869 -0.03268312 -0.0037632415 0.09703662 0.08066747 0.03150301 -0.06799326
0.094489105 0.23586552 -0.09657583 0.50162953 0.22828287 0.1184288 -0.061552487 -0.012378825
-0.2796861 0.1333464 0.08481878 0.038746465 0.10485418 -0.22866297 -0.32100368 0.07897556
0.061589364 0.378834 0.17521837 0.12965174 0.035640698 0.08160412 0.16917685 -0.074562766
0.06085317 -0.17892873 0.10733708 -0.104649216 -0.2577054 -0.27466023 -0.035396036 -0.033361666
-0.21698375 0.1623456 0.15766783 -0.0387261 -0.37771797 0.17206612 -0.03371735 0.33111668
-0.29133433 0.03821277 -0.028926622 0.10715217 0.096143246 0.036007013 -0.022035386 0.08485368
0.068055205 0.038337115 0.10719979 0.10993603 0.108721144 0.0021397502 -0.0099210115 0.00369002
0.08445621 -0.18974687 -0.010912279 -0.10387658 0.05460945 0.07831938 0.0029405577 -0.22884071
0.069355935 0.0016353792 -0.19651586 -0.063908905 0.016863523 -0.029364714 0.28831178 -0.24423519
0.10085426 0.14099757 -0.42043185 -0.044884603 -0.068220615 -0.06649294 -0.20902492 0.12796104
0.100506656 0.01939481 0.019834086 -0.0637914 0.08561193 0.12107564 0.020719022 0.08489936
0.18803118 -0.0029004903 0.224354 -0.01983154 -0.029222766 0.0062427516 0.022598011 0.082634136
0.29658702 -0.13005821 -0.26788485 0.18467458 0.16252598 0.06695938 0.12323703 -0.24779418
0.08291491 -0.28521577 0.09057233 0.043790482 0.01450648 0.20158322 0.10357126 -0.14059144
0.08569837 0.06050647 0.06956683 0.032295655 0.062107746 0.0012492181 -0.069820516 0.025585445
0.118337855 0.02633928 -0.0185406 0.069953434 0.09605398 0.14512004 -0.041803703 -0.1561487
0.07055335 0.21115151 0.08953395 0.36757943 0.14734368 0.10555952 0.0043837 0.0992612
-0.18732117 -0.011159667 0.028932713 0.10446677 0.03410369 -0.25551355 -0.28018573 0.18482247
0.04748902 0.22521529 0.15328218 0.0666361 0.13607432 0.09102423 0.15890178 0.0046200803
-0.0058822595 -0.023764687 0.121835604 0.094206095 -0.28581554 -0.097085826 -0.034154084 -0.04163771
00000000: 0688 8bbd 47ac 683e b4ff 103e d527 49be
00000010: a1e5 dfbe 5b48 2d3e cb8c 993b dddb f83e
00000020: 6cc8 fbbe 022a 393e b812 213c 45e1 053e
00000030: aae1 dd3c aa93 563d 5d5b 18be f8d7 0cbd
00000040: 07d6 473d 3014 273d 0f61 a03c 98bc 053e
00000050: dae1 023d 44f0 cebc 0d67 9d3d 7777 2dbd
00000060: f02d 7ebd bb09 1abe dfd0 0cbd deb4 7fbe
00000070: 0b47 783d 1358 183e cddb 3d3d 071b bebe
00000080: 45d0 a03d 0078 a5bd 83b1 4fbe 2414 0abe
00000090: 4e24 893d 20df 5c3e df7f a83e 8332 74be
000000a0: dd67 29bd 289d 92bb 2d0e c5be 5798 873b
000000b0: ed65 b9bd 4e5d 8a3c 613f 94be 8faa b03d
000000c0: ea30 4e3d 80bb f3bc 9d24 7d3c 3c76 d73d
000000d0: 3bf9 b53d 55dd 893e 9bf0 173d 176a cc3d
000000e0: 10da f43d 45a3 8ebd 52d9 413e ad79 173d
000000f0: bf55 d43d c6ef 953d 6f7d e73c a12e d1bb
00000100: df82 773e 72f5 2fbe aa70 4cbe 3690 1b3e
00000110: cc6b 303e 6bc9 583e 3b9b 393d b95e b2bd
00000120: 16ae a4bd 5a6a 30be f0cf 06bd 5f3b 953c
00000130: e9a0 9dbd fb25 253e a723 c03c a652 9cbe
00000140: c6d4 9bbc b50c 113e 6ec8 d53b 199b 173e
00000150: 51ca 043e a3a8 8cbd bd9d 16be a35c aa3d
00000160: 91c3 053e 40e1 87bc bcde 05bd b7a0 76bb
00000170: 23bb c63d fd34 a53d 4d09 013d 0d40 8bbd
00000180: 8183 c13d bb86 713e 8cc9 c5bd cb6a 003f
00000190: fcc2 693e cc8a f23d 761e 7cbd 8ed0 4abc
000001a0: 0433 8fbe f58b 083e 78b5 ad3d 9db4 1e3d
000001b0: cabd d63d a026 6abe 985a a4be f0bd a13d
000001c0: 2145 7c3d 88f6 c13e 726c 333e 6dc3 043e
000001d0: fbfb 113d 1020 a73d b23c 2d3e 5db4 98bd
000001e0: 2c41 793d 1839 37be 8bd3 db3d 5452 d6bd
000001f0: f6f1 83be 44a0 8cbe 6ffb 10bd 3ea6 08bd
00000200: fd30 5ebe ed3d 263e ad73 213e 429f 1ebd
00000210: 4064 c1be 1a32 303e 341b 0abd 2088 a93e
00000220: c629 95be fe84 1c3d 86f7 ecbc 9972 db3d
00000230: c0e6 c43d 177c 133d 8e83 b4bc c4c7 ad3d
00000240: 8760 8b3d 6107 1d3d 908b db3d 2426 e13d
00000250: 31a9 de3d 0d3b 0c3b bd8b 22bc 43d4 713b
00000260: 61f7 ac3d 014d 42be 6ac9 32bc 3fbd d4bd
00000270: 29ae 5f3d e965 a03d 5fb6 403b 3855 6abe
00000280: 7c0a 8e3d 385a d63a 743b 49be ace2 82bd
00000290: 5f25 8a3c 458e f0bc 9a9d 933e ca18 7abe
000002a0: ae8c ce3d ab61 103e d842 d7be ebd8 37bd
000002b0: 40b7 8bbd 732d 88bd a10a 56be 3808 033e
000002c0: 6fd6 cd3d dde1 9e3c 187b a23c 11a5 82bd
000002d0: 4f55 af3d 81f6 f73d f0ba a93c b7df ad3d
000002e0: 3f8b 403e 2716 3ebb 0ebd 653e c175 a2bc
000002f0: 9564 efbc ff8f cc3b 771f b93c 163c a93d
00000300: 41da 973e fb2d 05be 3428 89be 551b 3d3e
00000310: 366d 263e 0022 893d b263 fc3d c2bd 7dbe
00000320: 4bcf a93d cd07 92be fc7d b93d a65d 333d
00000330: 96ac 6d3c d56b 4e3e 2b1d d43d 34f7 0fbe
00000340: a182 af3d a2d5 773d 0e79 8e3d 7348 043d
00000350: b164 7e3d cebc a33a 0ffe 8ebd 9198 d13c
00000360: 1e5b f23d 79c5 d73c 75e2 97bc bf43 8f3d
00000370: f3b7 c43d 599a 143e 5c3a 2bbd 72e5 1fbe
00000380: 467e 903d 1a38 583e 935d b73d 5f33 bc3e
00000390: 43e1 163e 972f d83d 24a5 8f3b 7549 cb3d
000003a0: 1fd1 3fbe 09d7 36bc 4c04 ed3c adf2 d53d
000003b0: 50b0 0b3d acd2 82be 8174 8fbe 1a42 3d3e
000003c0: d983 423d d69e 663e 01f6 1c3e 8278 883d
000003d0: 1157 0b3e e96a ba3d 26b7 223e 0b64 973b
000003e0: f8bf c0bb 29ae c2bc f284 f93d 20ef c03d
000003f0: 6a56 92be efd4 c6bd 27e5 0bbd 4e8c 2abd

layers.2.bias f4 [128]
0.05741027 0.10993461 0.15623277 0.034326103 0.09806661 0.3911145 -0.13455613 -0.0452112
-0.098993726 -0.026391802 0.058160733 -0.12194154 0.42303663 0.04636854 0.036394875 -0.09849752
0.076223046 0.14987457 0.029695636 0.12412604 -0.10772857 0.017290317 -0.035966195 -0.07936423
-0.04956836 -0.18028696 -0.052378334 0.06637625 0.28999498 0.09093829 0.093658715 -0.020984136
0.04012995 0.0728122 -0.0061909813 0.11942056 -0.0746616 -0.10184013 0.068717144 0.42920762
0.030137656 -0.009102004 -0.15482384 0.02650686 -0.107599154 -0.1329742 0.40018404 0.13918939
0.09147684 0.052066702 -0.09370977 0.00402927 0.06899142 0.35286197 -0.15285936 0.39835408
0.07950605 -0.029497342 0.12344671 0.22929959 -0.06920402 0.45292833 0.012768862 -0.06523188
-0.094352014 -0.12938175 0.08131235 0.09831237 0.39936188 -0.08057692 0.06210249 -0.20075981
0.19557288 0.40978006 -0.04062694 0.07458207 0.09995352 -0.15217148 -0.110493116 0.2102207
0.0552903 0.1071014 0.051834695 0.34455618 0.41934708 -0.005844018 0.4118209 -0.011639878
-0.016965874 -0.015094102 0.09563011 0.03298339 0.026007358 -0.049470633 0.063489646 0.09116788
-0.079145364 -0.10266401 -0.01296788 0.07078793 -0.08864323 0.04963577 0.104400404 -0.2377036
-0.013227966 -0.0044267564 0.082496464 0.4544526 -0.09751255 -0.049267113 -0.10761047 0.2780204
0.37999707 0.11201673 0.10286699 0.25158086 0.35836667 0.37185675 0.06562879 0.1039378
-0.3619351 -0.09561563 0.10350529 0.12747684 0.44433022 -0.08257114 0.07936116 0.07355673
00000000: 0827 6b3d 6625 e13d 7cfb 1f3e 8799 0c3d
00000010: 26d7 c83d 2940 c83e 15c9 09be 612f 39bd
00000020: 39bd cabd 9f33 d8bc f339 6e3d 7cbc f9bd
00000030: 4298 d83e f0ec 3d3d cb12 153d 11b9 c9bd
00000040: d41a 9c3d b878 193e 4344 f33c cb35 fe3d
00000050: cca0 dcbd 6ca4 8d3c 4a51 13bd b789 a2bd
00000060: 3108 4bbd 259d 38be aa8a 56bd 45f0 873d
00000070: 397a 943e db3d ba3d 24d0 bf3d ece6 abbc
00000080: 4d5f 243d 901e 953d b7dd cabb c492 f43d
00000090: 2ee8 98bd 8f91 d0bd 93bb 8c3d 1ac1 db3e
000000a0: 3fe3 f63c 9220 15bc 248a 1ebe ea24 d93c
000000b0: f25c dcbd 642a 08be ece4 cc3e aa87 0e3e
000000c0: 3658 bb3d e543 553d e8ea bfbd f707 843b
000000d0: 604b 8d3d 53aa b43e 2a87 1cbe 11f5 cb3e
000000e0: 11d4 a23d 69a4 f1bc a1d1 fc3d 83cd 6a3e
000000f0: d6ba 8dbd 39e6 e73e 7d34 513c 4b98 85bd
00000100: a13b c1bd a67c 04be 1787 a63d ff57 c93d
00000110: 2979 cc3e 8305 a5bd 2e5f 7e3d fb93 4dbe
00000120: 4244 483e b1ce d13e 6f68 26bd 7cbe 983d
00000130: 6eb4 cc3d d7d2 1bbe 374a e2bd 1844 573e
00000140: 1578 623d fb57 db3d 9e50 543d ab69 b03e
00000150: a9b4 d63e 2d7f bfbb 30da d23e 30b5 3ebc
00000160: 04fc 8abc 414d 77bc b8d9 c33d 9719 073d
00000170: 620d d53c b8a1 4abd dc06 823d 3ab6 ba3d
00000180: f716 a2bd 8241 d2bd 3b77 54bc 43f9 903d
00000190: 958a b5bd e14e 4b3d e1cf d53d 9368 73be
000001a0: 1cba 58bc 530e 91bb e8f3 a83d 03ae e83e
000001b0: a9b4 c7bd 50cc 49bd e162 dcbd b158 8e3e
000001c0: fa8e c23e 0769 e53d eeab d23d 35cf 803e
000001d0: d67b b73e 0264 be3e 6368 863d 57dd d43d
000001e0: 8f4f b9be 21d2 c3bd 95fa d33d 4a89 023e
000001f0: 407f e33e 0f1b a9bd 1b88 a23d e9a4 963d

layers.3.weight f4 [1, 128]
0.10582404 0.08127739 0.22273327 -0.26055974 0.17292057 -0.8036979 0.0032187235 0.18165287
-0.03023467 -0.024275003 0.19648114 0.06016014 -0.43613064 0.15009703 0.16971426 0.027295785
0.108926214 0.21637054 -0.5858582 0.18360254 -0.16431248 0.21004136 0.13205227 -0.35281917
0.6459136 0.6044206 -0.7193362 -0.5379043 -0.5859871 0.27285233 0.12114504 0.16093399
0.12291559 0.2779389 0.14254649 0.23021266 0.0063028713 0.51185346 -0.38944718 -0.75574803
0.35860956 0.13113686 -0.5898606 0.17722034 -0.006151438 0.36265635 -0.43147534 0.3450091
0.1647483 0.25820088 0.0010161322 0.20258427 0.11004128 -0.30186743 -0.42614263 -0.729311
-0.43257394 0.11924999 0.17307901 -0.429529 -0.47124484 -0.7108983 0.14451095 0.36336812
-0.041068755 0.27368608 0.10659177 0.17647357 -0.79376 0.37970316 0.27785918 -0.51564896
-0.587024 -0.64327425 -0.011909671 0.25662845 0.13584614 -0.036733747 -0.53723663 -0.45439178
0.19360654 -0.41839555 0.245223 -0.2902628 -0.54711646 0.1681253 -0.5474138 0.3772495
0.15090413 0.40068313 0.10465754 0.17906328 0.14091215 0.6578363 0.24799584 0.15810995
0.008547408 -0.56667536 0.037026323 0.16690135 0.8057425 0.17127039 0.11178545 -0.77247405
0.30495697 0.23092449 0.16230562 -0.4833019 -0.0006563909 -0.3917999 -0.39881217 -0.27845213
-0.59750354 0.20684321 0.24143416 -0.4377733 -0.42688757 -0.3901534 0.1238119 0.28417286
-0.78038704 0.0056336224 0.16022447 0.20009993 -0.58644056 -0.034470513 0.18159954 0.3488938
00000000: 46ba d83d c374 a63d 3114 643e 1668 85be
00000010: 1712 313e 25bf 4dbf 38f1 523b 3603 3a3e
00000020: b3ae f7bc 5fdc c6bc 5a32 493e 7b6a 763d
00000030: 844c dfbe 09b3 193e 93c9 2d3e 699b df3c
00000040: b514 df3d 3d90 5d3e cefa 15bf 4e02 3c3e
00000050: 8841 28be 1515 573e b638 073e b7a4 b4be
00000060: 985a 253f 4fbb 1a3f 6b26 38bf 19b4 09bf
00000070: 4003 16bf 4db3 8b3e e41a f83d e1cb 243e
00000080: 2bbb fb3d 024e 8e3e b5f7 113e debc 6b3e
00000090: 5188 ce3b d408 033f 9f65 c7be b478 41bf
000000a0: ac9b b73e be48 063e 1b01 17bf 4079 353e
000000b0: 0192 c9bb 18ae b93e 56ea dcbe 08a5 b03e
000000c0: c7b3 283e e832 843e bd2f 853a 4072 4f3e
000000d0: 535d e13d 5e8e 9abe 5e2f dabe 20b4 3abf
000000e0: 557a ddbe 5739 f43d a03b 313e 3aeb dbbe
000000f0: 0147 f1be 6efd 35bf aefa 133e 630b ba3e
00000100: b637 28bd 9520 8c3e c94c da3d 7db5 343e
00000110: db33 4bbf 7468 c23e 8f43 8e3e 9201 04bf
00000120: 3447 16bf 9fad 24bf c820 43bc ce64 833e
00000130: 401b 0b3e 2076 16bd 5788 09bf 0aa6 e8be
00000140: cb40 463e f137 d6be bd1b 7b3e 539d 94be
00000150: d30f 0cbf 0a29 2c3e 5023 0cbf d926 c13e
00000160: 9d86 1a3e 5726 cd3e b156 d63d 5d5c 373e
00000170: 464b 103e f667 283f 9ff2 7d3e 93e7 213e
00000180: 6d0a 0c3c a311 11bf eaa8 173d 30e8 2a3e
00000190: 2445 4e3f 8161 2f3e c5ef e43d dcc0 45bf
000001a0: 5223 9c3e 7877 6c3e 7233 263e 5973 f7be
000001b0: a611 2cba ff99 c8be 1c31 ccbe 4791 8ebe
000001c0: fef5 18bf b5ce 533e 843a 773e d223 e0be
000001d0: 0291 dabe 30c2 c7be 1891 fd3d 1b7f 913e
000001e0: 72c7 47bf 409a b83b e211 243e ffe6 4c3e
000001f0: f820 16bf f430 0dbd 3bf5 393e 35a2 b23e
