new_models/base+wp_16849288/qf4_best.pth (torch, 186572 bytes, 7 tensors)

layers.0.weight f4 [128, 98]
0	0x3d0a56e7	0.033774283
1	0xbcbdd273	-0.02317164
2	0xbd05e0cd	-0.03268509
3	0xbc189a7b	-0.009314175
4	0x3e1e25ea	0.1544415
5	0x3d23c375	0.039981324
6	0xbdd233d3	-0.10263791
7	0x3cdecf46	0.027198445
8	0xbdc6f32e	-0.097143516
9	0xbe1f2d7a	-0.15544692
10	0xbd4eafba	-0.050460555
11	0xbdd22a7c	-0.102620095
12	0xbe3b3cfc	-0.18284982
13	0xbe47969e	-0.1949105
14	0xbd5e72c7	-0.05430868
15	0x3c82fd12	0.015989814
16	0x3d04647c	0.032322392
17	0xbd749c02	-0.059719093
18	0xbc7f71fd	-0.015591142
19	0xbd4ec8c8	-0.05048445
20	0x3cc5aa64	0.0241291
21	0xbd16fb27	-0.03686061
22	0x3bce3f56	0.0062941713
23	0xbd2eaa6a	-0.04264299
24	0xbdbef5c9	-0.093242235
25	0xbdd5943b	-0.10428663
26	0xbe309d66	-0.17247543
27	0xbdfa9523	-0.12235477
28	0xbe415333	-0.18879394
29	0xbe35a0cf	-0.17737125
30	0xbe14c11d	-0.14526792
31	0xbe45a5ad	-0.19301482
32	0xbd065be3	-0.032802474
33	0x3d32f0e1	0.04368675
34	0xbd1debc9	-0.03855494
35	0xbc13d2a8	-0.009022392
36	0xbd53ab90	-0.051677287
37	0x3d79d2f8	0.06099221
38	0x3d8602ba	0.06543489
39	0xba05cccc	-0.00051040645
40	0xbe10778a	-0.141081
41	0xbd46124f	-0.048357304
42	0xbe1a988e	-0.15097257
43	0xbdb0eeef	-0.08639323
44	0xbd6196d4	-0.05507548
45	0x3c9c293c	0.01906263
46	0xbc9ed02c	-0.019386373
47	0xbdb8a36c	-0.09015545
48	0xbd9cc0cc	-0.076539606
49	0xbc801bc4	-0.01563824
50	0x3de1b1e9	0.11020262
51	0x3cdb8770	0.02679798
52	0x3e040102	0.1289101
53	0x3d300fa9	0.042983685
54	0x3d48f3ee	0.049060754
55	0xbd819c3a	-0.06328626
56	0xbca91f2b	-0.020644745
57	0xbd3e96de	-0.046530597
58	0xbde1ce0f	-0.11025631
59	0xbdbb186c	-0.091355175
60	0xbdab8d75	-0.0837659
61	0x3d5aa62e	0.053381138
62	0x3d104165	0.035218615
63	0x3d3390ca	0.043839253
64	0xbd791d0d	-0.06081872
65	0xbd03a082	-0.032135494
66	0x3d54a225	0.051912446
67	0x3d5b1563	0.053487193
68	0xbcdc6b39	-0.026906596
69	0x3d932b01	0.07185937
70	0xbd95a835	-0.073074736
71	0xbe0c0781	-0.13674738
72	0x3e1b90c5	0.15191944
73	0x3dc07ff8	0.09399408
74	0x3d64d040	0.055862665
75	0x3d6ed2cf	0.05830651
76	0x3d1e01ea	0.038576044
77	0x3d143a75	0.03618856
78	0xbe0b1a4c	-0.1358425
79	0x3e031c25	0.12803705
80	0xbc9cfdc3	-0.019163972
81	0xbe0d69ad	-0.13809843
82	0x3ddb7aac	0.10716757
83	0x3e30cd46	0.17265806
84	0xbd162ee5	-0.036665816
85	0xbd70a100	-0.05874729
86	0x3e085875	0.13314994
87	0xbd55d1ab	-0.052201908
88	0xbe48087a	-0.19534484
89	0x3dc8c1e5	0.098026074
90	0xbd4b38ca	-0.049614705
91	0xbad0802b	-0.0015907338
92	0x3e7e27a0	0.24819803
93	0x3df86a39	0.12129635
94	0x3d2676dd	0.0406407
95	0xbe5ca908	-0.21548855
96	0xbc1671dd	-0.009182421
97	0xbd9b3112	-0.07577719
98	0x3d3dcab9	0.04633591
99	0x3cf84b10	0.03030923
100	0x3d1f1394	0.03883703
101	0xbdb670f6	-0.08908264
102	0x3de8482e	0.11341892
103	0x3e0e4082	0.13891795
104	0x3dad77d8	0.08470124
105	0x3c92ea80	0.017934084
106	0xbd0b2590	-0.03397137
107	0x3d4a6349	0.049411092
108	0x3d46788a	0.0484548
109	0x3d5a6562	0.053319342
110	0x3d1f5e12	0.03890807
111	0xbda949f8	-0.082660615
112	0x3d035780	0.03206587
113	0xbdb53aa6	-0.08849077
114	0x3d1c83eb	0.038211744
115	0x3d984dd5	0.0743672
116	0x3db8251f	0.08991455
117	0x3be4c6e1	0.006981716
118	0x3c06251d	0.008187559
119	0x3c9c54aa	0.01908334
120	0xbd4cfc86	-0.050045513
121	0xbcfc65c8	-0.030810252
122	0x3d487569	0.048940096
123	0x3d1da423	0.03848661
124	0x3d9284d8	0.07154244
125	0xbbc169f3	-0.0059025227
126	0x3dd37e22	0.10326792
127	0x3d34c058	0.044128746
128	0x3dc993b9	0.09842629
129	0x3da7ab78	0.08187002
130	0xbcc261be	-0.023728248
131	0xbd1ac913	-0.037789416
132	0x3cd992fa	0.026559342
133	0xbc92212a	-0.01783808
134	0xbcd7cc64	-0.026342578
135	0x3c7924e7	0.015206552
136	0x3d2669e9	0.040628348
137	0xbe0edd50	-0.13951612
138	0xbdf10e74	-0.11770335
139	0xbdccb60d	-0.09995661
140	0x3d793363	0.06084002
141	0x3d100975	0.03516527
142	0x3cdb0b30	0.026738733
143	0x3d7cb2bc	0.061693892
144	0xbcc30ad5	-0.023808876
145	0xbd1d6cfe	-0.03843402
146	0x3d23c208	0.039979964
147	0xbdd7ed6b	-0.10543331
148	0xbd77cc77	-0.060497727
149	0x3dcfeb05	0.10152248
150	0x3d6f882a	0.058479466
151	0x3e07a33b	0.13245861
152	0x3d7a61af	0.061128315
153	0x3d27314a	0.04081849
154	0xbc54d7c4	-0.012990896
155	0x3b424c7f	0.0029647646
156	0xbd4a540e	-0.049396567
157	0xbccbb56f	-0.024866788
158	0x3d3ef4ce	0.046620183
159	0xbd9d83b6	-0.076911375
160	0xbd5a79a6	-0.05333867
161	0xbe546ad0	-0.2074387
162	0xbdd167ec	-0.102249
163	0xbe0aa153	-0.13538103
164	0xbe3a819a	-0.18213502
165	0xbdb332a2	-0.08749892
166	0x3e395b8c	0.18101329
167	0x3e308e8f	0.17241882
168	0xbc33f5b6	-0.010983875
169	0x3d455c1c	0.048183545
170	0xbd8301ec	-0.06396851
171	0xbe7873b7	-0.24262892
172	0xbd8eafa5	-0.06967095
173	0x3e42d63c	0.19027036
174	0xbe587564	-0.21138531
175	0x3ddfca53	0.10927262
176	0x3dc7bf50	0.09753287
177	0xbeac0e37	-0.33604595
178	0xbdf8f8a9	-0.12156803
179	0x3db7c49b	0.089730464
180	0xbde15cce	-0.11004029
181	0x3d89e767	0.067335896
182	0x3e3dac62	0.1852279
183	0x3de04aed	0.10951791
184	0xbe0d6cf2	-0.1381109
185	0xbd18ead7	-0.037333336
186	0x3bdd7414	0.0067582224
187	0xbea95328	-0.33071256
188	0xbeda090a	-0.4258502
189	0xbd4ec8fb	-0.05048464
190	0x3d656091	0.056000296
191	0xbe781541	-0.24226858
192	0xbe4da2a2	-0.2008157
193	0xbd288911	-0.04114634
194	0xbde0c2b4	-0.10974637
195	0xbdd3450e	-0.103159055
196	0x3de99034	0.11404458
197	0xbca8eabf	-0.020619748
198	0xbe00d286	-0.12580308
199	0x3cf74cc7	0.030187977
200	0x3d2ed372	0.04268212
201	0x3d2a7ba3	0.041621815
202	0x3d45e1fd	0.048311222
203	0x3d80b3f5	0.06284324
204	0xbd46413a	-0.04840205
205	0x3dd532a8	0.104100525
206	0xbda021ad	-0.07818923
207	0x3bceef45	0.0063151442
208	0xbdbc22ca	-0.09186323
209	0x3ca47091	0.020073207
210	0x3d8560d5	0.0651261
211	0xbc8cd4c8	-0.017191306
212	0x3cbae711	0.02281526
213	0x3ca537bf	0.020168183
214	0x3d8e0303	0.06934168
215	0x3d978901	0.07399178
216	0xbd1049e9	-0.035226736
217	0xbcf0ab0a	-0.029378433
218	0xbc7361ec	-0.014854889
219	0x3d961929	0.07329018
220	0xbc3b9008	-0.011447914
221	0x3d41207b	0.047150116
222	0x3d27c28b	0.040957015
223	0xbd4682be	-0.04846453
224	0xbd85f139	-0.0654015
225	0xbdf84d83	-0.12124159
226	0xbd94b0ef	-0.0726031
227	0xbd1ac098	-0.037781328
228	0xbcf3d6cf	-0.029765515
229	0xba45b475	-0.0007541844
230	0x3d741204	0.059587494
231	0xbd60690c	-0.05478768
232	0x3b293b08	0.002582254
233	0x3d957743	0.07298138
234	0x3dc7d724	0.09757832
235	0xbcb8c8c8	-0.022556677
236	0xbc427d5b	-0.011870707
237	0xbd390243	-0.045168173
238	0x3d57c7d0	0.05268079
239	0x3d136af9	0.03599069
240	0xbcb7b1a2	-0.02242357
241	0x3d30a1eb	0.043123167
242	0xbdfd6173	-0.123721026
243	0xbe23603b	-0.15954678
244	0xbe101d14	-0.14073592
245	0xbdbf8386	-0.09351258
246	0x3c240756	0.010011515
247	0x3b974b93	0.0046171634
248	0xbcbff28d	-0.023431087
249	0x3d9254cf	0.07145082
250	0x3c444a4b	0.011980603
251	0x3d5640ba	0.05230782
252	0x3d8aa677	0.06770032
253	0x3cdc264e	0.026873734
254	0x3d3ee7d7	0.04660782
255	0x3e2ac6c2	0.16677383

layers.0.bias f4 [128]
0	0x3e24481e	0.16043136
1	0x3dabdc20	0.08391595
2	0x3c9aa643	0.018878108
3	0x3d7f0dbe	0.062268965
4	0x3c9961f3	0.018723464
5	0xbdde3025	-0.108490266
6	0xbead7441	-0.33877757
7	0xbe355ff1	-0.1771238
8	0xbc0eb35c	-0.008709755
9	0xbe819870	-0.25311613
10	0x3d82828a	0.063725546
11	0xbdfa0c24	-0.12209347
12	0xbe055cc9	-0.13023676
13	0x3e84e53d	0.25956145
14	0xbd1e13c2	-0.03859306
15	0x3d0a253d	0.03372692
16	0x3e0b8dd1	0.13628317
17	0x3e61ef05	0.22063835
18	0x3e6c4d86	0.23076448
19	0x3c84a824	0.016193457
20	0xbd13d3d2	-0.03609068
21	0x3dc96c59	0.09835119
22	0x3df0842c	0.1174396
23	0xbca81bb9	-0.020521032
24	0x3c1bc20d	0.0095067145
25	0x3e1aa134	0.15100557
26	0x3e966f26	0.29381675
27	0x3dee5c4b	0.11638697
28	0x3dff5adc	0.12468502
29	0x3dab84e4	0.08374956
30	0xbdea3216	-0.114353344
31	0x3c7e97cf	0.015539124
32	0xbe61e524	-0.22060066
33	0x3dec601d	0.1154177
34	0x3da0c17e	0.07849406
35	0x3d06c4bd	0.032902468
36	0xbeac3dd7	-0.3364093
37	0x3e96cfc1	0.2945538
38	0xba84f391	-0.0010143389
39	0x3d97972c	0.074018806
40	0xbbc3f5f5	-0.005980248
41	0x3d3b2855	0.04569276
42	0xbd32de8f	-0.04366928
43	0x3dd1a724	0.10236958
44	0xbe4f179d	-0.20223852
45	0xbe500123	-0.20312934
46	0x3e265c81	0.16246225
47	0x3d87242b	0.06598695
48	0xbe07dca0	-0.13267756
49	0x3d9e50ed	0.07730279
50	0xbdd558cc	-0.10417327
51	0x3e1dc685	0.1540776
52	0xbe3cf560	-0.18452978
53	0x3dfaa942	0.122393146
54	0x3dc82cb6	0.09774153
55	0x3e001383	0.12507443
56	0xbd930c12	-0.071800366
57	0xbe679e12	-0.22618893
58	0xbd5c3c3b	-0.053768378
59	0x3cd6ca5f	0.026219545
60	0x3ccc12d3	0.02491132
61	0xbe05776e	-0.1303384
62	0x3e6cb624	0.23116356
63	0x3dd2be0b	0.10290154
64	0xbe53a8d0	-0.20669866
65	0xbe1b91dc	-0.1519236
66	0x3d20a745	0.03922202
67	0x3dd4fe09	0.10400016
68	0x3e473cca	0.19456783
69	0x3d930413	0.071785115
70	0xbe009822	-0.12558034
71	0xbdf2cdb3	-0.1185564
72	0x3dc3c28b	0.095585905
73	0x3dd0baa9	0.101918526
74	0xbdf8dda3	-0.12151649
75	0x3e11ad1d	0.14226194
76	0x3d277a6f	0.040888246
77	0xbcdd8aa1	-0.027043642
78	0xbcd1be8f	-0.02560356
79	0x3db3c5af	0.087779395
80	0x3c4495f9	0.011998647
81	0xbe13171c	-0.14364284
82	0x3c19d7dd	0.009389845
83	0x3e2685d2	0.16261986
84	0x3d5002bd	0.05078386
85	0xbc299167	-0.010349608
86	0x3dc60efa	0.09670825
87	0x3e1bd4d2	0.15217903
88	0xbdb6fc14	-0.08934799
89	0x3da21697	0.07914465
90	0x3b964f3d	0.0045870827
91	0xbde9777c	-0.11399743
92	0x3db106a3	0.08643844
93	0xbe217a22	-0.15769246
94	0x3d57a7ac	0.05265014
95	0x3de95429	0.113930054
96	0x3cc4c363	0.024018949
97	0xbded8006	-0.11596684
98	0xbdac5fe5	-0.08416728
99	0xbda7a925	-0.08186559
100	0xbe6e7e5d	-0.23290391
101	0x3e4f7556	0.20259604
102	0x3e317298	0.1732887
103	0x3de9fed0	0.11425555
104	0x3dac7b6d	0.08421979
105	0xbd8d7e8d	-0.06908903
106	0xbcc34eef	-0.02384135
107	0x3e135e8d	0.14391537
108	0x3ddaa311	0.10675634
109	0xbb82487c	-0.003975926
110	0x3e09a6b9	0.13442506
111	0x3e80c541	0.25150493
112	0xbbef4087	-0.0073013934
113	0xbc767d07	-0.015044457
114	0x3e62ff9d	0.22167821
115	0x3e0659e0	0.13120222
116	0xbda860e3	-0.08221605
117	0xbc3601c6	-0.011108821
118	0x3d8a7291	0.06760133
119	0x3d84015a	0.0644557
120	0x3d6c2ecc	0.057661816
121	0xbd066454	-0.032810524
122	0x3da28829	0.07936127
123	0x3ddedcc3	0.10881951
124	0x3dcbb3f4	0.09946433
125	0xbd84364d	-0.064556696
126	0xbc2f7bd0	-0.010710672
127	0x3db4fc24	0.088371545

layers.1.weight f4 [128, 128]
0	0x3d82de30	0.06390035
1	0x3ca49039	0.020088302
2	0x3d531579	0.05153415
3	0xbddd7638	-0.10813564
4	0xbbb99f27	-0.0056647244
5	0xbe02377d	-0.1271648
6	0xbd4f302c	-0.05058305
7	0xbe9729cd	-0.2952408
8	0xbde51c0f	-0.111869924
9	0x3d4e35ae	0.05034416
10	0xbe97092a	-0.2949918
11	0xbdb92ac3	-0.09041359
12	0xbea1a9bb	-0.31574807
13	0x3d056bbd	0.03257345
14	0x3e1a986c	0.15097207
15	0xbd5c2916	-0.05375012
16	0x3d419ac5	0.04726674
17	0x3d2a8173	0.04162736
18	0xbc9ba794	-0.019000806
19	0xbded4455	-0.11585299
20	0x3db6a413	0.089180134
21	0x3de7bc64	0.113152295
22	0x3c1df0b0	0.009639904
23	0x3cef5bfe	0.02921867
24	0x3ddf1cc3	0.10894158
25	0x3ded59a0	0.1158936
26	0x3e168bd2	0.14701775
27	0xbd8a3369	-0.06748087
28	0xbe58a078	-0.21154964
29	0xbd2eabce	-0.042644314
30	0xbce706e0	-0.02820152
31	0xbe0c5220	-0.13703203
32	0x3dbd5d9c	0.0924637
33	0x3d193128	0.037400395
34	0x3bd76f1f	0.006574526
35	0x3d51e050	0.05123931
36	0xbcdf0ad7	-0.027226849
37	0x3dc91485	0.09818367
38	0xbe1ece24	-0.15508324
39	0x3df38c8e	0.11892043
40	0x3d9be18f	0.07611381
41	0x3d901909	0.07036025
42	0x3defb675	0.11704723
43	0x3d2a7eeb	0.041624945
44	0x3d51fbdc	0.051265582
45	0x3d899d89	0.067195006
46	0x3dd0db88	0.10198122
47	0x3de99a62	0.11406399
48	0x3c75b16c	0.014995914
49	0xbdabb01c	-0.083831996
50	0xbe80a1a4	-0.25123322
51	0xbd18e6ca	-0.037329473
52	0xbe0e39a0	-0.1388917
53	0xbd055fae	-0.03256195
54	0x3d49927c	0.049211964
55	0xbd0e4477	-0.034733262
56	0x3cd76e57	0.026297731
57	0x3dd23275	0.1026353
58	0x3cfae9fc	0.03062915
59	0x3e15cd46	0.14629087
60	0x3d64c0cc	0.055847928
61	0xbdc635e8	-0.096782506
62	0x3e1b610b	0.15173738
63	0xbce02cfb	-0.027365198
64	0xbd4e98ff	-0.050438877
65	0xbd9c194d	-0.07622013
66	0x3bb08ffe	0.005388259
67	0x3de0bd4d	0.10973606
68	0x3ca22941	0.019795062
69	0xbd97759c	-0.07395479
70	0x3c12df8b	0.00896443
71	0xbde82a66	-0.11336212
72	0x3ca3ae34	0.019980527
73	0xbdd46711	-0.10371221
74	0xbe04f7ab	-0.12985103
75	0x3cb991a5	0.022652457
76	0xbd603b12	-0.054743834
77	0x3dddd06f	0.10830771
78	0x3e380297	0.17969738
79	0xbd47563f	-0.048666235
80	0x3e4b232d	0.19837637
81	0x3ce42bb8	0.027852878
82	0x3a449b7a	0.00074999745
83	0x3be87808	0.007094387
84	0xbd129f6d	-0.03579657
85	0x3d2938f1	0.04131407
86	0xbd741da2	-0.059598573
87	0xbc0ac13a	-0.00846892
88	0x3dbed093	0.09317126
89	0xbbaabc4f	-0.0052104364
90	0x3dcbf6dd	0.09959195
91	0xbd2bb8c3	-0.04192425
92	0x3dfd31e4	0.123630315
93	0xbc183cc6	-0.009291833
94	0xbdb976f3	-0.09055891
95	0x3b666cf2	0.0035160151
96	0xbd6fdb3b	-0.058558684
97	0xbdbdfb57	-0.09276455
98	0xbdd12e52	-0.10213913
99	0xbd5eb351	-0.05437023
100	0x3d2d26e5	0.04227342
101	0x3d5cab9d	0.0538746
102	0x3d5700e1	0.052491073
103	0xbd14ae65	-0.036299128
104	0xbd5fd70b	-0.05464844
105	0xbc8ef5ef	-0.017451255
106	0xbda0cc6e	-0.07851492
107	0x3d8e9487	0.06961923
108	0xbd11e151	-0.03561527
109	0x3d70e59a	0.058812715
110	0xbd301d83	-0.042996895
111	0x3dc482b1	0.0959524
112	0x3d2e3eaf	0.04254025
113	0x3d81ea4c	0.06343517
114	0x3d18048d	0.037113715
115	0x3e1a0641	0.15041448
116	0x3d809c96	0.062798664
117	0xbda07244	-0.078342944
118	0xbc069d23	-0.008216175
119	0xbdcb02e2	-0.09912659
120	0x3c3ba6aa	0.01145331
121	0xbdceb8a2	-0.1009381
122	0x3e25bc09	0.16185011
123	0x3dbd2365	0.092352666
124	0x3ca8044a	0.020509858
125	0x3d29ce4b	0.041456502
126	0xbdf1bae8	-0.11803228
127	0x3db0c04f	0.0863043
128	0x3df512b1	0.11966456
129	0xbcabaeb6	-0.020957332
130	0xbd1e841f	-0.03870022
131	0xbc298eac	-0.010348957
132	0x3cf30b47	0.029668463
133	0xbcec583c	-0.028850667
134	0xbd95defa	-0.0731792
135	0xbe7f46c0	-0.24929333
136	0x3e0d7951	0.1381581
137	0x3dd4f933	0.103990935
138	0x3c36f17d	0.011165974
139	0xbdfe1840	-0.12406969
140	0xbd1764bd	-0.036961306
141	0x3da0728a	0.078343466
142	0x3dae9907	0.085252814
143	0xbbd80f77	-0.0065936404
144	0xbbf2c707	-0.00740898
145	0xbd69d6ec	-0.05708973
146	0x3d43f76d	0.047843385
147	0x3d91d7cc	0.07121238
148	0xbe55c5d1	-0.20876242
149	0xbc963370	-0.018335074
150	0xbdf6fe13	-0.120601796
151	0x3e0c3694	0.13692695
152	0x3dbe6f45	0.09298567
153	0xbe86376e	-0.26214164
154	0x3d835281	0.06412221
155	0xbee3007b	-0.44336304
156	0xbe4e71a1	-0.20160533
157	0x3d7a7f14	0.061156347
158	0xbe104800	-0.14089966
159	0x3be90966	0.007111716
160	0x3e15ffad	0.14648314
161	0x3ca31ffe	0.019912716
162	0xbd895e81	-0.06707478
163	0xbe842fbd	-0.2581767
164	0x3d5c4845	0.05377986
165	0xbdf7df12	-0.12103094
166	0xbe03f93a	-0.12888041
167	0xbdbb6dc8	-0.091517985
168	0xbe8800ef	-0.26563212
169	0x3e23cd7c	0.15996355
170	0x3de3afb4	0.11117497
171	0x3765ca83	1.3696615e-05
172	0x3d6c181b	0.057640176
173	0x3d995d16	0.07488458
174	0xbdbcb108	-0.092134535
175	0xbc7f8486	-0.015595561
176	0xbcbc39b3	-0.022976732
177	0xbdc327ed	-0.095290996
178	0x3c864445	0.016389975
179	0x3e0c654c	0.13710517
180	0x3d8d47fa	0.06898494
181	0x3d7df4df	0.062001105
182	0xbdbd3489	-0.09238536
183	0xbd46e88d	-0.04856162
184	0xbe138940	-0.14407825
185	0xbd3d8c0e	-0.046276145
186	0x3d252bb8	0.040324897
187	0xbe525870	-0.20541549
188	0x3dad6d64	0.0846813
189	0x3e381908	0.17978299
190	0xbe1c5b6a	-0.15269247
191	0x3cfab063	0.030601686
192	0xbd7b6aee	-0.061381273
193	0x3d289767	0.041160014
194	0xbe185d80	-0.14879417
195	0x3ce7a750	0.028278023
196	0xbdc4093c	-0.09572074
197	0xbe01648c	-0.12636012
198	0xbd890c3a	-0.06691785
199	0x3d6d9e5f	0.058012363
200	0x3d45a92e	0.048257045
201	0xbe904152	-0.28174835
202	0x3e5184b3	0.20460777
203	0xbdadf48a	-0.08493908
204	0x3e88eeef	0.26744792
205	0x3e06e9b1	0.13175084
206	0x3ebb415e	0.3657331
207	0xbe33aa86	-0.17545518
208	0x3ec4f8d4	0.3847109
209	0xbd060a74	-0.032724813
210	0x3c36c334	0.0111549385
211	0x3bc012c0	0.00586161
212	0xbc306ca7	-0.010768092
213	0x3d36d5ea	0.044637598
214	0x3ccd2460	0.025041759
215	0xbd094940	-0.033517122
216	0x3e2d92fb	0.169506
217	0x3dab8fd3	0.08377042
218	0xbd7880e9	-0.060669813
219	0xbca00903	-0.019535547
220	0x3cdbce32	0.02683172
221	0xbd3915ee	-0.04518693
222	0xbe186e0f	-0.14885734
223	0x3d5ae391	0.05343968
224	0xbe13636b	-0.14393394
225	0x3dd9d01b	0.10635396
226	0x3d4febbf	0.050761934
227	0x3c75b99c	0.014997866
228	0xbd77e02b	-0.060516518
229	0xbdaab987	-0.08336168
230	0x3d138a2d	0.036020447
231	0xbd241740	-0.040061235
232	0x3bff5790	0.0077924207
233	0x3c818112	0.015808616
234	0xbdb6e894	-0.089310795
235	0xbd4ed350	-0.050494492
236	0xbda0cf07	-0.07851987
237	0x3e0b1641	0.13582708
238	0x3dde39c2	0.1085086
239	0x3cc5218f	0.024063854
240	0x3d23ce82	0.039991863
241	0x3d0fc34d	0.035098363
242	0x3cf7f624	0.030268736
243	0xbca28e3d	-0.019843215
244	0xbe36d19c	-0.17853397
245	0xbe805be9	-0.25070122
246	0xbddb4586	-0.1070662
247	0xbcb9e3da	-0.022691656
248	0x3942ff4d	0.00018596389
249	0x3ce786d8	0.02826254
250	0x3d3c689b	0.045998197
251	0xbdb8384a	-0.08995111
252	0xbec00dcc	-0.37510526
253	0xbc9584e4	-0.018251844
254	0x3df36076	0.11883633
255	0x3deb7201	0.11496354

layers.1.bias f4 [128]
0	0x3e9851ec	0.2975
1	0xbd04523e	-0.032304995
2	0x3e19f00b	0.15032975
3	0x3e2ab325	0.166699
4	0xbe09c465	-0.13453825
5	0x3d8424f1	0.064523585
6	0xbd5b4620	-0.053533673
7	0x3c758cdb	0.014987196
8	0xbdfb7cac	-0.12279639
9	0x3d90f020	0.0707705
10	0x3e169d60	0.14708471
11	0xbd067012	-0.032821722
12	0xbc335e32	-0.010947751
13	0x3dd4ea93	0.10396304
14	0x3e0b5eb9	0.13610353
15	0x3e5e298f	0.21695541
16	0x3db0d16a	0.086336926
17	0x3d448b57	0.047984447
18	0x3e0d638d	0.13807507
19	0x3de3c3bc	0.11121318
20	0x3d3fd422	0.046833165
21	0xbd08b0c8	-0.033371717
22	0xbb768cea	-0.0037620612
23	0xbdab17e7	-0.083541684
24	0xbc958f42	-0.018256787
25	0x3e5c8bb6	0.2153767
26	0x3e61043f	0.21974276
27	0xbd3c2951	-0.04593784
28	0xbd0bba8e	-0.03411346
29	0xbd948a52	-0.07252945
30	0x3cdfb0cd	0.027305985
31	0xbdad0fda	-0.08450289
32	0x3d84f31d	0.06491683
33	0x3db45539	0.088053174
34	0xbdfe0184	-0.12402633
35	0xbb233090	-0.0024900772
36	0x3dcf1b08	0.10112578
37	0xbe2dff5d	-0.16991945
38	0x3e155511	0.14583232
39	0x3cabd910	0.020977527
40	0x3d88462a	0.06654008
41	0x3e01a4e8	0.12660563
42	0xbe208ac8	-0.15677941
43	0x3e4d6b8b	0.20060556
44	0x3d98f338	0.07468265
45	0x3d959141	0.073030956
46	0xbb86a859	-0.004109424
47	0x3e843cd8	0.2582767
48	0x3dfdfa0f	0.124012105
49	0xbe12a02f	-0.14318918
50	0x3ca1c439	0.019746887
51	0xbd28ac01	-0.04117966
52	0x3df1b03d	0.11801193
53	0x3ce7f804	0.028316505
54	0x3e0db99d	0.13840337
55	0x3d8125f1	0.06306065
56	0x3da8162d	0.08207355
57	0xbdc0652d	-0.09394298
58	0x3dda053a	0.10645528
59	0xbcc3ef4e	-0.02391782
60	0xbc4fbaf3	-0.0126788495
61	0x3cf53552	0.029932652
62	0x3d438489	0.047733817
63	0xbd6ed7a5	-0.058311123
64	0x3e5324f8	0.20619571
65	0x3da731e8	0.08163816
66	0xbc923096	-0.017845433
67	0xbd9354c7	-0.07193904
68	0x3db365c1	0.087596424
69	0xbc8a01a6	-0.01684649
70	0x3c860081	0.016357662
71	0x3daa7760	0.0832355
72	0xbcdb7da1	-0.026793303
73	0x3e4e8e61	0.201715
74	0x3dcd8a07	0.10036092
75	0xbdd14740	-0.10218668
76	0x3d98d8d3	0.07463231
77	0x3df0fe82	0.117672935
78	0x3d6a9f81	0.05728102
79	0xbdb14e91	-0.086575635
80	0x3e282a50	0.16422391
81	0x3a0561f6	0.00050881447
82	0xbdbfe3ca	-0.09369619
83	0xbd87eba1	-0.066367395
84	0xbd9a215c	-0.07525894
85	0x3e63c4d3	0.22243051
86	0xbdc0eeab	-0.09420522
87	0x3e7fc8a2	0.24978879
88	0xbb0b095b	-0.0021215293
89	0xbdd5bd54	-0.10436502
90	0xbdbb7ee6	-0.09155063
91	0xbd60767e	-0.054800503
92	0x3bc2be49	0.005943094
93	0x3dbc48b2	0.09193553
94	0x3e044bf9	0.12919606
95	0x3e8c821b	0.27443013
96	0xbdcdb3a2	-0.10044028
97	0x3c962f87	0.01833321
98	0x3e8bd9e6	0.2731468
99	0x3d625dfc	0.05526541
100	0x3df0365b	0.117291175
101	0x3cb56936	0.022144895
102	0x3ced8965	0.028996179
103	0x3e0207bc	0.12698263
104	0x3c4fdd63	0.01268706
105	0xbd61407a	-0.05499313
106	0xbda971be	-0.08273648
107	0x3cc2250f	0.023699312
108	0xbd91c374	-0.07117358
109	0xbbe1ee78	-0.006894883
110	0xbd8fdd1c	-0.07024595
111	0x3e40707b	0.18792908
112	0x3c2a6642	0.010400357
113	0x3da49b0d	0.08037386
114	0x3b69eacb	0.0035692926
115	0xbd0ba576	-0.034093343
116	0x3ca65628	0.020304754
117	0x3e0c8fd5	0.13726743
118	0x3e732fd3	0.23748712
119	0x3e47b830	0.19503856
120	0xbd366d3c	-0.044537768
121	0x3e261802	0.16220096
122	0x3de08bab	0.109641396
123	0xbd213114	-0.039353445
124	0xbdbac4ff	-0.09119605
125	0xbc46e7c0	-0.012140214
126	0xbd289f63	-0.041167628
127	0x3d431edb	0.047636848

layers.2.weight f4 [128, 128]
0	0xbc6acad6	-0.014330586
1	0x3e4fa700	0.20278549
2	0x3dcd05cc	0.10010871
3	0xbe1c4b18	-0.15263021
4	0xbedfe50a	-0.4372943
5	0x3df323cd	0.11872063
6	0x3b895749	0.0041913134
7	0x3ef59065	0.47961727
8	0xbef2d757	-0.47429916
9	0x3e4eb672	0.20186785
10	0xbc35bca8	-0.011092342
11	0x3e0bad5b	0.13640349
12	0x3c7d116e	0.01544605
13	0x3d6e0be0	0.058116794
14	0xbdb1ef22	-0.08688189
15	0xbd751283	-0.059832107
16	0x3d107b8f	0.035274085
17	0x3d018b3b	0.03162692
18	0x3d327464	0.04356803
19	0x3e24218a	0.16028419
20	0x3cfcc998	0.030857846
21	0xbcb733fc	-0.022363655
22	0x3dbf3fd5	0.09338347
23	0xbd2d778e	-0.042350344
24	0xbd5042ac	-0.050844833
25	0xbdb0ae90	-0.08627045
26	0xbb5ed67c	-0.0034002354
27	0xbe857505	-0.2606584
28	0x3d7846bd	0.060614336
29	0x3e181d82	0.14855006
30	0x3d4043ec	0.046939775
31	0xbebfba27	-0.3744671
32	0x3db4bfa8	0.08825618
33	0xbdc036b4	-0.09385434
34	0xbe484eba	-0.19561282
35	0xbd9a61c7	-0.07538181
36	0x3dc6f2bd	0.097142674
37	0x3e5c4e79	0.2151431
38	0x3e8c25ba	0.27372533
39	0xbe80f229	-0.25184754
40	0xbd25737b	-0.040393334
41	0xbbc09d54	-0.00587813
42	0xbecd185e	-0.40057653
43	0xbaa1120f	-0.0012288707
44	0xbdadc109	-0.08484084
45	0x3d2b897a	0.041879155
46	0xbe9505e8	-0.2910607
47	0x3db6f337	0.08933108
48	0x3d7f8354	0.062381104
49	0xbd4d58e4	-0.0501336
50	0x3c159a54	0.009131033
51	0x3db50c88	0.08840281
52	0x3db2cd7f	0.087306015
53	0x3e8e2b18	0.27767253
54	0x3c7ee3a0	0.0155572
55	0x3d93dae0	0.072194815
56	0x3d982c6f	0.0743035
57	0xbd8ea361	-0.06964756
58	0x3e14eb8e	0.14542982
59	0x3d8376e8	0.06419164
60	0x3d9e699f	0.077349894
61	0x3d233be4	0.039852038
62	0x3d1032f9	0.03520486
63	0xbcdbf819	-0.0268517
64	0x3e672b10	0.22575021
65	0x3ccbec39	0.024892913
66	0xbe7cfea7	-0.24706517
67	0x3dee8152	0.1164576
68	0x3e205f5b	0.15661375
69	0x3e38aa56	0.18033728
70	0x3d2f34ca	0.042774953
71	0xbd80474c	-0.06263599
72	0xbd437797	-0.04772147
73	0xbe346037	-0.17614828
74	0xbcdcfcc6	-0.026976
75	0xbb057c4d	-0.0020368278
76	0xbd52a958	-0.05143103
77	0x3dfc54a4	0.123208314
78	0x3cd372f2	0.025811646
79	0xbe8ec393	-0.27883586
80	0xbc013e9c	-0.007888462
81	0x3de3f78c	0.111312
82	0xbb643c46	-0.0034825965
83	0x3e266515	0.16249497
84	0x3df677d8	0.12034577
85	0xbd49ac03	-0.04923631
86	0xbe35d5bb	-0.17757313
87	0x3db97e4d	0.09057293
88	0x3e04c9e0	0.12967634
89	0xbb2793ba	-0.002557023
90	0xbd05de18	-0.03268251
91	0xbb9a4258	-0.004707616
92	0x3dd0f859	0.102036186
93	0x3dbafee4	0.09130648
94	0x3c27e81a	0.010248208
95	0xbc52bffd	-0.012863156
96	0x3dc18375	0.094489016
97	0x3e42b581	0.19014551
98	0xbd8c7df4	-0.06859961
99	0x3f013266	0.50467527
100	0x3e362c11	0.17790247
101	0x3dcaba1a	0.09898777
102	0xbd82f3d9	-0.063941665
103	0xbc1da5cc	-0.009622049
104	0xbe8f3244	-0.27968037
105	0x3e180cf1	0.14848687
106	0x3dc43f26	0.09582357
107	0x3d1f371f	0.038870927
108	0x3dcc2552	0.09968056
109	0xbe6a4f84	-0.22881895
110	0xbea1c6f1	-0.31597093
111	0x3d49b8f0	0.049248636
112	0x3da8df0a	0.08245666
113	0x3eaf2cea	0.34213954
114	0x3dd3e649	0.10346658
115	0x3dc5e29b	0.09662362
116	0x3d74b645	0.05974414
117	0x3dc24f6d	0.094878055
118	0x3e24c63d	0.16091247
119	0xbd201555	-0.039082844
120	0x3d85fbe3	0.06542184
121	0xbde4bdac	-0.111689895
122	0x3df50429	0.11963684
123	0xbd92cb48	-0.07167679
124	0xbe3cc151	-0.1843312
125	0xbe375954	-0.1790517
126	0xbd19d3d8	-0.037555546
127	0xbcbdfe7f	-0.023192642
128	0xbe236c22	-0.15959218
129	0x3dfcc6a8	0.12342578
130	0x3e016b96	0.12638697
131	0xbcd49468	-0.025949672
132	0xbec163b0	-0.37771368
133	0x3e0a83e8	0.1352688
134	0xbd02e61a	-0.031957723
135	0x3eab8bbc	0.33505046
136	0xbe92ab64	-0.28646386
137	0x3d6ada3c	0.05733703
138	0xbd4b6431	-0.049656097
139	0x3dec4ee8	0.11538488
140	0x3da1b969	0.07896692
141	0x3d2fbbad	0.04290359
142	0xb932db31	-0.00017057058
143	0x3d773d19	0.060361
144	0x3d3b4f94	0.04573019
145	0x3cccd028	0.0250016
146	0x3e00e19b	0.12586062
147	0x3e02322b	0.1271445
148	0x3de0cc58	0.109764755
149	0x3cd38dd7	0.02582447
150	0xbbf62ebf	-0.007512897
151	0x3b71d3f3	0.0036900013
152	0x3db9293e	0.090410694
153	0xbdeb9151	-0.11502326
154	0x3c37299f	0.011179357
155	0xbe0d3484	-0.13789564
156	0x3d5fadf3	0.05460925
157	0x3db1a7f8	0.086746156
158	0x3c0b77a2	0.008512409
159	0xbe4f9d43	-0.20274834
160	0x3db18728	0.08668357
161	0x3cdb3240	0.02675736
162	0xbe2c779a	-0.168425
163	0xbd835418	-0.06412524
164	0x3cb29aab	0.021802267
165	0x3c0d4f31	0.008624838
166	0x3e687ba9	0.22703423
167	0xbe88d891	-0.26727727
168	0x3dc08bdd	0.09401677
169	0x3df6c472	0.12049188
170	0xbee07962	-0.43842608
171	0xbd445fcb	-0.047942918
172	0xbdc92e0b	-0.09823235
173	0xbd29989b	-0.0414053
174	0xbe764dd8	-0.24053133
175	0x3dd6520a	0.104648665
176	0x3dd1dd1a	0.1024725
177	0x3c47711b	0.012172963
178	0xbbcc0c93	-0.006227085
179	0xbd977a87	-0.07396417
180	0x3daa99e9	0.08330137
181	0x3e1160ed	0.1419713
182	0xbb0fcee6	-0.002194339
183	0x3d87cdf8	0.06631082
184	0x3e0d4edc	0.13799614
185	0xbb3e158c	-0.0029004542
186	0x3e54feb3	0.20800285
187	0x3c14652f	0.009057327
188	0xbd51f99a	-0.05126343
189	0xbd3ced29	-0.04612461
190	0x3c4b2ba0	0.012400538
191	0x3d99491c	0.07484648
192	0x3e8465e7	0.25858995
193	0x3d032f25	0.032027382
194	0xbe9c73c8	-0.30557084
195	0x3e03c1bf	0.12866877
196	0x3e034527	0.12819348
197	0x3d921200	0.071323395
198	0x3de6650e	0.112497434
199	0xbe21f1fc	-0.15814966
200	0x3db2e72e	0.087355
201	0xbe7e6f8e	-0.24847242
202	0x3dc6cc7a	0.097069696
203	0x3d08d854	0.03340943
204	0x3d62f5cd	0.055410195
205	0x3e365ab0	0.17808032
206	0x3da7da1a	0.081958964
207	0xbe0f0431	-0.13966443
208	0x3d4c5758	0.049887985
209	0x3d92b1bb	0.07162806
210	0x3d86d11a	0.06582852
211	0x3d369bd6	0.04458221
212	0x3d832876	0.06404202
213	0x3ccf252a	0.025286276
214	0xbd8c1ad6	-0.06841056
215	0x3ca9aecf	0.020713238
216	0x3e0360d9	0.12829913
217	0x3d065aa0	0.03280127
218	0xbc97e1dc	-0.018540315
219	0x3d89dd57	0.0673167
220	0x3dc36f4c	0.095427126
221	0x3e0afec7	0.13573752
222	0xbd46edb6	-0.048566543
223	0xbdf34482	-0.11878301
224	0x3d907efc	0.0705547
225	0x3e287ed2	0.16454628
226	0x3de442e5	0.111455716
227	0x3ec1eb96	0.3787505
228	0x3dce0798	0.10060042
229	0x3ddb7350	0.107153535
230	0xbc9050e8	-0.017616704
231	0x3dd1a929	0.10237343
232	0xbe3fd103	-0.18732075
233	0xbd696ba4	-0.05698742
234	0x3d33fd16	0.043942533
235	0x3dbecad4	0.0931603
236	0x3c2ca2b8	0.010536842
237	0xbe856b56	-0.26058453
238	0xbe8e1e63	-0.27757558
239	0x3e11b5cb	0.14229505
240	0x3d7b7bca	0.06139735
241	0x3e476be7	0.19474755
242	0x3dd45fb2	0.10369815
243	0x3ce6eb23	0.028188294
244	0x3e2b20fc	0.16711801
245	0x3dd2a0fa	0.1028461
246	0x3e0c258e	0.13686201
247	0x3d2284a0	0.039677262
248	0x3c0fa556	0.0087674465
249	0xbc9a891c	-0.018864207
250	0x3e05ae97	0.13054882
251	0x3d66f093	0.056381773
252	0xbe21ea18	-0.15811956
253	0xbd912666	-0.07087402
254	0xbd65141e	-0.05592739
255	0xbd0f9020	-0.035049558

layers.2.bias f4 [128]
0	0x3d5cef4b	0.053939145
1	0x3dcb920b	0.09939965
2	0x3dea1b5b	0.11430999
3	0xbc8f1624	-0.017466612
4	0x3d9d83f0	0.07691181
5	0x3e9d2f85	0.30700317
6	0xbe09c96b	-0.13455741
7	0xbd3d4d46	-0.04621627
8	0xbdcabd5b	-0.09899398
9	0xbc9691d2	-0.01838008
10	0x3c0b27c4	0.008493368
11	0xbdf9bced	-0.12194238
12	0x3eb3d700	0.3512497
13	0x3d3bc038	0.04583761
14	0x3ce3090c	0.027714275
15	0xbdc9b914	-0.09849754
16	0x3d83417f	0.06408977
17	0x3db0d9da	0.08635302
18	0x3d58f4d3	0.052967858
19	0x3dbb1278	0.09134382
20	0xbda8ac33	-0.082359694
21	0xbc659cb7	-0.0140144145
22	0xbce8e4b8	-0.028429374
23	0xbd599519	-0.053120706
24	0xbd8175b6	-0.0632128
25	0xbe31cfca	-0.17364421
26	0xbcbb47ec	-0.022861443
27	0x3d939065	0.072052754
28	0x3e680bcd	0.22660752
29	0x3d873613	0.06602111
30	0x3dad5358	0.08463162
31	0xbd5fb2cc	-0.054613873
32	0x3d097232	0.03355617
33	0x3bd063bf	0.006359547
34	0xba902e1b	-0.0011000069
35	0x3dad04b2	0.08448161
36	0xbd98e858	-0.07466191
37	0xbd71f7d8	-0.059074253
38	0x3d2f0dc5	0.04273774
39	0x3ea87275	0.32899824
40	0xbc61899f	-0.013765722
41	0xbcab8a1b	-0.020939877
42	0xbe417e68	-0.18895876
43	0xbb4dbc0f	-0.003139261
44	0xbddc5d51	-0.10759986
45	0xbd96fe37	-0.073727064
46	0x3e9e763e	0.30949587
47	0x3d9c7198	0.07638854
48	0x3d9e523c	0.07730529
49	0x3c66e5bc	0.014092859
50	0xbdbfeb04	-0.093709975
51	0xbcab0a71	-0.020879002
52	0x3d2ef6f7	0.042715993
53	0x3e897c40	0.26852608
54	0xbe20261d	-0.15639539
55	0x3eacdd96	0.33762807
56	0x3d8b139f	0.06790852
57	0xbd023171	-0.031785432
58	0x3dc6d1d6	0.09707992
59	0x3e2b9d8c	0.16759318
60	0xbd11d90e	-0.03560739
61	0x3ec34f9f	0.38146684
62	0xbbef2fa8	-0.0072993822
63	0xbd3b881f	-0.045784112
64	0xbdc13c3c	-0.09435317
65	0xbdfee829	-0.12446625
66	0x3d8d4516	0.06897943
67	0x3da4e894	0.08052173
68	0x3e98a5a1	0.29813865
69	0xbd964d15	-0.07338921
70	0x3c85a96b	0.016316136
71	0xbe0d3ba1	-0.13792278
72	0x3e1ddbaf	0.15415834
73	0x3ea63f38	0.32470107
74	0xbd26691d	-0.040627588
75	0x3b8a9927	0.004229683
76	0x3da79957	0.08183544
77	0xbe0efac8	-0.13962853
78	0xbdc35692	-0.09537996
79	0x3e1b0b13	0.15140943
80	0x3cabb1a8	0.020958737
81	0x3d57ee8e	0.052717738
82	0xbc3e9a83	-0.011633518
83	0x3e871136	0.26380318
84	0x3eb76488	0.35818887
85	0xbcb150e5	-0.021645019
86	0x3eb05123	0.34436902
87	0xbd36398f	-0.044488486
88	0xbcfacffe	-0.030616757
89	0xbbbae5c7	-0.005703661
90	0x3db28901	0.08717538
91	0x3c3d0328	0.011536397
92	0x3a9155be	0.0011088175
93	0xbd458415	-0.048221666
94	0x3cf0d3eb	0.029397925
95	0x3d682ad2	0.05668146
96	0xbda2173e	-0.07914589
97	0xbd9eeb92	-0.07759775
98	0xbd1bdcb9	-0.038052294
99	0x3d5acf16	0.05342015
100	0xbd90f09f	-0.07077145
101	0x3d146993	0.036233496
102	0x3da34737	0.079725675
103	0xbe2e5476	-0.17024407
104	0xbd421373	-0.04738183
105	0xbd4afa65	-0.0495552
106	0x3da79f8d	0.08184729
107	0x3ec4b239	0.38417223
108	0xbdb98283	-0.09058096
109	0xbd502edf	-0.05082595
110	0xbde8c292	-0.11365236
111	0x3e5ac84d	0.21365471
112	0x3e99262f	0.29911944
113	0x3d912f25	0.0708907
114	0x3d44b7fe	0.04802703
115	0x3e373d3c	0.17894453
116	0x3e8cd5c1	0.2750683
117	0x3e9a5359	0.30141714
118	0x3d3b5288	0.045733005
119	0x3d6f0398	0.058353037
120	0xbe960e4e	-0.2930779
121	0xbdc3d282	-0.095616356
122	0x3db7e94c	0.08980045
123	0x3db60c0b	0.08889016
124	0x3ebc499c	0.3677491
125	0xbda91b53	-0.08257165
126	0x3d827506	0.06369977
127	0x3c906452	0.017625961

layers.3.weight f4 [1, 128]
0	0x3dd02fa1	0.101653345
1	0x3d972fdd	0.07382176
2	0x3e43d220	0.19123125
3	0xbe03c19b	-0.12866823
4	0x3e332369	0.17493977
5	0xbf15c92e	-0.585101
6	0x3b52f065	0.0032186743
7	0x3e2fb274	0.17157918
8	0xbcf7ae7c	-0.030234568
9	0xbce5d085	-0.028053531
10	0x3e323e96	0.17406687
11	0x3d766a12	0.06015975
12	0xbeaf1b4c	-0.34200513
13	0x3e12de91	0.14342715
14	0x3e28d3e6	0.16487083
15	0x3cdf9ae0	0.02729553
16	0x3dca0c69	0.09865648
17	0x3e561218	0.2090534
18	0xbf106e23	-0.56418055
19	0x3e2913c3	0.16511445
20	0xbda7d82f	-0.081955306
21	0x3e473aff	0.19456099
22	0x3e03915d	0.1284842
23	0xbea294c5	-0.31754127
24	0x3efe8d27	0.49717066
25	0x3f05d72c	0.5228145
26	0xbef39332	-0.4757324
27	0xbec4d279	-0.38441828
28	0xbef0e90f	-0.4705281
29	0x3e84fd66	0.25974578
30	0x3defde56	0.11712329
31	0x3e0d91b3	0.13825111
32	0x3ded6cad	0.11592994
33	0x3e8599c1	0.26093867
34	0x3e141de7	0.14464532
35	0x3e40426d	0.1877534
36	0x3bce889a	0.0063029053
37	0x3ee01c97	0.43771812
38	0xbe975e49	-0.2956412
39	0xbf09994f	-0.53749555
40	0x3eb1a8ef	0.346992
41	0x3dffcda6	0.12490396
42	0xbe8eb0b4	-0.2786919
43	0x3e255749	0.16146578
44	0xbbc99285	-0.0061514997
45	0x3e3f9f53	0.18713121
46	0xbeac7eb5	-0.3369042
47	0x3ea219a0	0.31660175
48	0x3e19b7a8	0.15011466
49	0x3e76ecc2	0.24113753
50	0x3a853053	0.0010161496
51	0x3e454d95	0.19267876
52	0x3dcea80a	0.10090645
53	0xbe3f05b2	-0.18654516
54	0xbead5f9d	-0.3386201
55	0xbf0e94e6	-0.5569595
56	0xbea81312	-0.3282705
57	0x3df966ce	0.121778116
58	0x3e1cf40b	0.1532747
59	0xbecaeabe	-0.3963222
60	0xbea7efb6	-0.32800072
61	0xbf11aa7c	-0.56900764
62	0x3e1144d6	0.14186415
63	0x3ea2d4cd	0.3180298
64	0xbd283768	-0.041068465
65	0x3e67c12d	0.22632284
66	0x3dcc47d7	0.0997464
67	0x3e2743d9	0.16334476
68	0xbf04a76c	-0.51817966
69	0x3e913f98	0.2836883
70	0x3e80078d	0.2500576
71	0xbe69d20b	-0.22834031
72	0xbef52a74	-0.47883952
73	0xbf0466ef	-0.51719564
74	0xbc432044	-0.011909548
75	0x3e75b389	0.23994268
76	0x3dfd8810	0.123794675
77	0xbd45cf02	-0.04829312
78	0xbeb980d5	-0.36231104
79	0xbea5a8be	-0.32355303
80	0x3e3c36bc	0.18380255
81	0xbea367fd	-0.31915274
82	0x3e701eeb	0.23449294
83	0xbe5a54a6	-0.21321353
84	0xbeda29e2	-0.4261008
85	0x3e261346	0.1621829
86	0xbedc349d	-0.4300889
87	0x3e4817d1	0.19540335
88	0x3e150c97	0.14555584
89	0x3e943827	0.2894909
90	0x3dc8ff1e	0.09814285
91	0x3e3603a0	0.1777482
92	0x3e0382a4	0.12842804
93	0x3f171b76	0.5902628
94	0x3e6e6129	0.23279251
95	0x3e143f19	0.14477195
96	0x3c0c0ad2	0.008547502
97	0xbf056a9d	-0.52115804
98	0x3d43388a	0.04766134
99	0x3e1f5c50	0.15562558
100	0x3f0a4a5c	0.54019713
101	0x3e29aef1	0.16570641
102	0x3dc9a70c	0.09846315
103	0xbf02845e	-0.50983226
104	0x3e4d35e4	0.20040089
105	0x3e64285f	0.22281025
106	0x3e1b9833	0.15194778
107	0xbecce4e5	-0.40018383
108	0xba4796cb	-0.00076137175
109	0xbe995487	-0.29947302
110	0xbebffb75	-0.37496534
111	0xbe3dd723	-0.185391
112	0xbee99287	-0.45619604
113	0x3e4151ca	0.18878856
114	0x3e6593d9	0.2241968
115	0xbea4d95b	-0.3219708
116	0xbead2954	-0.33820593
117	0xbe9fc6c7	-0.31206343
118	0x3df91c18	0.121635616
119	0x3e8c1931	0.2736297
120	0xbee880ed	-0.45410863
121	0x3bb89a99	0.005633664
122	0x3e1d66cf	0.1537125
123	0x3e3f9fcc	0.18713301
124	0xbee0cec1	-0.4390774
125	0xbd0d30a3	-0.03447021
126	0x3e2dad88	0.16960728
127	0x3ea84131	0.32862237
