new_models/base+wp_16849288/qf4_final.pth (torch, 186584 bytes, 7 tensors)

layers.0.weight f4 [128, 98]
00000000: 34b0 a13d 9f85 9abc a287 32bd fd06 79bc
00000010: 3cab 103e 1b3f 213d a113 d4bd 49dc 0a3d
00000020: b59f debd a2a5 34be f4f8 7dbd dbd1 cdbd
00000030: 0138 23be 62e3 32be 7e9c b1bc 65d2 353d
00000040: e0c5 e83d e4f1 8bbd 2c8e 53bd c8f4 8bbd
00000050: 11fc 773a b820 3cbd e2f0 5ebb 89e6 51bd
00000060: 3821 bdbd dc1b e2bd 1789 57be 3f22 17be
00000070: 5d74 4bbe 5025 36be 7000 0fbe 8fff 54be
00000080: 5de2 bebc 0a35 da3d a03a 44bd 8416 cfbc
00000090: 4e75 a8bd f955 8d3d c42b 873d 5c61 0bbc
000000a0: 2940 00be b707 9fbc 4d2b 07be 099d b3bd
000000b0: f6af 92bd 6cbe 84ba df98 05bd 9226 d4bd
000000c0: 0eba cabd 41fb 80bc 1642 543e abd8 fc3a
000000d0: 63c6 e23d 4f28 233d c9af 2b3d 86bf 85bd
000000e0: c0ce 693a bac2 47bb 59b4 81bd fa1f cbbd
000000f0: 4e3d bebd 52b9 123d d930 e7b9 ba61 cc3c
00000100: e976 a5bd bd2e 21bd 07ee 7c3d c01a e83d
00000110: a716 7abc a96b 133e d0ef 92bd 8f0c 19be
00000120: f0bc 313e 0ce0 d03d 76fe c63d 3f11 9a3d
00000130: 144f 3d3d 0e95 993d 24ad 2abe fa57 213e
00000140: a94c 31bc 8877 f8bd 4fea 103e 3785 dd3d
00000150: eb9b 5dbd 494d 28bd d05c 183e 5821 1fbd
00000160: a3b7 46be c932 e33d 6aa7 023d 713e 8fbc
00000170: b40d c13e 365f 0c3e d856 6e3d 834e 5ebe
00000180: 3865 94bb 76c2 69bd ea05 fc3c 05f2 8d3c
00000190: c517 0b3d ff61 9ebd 3650 e13d 8930 133e
000001a0: cd04 cb3d 71f2 d93c 9db8 b8bc 70dc 483d
000001b0: e78e 943d 4bf4 9c3d 147c 803d 0e78 9ebd
000001c0: 65d8 e33b 567d b5bd 61fe 1f3d ee89 373d
000001d0: 0d68 a83d 43ac 153c bb28 b43b 5e55 223d
000001e0: 0ba1 1bbd 6067 8dbc 6ba3 8e3d 5e52 5c3d
000001f0: 65b3 b13d ad75 3b3b c180 003e 22df 723d
00000200: ed8b cb3d aa23 a33d a0c8 2cbd 731c 62bd
00000210: 0445 153c fd37 f8bb e83c f3bc 639d e53c
00000220: 89eb 4b3d e699 09be 8605 e3bd b6a1 9abd
00000230: f5be ae3d 1ffe 7c3d 8822 f03c 5fdc 843d
00000240: 404b 19bd f53e 48bd 9260 f73c 1558 febd
00000250: 1e7c 9fbd 5948 da3d 9048 863d b77d 0e3e
00000260: bb13 5a3d 8363 fb3c 6f2b fcbc 841c 3a3b
00000270: e509 1fbd d303 d13b 56e2 553d 5697 ccbd
00000280: 277d a9bd 1117 7fbe 1273 26be 033d 38be
00000290: f04f 59be 5747 eabd c0a4 3e3e 20a5 203e
000002a0: 3311 fc3b f312 713d 25a9 85bd 2d6e 3fbe
000002b0: dd5a 85bd 1958 5c3e 7e33 a2be 442e 263e
000002c0: 1c93 d63d 506b 99be 3167 92bd fd58 873d
000002d0: 33b1 9abd 4401 e73b ab9f 7f3e 9727 e53d
000002e0: 250b cdbd f965 fa3b ae13 1b3c f035 abbe
000002f0: a7ed 15bf 0902 37bd c95c 573d 0349 8dbe
00000300: d815 28be db58 64bd 02a7 06be eb63 14be
00000310: f463 cb3d d8e9 2dbd b8ba 1bbe 971b 303b
00000320: f347 d63c a22b 463d 7c02 d23c 2f80 3a3d
00000330: 9d28 88bd e26d c23d 46c7 a7bd 4711 5e3c
00000340: 57ea 91bd 8464 693d 0b1e 8e3d 4357 c7bc
00000350: dced 063d 219a 963b 5321 593d 491f 013d
00000360: 6501 7fbd 9917 38bd 60f4 1ebc f424 973d
00000370: d468 13bc a019 523d f80e 1e3d 177b 75bd
00000380: 0e22 74bd bd8b b2bd 058d 0bbd f03f 8abc
00000390: 595b 0fbc f92d 613c fb90 483d 6576 8cbd
000003a0: af46 2dbc 996b 373d 7222 c83d ecf9 73bc
000003b0: e0e6 9e3b 010d e9bc 8060 ab3d ddea 463d
000003c0: 5e1a 54bc cfff 223d 1662 13be 0e6e 3bbe
000003d0: 062e f4bd 92c9 44bd 7f5c 6c3d d9c8 c33c
000003e0: acfb 07bc 994c 313d e79d 1d3c d72a 143d
000003f0: 6dc1 653d 40d9 eb3a f779 243d 9aec 593e
0.07894936 -0.018862544 -0.04358638 -0.01519942 0.1412782 0.039366823 -0.103553064 0.033901487
-0.108703054 -0.17641309 -0.062005 -0.100497924 -0.15939333 -0.17469552 -0.021681067 0.0443901
0.11365867 -0.06833246 -0.051649258 -0.06833798 0.0009459863 -0.04592964 -0.003401809 -0.051245246
-0.092348516 -0.1104047 -0.2104839 -0.14759158 -0.19868608 -0.17787671 -0.1396501 -0.20800613
-0.023301298 0.10654648 -0.04790747 -0.025279291 -0.08225499 0.069011636 0.066001445 -0.008507099
-0.12524475 -0.019412858 -0.13200112 -0.087701865 -0.07162468 -0.0010127551 -0.032616492 -0.10358919
-0.09898768 -0.015744807 0.20728335 0.0019290646 0.110729955 0.039833363 0.04191569 -0.06530671
0.0008919053 -0.0030481056 -0.06333227 -0.099182084 -0.09289037 0.035821266 -0.00044096148 0.024948943
-0.08079321 -0.039351214 0.061750438 0.11333227 -0.01526419 0.14396538 -0.07174647 -0.14946197
0.1735723 0.101989836 0.09716503 0.07522821 0.046217993 0.07499133 -0.1666761 0.15756217
-0.0108215 -0.12132174 0.14151882 0.10816424 -0.054103773 -0.04108933 0.14879155 -0.03885016
-0.1940599 0.11093671 0.03189794 -0.01748583 0.37705767 0.13708195 0.05818829 -0.21709637
-0.004528668 -0.057070218 0.030764539 0.017327318 0.033958215 -0.07733535 0.11001627 0.14373983
0.09913025 0.026604863 -0.022548968 0.04903835 0.07253819 0.07663783 0.06273666 -0.07737742
0.0069532865 -0.088617966 0.039060954 0.044809274 0.08222971 0.009135309 0.0054980195 0.039632194
-0.03799538 -0.017261207 0.06964763 0.05378949 0.08676795 0.0028604076 0.12549116 0.059294827
0.09938798 0.07965787 -0.04218352 -0.055202913 0.009110693 -0.0075750337 -0.029692128 0.02802915
0.04978517 -0.13437614 -0.11085038 -0.07550375 0.08532516 0.061765786 0.02931334 0.06487345
-0.03742528 -0.048888166 0.030197416 -0.12419144 -0.07787345 0.106583305 0.06556809 0.13915144
0.053241473 0.0306871 -0.03078243 0.0028398344 -0.038827796 0.0063786297 0.052217804 -0.099898025
-0.08275824 -0.24911143 -0.16254833 -0.17992024 -0.212219 -0.11439388 0.18617535 0.1568799
0.00769248 0.058855962 -0.065264024 -0.18694372 -0.065114714 0.21517982 -0.3167991 0.16228586
0.10477278 -0.29964685 -0.071485884 0.0660877 -0.07553329 0.0070497114 0.24963252 0.11189192
-0.10011891 0.0076415506 0.009465141 -0.3343959 -0.58565754 -0.044679675 0.05257872 -0.27594766
-0.16414583 -0.0557488 -0.13149646 -0.1449124 0.09931174 -0.04245934 -0.15207946 0.0026871914
0.026157355 0.048381455 0.02563595 0.0455324 -0.06648371 0.09493615 -0.08192305 0.013553924
-0.07124775 0.056980625 0.06939324 -0.024333602 0.032941684 0.0045960103 0.053010296 0.031523976
-0.06225719 -0.04494438 -0.009701818 0.07380095 -0.008997161 0.05129397 0.038588494 -0.05993184
-0.05960279 -0.08718059 -0.034070034 -0.01687619 -0.008749806 0.013743871 0.04896639 -0.068585195
-0.010575934 0.044780347 0.09772195 -0.014891129 0.0048493 -0.028448584 0.08368015 0.048563827
-0.01294574 0.03979474 -0.14392886 -0.18303701 -0.11922841 -0.048043795 0.0577054 0.023899483
-0.008299749 0.04328594 0.009620166 0.036173668 0.05609267 0.0017993823 0.040155377 0.21281663

layers.0.bias f4 [128]
00000000: 317f 2c3e 6f4a e73d 0c33 0abc 86b7 913d
00000010: 91d9 8d3c d012 22be df32 cabe 340a 3fbe
00000020: f221 1e3c 067f a0be 24a2 c63d 2b54 0bbe
00000030: 630a 09be c593 993e 9954 12bd 0e91 163d
00000040: 6196 403e e0b4 893e e645 933e 0d9f 963b
00000050: baaa dabc 72b2 0c3e a142 f73d 8412 6abc
00000060: 93ec c83c 45b0 323e 4209 ab3e d43a bf3d
00000070: 9d47 173e 9845 833d cc93 0ebe cb40 2a3c
00000080: 76fc 96be db49 243e 5df0 a83d b4c6 763d
00000090: 4e8b c5be b5f9 ac3e 990f 30bb 57ee 993d
000000a0: ce67 a0bc 0d45 633d 8fde 32bd 3e90 d73d
000000b0: bd4e 87be 6192 86be 3a84 3f3e d7ec ba3d
000000c0: 6ca6 29be 793d aa3d 508a c6bd cc15 343e
000000d0: 3019 43be 91e1 1b3e 7b64 cc3d 76ad 0a3e
000000e0: ebe7 adbd bbb8 92be 1646 54bd 6075 5f3d
000000f0: 4479 3d3d a04b 0dbe f52c 663e ff50 0f3e
00000100: 5f9d 88be 7d60 4abe cd3f 4d3d a64a 013e
00000110: 9f0a 6b3e 3b52 ca3d 471a 0dbe b721 26be
00000120: 676e 053e ad0f cb3d a7eb 05be 034d 113e
00000130: a15a 723c afaa 903b dbf9 86bc c28b e93d
00000140: a7a5 983c 278a 3bbe 7eb0 e13b eebe 283e
00000150: b235 753d 7bd7 083d aea6 fa3d fd15 5e3e
00000160: bd53 f5bd a49f da3d ee75 56bc 4ee1 0ebe
00000170: ae4c d23d c502 5ebe 9543 8d3d 1716 233e
00000180: e329 303d 3828 0abe 7d4a cbbd 3545 adbd
00000190: f6be 5dbe f663 3f3e 3bb3 293e 63b7 143e
000001a0: 5740 c33d 7ed6 97bd 2611 f3bc 0186 e93d
000001b0: af94 c13d 01d3 1cbc a2fc 083e c1e9 923e
000001c0: 6c06 2cbc a049 103d 931b 823e 7289 1b3e
000001d0: 37ac 8cbd a94d b9bc 230d 913d d2d9 d33d
000001e0: 2056 be3d 750c 29bd f62d e23d b1fb ea3d
000001f0: 6186 d13d 2153 25bd 1481 83bd 67db a63d
0.16845395 0.11293494 -0.008435022 0.071150824 0.017315658 -0.15827489 -0.39491937 -0.18656236
0.009651648 -0.3134691 0.096988946 -0.13606326 -0.13382868 0.29995552 -0.03572521 0.03675943
0.18807365 0.2689581 0.28764266 0.004596597 -0.026692737 0.13739946 0.12073255 -0.014286641
0.02452687 0.17450054 0.334055 0.093373924 0.14773412 0.06409758 -0.13923568 0.010391424
-0.29489487 0.16043799 0.08248971 0.06024809 -0.38582844 0.3378426 -0.0026864766 0.07516163
-0.019580748 0.055485774 -0.04366928 0.10525559 -0.2642726 -0.26283553 0.18702784 0.09127205
-0.16567391 0.08312506 -0.0969435 0.1758644 -0.19052577 0.15222766 0.09980103 0.13542733
-0.084915005 -0.28656563 -0.05182465 0.054555297 0.046258226 -0.1379838 0.22478087 0.13995741
-0.26682565 -0.1976337 0.050109673 0.12626132 0.2295327 0.098789655 -0.13779555 -0.16223799
0.13030396 0.09915099 -0.13078175 0.14189534 0.014792115 0.0044148783 -0.016476562 0.1140361
0.018633677 -0.1831442 0.0068874946 0.16479084 0.05986566 0.033408623 0.12238823 0.21688075
-0.119788624 0.1067498 -0.01308964 -0.13953134 0.10268532 -0.21680744 0.06897656 0.15926395
0.043008696 -0.13491905 -0.09926317 -0.08460466 -0.21654877 0.18690476 0.16572277 0.14523081
0.09533756 -0.07413958 -0.029671263 0.11402512 0.09452187 -0.009571792 0.13377622 0.28693965
-0.010499578 0.035226464 0.25411662 0.1518915 -0.06868785 -0.022620039 0.07082584 0.1034428
0.09293771 -0.041271646 0.110439226 0.114737876 0.10230709 -0.04036248 -0.06421104 0.081473164

layers.1.weight f4 [128, 128]
00000000: 835d 5e3d 7693 143d 234b b23d ebd7 1bbe
00000010: 97e9 11bc 44e7 c2bd 2f94 9cbd bef1 91be
00000020: 68ce dabd f29b f43c 783c b1be 3801 d0bd
00000030: ac4a d3be a070 e23d cda5 083e bd08 a6bd
00000040: 763a c63c 3a87 373d 13e0 1bbd 4ea2 12be
00000050: ff64 a43d 98d4 003e 7632 19bd 5967 313d
00000060: ef74 be3d f0f5 e73d 50e4 173e 2bd3 97bd
00000070: 13e0 5bbe 34a5 59bd 2e11 98bd c3b5 2dbe
00000080: ad1c d83d c76d 2e3d a3b9 bb3c 1119 ae3d
00000090: bb15 89bd df1c af3d 3b52 39be 0b1f f13d
000000a0: 6b78 063d 6f4e 993d 75b6 ef3d 48cb d53c
000000b0: 5e70 833d 47bf 963d aa7b ff3d 7c27 b23d
000000c0: 4999 aa3c 59c8 a3bd b508 80be 5eee 80bc
000000d0: d9e9 45be 326d b9bc 70be 593d b317 28bd
000000e0: 8960 823d b80b cf3d f2ef a4bc bf1a 273e
000000f0: d2e8 5b3b 6306 c9bd 6323 173e eb99 e53b
00000100: 0a5d 3fbd c67c b9bd 4f43 4e3c 8084 d93d
00000110: 2557 3f3c 1ee2 a0bd 2b94 533d 7e37 cdbd
00000120: 6ab1 20bc 566c dfbd 08a7 1cbe f45d 9c3c
00000130: ad5f 11bd c969 e63d 1602 373e acca b8bd
00000140: af0b 433e be81 6d3c eb6f 71bb 8ff7 e8bc
00000150: cd69 66bd 5090 8a3d ba6b 06be 3a1d f3bd
00000160: f11a 063e 9492 023b 3ce6 cf3d f488 cd3b
00000170: 258b 013e 253f a0bc fc7a 03be 4bb8 c0bb
00000180: 15d2 4ebd b401 97bd b2b0 b1bd 0d12 7b3c
00000190: 1f44 a23d a67a 8c3d 03ac 883d 6b94 13bd
000001a0: 6137 3dbd 13ea 5fbb e292 97bd 9b3c de3a
000001b0: ec79 71bc b79b 873d 64dc 5dbd 97e3 b03d
000001c0: 1995 873d d54f 8a3d aa17 8d3c 8be5 303e
000001d0: fb3e 753d 513f aebd d4f2 ea3c 8ba3 07be
000001e0: 53f2 573b 59b3 d7bd 688c 0a3e fd2c ed3d
000001f0: 1792 d63c 9ef4 243e ad6f f4bd a42d bb3d
00000200: 59f9 043e 7bc2 08bd 7b1a 3d3d b75a a6bd
00000210: cdc1 b33c 2e39 183d 25df 71bd 11fb 0ebe
00000220: 15c4 3d3e 6715 0e3e 4173 fbbc 9885 9abd
00000230: b7c6 2ebc 7634 423d a1a1 f93d 341f a2bc
00000240: dcac 07bd 7f32 80bd 4ce9 563d be97 723d
00000250: 1c22 3cbe 61c5 e63b 3085 37bd 5d18 333e
00000260: fd7a ab3d 6f86 2bbe 3269 963d 3910 dfbe
00000270: 8443 62be 3b98 893c 5331 6abe 131e 9e3c
00000280: 1bad 353e d483 46bd 9bf0 04be 002e 2cbe
00000290: c3ce 4f3d d762 17be bee5 3abe d155 e1bd
000002a0: 9143 65be 6004 093e b4af e33d 5c03 1abd
000002b0: 2187 a53d 108f 963d 5a34 10be 588a 633d
000002c0: ed19 19bd f35e c8bd 7635 833d 396a 1c3e
000002d0: 26ba 83bc 2680 853d f9a2 d3bd f5d5 d3bd
000002e0: 1881 66bb 8f56 05bd 56a7 e13d 0bcb bcbd
000002f0: 4e5d b23d f005 5e3e f018 93bd 1ed1 633d
00000300: 8ecc 93bd 39a6 443d 3c6f 32be 2c79 fb3c
00000310: 26b5 aebd 2532 43be d1cd a8bd 6caf 0c3b
00000320: ddb6 683d ff99 a2be 8b7a 503e 073f d0bd
00000330: 8bd3 973e f813 393e df30 ba3e 50ea 8abd
00000340: d758 c53e 2c59 ccbd 36e9 d13c ef10 5fbd
00000350: a420 b43c dc18 b23a df31 343d ea72 35bd
00000360: 6891 ed3d efbf 203d a54a 9abd d318 043d
00000370: 7a4d 183c 0190 f2bd 084a 29be f52f 053d
00000380: 7be1 42be 0d0e c33d 7c29 073d 0c8a 02bd
00000390: da4c 853d a3ba a9bc 2272 383c 0de1 28bc
000003a0: edda 7ebc 6664 4f3b 11d9 19be 1708 1d3d
000003b0: 77a1 bfbd 07e8 103e 047e bf3d b4d8 2cbd
000003c0: 248e 5d3d 4817 3e3d ba62 d13d c37a f2bc
000003d0: b51a 26be 2b6e 86be 2327 03be db67 7bbd
000003e0: c411 26bd 6774 cf3a c5ac 483d 6b5b 1abd
000003f0: 4927 c3be 6542 a3bd a687 d83d 2b89 133e
0.0542884 0.036273442 0.087057374 -0.15219085 -0.00890579 -0.09516767 -0.07645451 -0.28504747
-0.106839 0.029859517 -0.34616446 -0.101564825 -0.41267908 0.11056638 0.13344498 -0.081071354
0.024197798 0.044806696 -0.03805549 -0.14319727 0.08027076 0.12581098 -0.03740164 0.04331145
0.09299647 0.11326206 0.14833188 -0.07413324 -0.21472196 -0.053136066 -0.07425152 -0.16963868
0.105523445 0.04258516 0.022915667 0.08500875 -0.06693598 0.085504286 -0.18097775 0.11773499
0.032829683 0.07485663 0.11704723 0.026097909 0.06417917 0.07360702 0.12474759 0.08698937
0.020825045 -0.07997198 -0.25006643 -0.015738662 -0.19327487 -0.022635076 0.05316013 -0.041038226
0.06366069 0.10109657 -0.020133946 0.16318797 0.003355552 -0.09815671 0.14759593 0.007006874
-0.04671959 -0.09057002 0.01258929 0.106209755 0.011678492 -0.078556284 0.051654976 -0.1002035
-0.009807924 -0.10909335 -0.15298092 0.01908777 -0.035491634 0.11250646 0.1787189 -0.090230316
0.19047426 0.014496265 -0.003684039 -0.028438358 -0.056253243 0.06765807 -0.13127032 -0.11870809
0.13096215 0.0019923793 0.101513356 0.0062724296 0.12650736 -0.01956136 -0.12839884 -0.0058813444
-0.05049332 -0.07373372 -0.0867628 0.015324128 0.07923149 0.06859331 0.06673434 -0.036030214
-0.04619539 -0.0034166619 -0.074010625 0.0016955318 -0.014738541 0.06621497 -0.05416526 0.08637159
0.06620235 0.06753508 0.017223198 0.17275064 0.059874516 -0.085081704 0.028680243 -0.1324598
0.0032950833 -0.10532255 0.13530123 0.115808465 0.026192708 0.16108939 -0.11935363 0.09139565
0.12985744 -0.033388596 0.046167832 -0.08122771 0.021942997 0.037163906 -0.059050698 -0.13962962
0.1853183 0.13875352 -0.030694606 -0.07545012 -0.0106674945 0.047413312 0.121890314 -0.01979027
-0.033123836 -0.06259631 0.052468583 0.059226744 -0.18372387 0.0070425724 -0.044804752 0.17489763
0.083730675 -0.16750501 0.07344283 -0.43567064 -0.22096068 0.016796222 -0.22870378 0.01930145
0.17741816 -0.048465565 -0.12982409 -0.16814423 0.050734293 -0.14783798 -0.18251702 -0.11002696
-0.22389056 0.13380575 0.11117497 -0.03760086 0.080824144 0.07351506 -0.1408247 0.055551857
-0.03737824 -0.09783735 0.06406681 0.15274896 -0.016079973 0.06518583 -0.10333819 -0.103435434
-0.003517216 -0.03255325 0.11018245 -0.09218415 0.08709203 0.21681952 -0.07182491 0.05561935
-0.0721675 0.048010085 -0.17425245 0.030697428 -0.08530645 -0.19062097 -0.08242381 0.0021466864
0.056815017 -0.31758115 0.20359246 -0.101682715 0.29653582 0.18074024 0.3636541 -0.06782973
0.38544342 -0.09977946 0.025623899 -0.05445951 0.02198822 0.0013587731 0.043992873 -0.044299044
0.116 0.039245542 -0.075337686 0.032250237 0.009295816 -0.11843873 -0.16532147 0.03251644
-0.19031326 0.09524164 0.032998547 -0.031869933 0.06508799 -0.020718878 0.01125768 -0.010307563
-0.015555126 0.0031645535 -0.1502421 0.038337793 -0.09356969 0.14151011 0.093502074 -0.04219885
0.054090634 0.04640892 0.10223909 -0.029599553 -0.16221125 -0.26255926 -0.12807898 -0.06137834
-0.040544286 0.0015827537 0.04899289 -0.03768484 -0.3811591 -0.07971648 0.10572748 0.14407794

layers.1.bias f4 [128]
00000000: 5b35 ab3e 0ad6 88bd a2b2 3e3e 59e2 233e
00000010: 65c4 09be 1a44 903d f665 a0bd 7ca8 b03c
00000020: 1bf0 10be b241 e83d e1ce 5a3e 08d0 a0bc
00000030: e176 e4bc 60bc dd3d 2c5c 123e 3c22 8b3e
00000040: c085 ba3d b7d0 063e cb8f 0d3e f15a ff3d
00000050: 1b8b 413d 545c bc3b f52a 0bbc e717 abbd
00000060: d34b 8abc e78d 683e 6b0e 793e d033 88bd
00000070: 8eba 0bbd 9e70 8cbd 1bb2 bb3c fa27 eabd
00000080: 7461 803d 9150 b43d 54e0 3abe 552a 03bc
00000090: 5942 ca3d 32be 70be 3aa9 323e 8433 4e3b
000000a0: 5785 b03d 75ef 483e 6ac8 3cbe 7f5e 773e
000000b0: 9fb8 6c3d 3892 743d a0af c63c 1856 a83e
000000c0: 5601 023e 7701 43be d139 363d c02c 6cbd
000000d0: 37dd 303e c2cf 6d3d b9c1 633e 5795 c33d
000000e0: a8c2 943d 2d65 c0bd 8380 d23d 8548 89bc
000000f0: 5038 13bd c7e0 813d 26d7 753d 2abf 70bd
00000100: 2e1a 7a3e d6bf 683d 07ca 35bd bfc9 10be
00000110: 8815 ac3d 1c13 97bb c5c3 5a3d 0239 db3d
00000120: e008 59bc e714 5e3e 18ac 073e c612 09be
00000130: b839 393d 28d9 143e 56b2 2c3d cffc d8bd
00000140: a4bf 6c3e 2609 aa3c 6b40 e5bd fc38 74bd
00000150: 174e 10be 936e 8e3e db50 0abe 9f40 ac3e
00000160: 94a8 d8bc d522 d8bd e67e bbbd f1ad 14bd
00000170: b4fe 153d bfda 1a3e 7367 343e 8793 a13e
00000180: a2b3 cdbd f214 843c c27e a43e c010 753d
00000190: d057 013e cefe b63c 1ee2 1d3d e7af 383e
000001a0: 63dd 4f3c e2b1 0abe 4dd5 d2bd f8fd 8c3d
000001b0: f222 c6bd 6add a8bc d0af cdbd a464 5d3e
000001c0: 6b84 143d 2b20 c53d 5d45 c0bc 1043 14bd
000001d0: e635 4e3b 8fd7 193e fb77 943e 5ece 603e
000001e0: ab72 87bd aab7 0a3e 3d99 123e f0a3 eabd
000001f0: a265 99bd 30f0 e1bc 8d7b f1bc c6cc 933c
0.33439144 -0.0668145 0.1862283 0.16004314 -0.13453825 0.07044239 -0.078319475 0.021564715
-0.14154093 0.113406554 0.2136798 -0.019630447 -0.027888717 0.10826945 0.14292973 0.27174556
0.09107542 0.13165556 0.13824384 0.124685176 0.047251802 0.005748311 -0.0084941285 -0.083541684
-0.016881859 0.22710381 0.24321906 -0.066505075 -0.03411346 -0.068574175 0.022912076 -0.11433406
0.06268588 0.08804429 -0.18249637 -0.008005698 0.09875936 -0.23510054 0.17447367 0.0031463811
0.086191826 0.19622596 -0.18435827 0.24157141 0.057793256 0.059709758 0.024253666 0.32878184
0.12695822 -0.19043528 0.04448873 -0.057659864 0.17271887 0.05805946 0.22241868 0.09549969
0.0726369 -0.09394298 0.10278418 -0.016758213 -0.035942376 0.06341701 0.060019635 -0.05877606
0.2442405 0.056823574 -0.04438212 -0.1413946 0.08402544 -0.0046104323 0.053409357 0.10704233
-0.013246745 0.21687661 0.13249242 -0.13386068 0.04522106 0.14535964 0.042162262 -0.105950944
0.2311998 0.020756315 -0.111939274 -0.059624657 -0.14092289 0.27818736 -0.13507406 0.33643052
-0.026447572 -0.10553519 -0.09155063 -0.036298696 0.036619857 0.15122508 0.17617588 0.31557867
-0.10044028 0.016123269 0.3212796 0.059830427 0.12631154 0.022338297 0.03854572 0.18035851
0.01268706 -0.1354442 -0.1029459 0.06884378 -0.09674634 -0.020613391 -0.10043299 0.21620423
0.036259096 0.09625276 -0.023470575 -0.03619677 0.0031465231 0.15023635 0.28997788 0.21953723
-0.06613668 0.13546625 0.14316268 -0.1145705 -0.07490088 -0.02758035 -0.029477859 0.01804198

layers.2.weight f4 [128, 128]
00000000: 1b41 8fbd a14b 6a3e 0354 133e 23ea 4abe
00000010: 0ae5 dfbe 8473 2d3e 77f2 8f3b a750 f93e
00000020: 3751 fabe 9ada 393e 72aa 2e3c 4fe7 053e
00000030: 50b4 e13c 0286 4e3d 1270 1abe 4c4b 03bd
00000040: 8608 503d 2241 2a3d 4a01 b23c 2f2c 023e
00000050: fb6b 083d b2e1 d8bc 5098 983d 8e77 2dbd
00000060: 6233 84bd 737b 1dbe 07be 14bd ffaa 7cbe
00000070: bd46 783d 66dc 173e c78d 433d d3b9 bdbe
00000080: 10df a13d a693 a1bd 945d 51be 9fa3 0abe
00000090: 0d06 8c3d cea8 5b3e 9c3f a93e e0f0 73be
000000a0: 16aa 1dbd 7849 98bb 315c c4be bd69 ba3b
000000b0: 4dff b5bd 1091 913c 58ed 92be f064 af3d
000000c0: 2cc8 533d 5d17 f7bc 5c55 903c c127 dd3d
000000d0: f733 b73d 2c47 893e 2000 1b3d ea7e d03d
000000e0: d4d9 f43d 61a3 8ebd 53c7 453e c70d 103d
000000f0: fc78 d93d 39fc 9a3d 5b3d e93c b71f b6bb
00000100: ed0b 783e 6624 37be 676f 4cbe e901 1a3e
00000110: d423 303e 407d 593e b0a3 3c3d 7e20 afbd
00000120: b885 a0bd fad1 30be 515d 03bd 91f1 ad3c
00000130: 5cd0 9cbd 17d9 1e3e 31da c03c 7229 9ebe
00000140: 0631 9bbc 010b 103e 8c05 fe3b 764d 153e
00000150: 3f39 053e 20da 8dbd 5dad 14be 945d aa3d
00000160: 70f6 043e 3767 8fbc 18de 05bd c291 09bb
00000170: 496b c73d d2b6 a73d 108f 043d 3209 8abd
00000180: 7583 c13d ef16 723e b925 c4bd 6785 ff3e
00000190: ca81 6b3e 620b f33d 04db 73bd 8707 41bc
000001a0: 4432 8fbe 2ff8 093e 78de ae3d 878b 213d
000001b0: 696d d93d eef5 68be ecf1 a3be 97a4 9a3d
000001c0: da2a 7a3d 153b c43e a8d6 333e 3909 033e
000001d0: e0f3 103d f114 a93d 5f22 2e3e df7c 9cbd
000001e0: ccca 763d c9a7 34be 3cba de3d 9c59 dcbd
000001f0: 5f9d 82be 30e3 8cbe 27f2 0bbd 187a 05bd
00000200: ba33 5dbe 2890 293e 43e8 223e d8a9 19bd
00000210: b063 c1be e11a 303e 3f0c 0cbd f404 aa3e
00000220: 56f7 95be 0d63 203d 5ade e4bc ae6f db3d
00000230: 7ad1 c53d 5ccf 0a3d f1a0 a9bc eab5 b03d
00000240: 4e89 8e3d 0e89 1d3d 4e99 df3d 6e67 da3d
00000250: 10d4 df3d dcff c23a 6ddb 45bc f3d3 713b
00000260: 9efc a83d ccfc 42be 24fb 2bbc 0105 d4bd
00000270: f3ad 5f3d ac00 9f3d 8401 493b 6e1f 6fbe
00000280: 3b60 8c3d 303f 523b 116f 4bbe 1d0a 83bd
00000290: 296c 9a3c 24e7 ffbc 6065 943e 81c4 77be
000002a0: 9f03 d23d 9bd0 0f3e e804 d7be 6985 33bd
000002b0: 6847 86bd e827 87bd 32cf 50be 4660 023e
000002c0: 2c2f ce3d 5c83 a03c 003e ac3c 8822 7bbd
000002d0: 7a1c af3d 8ffe f53d 90fb af3c fc7a ae3d
000002e0: 94ab 403e 8c15 3ebb ebf8 6a3e c183 afbc
000002f0: 827c e1bc 74d6 f33b 0500 bd3c cd15 ab3d
00000300: b26c 983e b2e5 0bbe f132 89be 01c1 3f3e
00000310: a888 263e b35b 8b3d 227f fd3d f65e 7bbe
00000320: aba8 b03d ef9e 92be 6724 bb3d d8c4 413d
00000330: 6113 643c 02b2 473e 7418 d53d 5e94 16be
00000340: 2c0f b43d df7e 713d 6ce4 8f3d 1d81 ff3c
00000350: 2335 803d 8c4d b339 1de3 90bd 4f36 d23c
00000360: 193b f53d de3c d53c dce1 97bc 95cf 903d
00000370: c5d8 c33d 0043 163e 57f6 2cbd 2358 1fbe
00000380: fc7e 903d d0db 583e 6c80 b63d 96da ba3e
00000390: 835b 183e b2a8 d63d c1f0 d63b a939 cb3d
000003a0: 03d1 3fbe fad0 b8bb 85c6 ed3c f97f d63d
000003b0: bd31 133d cd88 82be f6bb 8fbe cf0b 3a3e
000003c0: d707 453d 8ddf 693e 1cb7 1e3e d908 843d
000003d0: df13 0b3e 0686 b93d dee1 233e 1dd9 6b3b
000003e0: be4e cdbb 2b7c aabc 8d61 fb3d b53d c53d
000003f0: f7b5 94be 8d72 c6bd b1e6 05bd 3cf7 25bd
-0.0699484 0.22880413 0.14387517 -0.19815879 -0.4372943 0.16938597 0.0043929177 0.48694345
-0.48890087 0.18149796 0.0106607545 0.13076518 0.0275518 0.05042077 -0.15081814 -0.03205423
0.05078938 0.04156602 0.02172913 0.12712167 0.033306103 -0.026474807 0.07450926 -0.042350344
-0.06455113 -0.15379123 -0.036314037 -0.24674605 0.060614336 0.14830169 0.04774263 -0.37055835
0.07903874 -0.0788949 -0.20445853 -0.13538979 0.068370916 0.21451113 0.33056343 -0.23822355
-0.038492285 -0.00464743 -0.38351586 0.0056888745 -0.088865854 0.017769367 -0.28696704 0.08564174
0.05170457 -0.030162508 0.017618828 0.10798598 0.089454584 0.26812112 0.037841916 0.10180457
0.1195561 -0.06964756 0.19314317 0.03516939 0.10618779 0.07567639 0.02847164 -0.00555798
0.242233 -0.17884979 -0.19964372 0.15039791 0.17201167 0.21239185 0.046054542 -0.08551119
-0.07838005 -0.172676 -0.032071415 0.021233352 -0.07656929 0.155125 0.023541542 -0.30890995
-0.018944275 0.14066698 0.007752126 0.1458033 0.13010119 -0.0692637 -0.14519258 0.0831863
0.12984633 -0.017505271 -0.03268251 -0.002099142 0.0973726 0.08189167 0.032362998 -0.06740035
0.094489016 0.23641561 -0.095775075 0.49906465 0.2299873 0.118674055 -0.05953504 -0.01178158
-0.27968037 0.13473581 0.08538526 0.039439704 0.106165715 -0.22750065 -0.3202051 0.07550924
0.061076023 0.38326326 0.17562354 0.12796487 0.035388827 0.082559474 0.17005299 -0.07641005
0.060251996 -0.1764213 0.10875365 -0.10759279 -0.2551069 -0.2751708 -0.03416648 -0.03258714
-0.21601763 0.16558897 0.15908913 -0.03751549 -0.37771368 0.17197753 -0.034191366 0.33206904
-0.29290265 0.039156962 -0.027938057 0.107146606 0.09659095 0.03388916 -0.020706626 0.08628447
0.069597825 0.038460784 0.109179124 0.10664259 0.109291196 0.0014877277 -0.012076241 0.0036900013
0.08251308 -0.19041747 -0.010496888 -0.10352517 0.05460925 0.077638 0.003067107 -0.23351833
0.06854292 0.003208112 -0.19866587 -0.06398413 0.018850403 -0.031238146 0.28983593 -0.24196054
0.10254597 0.1404442 -0.4199593 -0.0438284 -0.065565884 -0.065994084 -0.20391539 0.12732038
0.10067591 0.019593887 0.021025658 -0.06131223 0.08550353 0.12011444 0.021482259 0.08519551
0.18815452 -0.0029004542 0.22946517 -0.02142513 -0.02752519 0.0074413363 0.023071298 0.083537675
0.29770428 -0.1366184 -0.26796678 0.18725969 0.16263068 0.068045996 0.12377764 -0.24547943
0.08625921 -0.28636882 0.091378026 0.047306865 0.013920636 0.19501498 0.10405055 -0.14705035
0.08791956 0.058958884 0.0702599 0.031189496 0.06260135 0.00034199317 -0.070745684 0.025660662
0.119741626 0.02603 -0.018540315 0.07070843 0.0956283 0.14673996 -0.042227115 -0.15560965
0.0705547 0.21177602 0.08911213 0.36494893 0.14878659 0.10481395 0.006559462 0.09923107
-0.18732075 -0.0056401463 0.029025326 0.104736276 0.035936106 -0.25494996 -0.2807309 0.18168567
0.04810318 0.22839184 0.15499538 0.06447 0.13581799 0.09058766 0.1600413 0.0035987564
-0.0062654903 -0.020811161 0.12274466 0.0963091 -0.29045078 -0.096898176 -0.032690708 -0.040518984

layers.2.bias f4 [128]
00000000: e721 6c3d 942a e23d dcfb 213e 882c 063d
00000010: a2c7 cc3d 6668 c93e 6bc9 09be 65a7 32bd
00000020: 5bbd cabd 3b70 d8bc 7ccc 743d edbc f9bd
00000030: f6eb d83e c7c3 3c3d 21e3 153d 14b9 c9bd
00000040: 8d61 9b3d a1ea 1a3e 5519 f83c 2161 ff3d
00000050: 6360 ddbd 28da 9f3c 8f8e 0fbd aa7e a1bd
00000060: f2c8 37bd f2e9 35be a515 57bd af29 883d
00000070: c6d3 943e e82a ba3d ffea bf3d 113b 9ebc
00000080: 6f8b 223d 6f1f 9a3d 8f38 d2bb 3d15 f73d
00000090: 58e8 98bd 2d66 d7bd a7c7 8b3d 3347 dc3e
000000a0: e2b5 013d e469 11bc e2e3 1fbe 29bb de3c
000000b0: 515d dcbd 8221 08be 4f96 cd3e 3cea 0f3e
000000c0: bb9f bb3d c946 593d 04eb bfbd b7b3 883b
000000d0: 9cf5 8e3d d045 b53e a7f9 1ebe 8c1e cc3e
000000e0: e9d4 9e3d 3ec3 edbc e84b fe3d adce 6d3e
000000f0: c667 88bd 3f43 e83e ed7f 583c bbe5 85bd
00000100: 3c3c c1bd ae2a 06be c12c a63d 25ef c93d
00000110: fa3e cd3e 8059 a2bd 40cc 823d 5985 4dbe
00000120: 3bf0 483e 02f4 d13e 1d69 26bd c130 9b3d
00000130: a521 cf3d fed4 1bbe a204 ddbd 3fb4 573e
00000140: 588a 693d c969 de3d 029a 5a3d e91c b13e
00000150: cf46 d73e 3483 d3bb 1c56 d33e b332 1fbc
00000160: 06de 80bc d1d4 87bc d9fb c23d ec97 0b3d
00000170: 3ddf e13c 05f7 49bd 2a55 863d 3c62 bf3d
00000180: 3e17 a2bd d3b0 cfbd 4540 4ebc 0a5c 903d
00000190: 9b33 b0bd dfd9 4f3d a536 d63d 84e3 73be
000001a0: 1171 24bc a93d 85bb 36a3 ab3d 1c42 e93e
000001b0: 9db4 c7bd 21eb 52bd 5da5 dabd 1a4c 8f3e
000001c0: c6d8 c23e 6e76 ea3d 22b9 d43d 6bc4 803e
000001d0: 82af b83e cc77 bf3e c08c 863d d23e d53d
000001e0: 88ee b9be 82d2 c3bd b696 d63d 60b5 033e
000001f0: 3c2a e43e 531b a9bd 8c0a a23d c041 943d
0.05764952 0.110432774 0.15818733 0.032757312 0.099990144 0.39337462 -0.13455741 -0.04361667
-0.09899398 -0.026420703 0.059765324 -0.12194238 0.42367524 0.046085145 0.03659356 -0.09849754
0.07586966 0.15128566 0.030285517 0.12469698 -0.108094 0.019513205 -0.035048064 -0.078854874
-0.04486937 -0.17765024 -0.052510876 0.066485755 0.2906782 0.09090215 0.09370994 -0.019315274
0.039683755 0.07525527 -0.0064154337 0.12064598 -0.07466191 -0.10517535 0.0682519 0.4302307
0.031667598 -0.008875344 -0.15614274 0.027188854 -0.10759986 -0.13294032 0.4015374 0.14054197
0.091613255 0.05304602 -0.093709975 0.0041718143 0.0698044 0.35404825 -0.15524922 0.39867055
0.07755453 -0.029023763 0.12416822 0.23223372 -0.06660418 0.45363805 0.013214094 -0.06537958
-0.09435317 -0.13102219 0.08114005 0.09860066 0.4008711 -0.07927227 0.06386614 -0.200704
0.1962289 0.41006476 -0.040627588 0.075776584 0.10113839 -0.15217969 -0.10791899 0.21064852
0.0570167 0.10860021 0.05336953 0.3459237 0.4204621 -0.0064548496 0.41276634 -0.0097166775
-0.015730869 -0.016580971 0.095206924 0.03408043 0.027572269 -0.04930784 0.065592125 0.093449086
-0.07914589 -0.101411484 -0.012588565 0.07048805 -0.08603593 0.050744887 0.10459641 -0.23817259
-0.010036723 -0.0040661884 0.083807394 0.4555825 -0.09751246 -0.051493768 -0.10676072 0.27987748
0.3805601 0.1144837 0.10386874 0.25149855 0.36071402 0.37396085 0.06569815 0.10412373
-0.36314797 -0.095616356 0.104779646 0.12862158 0.44563472 -0.08257165 0.07912168 0.07239103

layers.3.weight f4 [1, 128]
00000000: 18c0 d93d e685 a83d 07f6 623e 1f13 87be
00000010: 8e50 313e aa00 4fbf 65f0 523b 0fb4 393e
00000020: 7cae f7bc 18b2 c6bc 0399 493e 126a 763d
00000030: f46a e0be ff11 1b3e 8811 2f3e e09a df3c
00000040: 4c8d e13d 70f3 5d3e 23d5 15bf 191b 3c3e
00000050: c00b 2ebe 1d35 573e e249 073e 0ccc b3be
00000060: 695a 263f c966 1b3f bfa7 39bf 95b3 0abf
00000070: 13d2 16bf f5a8 8b3e 7430 fa3d 9ef9 243e
00000080: 8669 fe3d c34c 8e3e ba05 133e 9394 6a3e
00000090: 9a88 ce3b bf51 033f 9cd2 c7be 2594 42bf
000000a0: 65ea b63e fa39 073e b411 18bf 5b92 343e
000000b0: 8592 c9bb 82a5 bc3e 33c3 ddbe d86a b03e
000000c0: 782e 2a3e 650d 843e 5330 853a 0a64 4e3e
000000d0: 9794 e33d a62c 9cbe 9127 dbbe df4a 3cbf
000000e0: 7512 e0be 028a f53d c156 313e 6c94 dcbe
000000f0: 0e9d f2be 94cd 36bf e693 143e 3612 bb3e
00000100: 6837 28bd 0d7c 8c3e 380b dd3d 3df8 353e
00000110: f9a8 4cbf a495 c33e 3a9b 8d3e 1473 06bf
00000120: 9558 16bf 5e0d 25bf 4420 43bc 1340 833e
00000130: 7108 0b3e 056e 16bd e485 0abf e7c1 e9be
00000140: f6db 463e a3df d5be c7ac 7a3e 2355 95be
00000150: 5fc1 0cbf ecd8 2a3e 33da 0cbf d586 c43e
00000160: c7af 1b3e 0cdb cd3e 6490 d83d dc0c 373e
00000170: 942c 0f3e 9788 283f 9a9e 7d3e 4311 233e
00000180: d20a 0c3c 3aaf 11bf 6f50 173d 4cec 2b3e
00000190: 5635 503f fe72 2f3e 823e e73d f6b8 47bf
000001a0: a7d2 9e3e 63c1 6b3e c25f 253e 9634 f8be
000001b0: 2411 2cba e792 c9be aef2 cbbe f911 90be
000001c0: 3099 19bf a94a 533e 4e0f 763e 44ad e1be
000001d0: cec6 dbbe 43a2 c8be 05b7 ff3d ddd1 903e
000001e0: 77d7 49bf 999a b83b dfef 233e 011e 4d3e
000001f0: 96e9 16bf a330 0dbd 1b12 3b3e d953 b23e
0.10632342 0.08228664 0.22164164 -0.26381776 0.17315885 -0.8086039 0.0032186743 0.18135093
-0.030234568 -0.024254844 0.19687276 0.06015975 -0.438316 0.15143584 0.17096531 0.02729553
0.11013278 0.21674895 -0.58528346 0.18369712 -0.1699667 0.21016355 0.13211778 -0.35116613
0.64981705 0.6070371 -0.72521585 -0.5418027 -0.589143 0.2727734 0.12216273 0.16110846
0.12422471 0.2779294 0.14357653 0.22908239 0.0063029053 0.5129661 -0.3902787 -0.760073
0.35725704 0.1320571 -0.5940201 0.17633955 -0.0061514997 0.36845022 -0.43312988 0.34456515
0.16619289 0.2579147 0.0010161496 0.2015535 0.11112326 -0.30502814 -0.42803624 -0.73551744
-0.43764082 0.119892135 0.1731825 -0.43081987 -0.47385448 -0.7140744 0.14509544 0.3653733
-0.041068465 0.27438393 0.107931554 0.17770477 -0.7994533 0.38200104 0.2765749 -0.52519345
-0.58728915 -0.6447352 -0.011909548 0.25634822 0.13577439 -0.036726017 -0.5411055 -0.45655748
0.19419846 -0.41772184 0.24479972 -0.29166517 -0.5498256 0.16684312 -0.55020446 0.3838412
0.15203772 0.40206182 0.10574415 0.17875999 0.13981849 0.6583342 0.24767533 0.15924554
0.008547502 -0.56908 0.03694194 0.16789359 0.81331384 0.1713371 0.11291219 -0.78016603
0.3102009 0.2302299 0.1614981 -0.4847762 -0.00065638334 -0.3936989 -0.39833587 -0.28138712
-0.5999937 0.2063395 0.24029276 -0.44077504 -0.42925113 -0.39186296 0.1248608 0.28285113
-0.788444 0.005633664 0.16009472 0.20030977 -0.58950174 -0.03447021 0.18268625 0.34829596
