new_models/base+wp_16849288/qf4_target_best.pth (torch, 186656 bytes, 7 tensors)

layers.0.weight f4 [128, 98]
0	0x3d097316	0.03355702
1	0xbcbcdbd7	-0.023054047
2	0xbd01ce01	-0.0316906
3	0xbc0ad319	-0.008473181
4	0x3e1ebac8	0.15500939
5	0x3d26f7c6	0.04076364
6	0xbdd10d02	-0.10207559
7	0x3ce1caa6	0.02756245
8	0xbdc6136c	-0.09671673
9	0xbe1ec534	-0.15504915
10	0xbd4cb907	-0.049981143
11	0xbdd1a78b	-0.102370344
12	0xbe3adcc6	-0.18248281
13	0xbe469458	-0.19392526
14	0xbd5b5fdf	-0.053558227
15	0x3c882e02	0.0166235
16	0x3d047345	0.032336492
17	0xbd7528ff	-0.05985355
18	0xbc70daf3	-0.014700639
19	0xbd4b9ad2	-0.049708195
20	0x3ccccc41	0.02499974
21	0xbd127407	-0.035755184
22	0x3bf06b85	0.007337036
23	0xbd2a01fc	-0.0415058
24	0xbdbd57ae	-0.09245239
25	0xbdd4365f	-0.10361933
26	0xbe300010	-0.17187524
27	0xbdf9e706	-0.12202267
28	0xbe410d81	-0.18852808
29	0xbe352cb3	-0.17692833
30	0xbe144e4c	-0.14482993
31	0xbe44a945	-0.19205196
32	0xbd02be65	-0.031919856
33	0x3d339c8f	0.043850478
34	0xbd188881	-0.037239555
35	0xbbfb2c2e	-0.0076651787
36	0xbd4cd076	-0.05000349
37	0x3d806f51	0.06271232
38	0x3d89c166	0.06726341
39	0x3aff6300	0.001948446
40	0xbe0dd8ea	-0.13852277
41	0xbd3ba2d1	-0.04580957
42	0xbe18cb0d	-0.14921208
43	0xbdad92c3	-0.08475258
44	0xbd5c255f	-0.053746577
45	0x3ca5b23a	0.020226587
46	0xbc943a3e	-0.018094178
47	0xbdb640ff	-0.08899116
48	0xbd9a4620	-0.075329065
49	0xbc672df9	-0.014110082
50	0x3de3a5c6	0.11115603
51	0x3cdc99ad	0.026928747
52	0x3e044878	0.1291827
53	0x3d2ea218	0.042635053
54	0x3d498850	0.049202263
55	0xbd80a319	-0.062811084
56	0xbca155be	-0.019694205
57	0xbd3ecf76	-0.04658457
58	0xbde35966	-0.11101036
59	0xbdbc649a	-0.09198876
60	0xbdad85e6	-0.08472805
61	0x3d54f561	0.051991824
62	0x3d0b4395	0.033999998
63	0x3d2f0744	0.04273154
64	0xbd7de760	-0.061988235
65	0xbd081f0c	-0.033232734
66	0x3d4e3239	0.050340865
67	0x3d5ee7d6	0.054420315
68	0xbce0501b	-0.027381947
69	0x3d9160e9	0.07098562
70	0xbd94522f	-0.07242238
71	0xbe0fb450	-0.14033628
72	0x3e1d7bad	0.1537921
73	0x3dc1bff5	0.09460441
74	0x3d619f03	0.055083286
75	0x3d701806	0.05861666
76	0x3d1ba7bb	0.038001757
77	0x3d17a65f	0.0370239
78	0xbe0f53ae	-0.13996765
79	0x3e04f541	0.12984182
80	0xbc983e8d	-0.018584514
81	0xbe0d700d	-0.13812275
82	0x3ddd77c5	0.1081386
83	0x3e310a16	0.17289004
84	0xbd118235	-0.035524566
85	0xbd740675	-0.05957647
86	0x3e08e278	0.13367641
87	0xbd5359fe	-0.051599495
88	0xbe4756e2	-0.19466737
89	0x3dcaeefd	0.09908865
90	0xbd52b074	-0.05143781
91	0x3aeb9964	0.0017974791
92	0x3e78350b	0.24238984
93	0x3df7f0fa	0.121065095
94	0x3d288b36	0.041148387
95	0xbe5d91d5	-0.21637662
96	0xbc03e577	-0.008050314
97	0xbd9ea032	-0.077453986
98	0x3d4237ce	0.0474165
99	0x3d00bdb8	0.03143093
100	0x3d206eab	0.03916804
101	0xbdb541ad	-0.08850417
102	0x3de9fca5	0.11425141
103	0x3e0ecff6	0.13946518
104	0x3dad96bd	0.08476017
105	0x3c95060e	0.018191364
106	0xbd09d764	-0.033652678
107	0x3d4eb4bf	0.05046534
108	0x3d48de8a	0.049040355
109	0x3d5be1a6	0.053681992
110	0x3d1f9326	0.03895869
111	0xbda93850	-0.08262694
112	0x3d091184	0.03346397
113	0xbdb0e9e5	-0.08638362
114	0x3d255181	0.04036093
115	0x3d9a29ea	0.07527526
116	0x3db87c77	0.09008115
117	0x3bf16b0d	0.007367498
118	0x3c0e3319	0.008679175
119	0x3c99b65c	0.018763714
120	0xbd4ced43	-0.050030958
121	0xbcfa2c83	-0.030538803
122	0x3d4885c3	0.04895569
123	0x3d1e3c12	0.038631506
124	0x3d935109	0.071931906
125	0xbbb9cafa	-0.0056699486
126	0x3dd4206d	0.10357747
127	0x3d36b93e	0.044610254
128	0x3dca9cc0	0.09893179
129	0x3da99eb2	0.08282222
130	0xbcade1cd	-0.021225834
131	0xbd0edce7	-0.034878638
132	0x3cdd1473	0.02698729
133	0xbc944dbe	-0.018103477
134	0xbcd421f2	-0.025895093
135	0x3c7b23be	0.015328346
136	0x3d255354	0.04036267
137	0xbe0ed73a	-0.1394929
138	0xbdf196de	-0.11796354
139	0xbdcd1651	-0.10014022
140	0x3d77deea	0.06051532
141	0x3d0f6b1c	0.035014257
142	0x3ce23d97	0.027617259
143	0x3d7de08d	0.061981726
144	0xbcbdb7e6	-0.023158979
145	0xbd1a0fed	-0.037612844
146	0x3d28e179	0.041230652
147	0xbdd45e86	-0.103695914
148	0xbd6d2868	-0.057899863
149	0x3dced9c9	0.10100133
150	0x3d70686a	0.058693327
151	0x3e07fc76	0.132799
152	0x3d7e427b	0.06207512
153	0x3d287067	0.04112282
154	0xbc5594bf	-0.013035952
155	0x3ae3e3c0	0.00173866
156	0xbd4bbddf	-0.049741622
157	0xbcccc374	-0.024995543
158	0x3d43967a	0.047750928
159	0xbd9b2014	-0.07574478
160	0xbd5643a9	-0.05231062
161	0xbe53d3cd	-0.20686264
162	0xbdcceb3f	-0.10005807
163	0xbe08f764	-0.13375622
164	0xbe38f4ca	-0.1806213
165	0xbdaffad8	-0.085927665
166	0x3e3b57b0	0.18295169
167	0x3e321c36	0.17393574
168	0xbc491100	-0.0122721195
169	0x3d426e97	0.047468748
170	0xbd82a5e4	-0.063792974
171	0xbe78bf04	-0.24291617
172	0xbd93796b	-0.07200893
173	0x3e43e91c	0.19131893
174	0xbe568d61	-0.2095237
175	0x3ddd3512	0.10801138
176	0x3dc57034	0.09640542
177	0xbeaca919	-0.3372276
178	0xbdf92d79	-0.12166876
179	0x3db55698	0.08854407
180	0xbddef7f8	-0.1088714
181	0x3d8e64c2	0.06952812
182	0x3e3aec5c	0.18254226
183	0x3dde0799	0.10841293
184	0xbe0f2bea	-0.13981596
185	0xbd18e30d	-0.037325907
186	0x3b62bdc6	0.0034597977
187	0xbea7f1ca	-0.32801658
188	0xbed80d07	-0.4219744
189	0xbd591527	-0.052998688
190	0x3d5f8ceb	0.05457775
191	0xbe78942e	-0.24275276
192	0xbe4d6c88	-0.20060933
193	0xbd3c5fe8	-0.0459899
194	0xbdd55629	-0.10416824
195	0xbdd20327	-0.102545075
196	0x3dea5f51	0.114439614
197	0xbcaadc17	-0.0208569
198	0xbe00f44e	-0.12593195
199	0x3cf5574d	0.029948855
200	0x3d30b567	0.04314175
201	0x3d2c28c7	0.042031076
202	0x3d49a541	0.049229864
203	0x3d8376d0	0.06419146
204	0xbd3dd828	-0.04634872
205	0x3dd8864e	0.105724916
206	0xbd9cd4f7	-0.07657807
207	0x3be09483	0.0068536415
208	0xbdbc89a8	-0.09205943
209	0x3cabb6c8	0.02096118
210	0x3d893648	0.066998065
211	0xbc72eb56	-0.014826616
212	0x3cc0f8bf	0.023556111
213	0x3ca714b1	0.020395609
214	0x3d8da71b	0.069166385
215	0x3d96e448	0.0736776
216	0xbd113ae6	-0.03545656
217	0xbceb2d2e	-0.028708067
218	0xbc6ddaf9	-0.014517539
219	0x3d96857a	0.073496774
220	0xbc2891c0	-0.010288656
221	0x3d46149d	0.048359502
222	0x3d2dff75	0.04247995
223	0xbd3cd484	-0.04610111
224	0xbd8407b1	-0.064467795
225	0xbdf63d44	-0.12023404
226	0xbd914770	-0.07093704
227	0xbd0fc02f	-0.03509539
228	0xbce289a3	-0.02765352
229	0x3a8bc7b8	0.0010664379
230	0x3d726872	0.059181638
231	0xbd6409cd	-0.05567341
232	0x3b14e446	0.002271907
233	0x3d96e5fd	0.073680855
234	0x3dc91785	0.09818939
235	0xbcb5d81d	-0.022197777
236	0xbc2b5f83	-0.0104597835
237	0xbd367992	-0.044549532
238	0x3d58514b	0.052811902
239	0x3d1ac076	0.0377812
240	0xbca97d1c	-0.02068954
241	0x3d3a9e0b	0.045560878
242	0xbdf8bb03	-0.12145045
243	0xbe213dae	-0.15746185
244	0xbe0f11be	-0.13971612
245	0xbdbb3d11	-0.09142507
246	0x3c4cba10	0.012495533
247	0x3b729238	0.0037013423
248	0xbcc6afd8	-0.02425377
249	0x3d92bee5	0.071653165
250	0x3c49dbcb	0.012320469
251	0x3d60ab79	0.05485103
252	0x3d8d7e84	0.069088966
253	0x3ce70dd5	0.028204838
254	0x3d40f038	0.04710409
255	0x3e2a67f6	0.1664122

layers.0.bias f4 [128]
0	0x3e23d020	0.15997362
1	0x3dad3e00	0.08459091
2	0x3cab48a4	0.020908661
3	0x3d79d47f	0.060993668
4	0x3cb25e85	0.021773586
5	0xbde2acbb	-0.11068102
6	0xbeac4c75	-0.33652082
7	0xbe327194	-0.17426139
8	0xbc1e796c	-0.009672504
9	0xbe80e1c1	-0.25172237
10	0x3d7f8408	0.062381774
11	0xbdf9c4f9	-0.12195773
12	0xbe016877	-0.12637506
13	0x3e83fa45	0.25776878
14	0xbd19c76c	-0.0375437
15	0x3d0a8305	0.033816356
16	0x3e0bc201	0.13648225
17	0x3e5fb893	0.21847753
18	0x3e6b8245	0.22998913
19	0x3c87c4bd	0.016573304
20	0xbd130811	-0.035896365
21	0x3dc221f5	0.09479133
22	0x3decc2e9	0.11560614
23	0xbcb51977	-0.02210687
24	0x3ba97e4f	0.005172528
25	0x3e18af4e	0.14910623
26	0x3e95c4d7	0.2925174
27	0x3df12820	0.11775231
28	0x3dff3cdf	0.12462782
29	0x3daee569	0.0853985
30	0xbde17283	-0.110081695
31	0x3c762316	0.015023014
32	0xbe618427	-0.22023068
33	0x3dec6052	0.11541809
34	0x3da2a598	0.07941741
35	0x3cfdd906	0.030987274
36	0xbeaaf130	-0.33387136
37	0x3e95c430	0.29251242
38	0x3a899cb6	0.0010498974
39	0x3d925cd1	0.071466096
40	0xbbb92662	-0.0056503275
41	0x3d2a7a8b	0.041620772
42	0xbd32de48	-0.043669015
43	0x3dd067c8	0.10176045
44	0xbe4f1107	-0.20221339
45	0xbe4d79b9	-0.20065965
46	0x3e2305aa	0.1592013
47	0x3d8518fc	0.06498906
48	0xbe07f329	-0.13276352
49	0x3d986820	0.07441735
50	0xbdd8ba64	-0.10582426
51	0x3e1e9472	0.15486315
52	0xbe3e691f	-0.18594788
53	0x3dfd4a63	0.12367704
54	0x3dc9f5fb	0.0986137
55	0x3df9a207	0.121891074
56	0xbd9d38f8	-0.076768816
57	0xbe66c98b	-0.2253782
58	0xbd5298aa	-0.051415123
59	0x3cdf544c	0.027261876
60	0x3cad31e4	0.021141954
61	0xbe03a824	-0.1285711
62	0x3e6d23ef	0.23158239
63	0x3dd0d99c	0.10197756
64	0xbe5228a6	-0.20523319
65	0xbe1bcf73	-0.15215854
66	0x3d20e7d6	0.039283596
67	0x3dd35ffe	0.103210434
68	0x3e4942ce	0.1965439
69	0x3d9047fb	0.07044979
70	0xbdfda38d	-0.123847105
71	0xbdf02a14	-0.11726776
72	0x3dc3206c	0.09527668
73	0x3dd071fb	0.1017799
74	0xbdf8604f	-0.121277444
75	0x3e0e946d	0.13923807
76	0x3d136170	0.035981596
77	0xbce618e4	-0.02808804
78	0xbcd02c12	-0.02541164
79	0x3db4f492	0.088357106
80	0x3c2354f5	0.009968986
81	0xbe11497d	-0.1418819
82	0x3c15d749	0.009145566
83	0x3e278c18	0.16362035
84	0x3d4d1478	0.05006835
85	0xbc338171	-0.010956154
86	0x3dc51a25	0.09624127
87	0x3e1d799a	0.15378419
88	0xbdb403ff	-0.08789825
89	0x3da74250	0.08166945
90	0x3b5a27e5	0.003328794
91	0xbdeea9b7	-0.11653464
92	0x3db218d7	0.08696144
93	0xbe20236b	-0.15638511
94	0x3d5a5442	0.05330301
95	0x3de3c376	0.111212656
96	0x3cd3f234	0.025872327
97	0xbded1419	-0.11576099
98	0xbdaa4a4d	-0.08314953
99	0xbdaea4d5	-0.08527533
100	0xbe6dddf2	-0.23229197
101	0x3e50b749	0.20382418
102	0x3e2cb087	0.16864215
103	0x3de75db3	0.112971686
104	0x3dac8c22	0.08425166
105	0xbd82ca58	-0.0638625
106	0xbcc8203a	-0.02442943
107	0x3e0de10f	0.13855384
108	0x3ddbb1d8	0.107272804
109	0xbbd772f9	-0.006574985
110	0x3e0838b4	0.1330288
111	0x3e80141f	0.2501535
112	0xbc0babab	-0.008524816
113	0xbc590f4d	-0.013248277
114	0x3e62af53	0.22137193
115	0x3e077397	0.13227688
116	0xbda8f1c1	-0.08249236
117	0xbc220c68	-0.009890653
118	0x3d8cf9fe	0.0688362
119	0x3d8548ac	0.06508002
120	0x3d73334e	0.0593751
121	0xbd03bd51	-0.032162968
122	0x3da6def2	0.08147992
123	0x3dd66469	0.104683705
124	0x3dc81086	0.097687766
125	0xbd82b475	-0.06382076
126	0xbc593add	-0.013258663
127	0x3daff3d0	0.085914254

layers.1.weight f4 [128, 128]
0	0x3d86b0bf	0.065766804
1	0x3ca8e2fa	0.020616043
2	0x3d513bcd	0.05108242
3	0xbddb912f	-0.10721051
4	0xba4b48cd	-0.00077546836
5	0xbe03788a	-0.12838951
6	0xbd52f029	-0.051498566
7	0xbe95bf3a	-0.29247457
8	0xbde4d140	-0.11172724
9	0x3d53d6a2	0.05171836
10	0xbe95850b	-0.29203066
11	0xbdb74bb9	-0.0894999
12	0xbea0ea3f	-0.31428716
13	0x3d056921	0.032570962
14	0x3e189f29	0.14904465
15	0xbd5ab261	-0.05339277
16	0x3d3b9aba	0.045801856
17	0x3d2848ff	0.04108524
18	0xbc9e4bdb	-0.01932328
19	0xbdeb9293	-0.11502566
20	0x3db4cd36	0.088282034
21	0x3dea0f86	0.11428742
22	0x3c247a77	0.0100389635
23	0x3cec26d3	0.028827107
24	0x3ddb9eb1	0.10723627
25	0x3de977c5	0.11399797
26	0x3e160ede	0.14654109
27	0xbd89592f	-0.067064635
28	0xbe5cadab	-0.21550624
29	0xbd3459c1	-0.04403091
30	0xbce995b8	-0.028513774
31	0xbe0b8579	-0.13625135
32	0x3dbd9da8	0.09258586
33	0x3d190971	0.03736252
34	0x3b2daab4	0.0026499452
35	0x3d430cdd	0.04761969
36	0xbcdcba94	-0.026944436
37	0x3dc7bc6e	0.09752737
38	0xbe1c791a	-0.15280572
39	0x3df26373	0.11835375
40	0x3d9ae6a6	0.07563524
41	0x3d925ede	0.07147001
42	0x3defb6da	0.11704798
43	0x3d26b46a	0.0406994
44	0x3d4e58e4	0.05037774
45	0x3d890ecf	0.06692278
46	0x3dcce6c8	0.100049555
47	0x3dea320c	0.11435327
48	0x3c80e930	0.015736192
49	0xbdb080c3	-0.08618309
50	0xbe7e0b18	-0.2480892
51	0xbd15f1ee	-0.036607675
52	0xbe0ec117	-0.13940845
53	0xbd0e77dc	-0.034782276
54	0x3d483b81	0.048884872
55	0xbd09f2fe	-0.033679
56	0x3cf3b7f2	0.029750798
57	0x3dd290d0	0.10281527
58	0x3cf820c2	0.030289058
59	0x3e199f30	0.15002131
60	0x3d6b79f8	0.057489365
61	0xbdca41fb	-0.09875866
62	0x3e19719d	0.14984746
63	0xbcf00c1f	-0.029302655
64	0xbd55b7e1	-0.052177314
65	0xbd9cacb9	-0.07650132
66	0x3b80ce92	0.003930875
67	0x3dde8bf9	0.108665414
68	0x3c92cb09	0.01791908
69	0xbd964adb	-0.07338496
70	0x3c3d9df9	0.011573308
71	0xbde971fb	-0.11398693
72	0x3c9f5040	0.019447446
73	0xbdd14c29	-0.102196045
74	0xbe030372	-0.12794283
75	0x3cc0f064	0.023552127
76	0xbd5ab434	-0.05339451
77	0x3de1131e	0.109899744
78	0x3e39641e	0.18104598
79	0xbd46d260	-0.048540473
80	0x3e4daa4c	0.20084494
81	0x3cdf40dc	0.027252607
82	0x39824302	0.00024845457
83	0x3c434c63	0.0119200675
84	0xbd1b30c8	-0.03788832
85	0x3d24ca91	0.040232245
86	0xbd684aa7	-0.05671182
87	0xbbf35e98	-0.007427048
88	0x3dbc559e	0.09196018
89	0xbc0217ae	-0.007940216
90	0x3dcb2e2c	0.09920916
91	0xbd228aa7	-0.03968301
92	0x3dfd0022	0.12353541
93	0xbc07b019	-0.008281731
94	0xbdc1af97	-0.09457319
95	0x3b40f4bb	0.0029442746
96	0xbd837519	-0.06418819
97	0xbdbcb391	-0.09213937
98	0xbdd082e5	-0.10181216
99	0xbd46d62a	-0.048544087
100	0x3d25b82d	0.040458847
101	0x3d5646ff	0.0523138
102	0x3d5450e5	0.05183496
103	0xbd1baa19	-0.038004015
104	0xbd609d6e	-0.054837637
105	0xbc88c2a5	-0.016694376
106	0xbda1ea1c	-0.07905981
107	0x3d91fca6	0.07128267
108	0xbd057840	-0.032585382
109	0x3d718db9	0.058973048
110	0xbd377ad3	-0.04479487
111	0x3dc2886d	0.094986774
112	0x3d3bddee	0.045865946
113	0x3d7739da	0.060357906
114	0x3d1aa373	0.037753534
115	0x3e15a38d	0.14613171
116	0x3d829262	0.063755766
117	0xbda46fdb	-0.08029147
118	0xbc150d19	-0.009097361
119	0xbdcb0311	-0.09912694
120	0x3c4095f0	0.011754498
121	0xbdd0b7dd	-0.10191319
122	0x3e259309	0.1616937
123	0x3dbf4101	0.093385704
124	0x3cb10544	0.021608956
125	0x3d35f91f	0.044427034
126	0xbdf69e3a	-0.12041898
127	0x3daf5fdd	0.08563206
128	0x3df43664	0.11924437
129	0xbcb58beb	-0.022161445
130	0xbd3b10ab	-0.045670193
131	0xbc2bce90	-0.01048626
132	0x3cd6b8dd	0.026211197
133	0xbccd4be1	-0.025060596
134	0xbd945921	-0.072435625
135	0xbe84e294	-0.25954115
136	0x3e09305b	0.13397352
137	0x3dd5aa13	0.1043283
138	0x3c1b2325	0.009468828
139	0xbdfdf852	-0.12400879
140	0xbd1674ad	-0.036732364
141	0x3d999ff4	0.07501212
142	0x3da8d3a2	0.08243491
143	0xbbfd3e8d	-0.007728404
144	0xbc08c488	-0.008347638
145	0xbd72cfb7	-0.059280124
146	0x3d3c7c60	0.04601705
147	0x3d8f5ef7	0.07000535
148	0xbe58df6c	-0.21178979
149	0xbca25c2d	-0.019819343
150	0xbdf9921a	-0.1218607
151	0x3e06eb2c	0.13175648
152	0x3dbce823	0.09223964
153	0xbe842a0c	-0.2581333
154	0x3d7cffa7	0.061767247
155	0xbee1c7ef	-0.4409785
156	0xbe4ed07d	-0.2019672
157	0x3d733e03	0.05938531
158	0xbe12a3f1	-0.14320351
159	0x3ba85b9c	0.005137874
160	0x3e13eb74	0.14445287
161	0x3ca46c0f	0.020071058
162	0xbd84b5c7	-0.06479984
163	0xbe85e12b	-0.26148352
164	0x3d5b2fea	0.05351249
165	0xbdf1b983	-0.11802962
166	0xbe06460f	-0.13112663
167	0xbdbd9311	-0.09256566
168	0xbe869962	-0.26288897
169	0x3e23ddcc	0.16002578
170	0x3de3aff2	0.11117543
171	0x3a61e7cc	0.0008617609
172	0x3d5e97a8	0.05434385
173	0x3d97671d	0.07392714
174	0xbdbd9caa	-0.09258397
175	0xbc1231e4	-0.008923028
176	0xbcc1817f	-0.023621319
177	0xbdccd055	-0.10000674
178	0x3c853a0e	0.016263034
179	0x3e04a1cc	0.12952346
180	0x3d897920	0.06712556
181	0x3d751c98	0.059841722
182	0xbdbd7a7a	-0.09251876
183	0xbd41beb6	-0.047301017
184	0xbe144266	-0.14478454
185	0xbd444ec1	-0.047926668
186	0x3d2405b7	0.040044513
187	0xbe55e0b4	-0.20886499
188	0x3db01e80	0.085995674
189	0x3e363e84	0.17797285
190	0xbe1c26a6	-0.15249118
191	0x3cda2408	0.02662851
192	0xbd7dc54b	-0.06195573
193	0x3d25357c	0.04033421
194	0xbe17f2a9	-0.14838661
195	0x3cd1a27f	0.02559018
196	0xbdc6ad42	-0.09701015
197	0xbe008a2c	-0.12552708
198	0xbd8c6870	-0.06855857
199	0x3d742c90	0.05961281
200	0x3d3f33d9	0.046680305
201	0xbe902836	-0.2815568
202	0x3e51f1b7	0.20502363
203	0xbdb9c8a6	-0.09071474
204	0x3e86048c	0.26175344
205	0x3e01a764	0.1266151
206	0x3ebbfd6b	0.3671678
207	0xbe37e4fc	-0.17958444
208	0x3ec53ae9	0.38521507
209	0xbd11b3b2	-0.03557176
210	0x3bfd5f01	0.0077322726
211	0x3b1b0778	0.0023655575
212	0xbc6e9b65	-0.014563416
213	0x3d31e62d	0.043432403
214	0x3c934451	0.017976912
215	0xbd11dbdf	-0.035610076
216	0x3e326e24	0.17424828
217	0x3dab98ca	0.083787516
218	0xbd793789	-0.060843978
219	0xbca661da	-0.020310331
220	0x3cba7f64	0.022765823
221	0xbd53d350	-0.051715195
222	0xbe1b0678	-0.15139186
223	0x3d52dfc7	0.051482942
224	0xbe138979	-0.1440791
225	0x3dd887d3	0.105727814
226	0x3d3e7e18	0.04650697
227	0x3c85a4fc	0.016314022
228	0xbd78e22f	-0.06076258
229	0xbdbe931f	-0.09305405
230	0x3d01654c	0.031590745
231	0xbd24f118	-0.040268987
232	0x3bbf3be4	0.005835997
233	0x3c3e8382	0.011628034
234	0xbdb8c752	-0.09022392
235	0xbd794f21	-0.06086648
236	0xbd9d58fb	-0.07682987
237	0x3e08f584	0.13374907
238	0x3dcd5c74	0.100274
239	0x3cab9b56	0.020948093
240	0x3d0f4cc5	0.034985323
241	0x3d2dbca5	0.042416234
242	0x3ceb77f8	0.028743729
243	0xbccd6a5f	-0.025075136
244	0xbe36f43d	-0.17866607
245	0xbe7f249e	-0.24916312
246	0xbdd66b69	-0.104697056
247	0xbcc8a7fd	-0.024494166
248	0xbb310d73	-0.0027016073
249	0x3cdbcac2	0.02683008
250	0x3d43cde6	0.047803782
251	0xbdc1af06	-0.09457211
252	0xbebfc970	-0.37458372
253	0xbc7daf76	-0.015483728
254	0x3dee505d	0.11636422
255	0x3dde1f30	0.10845792

layers.1.bias f4 [128]
0	0x3e975e03	0.29563913
1	0xbd0a35e3	-0.033742797
2	0x3e1b5a2c	0.15171117
3	0x3e298ca7	0.16557561
4	0xbe09c465	-0.13453825
5	0x3d813476	0.06308834
6	0xbd5b5c56	-0.053554855
7	0x3c51f2c8	0.012814231
8	0xbdf5a1fa	-0.11993785
9	0x3d901ab9	0.07036347
10	0x3e185150	0.14874768
11	0xbd0d9ae2	-0.034571536
12	0xbc38259a	-0.011239434
13	0x3dd4a7a3	0.10383537
14	0x3e0b14d3	0.13582163
15	0x3e5c8a75	0.21537192
16	0x3db25e75	0.087094225
17	0x3d422171	0.047395173
18	0x3e10fa31	0.1415794
19	0x3ddea50a	0.108713225
20	0x3d40037a	0.046878316
21	0xbd071b65	-0.03298511
22	0xbb81428f	-0.003944702
23	0xbdab17a7	-0.08354121
24	0xbc850810	-0.016239196
25	0x3e5b6d27	0.21428357
26	0x3e6002b9	0.21876039
27	0xbd429e4a	-0.047514237
28	0xbd0bb9f5	-0.03411289
29	0xbd98324c	-0.07431468
30	0x3cdf6842	0.027271394
31	0xbdaa2cdf	-0.0830934
32	0x3d84d96b	0.06486782
33	0x3db46da3	0.08809974
34	0xbdf959fd	-0.12175367
35	0x3aef6c2b	0.001826649
36	0x3dd6afda	0.1048276
37	0xbe314338	-0.17310798
38	0x3e14ff81	0.14550592
39	0x3ca7c8be	0.020481464
40	0x3d89cff0	0.06729114
41	0x3dff6897	0.12471121
42	0xbe1f86ae	-0.1557872
43	0x3e4cdd15	0.20006211
44	0x3d9ec8df	0.07753157
45	0x3d91aad2	0.071126595
46	0xbb2be7d9	-0.0026230721
47	0x3e83b39f	0.25722978
48	0x3e0153bd	0.126296
49	0xbe13ed61	-0.14446022
50	0x3c9924b6	0.018694263
51	0xbd2353dc	-0.039874896
52	0x3df0d8f4	0.117601305
53	0x3cd6f5c1	0.026240231
54	0x3e0c43c3	0.13697724
55	0x3d8378a5	0.064194955
56	0x3da53f7f	0.080687515
57	0xbdc064c9	-0.09394223
58	0x3dd65f26	0.10467367
59	0xbcac62ae	-0.021043148
60	0xbc5b34de	-0.013379304
61	0x3cfcb3dc	0.030847482
62	0x3d4238b0	0.047417343
63	0xbd6c55f3	-0.057699155
64	0x3e51d7f2	0.20492533
65	0x3dac54cd	0.08414612
66	0xbc983327	-0.018579079
67	0xbd916ed6	-0.071012184
68	0x3db18c01	0.08669282
69	0xbc9bb726	-0.01900823
70	0x3c88fe5f	0.016722856
71	0x3dae90ea	0.08523734
72	0xbcd2fa40	-0.025754094
73	0x3e4dcc48	0.20097458
74	0x3dcad74a	0.099043444
75	0xbdcdbeb4	-0.10046139
76	0x3d9a38d3	0.075303696
77	0x3df3ce75	0.11904613
78	0x3d75d608	0.06001857
79	0xbdaf1bf1	-0.08550251
80	0x3e24d037	0.16095053
81	0x3a922f1b	0.0011152955
82	0xbdbf10d5	-0.09329382
83	0xbd86a65d	-0.065747
84	0xbd95cb30	-0.073141456
85	0x3e64d601	0.22347261
86	0xbdbbd562	-0.09171559
87	0x3e7d8eab	0.24761455
88	0xb83c4b44	-4.489279e-05
89	0xbdd4c94f	-0.10389959
90	0xbdbb7ee0	-0.09155059
91	0xbd663b25	-0.05620875
92	0x3bdbca1e	0.006707444
93	0x3db82ee6	0.0899332
94	0x3e05881c	0.13040203
95	0x3e8b965a	0.27263147
96	0xbdcdb309	-0.10043914
97	0x3ca37e7a	0.01995777
98	0x3e8b1c75	0.27170148
99	0x3d6a2918	0.057168096
100	0x3def0353	0.11670556
101	0x3cb52dab	0.022116503
102	0x3cf788c0	0.030216575
103	0x3e013977	0.12619577
104	0x3c4fddb8	0.012687139
105	0xbd5ae9d6	-0.05344566
106	0xbda6d297	-0.081456356
107	0x3cbd1b9c	0.023084454
108	0xbd95900f	-0.073028676
109	0xbbcb5b24	-0.006205933
110	0xbd8bec02	-0.06832124
111	0x3e3f2472	0.18666247
112	0x3c20e176	0.009819379
113	0x3da3b736	0.07993929
114	0x3b9d4292	0.0047991956
115	0xbd06ae90	-0.03288132
116	0x3c66e4f6	0.0140926745
117	0x3e0d38f4	0.13791257
118	0x3e70044d	0.2343914
119	0x3e481e77	0.19542871
120	0xbd30509a	-0.043045618
121	0x3e244a13	0.16043882
122	0x3ddf7751	0.1091143
123	0xbd1da00a	-0.038482703
124	0xbdbb9ba5	-0.09160546
125	0xbc8757da	-0.016521383
126	0xbd2ccf24	-0.042189732
127	0x3d41ddca	0.047330655

layers.2.weight f4 [128, 128]
0	0xbc4f145e	-0.012639133
1	0x3e4cc7a1	0.19998027
2	0x3dc97b7e	0.098380074
3	0xbe19fdd0	-0.15038228
4	0xbedfe5a1	-0.4372988
5	0x3def3ea4	0.116818696
6	0x3b8440f4	0.0040360633
7	0x3ef32276	0.4748723
8	0xbef1c12e	-0.47217697
9	0x3e4f0ca1	0.20219661
10	0xbc21b031	-0.009868667
11	0x3e0baf80	0.13641167
12	0x3c501e9e	0.012702612
13	0x3d70960e	0.058736853
14	0xbdada18c	-0.08478078
15	0xbd6f1056	-0.05836519
16	0x3d0d97f8	0.034568757
17	0x3d02b6d1	0.03191263
18	0x3d3dfec2	0.046385534
19	0x3e288543	0.16457085
20	0x3cf8ac20	0.030355513
21	0xbcb03969	-0.02151175
22	0x3dc175b5	0.09446279
23	0xbd2d7777	-0.04235026
24	0xbd47ac0e	-0.04874807
25	0xbda74644	-0.08167699
26	0xbb6b8b26	-0.0035941093
27	0xbe84dee7	-0.2595131
28	0x3d78470b	0.060614627
29	0x3e17b8bc	0.14816564
30	0x3d3fb44a	0.046802796
31	0xbebfe503	-0.3747941
32	0x3db41c11	0.08794416
33	0xbdbfe4ba	-0.09369798
34	0xbe4a740b	-0.1977083
35	0xbd9f1b1f	-0.07768845
36	0x3dcbb3ce	0.099464044
37	0x3e5d127b	0.21589081
38	0x3e8cf475	0.27530256
39	0xbe7ab628	-0.2448355
40	0xbd27d74e	-0.040976815
41	0xbbb83c7c	-0.0056224447
42	0xbecc3ce1	-0.39890197
43	0xba594133	-0.00082876085
44	0xbdb280a2	-0.08715941
45	0x3d2e1f12	0.0425101
46	0xbe95dcff	-0.2927017
47	0x3db6fcea	0.08934958
48	0x3d7edcc0	0.062222242
49	0xbd47aa25	-0.048746247
50	0x3c2288f8	0.009920351
51	0x3db5ca95	0.0887653
52	0x3db1988f	0.08671676
53	0x3e8e7a1d	0.2782754
54	0x3c7d723a	0.015469128
55	0x3d91dbfa	0.07122035
56	0x3d8db858	0.069199264
57	0xbd8ea345	-0.06964735
58	0x3e160378	0.1464976
59	0x3d83a1d6	0.06427352
60	0x3d9f9ffe	0.07794188
61	0x3d224760	0.03961885
62	0x3d13c7c8	0.036079198
63	0xbce62414	-0.028093375
64	0x3e679ec6	0.22619161
65	0x3ce32812	0.027729068
66	0xbe7e70c6	-0.24847707
67	0x3de6646d	0.112496234
68	0x3e212ecf	0.15740512
69	0x3e356936	0.17715916
70	0x3d2d232c	0.04226987
71	0xbd83457d	-0.06409738
72	0xbd3e2b00	-0.046427727
73	0xbe317bee	-0.17332432
74	0xbcd1c974	-0.025608756
75	0xbb7fc48e	-0.0039027068
76	0xbd5167bb	-0.051124316
77	0x3dfc2950	0.12312567
78	0x3cd04156	0.02542178
79	0xbe8fc112	-0.28076988
80	0xbc32f0e4	-0.010921691
81	0x3de22252	0.11041702
82	0xbb6bab48	-0.0035960246
83	0x3e266c57	0.16252266
84	0x3df4dc98	0.119561374
85	0xbd485fc4	-0.048919454
86	0xbe36fb84	-0.17869383
87	0x3dbb9fdc	0.0916135
88	0x3e04becc	0.12963408
89	0xbb3f100c	-0.0029153852
90	0xbd05debc	-0.03268312
91	0xbbac03d5	-0.0052494803
92	0x3dd170fb	0.102266274
93	0x3dbbe52a	0.09174569
94	0x3c37348d	0.011181963
95	0xbc682db3	-0.014171052
96	0x3dc18381	0.094489105
97	0x3e41f568	0.18941271
98	0xbd8bee3f	-0.06832551
99	0x3f01c30d	0.5068825
100	0x3e36245f	0.17787312
101	0x3dcb2772	0.09919633
102	0xbd840126	-0.064455315
103	0xbc1d1747	-0.009588069
104	0xbe8f3304	-0.2796861
105	0x3e14cca8	0.14531195
106	0x3dc5ecb1	0.09664286
107	0x3d1b7a9a	0.03795872
108	0x3dcd0d90	0.100123525
109	0xbe684fad	-0.22686644
110	0xbea2d74c	-0.31804883
111	0x3d5ae789	0.053443465
112	0x3dab4f04	0.083646804
113	0x3eaf3ec7	0.34227583
114	0x3dd25f8a	0.10272129
115	0x3dc66033	0.09686317
116	0x3d6cbd44	0.057797685
117	0x3dc47bff	0.09593963
118	0x3e251287	0.16120349
119	0xbd16c32a	-0.036807217
120	0x3d885c7d	0.06658266
121	0xbde5a586	-0.11213212
122	0x3df8398b	0.121203505
123	0xbd93dd41	-0.07219935
124	0xbe32900a	-0.17437759
125	0xbe36382f	-0.1779487
126	0xbd181aa5	-0.037134785
127	0xbcb4c7a3	-0.02206785
128	0xbe206ca5	-0.15666445
129	0x3df1d680	0.11808491
130	0x3e00433c	0.12525648
131	0xbcda487f	-0.026645897
132	0xbec16440	-0.37771797
133	0x3e0905b5	0.13381083
134	0xbd0641ac	-0.032777473
135	0x3ea92f7e	0.33044046
136	0xbe9402e0	-0.28908443
137	0x3d6b10eb	0.05738918
138	0xbd48c5fe	-0.049016945
139	0x3de89b32	0.11357726
140	0x3d9c34ba	0.07627244
141	0x3d30ee80	0.0431962
142	0x3810a3fb	3.4484994e-05
143	0x3d7c3c50	0.061580956
144	0x3d391495	0.045185644
145	0x3cc607ba	0.024173606
146	0x3e036539	0.12831582
147	0x3e029694	0.12752753
148	0x3dddf675	0.108380236
149	0x3cdb880e	0.026798274
150	0xbc01bf55	-0.007919152
151	0x3b71d443	0.00369002
152	0x3db8828c	0.09009275
153	0xbde8d566	-0.113688275
154	0x3c4a9c33	0.012366342
155	0xbe0c74fc	-0.13716501
156	0x3d5fae29	0.05460945
157	0x3dafaa2c	0.085773796
158	0x3c0f6d10	0.00875403
159	0xbe4cdcd4	-0.20006114
160	0x3dafa41f	0.085762255
161	0x3cdf3482	0.027246717
162	0xbe2b8199	-0.16748656
163	0xbd867c07	-0.06566625
164	0x3cc6aa6f	0.024251191
165	0x3c2bd04c	0.010486674
166	0x3e67c314	0.2263301
167	0xbe89e1ca	-0.26930076
168	0x3dc09034	0.094025046
169	0x3df28949	0.11842591
170	0xbee1eb21	-0.44124702
171	0xbd3ff1a5	-0.04686131
172	0xbdcca20b	-0.09991845
173	0xbd2a213f	-0.041535612
174	0xbe763ac1	-0.2404585
175	0x3dd5e0d1	0.10443271
176	0x3dcf90f3	0.10135069
177	0x3c579d46	0.0131600555
178	0xbbe62fca	-0.00702474
179	0xbd9991cd	-0.074985124
180	0x3da7f36a	0.082007244
181	0x3e12aee6	0.14324531
182	0xbb83d6ec	-0.0040234234
183	0x3d89232a	0.0669616
184	0x3e0826bb	0.13296025
185	0xbb3e1627	-0.0029004903
186	0x3e51c0b3	0.20483665
187	0x3c15cf0f	0.009143605
188	0xbd5529bc	-0.052041754
189	0xbd427ea9	-0.047484074
190	0x3c3fe416	0.011712095
191	0x3d93be44	0.07214025
192	0x3e840819	0.25787428
193	0x3d0ec437	0.034855094
194	0xbe9bf937	-0.30463573
195	0x3e0098d2	0.12558296
196	0x3df89129	0.12137062
197	0x3d9781bc	0.07397792
198	0x3de37fa0	0.11108327
199	0xbe221bb6	-0.15830883
200	0x3db22fb3	0.08700504
201	0xbe7e3721	-0.24825718
202	0x3dc52a74	0.09627238
203	0x3d0d5902	0.034508713
204	0x3d6120f8	0.054963082
205	0x3e36495f	0.17801426
206	0x3da47b5c	0.080313414
207	0xbe167eba	-0.1469678
208	0x3d3f60d9	0.04672322
209	0x3d979c0d	0.07402811
210	0x3d8475ec	0.06467804
211	0x3d3207e2	0.04346455
212	0x3d816ab1	0.06319178
213	0x3cc1fcaf	0.02368006
214	0xbd8f0bc0	-0.06984663
215	0x3ca948de	0.020664629
216	0x3e03c3e0	0.12867689
217	0x3d0117dd	0.0315169
218	0xbc97e275	-0.0185406
219	0x3d87d3a1	0.06632162
220	0x3dc25038	0.09487957
221	0x3e0a08e4	0.13479954
222	0xbd43a1a2	-0.047761567
223	0xbdf60b7d	-0.1201391
224	0x3d907e46	0.07055335
225	0x3e27c01d	0.16381879
226	0x3de463bc	0.11151835
227	0x3ec3382a	0.38128787
228	0x3dcd793f	0.100328915
229	0x3ddb4ef9	0.10708422
230	0xbc99a957	-0.018757505
231	0x3dcfe304	0.10150722
232	0xbe3fd11f	-0.18732117
233	0xbd65a85c	-0.056068763
234	0x3d30bd12	0.04314906
235	0x3db94fb2	0.09048404
236	0x3c24f546	0.010068243
237	0xbe83ff87	-0.2578089
238	0xbe8da447	-0.27664396
239	0x3e12327f	0.14277075
240	0x3d8009f8	0.062519014
241	0x3e4834e1	0.19551422
242	0x3dd29903	0.10283091
243	0x3ce72c61	0.028219404
244	0x3e28c1f8	0.16480243
245	0x3dcee6cd	0.101026155
246	0x3e0bd8cb	0.13656919
247	0x3d23b36f	0.039966043
248	0x3c156cfd	0.009120223
249	0xbca6b9c9	-0.020352261
250	0x3e05401b	0.13012736
251	0x3d65b7d7	0.056083526
252	0xbe18d1ce	-0.14923784
253	0xbd8ea78d	-0.069655515
254	0xbd675df4	-0.056486085
255	0xbd0b0fce	-0.03395062

layers.2.bias f4 [128]
0	0x3d5c5945	0.05379607
1	0x3dc99652	0.098431244
2	0x3de6630d	0.11249361
3	0xbc78540e	-0.015156759
4	0x3d9c7dfa	0.076412156
5	0x3e9c3cb5	0.30515066
6	0xbe09c915	-0.13455613
7	0xbd3d1e09	-0.046171222
8	0xbdcabd39	-0.098993726
9	0xbc9691be	-0.018380042
10	0x3c06f251	0.008236484
11	0xbdf9bc7c	-0.12194154
12	0x3eb261ef	0.34840342
13	0x3d3e2f8c	0.046432063
14	0x3cd6d64d	0.026225233
15	0xbdc9b911	-0.09849752
16	0x3d812aa4	0.06306961
17	0x3dabb3ce	0.083839044
18	0x3d61d8fb	0.05513857
19	0x3dba6196	0.09100644
20	0xbda4aa3a	-0.08040281
21	0xbc677695	-0.014127393
22	0xbce325ef	-0.02772805
23	0xbd5a7375	-0.053332765
24	0xbd83f6a4	-0.06443527
25	0xbe31ed7c	-0.1737575
26	0xbcabd14f	-0.02097383
27	0x3d8be0a6	0.06829958
28	0x3e656bd1	0.2240441
29	0x3d85514d	0.065096475
30	0x3dac5397	0.08414381
31	0xbd64b686	-0.05583813
32	0x3d0a4228	0.033754498
33	0x3bc051ae	0.005869112
34	0xbac7595f	-0.001520913
35	0x3dab80df	0.083741896
36	0xbd98e82e	-0.0746616
37	0xbd6b146c	-0.057392523
38	0x3d348a44	0.044077173
39	0x3ea76536	0.32694405
40	0xbc6e2f5b	-0.014537658
41	0xbcb51949	-0.022106783
42	0xbe3e6d91	-0.18596484
43	0xbb94a11a	-0.0045358064
44	0xbddc5992	-0.10759272
45	0xbd97a0f2	-0.07403745
46	0x3e9d4a84	0.30720913
47	0x3d995604	0.07487109
48	0x3d9cc66b	0.07655033
49	0x3c59d41d	0.013295201
50	0xbdbfeae8	-0.09370977
51	0xbca79957	-0.02045886
52	0x3d2a67b9	0.041602824
53	0x3e882f0c	0.26598394
54	0xbe221ccd	-0.15831299
55	0x3eacd819	0.3375862
56	0x3d919364	0.07108191
57	0xbd0861a5	-0.033296246
58	0x3dc45df3	0.09588232
59	0x3e2b338f	0.16718887
60	0xbd1135bf	-0.035451647
61	0x3ec2fabe	0.38081926
62	0xbbfe1ca5	-0.0077548795
63	0xbd35c949	-0.044381414
64	0xbdc13ba1	-0.094352014
65	0xbdffe1bb	-0.124942265
66	0x3d8f010c	0.069826216
67	0x3da34cf5	0.07973663
68	0x3e9852ca	0.29750663
69	0xbd93e44d	-0.07221279
70	0x3c67e834	0.014154483
71	0xbe0897c6	-0.13339147
72	0x3e1e1890	0.15439057
73	0x3ea57b98	0.32320857
74	0xbd26686f	-0.04062694
75	0x3b798d68	0.003807867
76	0x3da7f254	0.08200517
77	0xbe0efac5	-0.13962848
78	0xbdc4ff8d	-0.09619055
79	0x3e1a5572	0.15071657
80	0x3ca07c58	0.019590542
81	0x3d5e0bbd	0.054210413
82	0xbc56dfa7	-0.013114846
83	0x3e85b21c	0.2611245
84	0x3eb7c5f2	0.35893208
85	0xbca567e5	-0.020191142
86	0x3eaf7af5	0.34273496
87	0xbd350b2c	-0.044200107
88	0xbcf6c97d	-0.030125374
89	0xbb0f701c	-0.002188689
90	0x3daffb7c	0.08592889
91	0x3c25da69	0.010122874
92	0x3984795c	0.00025267422
93	0xbd4595d0	-0.048238575
94	0x3cf0cd1c	0.029394679
95	0x3d688964	0.05677165
96	0xbda216f7	-0.079145364
97	0xbd9fedb4	-0.0780901
98	0xbd1d71dd	-0.038438667
99	0x3d560149	0.05224732
100	0xbd88e13b	-0.06683584
101	0x3d14a6c1	0.03629184
102	0x3da2a98d	0.079424955
103	0xbe2bdfad	-0.16784544
104	0xbd3d3484	-0.04619266
105	0xbd4ef999	-0.050531004
106	0x3da81b5a	0.08208342
107	0x3ec42d02	0.38315588
108	0xbdb9806e	-0.09057699
109	0xbd4c3827	-0.04985824
110	0xbde789ad	-0.113055564
111	0x3e57fafe	0.2109184
112	0x3e980411	0.29690602
113	0x3d8c7452	0.06858124
114	0x3d3c61a9	0.045991573
115	0x3e34a5c4	0.1764136
116	0x3e8b6e9c	0.27232826
117	0x3e990b51	0.29891446
118	0x3d38e5bd	0.04514097
119	0x3d67b298	0.056566805
120	0xbe941e82	-0.28929526
121	0xbdc3d221	-0.09561563
122	0x3db66f45	0.08907942
123	0x3db3ae6f	0.08773505
124	0x3ebbebbb	0.36703286
125	0xbda91b0f	-0.08257114
126	0x3d80bf73	0.06286516
127	0x3c783794	0.01514997

layers.3.weight f4 [1, 128]
0	0x3dcfa211	0.101383336
1	0x3d9556df	0.0729196
2	0x3e42dfee	0.19030735
3	0xbe020e86	-0.12700853
4	0x3e3267dc	0.17422432
5	0xbf1401a3	-0.57815
6	0x3b52f138	0.0032187235
7	0x3e2f377f	0.17111014
8	0xbcf7aeb3	-0.03023467
9	0xbce5d142	-0.028053883
10	0x3e30d5f2	0.17269114
11	0x3d766a7b	0.06016014
12	0xbeadda94	-0.33955824
13	0x3e127acf	0.1430466
14	0x3e28a6fd	0.16469951
15	0x3cdf9b69	0.027295785
16	0x3dc955b0	0.09830797
17	0x3e55e044	0.20886332
18	0xbf1019a3	-0.5628912
19	0x3e2761e5	0.16345938
20	0xbdb1761b	-0.08665105
21	0x3e463e13	0.19359617
22	0x3e0352d2	0.12824562
23	0xbea1e749	-0.3162177
24	0x3efc68e4	0.49298775
25	0x3f059dac	0.52193713
26	0xbef1dab3	-0.47237167
27	0xbec0588b	-0.37567553
28	0xbeee9f9a	-0.4660614
29	0x3e84c5b1	0.25932077
30	0x3def67d6	0.11689727
31	0x3e0cb962	0.13742593
32	0x3dec11c3	0.11526825
33	0x3e859df6	0.26097077
34	0x3e13c96d	0.14432307
35	0x3e3e9b4a	0.18613926
36	0x3bce8851	0.0063028713
37	0x3edf9b5d	0.4367322
38	0xbe95b25e	-0.29237646
39	0xbf086d96	-0.53292215
40	0x3eb197b2	0.34686047
41	0x3dff0723	0.12452533
42	0xbe8e1f2d	-0.2775816
43	0x3e2486fb	0.16067116
44	0xbbc953cb	-0.006144022
45	0x3e3b05a1	0.18263866
46	0xbeab6146	-0.3347265
47	0x3ea25246	0.31703395
48	0x3e18e51c	0.14931148
49	0x3e759883	0.2398396
50	0x3a852fbd	0.0010161322
51	0x3e45145e	0.1924605
52	0x3dccff24	0.10009602
53	0xbe3bcb05	-0.18339165
54	0xbea7b2a3	-0.32753477
55	0xbf0d6c7c	-0.5524366
56	0xbea815b7	-0.32829067
57	0x3df8743b	0.12131544
58	0x3e1c1f39	0.15246285
59	0xbecad23a	-0.39613515
60	0xbea52ba4	-0.32259858
61	0xbf10a87b	-0.5650708
62	0x3e1183eb	0.14210479
63	0x3ea359d8	0.31904483
64	0xbd2837b6	-0.041068755
65	0x3e68a161	0.22717811
66	0x3dcbaa55	0.09944598
67	0x3e26a5b9	0.16274156
68	0xbf031f75	-0.51219875
69	0x3e8ebf10	0.27880144
70	0x3e7f3945	0.2492419
71	0xbe6641b8	-0.22486007
72	0xbef3a089	-0.47583416
73	0xbf0388b5	-0.51380473
74	0xbc4320c8	-0.011909671
75	0x3e75bd90	0.23998094
76	0x3dfc42b8	0.12317413
77	0xbd45cf80	-0.04829359
78	0xbeb4f13a	-0.3534029
79	0xbea3fd1c	-0.32029045
80	0x3e3b95cf	0.18318866
81	0xbea228bd	-0.31671706
82	0x3e701d5b	0.23448698
83	0xbe598585	-0.2124234
84	0xbed8d19f	-0.42347428
85	0x3e25f261	0.16205741
86	0xbedadfde	-0.42748922
87	0x3e46cb1c	0.19413418
88	0x3e14bf28	0.14526045
89	0x3e93f6dd	0.2889928
90	0x3dc79a39	0.097462125
91	0x3e356bd1	0.1771691
92	0x3e0279e8	0.12741816
93	0x3f17c272	0.59281075
94	0x3e6d1044	0.23150736
95	0x3e137feb	0.14404266
96	0x3c0c0a6d	0.008547408
97	0xbf04d997	-0.51894516
98	0x3d422b2a	0.047404446
99	0x3e1e6e15	0.1547168
100	0x3f090772	0.53526986
101	0x3e297b65	0.16550978
102	0x3dc7f32a	0.09763177
103	0xbf01ebf3	-0.50750655
104	0x3e500849	0.2031566
105	0x3e63c44a	0.22242847
106	0x3e1b8220	0.15186357
107	0xbecbe7dc	-0.39825332
108	0xba480592	-0.00076302246
109	0xbe999bce	-0.30001682
110	0xbebef293	-0.37294444
111	0xbe3ae65e	-0.1825194
112	0xbee76e55	-0.45201364
113	0x3e4137b8	0.18868911
114	0x3e651991	0.22373034
115	0xbea4300c	-0.32067907
116	0xbeac38a1	-0.33636954
117	0xbe9e73de	-0.30947775
118	0x3df78f22	0.12087847
119	0x3e8c4521	0.2739649
120	0xbee4faf9	-0.44722727
121	0x3bb89a40	0.0056336224
122	0x3e1cd4a0	0.15315485
123	0x3e3e90ca	0.1860992
124	0xbedf54e6	-0.4361946
125	0xbd0d30f4	-0.034470513
126	0x3e2d0b7d	0.16898914
127	0x3ea82a76	0.32844895
