new_models/base+wp_16849288/qf5_target_best.pth (torch, 186656 bytes, 7 tensors)

layers.0.weight f4 [128, 98]
0.021381581 -0.02325124 0.030666329 -0.0005090601 -0.10589134 0.09304998 0.0066710236 -0.040082667
-0.00040107672 0.029614892 -0.012761209 0.08035533 -0.14686081 0.100778356 0.10130282 0.07071549
0.06749765 0.0036855265 -0.055267464 0.10229404 -0.013895265 -0.17325151 -0.15760854 -0.09307742
-0.0695961 -0.03573023 -0.03899711 -0.075645834 -0.038973257 0.14803158 0.028362501 0.08874104
0.055568848 -0.006893933 -0.052139804 -0.117502555 -0.07726631 0.088550046 -0.13994539 -0.10999439
-0.15340275 -0.12413344 -0.10663365 -0.15010373 -0.079292715 0.00946112 -0.040177774 -0.08745279
0.011763656 0.010103117 0.16671032 0.04045044 -0.08070184 -0.14583887 -0.11081084 -0.12778613
-0.18029727 -0.17218758 -0.11978261 -0.021448253 -0.110277504 -0.024905127 -0.04873776 0.0010351171
0.17924388 0.082408205 -0.0037353325 0.050423265 -0.13010831 0.28816444 0.076173015 0.026846092
-0.050918177 -0.22058956 0.033498645 0.05457751 -0.20613247 0.18887843 0.03716854 -0.06282372
-0.2852274 -0.057571225 -0.062155824 -0.28025532 0.28905064 0.093109034 -0.020159777 -0.32617858
0.021210274 0.041261073 -0.1199354 0.11104436 0.038024075 0.08717773 -0.1510085 0.15068403
0.13415414 0.2340547 0.041641552 -0.033804372 0.075635046 -0.042987492 0.07630626 0.05563136
0.05707358 0.057250563 -0.038905837 0.08302343 0.06716413 -0.09143233 0.010912022 0.01092727
0.038907737 0.04615582 -0.056266133 0.077734195 -0.075245395 -0.034665506 0.11320078 -0.01008253
-0.07955089 -0.019375412 -0.027801417 -0.07297965 0.0040002824 0.040432245 0.0029472075 -0.026169512
0.06538452 -0.10344051 0.08504598 0.065368935 -0.079253495 -0.065473326 -0.019284816 -0.09786889
-0.09117245 -0.08757868 0.028629873 -0.09061036 0.020552944 0.09607564 -0.017310817 0.04165581
-0.045002237 -0.0993401 0.084473036 -0.029693956 0.035075452 0.0016398932 -0.07878809 -0.06754941
0.040478904 0.019450279 -0.057760008 -0.11231598 -0.14140345 0.010272232 -0.015267608 -0.06346693
-0.10880738 0.07169549 0.08393541 -0.0032003163 -0.004612965 -0.023226598 0.033871453 -0.06600717
-0.083560064 0.17688166 0.012892498 0.08064759 -0.035959013 0.053140596 -0.10620983 -0.0913582
0.19865096 0.11238524 0.07100515 -0.033154592 -0.027319761 0.037645224 -0.05399888 0.20164979
-0.038717344 0.11843971 0.03078923 0.14632034 -0.03290915 0.112683065 0.23665808 -0.5278662
0.06561448 0.010522361 -0.05770335 -0.07558638 -0.024871014 0.11022223 0.056978192 0.06777767
-0.06953364 -0.025962994 -0.17136392 -0.1159525 0.086632416 0.06755594 -0.07673897 -0.12822689
-0.20801584 -0.027140526 -0.046082523 -0.16406423 -0.047454845 -0.105010316 0.0741148 0.08631259
-0.09689246 -0.088537626 -0.011625228 0.046592824 -0.13646032 0.017599344 0.110431716 0.14655496
-0.226286 -0.21845834 -0.030559054 -0.2133731 -0.04496737 -0.056084882 -0.031243218 -0.07485925
0.040930837 0.06575041 0.01930854 -0.08811656 0.024903702 -0.0338333 0.008519851 0.016568845
-0.009172794 0.057822917 -0.19893587 -0.09073858 -0.20215476 -0.10567515 -0.23453476 -0.16310653
-0.07846143 -0.0019344504 0.06974079 -0.07421963 0.077867046 -0.05821879 -0.0076890397 -0.060450852
00000000: 6d28 af3c 6279 bebc f437 fb3c 7272 05ba
00000010: 8fdd d8bd fd90 be3d 9a98 da3b b92d 24bd
00000020: 9b47 d2b9 ee9a f23c 6414 51bc 5691 a43d
00000030: ae62 16be e264 ce3d da77 cf3d 48d3 903d
00000040: 353c 8a3d e088 713b 2360 62bd 8a7f d13d
00000050: f7a8 63bc d868 31be 2264 21be 609f bebd
00000060: 6688 8ebd dd59 12bd 6fbb 1fbd 34ec 9abd
00000070: 6ca2 1fbd 9795 173e 7a58 e83c ddbd b53d
00000080: 299c 633d 80e6 e1bb 8c90 55bd 2ea5 f0bd
00000090: cd3d 9ebd ba59 b53d d84d 0fbe bd44 e1bd
000000a0: 9c15 1dbe ac39 febd be62 dabd cbb4 19be
000000b0: 3864 a2bd d002 1b3c 7391 24bd 731a b3bd
000000c0: 59bc 403c 8b87 253c 1cb6 2a3e 5caf 253d
000000d0: 0247 a5bd c956 15be cbf0 e2bd 5eda 02be
000000e0: d99f 38be f151 30be 9650 f5bd 3fb4 afbc
000000f0: 2cd9 e1bd d605 ccbc 3fa1 47bd c4ac 873a
00000100: b58b 373e a2c5 a83d 7bcc 74bb a088 4e3d
00000110: 1d3b 05be 4a8a 933e 9900 9c3d 56ec db3c
00000120: 948f 50bd 3be2 61be e035 093d ab8c 5f3d
00000130: 6414 53be 5969 413e 0a3e 183d b9a9 80bd
00000140: 5309 92be cecf 6bbd 1b97 7ebd a07d 8fbe
00000150: 72fe 933e f3af be3d 1e26 a5bc e100 a7be
00000160: 2bc1 ad3c 5f01 293d b1a0 f5bd 3a6b e33d
00000170: 22bf 1b3d 3d8a b23d f9a1 1abe ea4c 1a3e
00000180: b45f 093e 09ac 6f3e 5590 2a3d 7476 0abd
00000190: 8ce6 9a3d a713 30bd 7546 9c3d b5dd 633d
000001a0: fcc5 693d 917f 6a3d ba5b 1fbd 3008 aa3d
000001b0: 598d 893d e040 bbbd 56c8 323c 4b08 333c
000001c0: b85d 1f3d e30d 3d3d 5177 66bd 1b33 9f3d
000001d0: 421a 9abd 6bfd 0dbd cfd5 e73d 3231 25bc
000001e0: 94eb a2bd 2fb9 9ebc ccbf e3bc 5b76 95bd
000001f0: cd14 833b 489c 253d f025 413b 7261 d6bc
00000200: 52e8 853d 9ed8 d3bd 962c ae3d 26e0 853d
00000210: a84f a2bd e116 86bd 31fb 9dbc 7c6f c8bd
00000220: 9fb8 babd 735c b3bd 3289 ea3c ed91 b9bd
00000230: a65e a83c 4ec3 c43d 6acf 8dbc 489f 2a3d
00000240: 4454 38bd d372 cbbd 3300 ad3d bd40 f3bc
00000250: 47ab 0f3d aff1 d63a a65b a1bd 5857 8abd
00000260: 35cd 253d 3156 9f3c c295 6cbd ec05 e6bd
00000270: 11cc 10be dd4c 283c fd24 7abc f3fa 81bd
00000280: 67d6 debd 16d5 923d 54e6 ab3d 66bc 51bb
00000290: 5b28 97bb b545 bebc cbbc 0a3d c42e 87bd
000002a0: 8a21 abbd 7720 353e 0e3b 533c 902a a53d
000002b0: c249 13bd f4a9 593d 8a84 d9bd 021a bbbd
000002c0: 286b 4b3e 3c2a e63d 266b 913d 1ccd 07bd
000002d0: b1cd dfbc e131 1a3d ee2d 5dbd 487d 4e3e
000002e0: 1496 1ebd 8590 f23d b239 fc3c 00d5 153e
000002f0: bfcb 06bd 61c6 e63d 7f56 723e 3d22 07bf
00000300: e260 863d fb65 2c3c 595a 6cbd 08cd 9abd
00000310: 4cbe cbbc 31bc e13d f761 693d 05cf 8a3d
00000320: a767 8ebd 58b0 d4bc 067a 2fbe 8178 edbd
00000330: 566c b13d c55a 8a3d 5229 9dbd e94d 03be
00000340: 1b02 55be cf55 debc 07c1 3cbd 7400 28be
00000350: 0360 42bd a60f d7bd 80c9 973d a8c4 b03d
00000360: 8e6f c6bd 3753 b5bd be77 3ebc 1ed8 3e3d
00000370: 41bc 0bbe 802c 903c 062a e23d 8112 163e
00000380: 84b7 67be 8bb3 5fbe fb56 fabc 7a7e 5abe
00000390: b42f 38bd 43b9 65bd c7f1 ffbc ce4f 99bd
000003a0: 18a7 273d 27a8 863d f12c 9e3c 7476 b4bd
000003b0: d902 cc3c c994 0abd d896 0b3c 63bb 873c
000003c0: 7d49 16bc b9d7 6c3d d8b5 4bbe 26d5 b9bd
000003d0: a801 4fbe 376c d8bd e129 70be 6605 27be
000003e0: 63b0 a0bd 628d fdba 42d4 8e3d 7600 98bd
000003f0: c278 9f3d d376 6ebd 57f4 fbbb 509b 77bd

layers.0.bias f4 [128]
0.08575628 0.013613345 -0.1294544 0.069134 0.16912827 -0.07796704 0.058744226 0.11828114
-0.14556943 -0.002524075 -0.017843591 -0.18630871 -0.08278496 0.031164113 -0.105557226 0.10699802
-0.057921477 0.19695443 -0.13935876 -0.035315298 0.20457572 0.0017717191 0.07976044 0.02729937
0.1304196 -0.043813627 -0.056881774 -0.070540935 0.08786244 0.23059131 0.24559481 0.03639656
-0.23807102 -0.09967679 0.22323798 -0.16765684 0.023761194 -0.04043581 0.23514262 -0.15105046
-0.102876976 -0.038579922 0.029991496 0.06572504 0.027053842 -0.010574116 0.2094794 0.22670926
-0.07488443 -0.050923496 0.03371436 -0.0067704916 -0.22354501 -0.095834784 0.094410084 -0.06939623
-0.03035412 0.10908329 0.03783825 -0.009195426 0.3411212 0.1462211 0.010472474 0.07246315
0.0039020167 -0.21944812 -0.08299725 -0.11784278 0.096604355 -0.0595281 -0.07061708 0.07680971
-0.035286758 0.08283532 -0.20771076 -0.06819162 0.22023761 0.09679436 0.014514665 0.21931127
0.21009657 -0.078420445 0.16976553 0.10860601 0.047550935 0.21045409 -0.11787681 -0.05065855
0.027008444 0.0045053973 -0.00934271 0.042630758 0.18695837 -0.10641661 0.25638235 0.06298869
-0.055641968 -0.12265943 -0.14229828 -0.13910955 0.034727246 -0.26950014 -0.08366079 0.06377138
0.05491042 -0.001475242 0.113605015 0.275587 -0.07454411 0.08002599 0.049420618 -0.123090744
-0.062240858 2.4250685e-05 -0.09367078 0.15118507 0.14284314 0.035184097 0.104921855 0.17447235
-0.111997925 -0.076450214 -0.031138215 0.090348326 0.036225867 0.09721944 -0.12782986 0.12038516
00000000: fda0 af3d 820a 5f3c b28f 04be 2096 8d3d
00000010: f62f 2d3e 2fad 9fbd c99d 703d 623d f23d
00000020: 2710 15be f46a 25bb b92c 92bc b6c7 3ebe
00000030: 298b a9bd e24b ff3c 632e d8bd c721 db3d
00000040: 123f 6dbd 6cae 493e 10b4 0ebe c6a6 10bd
00000050: 4c7c 513e 0739 e83a 7159 a33d eea2 df3c
00000060: b78c 053e eb75 33bd ddfc 68bd c477 90bd
00000070: 39f1 b33d 2120 6c3e 357d 7b3e 8f14 153d
00000080: e4c8 73be 5823 ccbd 7f98 643e 3cae 2bbe
00000090: d6a6 c23c 05a0 25bd 3ac9 703e f9ac 1abe
000000a0: 2ab1 d2bd fb05 1ebd bab0 f53c da9a 863d
000000b0: 05a0 dd3c 0f3f 2dbc c581 563e 7926 683e
000000c0: 025d 99bd 2895 50bd 1218 0a3d 00db ddbb
000000d0: fce8 64be 0745 c4bd 135a c13d 9c1f 8ebd
000000e0: 34a9 f8bc 0f67 df3d 48fc 1a3d 69a8 16bc
000000f0: 70a7 ae3e fcba 153e bd94 2b3c 8f67 943d
00000100: fab8 7f3b 02b7 60be 76fa a9bd 8e57 f1bd
00000110: 81d8 c53d bdd3 73bd b09f 90bd 694e 9d3d
00000120: d988 10bd 90a5 a93d 21b2 54be 0ca8 8bbd
00000130: f885 613e 1f3c c63d ebce 6d3c 2293 603e
00000140: 8e23 573e e69a a0bd 04d7 2d3e d46c de3d
00000150: c5c4 423d 4781 573e 6669 f1bd 577f 4fbd
00000160: d040 dd3c 03a2 933b 2a12 19bc 979d 2e3d
00000170: 0472 3f3e f4f0 d9bd 8c44 833e 3700 813d
00000180: d5e8 63bd de34 fbbd a4b6 11be bc72 0ebe
00000190: 283e 0e3d ecfb 89be 5956 abbd 929a 823d
000001a0: c0e9 603d e85c c1ba bfa9 e83d bd19 8d3e
000001b0: 95aa 98bd abe4 a33d 466d 4a3d 0017 fcbd
000001c0: 45f0 7ebd f36d cb37 77d6 bfbd 42d0 1a3e
000001d0: 7945 123e 331d 103d 45e1 d63d e1a8 323e
000001e0: 2b5f e5bd ee91 9cbd 9215 ffbc 8b08 b93d
000001f0: 9361 143d fc1a c73d d5e5 02be 7f8c f63d

layers.1.weight f4 [128, 128]
0.004846358 0.08366411 0.26666248 0.03926665 0.08515691 -0.16281793 -0.024496172 -0.09366992
-0.06525187 0.009466902 -0.009437354 0.10187174 -0.075668044 0.104624644 0.0151171405 -0.04478028
-0.017889822 -0.025472064 -0.0749659 0.04267975 -0.09990677 -0.061835263 -0.11584624 0.17197737
-0.025134502 0.01143508 0.021011401 -0.08371191 0.06564535 -0.10475993 -0.07512283 0.011772981
-0.12996784 0.007393194 -0.19476889 0.1511098 0.069875516 -0.11510954 0.13292406 0.13091736
0.09875828 0.1866138 0.16271305 -0.04709992 -0.06874222 0.0068462836 0.037214313 -0.22713135
0.040579364 0.036211774 0.2259591 -0.122880585 -0.06255731 -0.13033248 0.011906958 -0.09578692
0.009383686 0.08257173 0.0450186 -0.007751383 -0.08758023 -0.22352514 0.05291666 -0.11775872
-0.06671707 0.06581821 -0.22247861 -0.075451665 0.024484735 0.064819574 -0.0044337525 -0.07130064
-0.031428445 -0.05189362 0.011349694 -0.22668366 0.15020259 -0.13550192 -0.24339376 -0.004666577
0.036994837 0.121213175 0.016806092 -0.1652401 0.01759424 0.051107343 -0.050992236 0.015837148
-0.018756915 0.16234511 -0.06712656 -0.06926254 0.017139578 0.24199536 -0.15570539 -0.36629423
-0.020817935 -0.14809443 0.09494254 -0.13023344 -0.052697677 -0.021672405 -0.24651368 -0.029397463
0.07308604 0.049272787 0.093902536 -0.0074018664 -0.40166596 0.0920093 -0.057203684 0.14502202
-0.038764987 0.1500415 0.0076546804 -0.023755113 -0.097353205 0.013863165 -0.07902175 -0.14039105
-0.085673526 0.06864708 -0.13852376 0.026615055 -0.050788093 -0.030978685 -0.009955296 -0.074456245
0.08227141 0.00017038485 0.29154542 -0.019347327 -0.09063481 -0.094127335 -0.030001922 0.098006435
-0.030512827 -0.028869737 -0.015299239 0.042453688 0.01030928 0.009914807 -0.03925633 0.17430548
-0.124086365 0.10332224 -0.006851003 0.0445992 -0.07934217 -0.03325924 -0.07906391 0.040540375
0.111007646 0.025170453 -0.22567348 -0.08313798 0.025115361 -0.12472149 0.0019446092 -0.0067956857
0.021099158 -0.061429467 0.027648127 -0.02582158 0.028708614 0.11923111 -0.03079278 0.080851555
0.09660953 -0.10592189 -0.06261453 -0.076282784 0.22455087 0.06490135 -0.050763488 0.064961605
-0.008337047 -0.016623653 0.35271448 -0.16933808 0.12944447 -0.16433842 -0.13962647 0.102725476
0.1001187 0.0063259033 0.019539276 -0.08492485 -0.10975497 -0.021296136 0.05907159 0.09209341
0.07005819 0.005801031 -0.008224997 0.07158226 0.007870713 0.039673906 -0.0010882325 0.12939963
-0.07296382 -0.13688506 0.06770166 -0.08215542 0.080863215 0.037364323 -0.18214335 0.14332144
0.072071336 -0.0296014 -0.05203702 -0.020386329 0.06387668 -0.020572273 -0.105290964 0.13405502
0.099411435 0.16586429 -0.10433245 0.10956077 -0.0076449374 -0.024149198 -0.018087594 -0.18313432
-0.005030559 0.0126898475 0.012704153 -0.14269194 -0.031442933 -0.068538204 0.10617838 -0.10291893
-0.03207067 0.02475866 0.07698122 -0.10604277 -0.31658268 0.015666924 -0.057487156 -0.070569105
-0.0341825 0.0907903 -0.025743673 -0.13527654 0.011664411 0.01770807 -0.2066213 0.083313875
0.050922807 0.050355367 -0.1091464 0.038123038 0.031138847 0.09002422 0.013157182 0.19050545
00000000: 33ce 9e3b 1758 ab3d fc87 883e 11d6 203d
00000010: bf66 ae3d beb9 26be 32ac c8bc 04d6 bfbd
00000020: c6a2 85bd 111b 1b3c 229f 1abc 21a2 d03d
00000030: d9f7 9abd 7245 d63d e2ad 773c 876b 37bd
00000040: ad8d 92bc caaa d0bc b987 99bd f6d0 2e3d
00000050: ec9b ccbd f946 7dbd cb40 edbd d61a 303e
00000060: dfe6 cdbc 345a 3b3c 1a20 ac3c 2671 abbd
00000070: 1271 863d 608c d6bd 00da 99bd 76e3 403c
00000080: 4a16 05be 9b42 f23b 7f71 47be 87bc 1a3e
00000090: e51a 8f3d 8dbe ebbd 3f1d 083e 330f 063e
000000a0: c841 ca3d b017 3f3e 409e 263e d9eb 40bd
000000b0: b9c8 8cbd ca56 e03b 096e 183d 1f95 68be
000000c0: 8c36 263d cc52 143d d361 673e d1a8 fbbd
000000d0: 0c1e 80bd e175 05be 6715 433c ef2b c4bd
000000e0: 08be 193c 5e1b a93d 6c65 383d 50ff fdbb
000000f0: 435d b3bd c6e3 64be 24bf 583d 7c2b f1bd
00000100: f6a2 88bd b3cb 863d 6fd1 63be 6786 9abd
00000110: 3694 c83c 20c0 843d 0349 91bb 1206 92bd
00000120: 1dbb 00bd 688e 54bd 11f4 393c c31f 68be
00000130: b5ce 193e 04c1 0abe 373c 79be 16ea 98bb
00000140: e687 173d 9d3e f83d eeac 893c b334 29be
00000150: cc21 903c ef55 513d 3cdd 50bd e8bc 813c
00000160: 1aa8 99bc cc3d 263e a679 89bd 85d9 8dbd
00000170: 4d68 8c3c a2cd 773e 3c71 1fbe eb8a bbbe
00000180: 608a aabc 11a6 17be 3c71 c23d ea5b 05be
00000190: 85d9 57bd 548a b1bc 156e 7cbe f3d2 f0bc
000001a0: 22ae 953d 43d2 493d f94f c03d 5b8b f2bb
000001b0: 29a7 cdbe 5f6f bc3d 694e 6abd a780 143e
000001c0: 09c8 1ebd 7ba4 193e 1dd4 fa3b 159a c2bc
000001d0: 1e61 c7bd 5422 633c 28d6 a1bd acc2 0fbe
000001e0: 9a75 afbd d796 8c3d 2cd9 0dbe d107 da3c
000001f0: 2d07 50bd 03c7 fdbc 8a1b 23bc 847c 98bd
00000200: ea7d a83d 56a9 3239 7145 953e 497e 9ebc
00000210: be9e b9bd d5c5 c0bd 97c6 f5bc 99b7 c83d
00000220: 09f6 f9bc 3a80 ecbc a9a9 7abc ebe3 2d3d
00000230: 41e8 283c b771 223c 3fcb 20bd 237d 323e
00000240: fe20 febd 9c9a d33d 617e e0bb a7ad 363d
00000250: 267e a2bd d73a 08bd 42ec a1bd aa0d 263d
00000260: fa57 e33d 4432 ce3c f316 67be 3f44 aabd
00000270: bbbe cd3c fb6d ffbd 42e2 fe3a 58ae debb
00000280: 24d8 ac3c 779d 7bbd 537e e23c c787 d3bc
00000290: 542e eb3c 712f f43d 2441 fcbc 8095 a53d
000002a0: 38db c53d 93ed d8bd 0c3c 80bd 263a 9cbd
000002b0: aaf0 653e 00eb 843d 60ed 4fbd 970a 853d
000002c0: 1c98 08bc 542e 88bc fe96 b43e f666 2dbe
000002d0: 178d 043e 5548 28be 3efa 0ebe bc61 d23d
000002e0: 080b cd3d 8649 cf3b d510 a03c 14ed adbd
000002f0: 37c7 e0bd 3c75 aebc 0df5 713d 789b bc3d
00000300: ab7a 8f3d 9316 be3b 23c2 06bc b899 923d
00000310: 2af4 003c 1b81 223d 06a3 8eba 5681 043e
00000320: 0e6e 95bd 992b 0cbe 2ba7 8a3d 1a41 a8bd
00000330: 9d9b a53d 550b 193d c983 3abe dbc2 123e
00000340: 239a 933d a37e f2bc c524 55bd 3b01 a7bc
00000350: c7d1 823d 2f87 a8bc caa2 d7bd b845 093e
00000360: 3998 cb3d 54d8 293e 40ac d5bd 6661 e03d
00000370: 6282 fabb 8ad4 c5bc 6f2c 94bc 9087 3bbe
00000380: 63d7 a4bb 14e9 4f3c 1425 503c d61d 12be
00000390: 4eca 00bd c25d 8cbd 0d74 d93d 29c7 d2bd
000003a0: 895c 03bd acd2 ca3c 54a8 9d3d f42c d9bd
000003b0: 2017 a2be ec57 803c a777 6bbd 8986 90bd
000003c0: f302 0cbd 44f0 b93d 65e4 d2bc ef85 0abe
000003d0: 161c 3f3c 8410 913c 8994 53be 77a0 aa3d
000003e0: 6f94 503d 6e41 4e3d 2688 dfbd e726 1c3d
000003f0: e516 ff3c 9e5e b83d 3991 573c dc13 433e

layers.1.bias f4 [128]
0.10310614 -0.05882105 0.07903704 0.16815884 0.08897071 -0.078408875 0.21255362 -0.005509647
0.069215715 0.10403964 0.034126364 -0.16631378 0.05542214 0.0761112 -0.10595245 -0.08875364
0.03239379 -0.036333766 0.16347939 0.077097684 -0.1051196 0.07000504 -0.0044143475 0.11792544
0.01941191 -0.007867668 -0.03264422 0.09441782 0.06072004 -0.07691614 0.013321448 0.11614569
-0.020345524 0.11457961 -0.0043895263 -0.079333834 0.010554529 -0.12493326 0.19863006 -0.07625087
-0.00344364 -0.06612115 0.00043156405 0.17572479 -0.05584849 0.042913474 0.13024817 -0.031632304
0.036545765 -0.11636989 0.092989296 0.17764802 0.10283552 -0.004169835 -0.06680565 -0.06762321
0.21272898 -0.065253235 -0.049457617 0.015553705 0.09221034 0.06704722 0.14580448 0.1281068
0.03195137 0.13920291 0.2189716 -0.058036294 -0.06517058 0.24062963 -0.1313509 -0.07519108
0.052529473 0.021834178 0.05219367 0.20971195 0.098507196 0.18265548 0.07372155 -0.0008812733
0.1523141 0.040008977 0.016005322 -0.006149396 0.036161527 -0.16742976 0.023913758 0.065483265
-0.026906481 -0.04448858 -0.06814531 0.17511296 0.16320664 0.104313396 -0.056273744 0.12604135
-0.036817454 0.045454077 0.068970084 0.072044656 0.035931837 -0.3296049 -0.0075865723 0.14413139
0.05245112 0.09930996 -0.031621177 0.051600434 -0.11301621 0.037045628 0.03581987 -0.042776182
0.30734903 0.3257355 0.024535099 0.008328556 -0.06722885 0.007085118 0.029086785 -0.028642746
0.019854749 0.12573683 0.08089281 0.125844 0.27424622 -0.08256667 -0.011504901 0.0035410367
00000000: 5029 d33d 57ee 70bd 2cde a13d d531 2c3e
00000010: 4736 b63d d594 a0bd a8a7 593e 458a b4bb
00000020: f8c0 8d3d bc12 d53d 16c8 0b3d 294e 2abe
00000030: 5302 633d 30e0 9b3d 99fd d8bd 78c4 b5bd
00000040: 5aaf 043d b7d2 14bd 2467 273e 64e5 9d3d
00000050: f248 d7bd cd5e 8f3d 3ba6 90bb e582 f13d
00000060: ba05 9f3c 64e7 00bc f2b5 05bd 215e c13d
00000070: 94b5 783d 3686 9dbd 3442 5a3c cbdd ed3d
00000080: a8ab a6bc b7a8 ea3d 04d6 8fbb c779 a2bd
00000090: e7ec 2c3c 02dd ffbd ae65 4b3e 6b29 9cbd
000000a0: b1ae 61bb 876a 87bd 8c43 e239 33f1 333e
000000b0: 63c1 64bd 0ac6 2f3d c75f 053e e090 01bd
000000c0: 03b1 153d 5653 eebd 2c71 be3d 5de9 353e
000000d0: 6e9b d23d 1ca3 88bb 67d1 88bd 0a7e 8abd
000000e0: a0d5 593e 7da3 85bd 1294 4abd f8d4 7e3c
000000f0: c6d8 bc3d 0e50 893d c54d 153e 6e2e 033e
00000100: 71df 023d 358b 0e3e 173a 603e 77b7 6dbd
00000110: 2778 85bd 9d67 763e da80 06be c8fd 99bd
00000120: 2529 573d 97dd b23c 08c9 553d bbbe 563e
00000130: 24be c93d 0a0a 3b3e 53fb 963d 4005 67ba
00000140: 3af8 1b3e 74e0 233d 981d 833c df80 c9bb
00000150: 1c1e 143d b572 2bbe c9e6 c33c 171c 863d
00000160: fb6a dcbc a839 36bd c58f 8bbd d050 333e
00000170: a41f 273e 43a2 d53d 4c7f 66bd fc10 013e
00000180: e6cd 16bd 0e2e 3a3d 3040 8d3d 268c 933d
00000190: 432d 133d f9c1 a8be c898 f8bb 2e97 133e
000001a0: fcd6 563d 0563 cb3d 3585 01bd fa5a 533d
000001b0: 0b75 e7bd 28bd 173d dbb7 123d 1436 2fbd
000001c0: da5c 9d3e cec6 a63e d5fd c83c 7f74 083c
000001d0: 48af 89bd 472a e83b 6947 ee3c 31a4 eabc
000001e0: 6da6 a23c 28c1 003e 21ab a53d 40dd 003e
000001f0: 006a 8c3e b718 a9bd 0d7f 3cbc bd10 683b

layers.2.weight f4 [128, 128]
-0.01822435 0.017707888 -0.01579901 -0.028118419 -0.07278218 0.06355501 0.049478013 -0.038186204
0.06420823 0.0583827 0.04073601 0.044984028 0.064415105 0.12721209 0.08784968 -0.04659784
-0.29700726 -0.012597397 0.111463934 0.23736067 0.057153832 -0.3188241 0.099713616 -0.0176849
-0.18188986 -0.27095118 0.06065164 -0.046476305 0.0143214185 -0.037815083 -0.09539234 0.015154326
0.13831946 0.059494928 0.09696223 0.14207038 -0.015213263 0.11473186 0.03456524 -0.058039658
0.033144902 0.05508064 0.123048425 0.09303375 0.046988998 0.13284422 -0.028339878 -0.4461842
0.103444576 0.0066626035 -0.018978255 0.034910727 0.22635967 -0.4805403 0.07718382 -0.2503739
0.4245521 -0.11113666 0.07146124 0.08136106 -0.02109424 0.057739504 0.2896881 -0.0320592
0.17396301 0.06003628 -0.041632794 0.0590893 0.014931897 0.0024764312 -0.38973907 0.06624349
0.17094433 0.074818544 0.1053829 0.015388059 0.1112893 0.051412243 0.027341196 0.008727332
0.14171277 -0.026017165 0.0016312235 0.13322346 0.12696412 -0.071529955 0.032799147 0.017268036
0.2063833 0.0495587 0.046629872 0.027629228 -0.1099764 -0.06267914 -0.06391343 -0.21516235
0.06344101 0.17808057 0.06027777 -0.33992475 -0.21634565 0.2962092 -0.011224685 0.08073938
-0.0506907 0.00014358174 -0.29134357 0.040857963 0.07568286 0.08888157 0.21100287 0.113445036
0.06353617 -0.0752191 -0.04029607 0.13601312 -0.11103727 0.067046754 0.409759 0.22425462
-0.31471634 0.07793792 -0.038480736 -0.054430056 -0.24043699 0.09503449 0.004122457 0.09785098
0.05108443 0.013170024 -0.10387347 0.040918168 0.07471363 0.0011675165 0.0130227255 -0.022797497
0.06669486 0.06631576 0.043471754 -0.033298347 -0.0618148 0.09724924 0.023653643 -0.079663925
-0.4425231 -0.023477722 -0.0011525428 0.15531638 0.030303217 -0.16612732 0.098142475 0.08140005
-0.23580237 -0.26439095 -0.01015133 -0.0398944 0.0828001 0.030817678 -0.04525582 0.069824606
-0.002742781 0.0729625 0.10490066 0.15529627 -0.07027384 0.146685 -0.07575491 -0.16123338
-0.02012301 0.006662641 0.03274557 0.10166869 -0.059835296 -0.060124643 -0.17109269 -0.5795073
0.017004963 0.06975081 0.058019467 -0.014710738 0.16123812 -0.35725963 0.11847764 -0.17957902
0.35103342 -0.06454652 -0.025226783 0.023296049 -0.07995339 0.11592414 0.28602678 -0.08949911
0.18740147 -0.025089402 0.035397492 0.008484925 0.023261905 -0.019630233 -0.3480699 0.096087575
0.12739481 0.15822056 0.0022925092 0.06065239 -0.034167405 -0.10339521 0.040013045 -0.040460903
0.1416002 0.11535926 0.1707041 0.10732132 0.045458708 0.04718955 -0.063564666 -0.03669835
0.22657296 -0.06810955 0.044584688 0.047618642 -0.22174248 0.02586483 -0.37870193 -0.17200993
-0.014299075 0.19802009 -0.01847028 -0.21465807 -0.30384225 0.16831623 0.15885572 0.08362151
0.06930254 -0.0679505 -0.27365118 -0.0668303 0.025948728 0.08017256 0.16693103 -0.017456576
-0.0645932 0.1197623 0.04117098 0.19283685 -0.16754457 0.043494117 0.3829559 -0.05964079
-0.29712737 0.0019513316 0.06355935 -0.046557337 -0.3439981 0.055624973 -0.1272967 -0.0048160204
00000000: 3b4b 95bc 2210 913c ed6c 81bc 9958 e6bc
00000010: d30e 95bd 2129 823d 75a9 4a3d 2369 1cbd
00000020: 9b7f 833d b322 6f3d cdda 263d 2c41 383d
00000030: 11ec 833d e343 023e 88ea b33d 60dd 3ebd
00000040: 5611 98be 5065 4ebc 3447 e43d ad0e 733e
00000050: 231a 6a3d ea3c a3be a736 cc3d ecdf 90bc
00000060: 5641 3abe 1dba 8abe db6d 783d f05d 3ebd
00000070: 62a4 6a3c fde3 1abd 0f5d c3bd da49 783c
00000080: 9ea3 0d3e f4b0 733d 2294 c63d e67a 113e
00000090: 0d41 79bc 8af8 ea3d 4894 0d3d feba 6dbd
000000a0: f3c2 073d 3d9c 613d d000 fc3d 7b88 be3d
000000b0: 8977 403d 5108 083e 0829 e8bc 4172 e4be
000000c0: c0da d33d f851 da3b 4978 9bbc 8dfe 0e3d
000000d0: d4ca 673e 6109 f6be 8d12 9e3d 0231 80be
000000e0: e55e d93e 9e9b e3bd 455a 923d a1a0 a63d
000000f0: d4cd acbc 4280 6c3d 0052 943e 8250 03bd
00000100: 5c23 323e 9ae8 753d 2687 2abd 9f07 723d
00000110: eaa4 743c 9f4b 223b e18b c7be abaa 873d
00000120: 080c 2f3e 773a 993d fdd2 d73d 331e 7c3c
00000130: a5eb e33d a595 523d a5fa df3c 15fd 0e3c
00000140: 271d 113e f321 d5bc c7ce d53a bb6b 083e
00000150: e202 023e 4c7e 92bd 6658 063d b275 8d3c
00000160: 2556 533e 10fe 4a3d f7fe 3e3d b156 e23c
00000170: 4f3b e1bd ec5d 80bd 0be5 82bd 8553 5cbe
00000180: 5ced 813d c15a 363e d3e5 763d 9e0a aebe
00000190: b789 5dbe bba8 973e bee7 37bc b05a a53d
000001a0: 0da1 4fbd 6e8e 1639 fc2a 95be ae5a 273d
000001b0: 9eff 9a3d 8a07 b63d 2311 583e df55 e83d
000001c0: 401f 823d 790c 9abd 7e0d 25bd 0647 0b3e
000001d0: 8267 e3bd cf4f 893d efcb d13e 01a3 653e
000001e0: 8022 a1be eb9d 9f3d fa9d 1dbd 0df2 5ebd
000001f0: 1d35 76be 71a1 c23d ad15 873b 1866 c83d
00000200: e83d 513d 16c7 573c 9dbb d4bd cf99 273d
00000210: 7603 993d 5a07 993a 455d 553c d1c1 babc
00000220: 5197 883d 8fd0 873d 700f 323d d963 08bd
00000230: 8431 7dbd 9c2a c73d 49c5 c13c d726 a3bd
00000240: 6392 e2be 5a54 c0bc eb10 97ba 420b 1f3e
00000250: 743e f83c 481d 2abe ecfe c83d 12b5 a63d
00000260: 2d76 71be 405e 87be c451 26bc 4f68 23bd
00000270: 1993 a93d 5b75 fc3c 2b5e 39bd 3400 8f3d
00000280: 3bc0 33bb 5d6d 953d 28d6 d63d fc05 1f3e
00000290: bbeb 8fbd 9834 163e 6425 9bbd 5d1a 25be
000002a0: 03d9 a4bc 4952 da3b 3820 063d ad37 d03d
000002b0: db15 75bd 4245 76bd ec32 2fbe 975a 14bf
000002c0: fe4d 8b3c 83d9 8e3d d2a5 6d3d 4f05 71bc
000002d0: 9b1b 253e bcea b6be 68a4 f23d 90e3 37be
000002e0: a7ba b33e f730 84bd 66a8 cebc 5bd7 be3c
000002f0: 9abe a3bd a369 ed3d 1a72 923e 4f4b b7bd
00000300: 2ce6 3f3e 4a88 cdbc f6fc 103d 5b04 0b3c
00000310: c08f be3c 95cf a0bc 3836 b2be 90c9 c43d
00000320: c973 023e 9204 223e ec3d 163b a46e 783d
00000330: 1ff3 0bbd dec0 d3bd b8e4 233d 55ba 25bd
00000340: a5ff 103e 7a41 ec3d 0ecd 2e3e 48cb db3d
00000350: e932 3a3d d449 413d 312e 82bd 0251 16bd
00000360: be02 683e 057d 8bbd 6f9e 363d c40b 433d
00000370: 7610 63be 7be2 d33c 38e5 c1be 5f23 30be
00000380: ab46 6abc c7c5 4a3e fc4e 97bc 53cf 5bbe
00000390: 3691 9bbe 175b 2c3e 13ab 223e c141 ab3d
000003a0: 7dee 8d3d a229 8bbd 021c 8cbe 53de 88bd
000003b0: 6d92 d43c 8331 a43d f8ef 2a3e 1801 8fbc
000003c0: 7149 84bd f045 f53d e7a2 283d 0677 453e
000003d0: ce90 2bbe e326 323d cc12 c43e e749 74bd
000003e0: 1421 98be d3c3 ff3a 682b 823d e8b2 3ebd
000003f0: 8520 b0be 03d7 633d 115a 02be b5cf 9dbb

layers.2.bias f4 [128]
0.08439654 -0.02681497 -0.02398869 -0.114692174 -0.09692254 0.25084236 0.043382056 -0.07085584
0.04727496 -0.06584308 0.04123007 -0.0005255485 0.054474287 -0.26002803 0.18746904 0.003429865
-0.076615795 0.04582429 0.21498144 0.044844594 0.029280597 -0.0953212 0.2602561 0.04650211
0.02358313 0.1854573 -0.12112737 -0.16534922 0.01564493 -0.08093287 0.0804527 0.0642531
0.06176721 0.04936732 0.22271907 0.05050256 -0.010719591 0.032602973 0.1524788 0.059855595
0.30987412 0.010486155 0.070623636 0.0063836426 0.24361664 0.35033908 -0.07377178 0.04574767
-0.06840012 -0.20224339 0.36731464 0.0076149134 0.02986568 0.04192354 -0.089579165 0.011579584
-0.07200306 0.038622215 -0.079816006 0.31897306 -0.13332231 0.018307572 0.2733289 0.36397865
-0.0094346935 0.07594581 0.059862193 0.043188974 -0.15236504 -0.055286564 -0.1550856 0.01625516
-0.018814592 -0.040123004 0.038709264 0.24651809 0.2348638 0.054004893 -0.04739673 -0.05310969
-0.07202009 -0.046995632 -0.03385043 0.3491948 0.05235805 0.06716471 0.03529326 0.14771278
0.0102968365 -0.12327805 -0.027712507 0.06013363 -0.039255507 -0.028002197 0.02910897 0.2450127
0.07097947 0.10527255 0.102718346 0.3325734 -0.00089493784 0.033557586 0.008531639 -0.11257019
0.062257346 -0.0071948506 -0.06454264 0.15496658 -0.10893923 -0.036014613 -0.12656203 0.21411864
0.029336644 0.22904824 -0.08952552 0.40345368 -0.093979485 0.001830536 -0.100014456 0.05285456
-0.04287024 -0.13504383 -0.065372646 0.069489434 -0.05788924 -0.07131328 -0.17865522 0.24404868
00000000: 18d8 ac3d 11ab dbbc ee83 c4bc bbe3 eabd
00000010: 537f c6bd 696e 803e 62b1 313d de1c 91bd
00000020: 63a3 413d bdd8 86bd dde0 283d f6c4 09ba
00000030: 6e20 5f3d 6522 85be e2f7 3f3e 96c7 603b
00000040: bee8 9cbd 40b2 3b3d 1824 5c3e f7ae 373d
00000050: dddd ef3c c337 c3bd 4a40 853e ff78 3e3d
00000060: 6931 c13c 85e8 3d3e a011 f8bd 4e51 29be
00000070: cc29 803c 22c0 a5bd 63c4 a43d 2197 833d
00000080: 9dff 7c3d 6335 4a3d 7810 643e c6db 4e3d
00000090: 39a1 2fbc b28a 053d 6723 1c3e 242b 753d
000000a0: d2a7 9e3e 1fce 2b3c 20a3 903d e02d d13b
000000b0: a476 793e a55f b33e a915 97bd e961 3b3d
000000c0: 5d15 8cbd e418 4fbe aa10 bc3e 8686 f93b
000000d0: dfa8 f43c 05b8 2b3d 4875 b7bd 4cb8 3d3c
000000e0: 5776 93bd 5432 1e3d 9376 a3bd 7050 a33e
000000f0: a585 08be c3f9 953c c4f1 8b3e 695b ba3e
00000100: f993 1abc 7a89 9b3d 0f32 753d ece6 303d
00000110: 9505 1cbe 2a74 62bd c2ce 1ebe 8b29 853c
00000120: 0f21 9abc 0558 24bd 9b8d 1e3d 3d6f 7c3e
00000130: 2380 703e 3c34 5d3d 1323 42bd 8c89 59bd
00000140: 457f 93bd 7e7e 40bd c0a6 0abd a9c9 b23e
00000150: 6575 563d a78d 893d aa8f 103d 0542 173e
00000160: 10b4 283c 3479 fcbd 5705 e3bc ae4e 763d
00000170: 62ca 20bd dd64 e5bc ef75 ee3c 9ce4 7a3e
00000180: af5d 913d 2299 d73d ff5d d23d 1047 aa3e
00000190: 439a 6aba ae73 093d 4ac8 0b3c 338b e6bd
000001a0: 8f01 7f3d c8c2 ebbb ee2e 84bd 8faf 1e3e
000001b0: 881b dfbd 0f84 13bd 7a99 01be eb41 5b3e
000001c0: 6753 f03c 9f8b 6a3e 2859 b7bd 7b91 ce3e
000001d0: 5178 c0bd 99ee ef3a 61d4 ccbd 067e 583d
000001e0: b498 2fbd ee48 0abe 18e2 85bd 7a50 8e3d
000001f0: 451d 6dbd b20c 92bd 65f1 36be e6e7 793e

layers.3.weight f4 [1, 128]
0.13614771 0.22261925 0.15379374 0.48560095 0.2116592 -0.40164745 -0.27023986 -0.006645319
0.16403848 -0.019797515 0.18367021 0.15773134 0.16173027 0.72858727 -0.16477825 0.15381879
-0.3678344 0.15935677 -0.37451592 0.1338335 0.1511712 0.45341003 -0.52881444 -0.29633093
0.13764569 -0.67262834 0.42654544 0.44067174 0.09666792 0.18386577 0.13530673 -0.3127936
0.14098184 0.1779219 -0.65068203 0.17234536 -0.28094405 0.15316163 -0.4675408 -0.41169965
-0.4798137 0.2496376 -0.39381778 0.14610478 -0.24488291 -0.48498836 -0.36907253 0.10845748
-0.022597073 0.60341305 -0.48899564 0.1375504 0.14522526 0.14123347 -0.031015491 0.11353678
0.18356597 0.111737 -0.2152731 -0.5526265 -0.00590799 0.20317942 -0.44278577 -0.6885892
0.14562619 0.1344375 0.1637252 0.15222654 -0.22897694 0.19603816 -0.40190274 0.16452493
0.12834086 -0.09043068 0.15194096 -0.2737146 -0.58208823 -0.32637691 0.18518332 0.23917304
-0.30997086 0.26747823 0.21716462 -0.47645932 0.17419086 -0.37737396 0.14195737 -0.2727363
0.13484135 -0.44605806 0.23807912 0.12148445 -0.39863864 0.29084232 0.09296075 -0.438617
0.111749694 -0.32772142 -0.21661165 -0.4292737 0.26320642 0.16050999 -0.52272713 0.0030230526
-0.1374885 -0.441245 0.16331072 -0.13931175 -0.20400885 -0.35940358 -0.17744203 -0.34237975
0.25218016 -0.26079622 -0.038948316 -0.5328723 0.06015418 0.14605084 0.029893806 -0.3121976
0.14619571 0.5572766 -0.17206752 0.11931688 -0.27294636 -0.06757737 0.36723682 -0.53785133
00000000: 4e6a 0b3e 4df6 633e 1b7c 1d3e b0a0 f83e
00000010: 30bd 583e bca4 cdbe e15c 8abe fac0 d9bb
00000020: b4f9 273e 662e a2bc 0b14 3c3e 5384 213e
00000030: 9f9c 253e b284 3a3f a1bb 28be ac82 1d3e
00000040: ca54 bcbe 6c2e 233e 8dc0 bfbe a60b 093e
00000050: a0cc 1a3e 5c25 e83e 6260 07bf b0b8 97be
00000060: fef2 0c3e 5f31 2cbf 2a64 da3e ba9f e13e
00000070: d5f9 c53d 4f47 3c3e d98d 0a3e 7c26 a0be
00000080: 8b5d 103e 2931 363e 1993 26bf 4d7b 303e
00000090: e6d7 8fbe 67d6 1c3e 8261 efbe 4cca d2be
000000a0: 24aa f5be 00a1 7f3e 7ca2 c9be 7e9c 153e
000000b0: 96c2 7abe 6550 f8be 13f7 bcbe f51e de3d
000000c0: 7f1d b9bc 4779 1a3f a35d fabe 03da 0c3e
000000d0: eeb5 143e 829f 103e 3314 febc f985 e83d
000000e0: b8f8 3b3e 5ed6 e43d 8d70 5cbe ee78 0dbf
000000f0: d097 c1bb 440e 503e d1b4 e2be 6247 30bf
00000100: 081f 153e fca9 093e 94a7 273e 46e1 1b3e
00000110: ee78 6abe 3abe 483e 32c6 cdbe 3979 283e
00000120: c96b 033e b833 b9bd 6996 1b3e 5224 8cbe
00000130: bc03 15bf e01a a7be b2a0 3d3e c7e9 743e
00000140: 80b4 9ebe e8f2 883e 6760 5e3e 7af2 f3be
00000150: 175f 323e 2937 c1be 465d 113e 18a4 8bbe
00000160: da13 0a3e b961 e4be 03cb 733e d7cc f83d
00000170: 5d1a ccbe 49e9 943e 3562 be3d 6892 e0be
00000180: 06dd e43d 1acb a7be 72cf 5dbe c3c9 dbbe
00000190: fec2 863e bb5c 243e 72d1 05bf 681e 463b
000001a0: c9c9 0cbe ddea e1be ed3a 273e bda7 0ebe
000001b0: b2e7 50be bf03 b8be 5db3 35be 664c afbe
000001c0: c21d 813e 1587 85be 4588 1fbd 526a 08bf
000001d0: 3b64 763d 5a8e 153e dbe3 f43c 5dd8 9fbe
000001e0: 54b4 153e aea9 0e3f 7832 30be 695c f43d
000001f0: a0bf 8bbe 0166 8abd 7706 bc3e a0b0 09bf
