new_models/base+wp_16849288/qf5_final.pth (torch, 186584 bytes, 7 tensors)

layers.0.weight f4 [128, 98]
00000000: dba9 653d 8a5b 23bd 4753 b43b de1e 38bc
00000010: ead2 e6bd 1fa9 803d f468 1a3c b6c2 933b
00000020: b67d 573d 0a22 3d3d d5d5 2b3c af4f cf3d
00000030: c4f6 06be bd91 ea3d 395c dc3d f25f 803d
00000040: 5ac2 753d 70f8 a23c 3ab0 86bd 5d53 9b3d
00000050: 2142 2fbd 28e3 71be c713 53be a282 f6bd
00000060: d5e8 a9bd 7e1a fabc c92f 7cbc 5b13 75bd
00000070: 4298 a2bc c347 2b3e ef73 1a3d 87d7 b43d
00000080: 902f 8a3d 45aa 8aba 9c34 c5bc 813f 1ebe
00000090: f4cd eebd 453c 423d 4be1 52be 21b3 33be
000000a0: 601e 53be 50d1 1dbe 414a fabd 105d 09be
000000b0: e3bb 9abd 77c7 ed3c b233 a2bc 2d2d a8bd
000000c0: 72ef 873c 3ec0 463c aee1 363e e771 e53d
000000d0: 7bd4 d8bd faa4 45be 7c09 20be dd28 49be
000000e0: bba0 79be 1fd8 77be 9167 34be a700 94bd
000000f0: e113 edbd 96e5 e3bc 4eaa 0abd e8cc 0d3b
00000100: 8bc8 413e 20b7 a33d e941 babb cf4c 363d
00000110: ad83 f7bd c3f3 763e 2214 ce3d f46e f13d
00000120: 5dda 12bd 3a6b 11be 1fa4 363d 5e87 c33d
00000130: d8a6 69be 83d9 533e 4e69 063e 984c 9fbd
00000140: fbe1 53be bcbd 8abd f4ec 27bc c8b6 adbe
00000150: 67af 993e 7ee6 493e 03f3 5ebc bf23 79be
00000160: f0bf d43c b8c6 9c3d 5690 b7bd de7b 3f3e
00000170: 2fe7 073e ddc0 193e 12b3 8cbd c63a 2c3e
00000180: 93e7 0e3e da16 803e b051 983c 6332 17bd
00000190: 2ae8 a73d 15ff 35bd 1132 9e3d 4f4b 6e3d
000001a0: 33c2 913d e412 613d f75f d6bc ed98 c33d
000001b0: 53a4 9f3d dc7c adbd 44b7 723c 857e 8c3b
000001c0: 4723 103d 9d8f c43c 9383 86bd 9f9f ad3d
000001d0: f6a5 82bd 564a 11bd 13fe d33d 48e6 4bbc
000001e0: a336 b5bd 0452 30bc 7a51 bcbc fd57 6abd
000001f0: bb76 9e3c a33c 793d 0d7a f23b 73fc b7bc
00000200: 5ae5 653d d1ac f5bd 7231 943d dff1 503d
00000210: 30ea a1bd 06ea 94bd a2ce 2dbd adf9 f0bd
00000220: 3a35 edbd 79ee cebd ab21 9d3c a0d7 97bd
00000230: c99f 3d3d f40e ee3d 0782 24bb ded4 393d
00000240: 95b3 38bd f3cf cfbd 64c3 933d 801f 2bbd
00000250: 6879 0b3d e1f8 a7bc 5d15 ddbd f38c c1bd
00000260: cfed 32bb 7a3d 12bd 5827 ddbd 7c81 0bbe
00000270: e99f 15be 313f ba3c 3df6 e1bb df99 7cbd
00000280: c410 f2bd c456 9a3d 5a3d b23d 0b3e dbba
00000290: 9c11 543b 964e 89bc 8435 343d 14f9 e0bd
000002a0: 2139 afbd 8be8 2f3e 3213 ec3c 82bd be3d
000002b0: 95ea 703c 9800 8f3d 8cd5 14bc d52e 82bd
000002c0: 400b 473e 7a17 3a3e b9d2 ad3d 001d 65bc
000002d0: 3fb3 3cbc 78b5 203e 8b8d d2bd 3cca 4e3e
000002e0: 1a4c f73c 96f0 083e 5f63 ec3c 07a4 1d3e
000002f0: 9f10 f3bd d43d 273e 4d08 813e 5df4 18bf
00000300: 3e56 a63d aedc 00bd 8fa4 52bd 06a4 ccbd
00000310: a635 7fbc 3b4a e33d e8ef 693d c9b4 8f3d
00000320: 4617 8cbd c2cb b1bc de27 28be fc5d c5bd
00000330: 396c f63d 93c3 903d 8b35 9cbd cf89 06be
00000340: 405c 5abe aa7d 07bd af06 5abd 41ca 2fbe
00000350: bae1 62bd d654 c5bd aac7 9e3d 4f76 b33d
00000360: 9f23 c4bd d381 b6bd 5177 5abc 3ef8 4d3d
00000370: d88f 04be 3064 1a3d fd0f 153e 7fbf 143e
00000380: 7584 6cbe e84c 5fbe 1dbd 0bbd 933d 5ebe
00000390: b3be 48bd 39c2 7abd 14ec e0bc 482d 97bd
000003a0: 6cdd 2e3d 038f 803d fec3 563c 4659 c1bd
000003b0: f3c2 973c 8477 04bd 6c4f 413c 19ae cd3c
000003c0: 7b09 dd3c 0cd9 d53d 13d7 16be cdbf 19bd
000003d0: 21cf 58be ea61 f0bd 42d5 7abe aee4 29be
000003e0: 41e5 96bd 4ac5 60ba 4fb0 833d e06f abbd
000003f0: c23b 8b3d 5a59 86bd a589 34bc 05c3 79bd
0.05607019 -0.03988222 0.0055030915 -0.011237828 -0.112706974 0.06282257 0.009424437 0.0045092953
0.05261012 0.04617504 0.010487993 0.1012262 -0.13180071 0.114535786 0.107597776 0.062683
0.0599998 0.019893855 -0.06576581 0.0758426 -0.042787675 -0.2362181 -0.20613013 -0.12036635
-0.08296362 -0.03053021 -0.015392252 -0.059832912 -0.019847993 0.16726594 0.03770822 0.08830171
0.06747353 -0.0010579309 -0.024072938 -0.15453912 -0.11660376 0.04742076 -0.20593755 -0.17548801
-0.20617056 -0.15411878 -0.12221194 -0.13414407 -0.07555368 0.029025776 -0.01980004 -0.082117416
0.016593669 0.012130795 0.17859527 0.11203366 -0.105874024 -0.19301215 -0.15628618 -0.19644494
-0.2437772 -0.24203537 -0.17617632 -0.07226687 -0.11576057 -0.027819436 -0.03385382 0.0021637026
0.18924157 0.07993913 -0.0056841266 0.044506844 -0.12085662 0.24116425 0.10062434 0.11788741
-0.03585278 -0.1420106 0.04459011 0.095473036 -0.22817552 0.20688443 0.13126108 -0.07778281
-0.20691673 -0.0677447 -0.010249365 -0.33928514 0.30016634 0.19716832 -0.013607743 -0.24330042
0.02597043 0.0765509 -0.08963077 0.18699595 0.13271783 0.15014978 -0.068700925 0.16819295
0.13955526 0.25017434 0.01859364 -0.036913287 0.08198579 -0.04443272 0.07724393 0.05817729
0.07117119 0.054949656 -0.026168806 0.09550653 0.07795014 -0.08471081 0.014814202 0.0042875432
0.035189893 0.023994261 -0.065680645 0.08477711 -0.06379311 -0.035471283 0.10351195 -0.01244504
-0.08848312 -0.010761742 -0.02298807 -0.05721282 0.019343724 0.060848843 0.0073998035 -0.022459244
0.05612693 -0.11995853 0.072359934 0.051011916 -0.07905996 -0.07271199 -0.04243339 -0.11766372
-0.11582418 -0.10104079 0.019181093 -0.07414174 0.04629496 0.11623946 -0.0025101916 0.04536902
-0.045093138 -0.10147085 0.07215002 -0.041778088 0.03405133 -0.020504417 -0.1079509 -0.09450712
-0.002730239 -0.03570316 -0.1079852 -0.13623613 -0.14611782 0.02273521 -0.006895809 -0.06167018
-0.11819604 0.075360805 0.08703108 -0.0016726864 0.0032359129 -0.016761106 0.04399635 -0.10985008
-0.08555818 0.17178552 0.028817747 0.093134895 0.014704366 0.06982535 -0.009084117 -0.06356589
0.19437885 0.18173018 0.08487458 -0.013983965 -0.011517345 0.15694225 -0.102809034 0.20194334
0.030187655 0.13373026 0.028855978 0.15394603 -0.118684046 0.1633218 0.25201645 -0.5974787
0.08121918 -0.031460457 -0.051426467 -0.099922225 -0.015576756 0.11098143 0.057113558 0.07016904
-0.068403766 -0.021703605 -0.16421458 -0.09637067 0.120323606 0.07068553 -0.076274 -0.13138507
-0.21324253 -0.033078827 -0.05322903 -0.17166997 -0.05539105 -0.09635322 0.07752927 0.087628
-0.09577107 -0.08911481 -0.013334111 0.05028557 -0.12945497 0.037693202 0.1455688 0.14526175
-0.23097403 -0.21806681 -0.0341159 -0.21703176 -0.04900999 -0.06122038 -0.02745632 -0.073816836
0.042691633 0.06277277 0.013108252 -0.09440856 0.018525576 -0.03234054 0.011798721 0.02510743
0.02698206 0.10441789 -0.14730482 -0.03753643 -0.21172763 -0.117374256 -0.24495414 -0.1659114
-0.073679455 -0.000857432 0.064301126 -0.08370948 0.06798507 -0.06560011 -0.011019145 -0.060977

layers.0.bias f4 [128]
00000000: 9f2e ca3d 8860 4d3c d566 06be d13e 8c3d
00000010: 0299 433e f1fd bbbd c496 613d e629 213e
00000020: cecb 40be 3cbe 97bc d8e0 d8bc 324d 5fbe
00000030: 83d4 b5bd 4ea3 143d 64d3 0bbe 6b53 043e
00000040: c38a cdbd ea98 733e 742b 17be 64d7 553c
00000050: 1258 723e e5fd fcbb fd96 e03d 28cc 763d
00000060: 0fc7 1e3e d3f4 cfbc 8938 223d 27bc b3bd
00000070: 1dd9 cc3d 97a4 713e 3f3a 8d3e 8dbe 183d
00000080: 6154 98be 67d5 c6bd 0c9d 7e3e 7837 30be
00000090: 0587 b13c 15f6 ecbc de12 8f3e 2cfd 4fbe
000000a0: 6bb1 d2bd 12f4 dabc 9138 413d 6622 b43d
000000b0: a443 5b3d 9dfe 1fbd d733 823e ab6d 5b3e
000000c0: f27a 97bd 97fa 9abc b899 cc3c 49ba 46bc
000000d0: 98c3 8bbe 759a d6bd f124 e43d b2a3 cabd
000000e0: 1663 65bd 2d5d 033e 91eb 753c 7dcb d33c
000000f0: 1827 c73e 7193 303e 05bc 313d 9941 c43d
00000100: ce61 cf3c d709 8bbe f147 cfbd bb0c 23be
00000110: 621b af3d babc 83bc 1801 8bbd 2c6a b43d
00000120: 25c0 b4bc 180c 183e 4189 82be 2131 d6bd
00000130: a9a1 5c3e 80a4 eb3d 0d36 c43b 4624 873e
00000140: 2be5 863e 0006 51bd d34b 5b3e 83d4 e63d
00000150: 3e84 c23d 3655 533e ad0b 16be 987c afbd
00000160: 7994 8d3c b29e 283d c26c 95bb c388 a13c
00000170: 0253 7b3e d0a2 fdbd 12e1 973e eb3a 563d
00000180: 2ea1 9ebd 1d09 e7bd 75bb 31be 50bd 03be
00000190: 979f 233d 30b8 a4be 7e6d b0bd 70da 763d
000001a0: b4ac 8e3d 591d 32bd f7c2 fc3d 2740 9b3e
000001b0: 9db2 bebd 3e02 b63d 3a02 8b3d 7de3 f5bd
000001c0: 1148 aebd 8a18 d9bb 2338 fbbd 3989 123e
000001d0: a403 403e e278 8a3d ffd6 e43d 6579 763e
000001e0: 3c60 2cbe 8a69 8ebd acfd 20bd 9e5a 1f3e
000001f0: 6406 483c 2daf 073e 4cec 1dbe a0e0 3d3e
0.098721735 0.012535222 -0.13125165 0.06847919 0.19101337 -0.09179295 0.055075422 0.15738639
-0.18827745 -0.018523328 -0.026474401 -0.21806791 -0.08878424 0.036288552 -0.13654858 0.12922446
-0.10036232 0.23788801 -0.1476267 0.013051841 0.23666409 -0.0077206963 0.10966299 0.060253292
0.15505622 -0.025385296 0.039604697 -0.087761216 0.100023486 0.23597942 0.275835 0.0372911
-0.29751876 -0.09708672 0.24864596 -0.1720866 0.021670828 -0.028925935 0.27944082 -0.20311421
-0.10287746 -0.02672771 0.047173087 0.087956235 0.053531304 -0.039061178 0.25430176 0.21428554
-0.07396497 -0.018918319 0.024975643 -0.012129375 -0.27297664 -0.10478679 0.111398585 -0.09894504
-0.0560027 0.12828512 0.015009777 0.025853867 0.38897014 0.17243744 0.0433922 0.09582824
0.025315192 -0.27155945 -0.101211436 -0.15922825 0.08550145 -0.016081203 -0.06787318 0.08809313
-0.022064278 0.14848363 -0.2549534 -0.10458589 0.21546043 0.11505985 0.0059878887 0.26394862
0.26346716 -0.051031113 0.21415643 0.11271002 0.094978794 0.20637974 -0.14652891 -0.08568686
0.017282711 0.04116697 -0.004560084 0.019718533 0.24543384 -0.1238457 0.29663903 0.052302282
-0.07745586 -0.11281035 -0.17356665 -0.12865186 0.03994712 -0.32171774 -0.08614634 0.060266912
0.06966534 -0.04348502 0.12341874 0.30322382 -0.093114115 0.088871464 0.06787534 -0.120062806
-0.08509839 -0.0066252397 -0.122665666 0.14310159 0.18751389 0.06761338 0.1117382 0.24069746
-0.16833586 -0.06953724 -0.03930442 0.15561911 0.012208555 0.13250418 -0.15422171 0.18542719

layers.1.weight f4 [128, 128]
00000000: 0bb6 a53b 705b d93d 934b 893e 500d ca3d
00000010: 4618 883d 4ca0 19be 56c2 91bd 6366 cdbd
00000020: cca7 12be 2916 3bbc 3f79 3ebd 7929 1e3e
00000030: 97b8 98bd 395c c13d c0c9 4b3d a1fc 54bd
00000040: 6be0 60bb cda4 8ebd 504b 32bd 1cdd cc3d
00000050: fb5c a5bd 0ed2 e9bd 8d13 5cbe 08cf 773e
00000060: 7547 fcbc 42e2 ef3c 8c0d dc3c e328 2bbe
00000070: b879 c33d 7fb0 c6bc ffbf d9bd 75c8 8a3c
00000080: a583 03be fe2d a83c 8dcf 59be b267 073e
00000090: 8881 153d 56f1 2abe 9b85 9e3d 3e5a 183e
000000a0: 1241 ca3d 7f52 543e 4c47 f63d abab a3bc
000000b0: 4221 1bbd 831d 97bc 1342 cf3d 254c 89be
000000c0: 406b 9d3d a927 453d b144 563e 22e8 4cbe
000000d0: 9b49 87bd c229 45be 07a6 f23c a6e1 0bbe
000000e0: d2d6 46bc ba53 b23d 5ee9 363d 9ad2 a93c
000000f0: 8925 07be bf11 97be c02f 393d 42f6 1abe
00000100: 604d 97bd c7e5 813d 6d6a a0be a56d 9ebd
00000110: 3abf 393e ece2 983d 2179 9a3b 7ce5 36bd
00000120: 735b b5bd 2485 bbbc 21aa f03b 62f5 aabe
00000130: 68b2 303e 6bc0 3dbe 2186 89be fd00 a0bd
00000140: b037 613d 3c56 ee3d c47f b4bd 9650 0fbe
00000150: 4dfd 933d b6b6 953d 6d5a 32bd e6d5 e63c
00000160: 6308 a43b 6640 113e 5ff2 7ebd 78ae 10bd
00000170: d887 393c f5c5 5b3e adce 0abe 8f26 e3be
00000180: 5e4d 22bc dc78 3abd b9bb 323e f107 debd
00000190: 68e1 8cbd 9934 603b c6f3 a0be 20c4 cabd
000001a0: 6a63 e43d c49c 493d fbc8 1b3e ab19 b1bc
000001b0: ec6d c8be 9f3f cb3d ab61 5bbd cc05 043e
000001c0: 0fda 7b3d 812e 543e 5066 963c 45a5 e13d
000001d0: 8053 52bd e0b2 333d 1f9c b9bc b7e6 22be
000001e0: 0e19 a7bd 7ba6 a73d b7a7 2abe e8cb b43c
000001f0: bda0 4bbd bb6a d03c b63f cebd 23a7 86bd
00000200: 210d 7e3c 5fc6 413d daf0 933e c9cf e0bd
00000210: b0fe 09be 32a5 7cbd 3857 93bd 5bd4 863d
00000220: 4664 a8bc 38c2 92bd 7e58 06bd 10f1 f43d
00000230: 1e26 ee3c acba a73c 1990 58bd 2f54 093e
00000240: c042 89bd 627e 683d 95f1 c53d ae23 893c
00000250: eb1c 21be 27e4 50ba d48d c9bd 6613 3e3c
00000260: 740f 9a3d 42c1 8f3c 279d 4cbe 0d6a d9bd
00000270: aa35 1e3d 7d5d 46be b375 aebd 61bc abbc
00000280: 53b7 963c 790b ccbd b3c4 8f3d c1b9 0ebd
00000290: c75a 97bb b297 113e fdba a53b 324b d43d
000002a0: 26db c53d 4724 0ebe e042 49bd 89e7 aebd
000002b0: 44ad 8f3e 54ac bf3d 93bb cebc 968b a53d
000002c0: ad66 803d d045 a1bd e761 953e 3a7d 47be
000002d0: 5ba6 093e b543 33be f0b5 74bd 8c6a 083e
000002e0: 135e aa3d 2e15 973d 30f0 3c3d 0a6e 4fbd
000002f0: 3f4b 4dbd af07 92bd 786e 4b3d c773 303e
00000300: dd49 40bc 58ce 803c 009a fc3b 9eda 9b3c
00000310: 8014 5abd 05fe afbd bb1f 80bd 8b96 1c3e
00000320: 6e85 0dbe 4cd8 27be 7e71 b93d c2eb b83c
00000330: 9f4f 14bc 0c72 0b3e a6bf 2abe 5c66 693d
00000340: 03b5 063d a7eb 88bd 7ef6 28bd 542f 74bc
00000350: b337 df3d fe01 45bd ad6a 03be 5768 4e3e
00000360: a546 073e defa f53d c5a0 adbd d285 213e
00000370: 1dd8 38bd 76f6 823d 1da4 01bd bf1e 35be
00000380: 6465 18bd e185 643d 16cb e03c 16dc 15be
00000390: d9f4 03bd 462b abbd ba0d 083e 0403 0bbe
000003a0: c9c8 43bc 9ddb 93bc cef7 973c 1f93 a0bd
000003b0: dd87 9abe c80b a9bc 1704 013e f738 02be
000003c0: 9454 c4bc 8111 2f3d b567 06bd a723 a9bd
000003d0: 0f69 b33c a457 203d ed72 98be 2c2a 2c3e
000003e0: 3983 b33d ce1e a93d 515b f9bd 59bc 6a3d
000003f0: dadd a53d 439c fcbb b724 c33d d5f9 7c3e
0.0050571016 0.106131434 0.2681547 0.098658204 0.06645255 -0.15002555 -0.07117145 -0.10029294
-0.14321822 -0.011418858 -0.046502348 0.15445508 -0.07457083 0.09441418 0.04975295 -0.05199874
-0.003431345 -0.06965027 -0.043528855 0.10003111 -0.08074375 -0.11417018 -0.21491833 0.2420007
-0.030795792 0.029282693 0.026861928 -0.16714816 0.095447004 -0.024254082 -0.106323235 0.016941288
-0.12843187 0.020529743 -0.2127058 0.1322315 0.036500484 -0.16693625 0.07740327 0.14878175
0.098756924 0.20734595 0.120253175 -0.019979319 -0.037873514 -0.01844669 0.101200245 -0.26815906
0.07686472 0.048133526 0.20924641 -0.20010427 -0.06605836 -0.1925421 0.029620184 -0.13660297
-0.012136178 0.08707376 0.04465615 0.020730305 -0.13197912 -0.29505727 0.045211554 -0.15133002
-0.07387805 0.06342655 -0.31331196 -0.07735757 0.18139353 0.07465157 0.0047141467 -0.044652447
-0.08855333 -0.022890635 0.0073444997 -0.33390337 0.17255557 -0.18530433 -0.26860145 -0.078126885
0.05498475 0.11637542 -0.08813432 -0.13995585 0.07226048 0.0731024 -0.043543268 0.028178167
0.0050058826 0.14184722 -0.06224286 -0.035322636 0.011323892 0.21462233 -0.13555403 -0.44365355
-0.009906141 -0.045525417 0.17454423 -0.108413585 -0.0687893 0.0034211038 -0.31435984 -0.09900689
0.11151774 0.04922177 0.15213387 -0.021618685 -0.39146364 0.09924244 -0.05355994 0.12892836
0.061487254 0.20720865 0.018359333 0.11017851 -0.051349163 0.04387176 -0.022657452 -0.15908323
-0.08159076 0.081860505 -0.1666554 0.022069886 -0.04971384 0.025441518 -0.10070746 -0.065748475
0.01550606 0.047308322 0.28894693 -0.10977132 -0.13476062 -0.06168098 -0.0719437 0.06583472
-0.020555627 -0.071659505 -0.032799236 0.119600415 0.02907091 0.020474754 -0.052871797 0.1341102
-0.06702185 0.056761153 0.09665219 0.016740646 -0.15733688 -0.00079685677 -0.09841505 0.011601305
0.07522479 0.017548207 -0.19981824 -0.10615931 0.038625397 -0.193716 -0.08518543 -0.02096385
0.018397963 -0.09963126 0.07019939 -0.034845117 -0.004618976 0.14218023 0.005057691 0.10365905
0.0966094 -0.13881026 -0.049136043 -0.085402556 0.2806188 0.09359041 -0.025235927 0.080832645
0.06269584 -0.07874644 0.29176256 -0.19481364 0.13442366 -0.17506297 -0.05974382 0.13321894
0.083187245 0.073770866 0.0461275 -0.05064205 -0.05012059 -0.07130372 0.049665898 0.17231666
-0.01173636 0.015723392 0.007708788 0.019025143 -0.053242207 -0.08593372 -0.06256052 0.15291803
-0.1382043 -0.16391104 0.0905485 0.022573356 -0.009052186 0.13617724 -0.1667467 0.056982383
0.03288747 -0.06685572 -0.0412507 -0.014903862 0.10899296 -0.048097603 -0.12833662 0.2015699
0.13210543 0.1201074 -0.0847793 0.15773705 -0.045127977 0.06394665 -0.03165065 -0.1768751
-0.03720607 0.05579174 0.027440589 -0.14634737 -0.032215927 -0.08357863 0.13286486 -0.13575369
-0.011949726 -0.018049056 0.01855078 -0.07840561 -0.3018178 -0.0206355 0.12599216 -0.12717043
-0.023966111 0.042741302 -0.032813746 -0.08258753 0.021900682 0.03914608 -0.2977518 0.16812962
0.08765263 0.08257829 -0.1217562 0.05730853 0.080989555 -0.0077090575 0.09528487 0.24704678

layers.1.bias f4 [128]
00000000: 419f fa3d 40cf dfbd 37d2 683d 898f 843e
00000010: e0d8 0c3e ad8b a0bd 7bc7 6f3e 667d b4bc
00000020: bceb e33d ae98 1a3e 90b6 f5bb 0c5a 7cbe
00000030: 92ce 563d 9c82 dc3d c7ed 11be 04c5 b5bd
00000040: f7e6 baba ebde e4bd 7881 563e 1625 ba3d
00000050: 4349 d7bd d5a0 b23c d9c2 05bd feed 0b3e
00000060: 8ab3 3e39 6f9a bbbc 53c6 34bc 2fc5 013e
00000070: 2b5e 923d 5886 9dbd af1b 2abc d240 a53d
00000080: b3b0 13bc c589 213e 4b34 8d3c dd07 9dbd
00000090: 3bdf 55bb 0d6b 11be bf39 6e3e dac6 b7bd
000000a0: 5485 573b 49df aabd b431 933c cada 743e
000000b0: cbc1 64bd 468f 973d 610c 183e ad02 83bd
000000c0: 99f4 373d 7d96 19be 8304 a03d 07b7 833e
000000d0: 77f0 1a3e dc3c 01bc 72d8 eebd 83e9 92bd
000000e0: 79e5 8e3e ee26 59bd e19b abbd c75a 253c
000000f0: 127e ba3d 7ae2 693d bc3c 353e 6a02 093e
00000100: 56e7 913d 714a 223e d17c 973e 31d8 67bd
00000110: cd2d 25be e1be 983e 109e 22be 4f93 d2bd
00000120: b0cf 6a3d 5d24 a23c 40c0 3f3d 904d 8d3e
00000130: 614a 333e 160e 593e e52c cc3d 0b12 1dbc
00000140: da81 3b3e f486 e23c ae18 4a3d 6923 2dbd
00000150: 3fb6 153d 8044 5dbe 6163 093d 1696 833d
00000160: 52aa bbbc 093a 36bd 1f90 8bbd fef5 503e
00000170: 0aa2 5d3e 6722 b73d f3a3 95bd 2e20 1f3e
00000180: 28ce 16bd 41d2 643d 4de0 ee3d bccf a63d
00000190: 41a4 c63c 8bff cfbe f48d 1abd 8945 523e
000001a0: 97fd 7d3d 02fc fd3d a8b5 24bd 585f b03d
000001b0: 405e 2fbe a36c 8e3d 5c0b 0f3d 7b12 33bd
000001c0: 3a87 c53e 47b6 d53e fdff b6bc ece3 203d
000001d0: d06d a2bd f8a7 b2bb 3ceb 7e3d f775 adbd
000001e0: 246f f33c c009 093e e2a9 0f3e c441 3c3e
000001f0: c813 9f3e 2f19 a9bd 8089 fabc 1658 c3bc
0.122374065 -0.10928202 0.0568411 0.2589076 0.13754606 -0.07839141 0.2341594 -0.02203245
0.11128947 0.15097305 -0.00749857 -0.24643725 0.052443095 0.10767099 -0.14250861 -0.088754684
-0.0014259507 -0.11175331 0.20947826 0.09089105 -0.105120204 0.021805206 -0.032656524 0.13665006
0.00018186696 -0.022900788 -0.011033612 0.12672876 0.07146867 -0.0769164 -0.010382577 0.08069004
-0.009014296 0.15775211 0.01723685 -0.076675154 -0.0032634276 -0.14200993 0.23264216 -0.08973475
0.0032885866 -0.083433695 0.017968036 0.23911586 -0.055848878 0.07400374 0.14848472 -0.06396995
0.044911 -0.14998813 0.078133605 0.25725576 0.15130793 -0.007888045 -0.116623774 -0.07173445
0.2790945 -0.053015642 -0.08379341 0.010092444 0.09106077 0.05710075 0.1769895 0.13379827
0.07124202 0.1584871 0.29587415 -0.05660266 -0.16130753 0.2983313 -0.15880609 -0.10282003
0.057326972 0.01979273 0.046814203 0.27598238 0.17508842 0.2119678 0.099695005 -0.009586821
0.18311253 0.027652241 0.049339943 -0.042270098 0.036550757 -0.21608162 0.03354204 0.06425111
-0.022908363 -0.04448894 -0.06814598 0.20406339 0.21643844 0.089421086 -0.073066615 0.1553962
-0.0368177 0.055864576 0.11663876 0.08145091 0.024248244 -0.4062465 -0.037733033 0.20534338
0.06200942 0.12401582 -0.040212303 0.086119354 -0.17125797 0.069543146 0.034922943 -0.043718796
0.38579732 0.4174063 -0.022338862 0.039279863 -0.07931101 -0.0054521523 0.062236056 -0.08469766
0.029716082 0.13382626 0.14029649 0.18384463 0.3106978 -0.082567565 -0.030583143 -0.023845714

layers.2.weight f4 [128, 128]
00000000: df4a 67bd 6ab3 243d e3c7 82be 0d24 babc
00000010: 2d7d b5bd b3e7 b63d 9a48 86bb 5179 01bd
00000020: c38c 943d 0d52 8e3d 6441 a63b bba8 983d
00000030: bd0d ca3d a892 103e ee0b d73d dfdd 3ebd
00000040: 3000 9ebe facd 4c3d deab ef3d de7a 6a3e
00000050: a11a 6a3d cd22 89be b0ef bb3d 0ac5 a5bc
00000060: df45 0fbe 17e2 55be a8d6 d13d 4b68 28bd
00000070: a416 ad3b 5ce3 1abd b6be a9bd 1e0a 0dbe
00000080: 937c 143e d601 a23c d05e bd3d e01b 2e3e
00000090: 0ffc 3b3d 68ed be3d 83c4 a73b a01d ccbd
000000a0: 8543 b13d 0e9d 7b3d 4351 013e 1c1c be3d
000000b0: 3978 403d 7659 283e c3aa 8cbd 10a4 cdbe
000000c0: 3a42 d13d e265 de3c 9734 92bc c1f6 0e3d
000000d0: b6ba aa3e dbcb 0bbf b9c7 983d d64c 82be
000000e0: 9537 d33e 583d 6ebe 1e86 8e3d cffa bd3d
000000f0: 0139 30bd ace9 713d 4170 9c3e 3fa2 a3bb
00000100: f504 6f3e db62 443d 1df2 35bd f41d 743d
00000110: 92cf 8a3d cfce 40bd a470 07bf 4069 dc3d
00000120: 4144 393e 83f9 e03c 821d fc3d 2d93 983c
00000130: f20a da3d ceac 3a3d c6ef b5bc 7b7b 363d
00000140: 57fc 053e ddf9 4bbb b712 893d ca51 263e
00000150: f494 113e 5ca3 12bc bb36 0b3d 35ca 3cbc
00000160: 06ee 833e 03fe 4a3d 28fe 3e3d 05ab 43bc
00000170: fa60 1fbe 71b7 22be c913 cbbd 68a2 71be
00000180: d0ec 813d ed27 443e 43f2 ab3d fcf6 b6be
00000190: 55dc 92be 5dd8 493e 4cd4 1fbc 0b7e af3d
000001a0: a5ca 87bd 981d 89bc 1e2b a2be 26ba 1f3d
000001b0: b11d 8f3d 8009 163e bf86 893e 9cac f73d
000001c0: 62a3 1c3d b204 adbd 900c 32bd b244 023e
000001d0: 615f 8dbe c9cd 813d d38a e03e 7362 823e
000001e0: f5d1 8bbe cc05 3a3d 5a14 24bd 4b20 5ebd
000001f0: a469 91be a1a1 c23d b36b 603d a9a4 b73d
00000200: e417 b73c 2f53 333c b073 b6be 344a 4c3d
00000210: 8962 473c 341f 643c 7167 3cbc 23c1 f83b
00000220: 9146 513d 3239 c73d 003c 4a3d 8107 d63b
00000230: 6441 d9bd 286d f83d 4099 e93c 4127 a3bd
00000240: eb0d ccbe 3bc3 9cbb 0fc5 973b 6aad 033e
00000250: 1d3f f83c 3822 7fbd e043 e53d a988 993d
00000260: 55ca 37be 3552 90be bdd4 a1bd 5cfd 5fbd
00000270: 976f 983d 4475 fc3c 8d00 8abd 7b90 b43b
00000280: ae2d a53b db8a 2b3d 2829 bd3d bc87 373e
00000290: 76dc 93bd 393a 163e b3d3 83bd 8237 48be
000002a0: 2875 f7bc cc84 133c 70fd 3c3d da14 d03d
000002b0: 0915 75bd 3c9a d1bc a073 a5be 6e92 25bf
000002c0: af50 2d3d b296 a23d d68a 973d f146 c5bc
000002d0: 8465 9c3e f73b bdbe 0d10 f13d 83fb 5bbe
000002e0: 181b ae3e da07 91bd b079 9fbc 082c 13bd
000002f0: 7639 1fbd 4037 ff3d 1f7c ab3e 470a a0bd
00000300: 9e4d 6c3e 7cd8 4abc e8c5 283d 4d33 ba3c
00000310: c7b2 123d cf57 4cbd 626e 09bf 5f8d 1b3e
00000320: 85ee 063e 04eb 043e 85b6 45bc f308 b03d
00000330: 558d a7bc ae62 22be c0ec 2dbd 0247 50bd
00000340: c02d eb3d 4779 123e fd69 4f3e e062 dc3d
00000350: 941b 713d 5313 113d 1ff6 6ebd 7912 43bd
00000360: f485 793e 117d 8bbd 299e 363d 32ea 063d
00000370: 559a 81be 4f95 ccbd cca9 dabe 5423 44be
00000380: cf46 6abc ea0f 663e bf11 31bc b3d6 9abe
00000390: 5d2e d5be 1c5b 2c3e 0299 393e ff45 923d
000003a0: 6b19 4e3d d9d2 08be 55fd 86be e832 aebd
000003b0: 810f 043d 8c61 963d 9f73 6c3e 3b80 acbc
000003c0: 0d65 e6bc f1de 193e c027 5c3d 11fc 513e
000003d0: 7a51 89be cfb6 a73d ea1a c03e 0c72 ccbd
000003e0: cd27 85be 32ab b83c 4cbd a43d 29f5 80bd
000003f0: 02a2 b4be 3fd7 633d 2ad9 16be 8c74 5e39
-0.056467887 0.040210165 -0.25543126 -0.022722268 -0.08861766 0.08930912 -0.0040980102 -0.031609837
0.07253411 0.06949244 0.005073713 0.07454058 0.098659016 0.14118445 0.10500322 -0.04659831
-0.30859518 0.050001122 0.11702703 0.22898433 0.0571543 -0.26784363 0.09176576 -0.020235557
-0.13991497 -0.20887028 0.102460206 -0.041115087 0.00528224 -0.037814483 -0.08288328 -0.1377339
0.14500646 0.019776266 0.092466 0.17002821 0.04589468 0.093226254 0.0051198616 -0.09966588
0.086554565 0.061429076 0.12628655 0.09282705 0.046989653 0.16440377 -0.06868508 -0.40164232
0.1021771 0.02714819 -0.017847342 0.03490329 0.33345574 -0.54607934 0.07459969 -0.25449246
0.41253343 -0.23265588 0.069591746 0.092763536 -0.043023113 0.059060737 0.30554393 -0.0049937065
0.23341735 0.04794584 -0.04442035 0.059598878 0.06777872 -0.047072228 -0.5290625 0.10762262
0.18092443 0.027462726 0.12310316 0.018624866 0.10646619 0.045574956 -0.02220906 0.044551354
0.13084541 -0.0031124272 0.06693023 0.16242138 0.14216977 -0.008950081 0.033987742 -0.011522819
0.25767535 0.04955865 0.0466291 -0.01194263 -0.15564337 -0.1589029 -0.09915883 -0.2359711
0.063439965 0.19155855 0.08395817 -0.3573531 -0.28683725 0.19711442 -0.009755205 0.08568963
-0.06630448 -0.016737744 -0.3167352 0.038995884 0.06988085 0.14652061 0.26860616 0.120934695
0.03824175 -0.08448161 -0.04346901 0.12721518 -0.2761183 0.063380785 0.43855914 0.25465736
-0.27308622 0.045415685 -0.04005847 -0.054230016 -0.2840091 0.095034845 0.05479021 0.08966953
0.02235026 0.0109451255 -0.35635138 0.049875453 0.012169489 0.013923455 -0.011499272 0.007591383
0.051092688 0.09727706 0.049373627 0.0065316563 -0.106081754 0.12130195 0.028515458 -0.079664715
-0.3985437 -0.0047840155 0.0046316455 0.12859121 0.030303532 -0.062288493 0.11194587 0.07496769
-0.17948277 -0.2818772 -0.07901905 -0.05468498 0.07443159 0.030817635 -0.06738386 0.0055103875
0.005040846 0.04188047 0.092363656 0.17922872 -0.07219784 0.14670648 -0.06436863 -0.19552425
-0.030207232 0.009003829 0.046140134 0.10160227 -0.059834514 -0.02558624 -0.32314777 -0.6467656
0.042313274 0.07938899 0.07399528 -0.024081679 0.305462 -0.36959812 0.117706396 -0.21482663
0.34005046 -0.07081576 -0.019467205 -0.035930663 -0.03887316 0.1246171 0.33493134 -0.0781446
0.23076484 -0.012380715 0.041204363 0.02272954 0.035815027 -0.04988843 -0.53684056 0.15190648
0.13176925 0.12980276 -0.012067442 0.08595457 -0.020453135 -0.15857956 -0.04246211 -0.05084897
0.114833355 0.14304076 0.20255275 0.107610464 0.05886419 0.03541882 -0.058340188 -0.04762504
0.24367505 -0.06810964 0.044584427 0.03293819 -0.25313058 -0.09989416 -0.4270767 -0.19154102
-0.014299109 0.22467008 -0.010807454 -0.30241928 -0.41636935 0.1683163 0.18124774 0.07142257
0.05031721 -0.13361682 -0.26365152 -0.08505803 0.03224135 0.07342824 0.23090981 -0.021057239
-0.028124357 0.15026452 0.053748846 0.20506312 -0.26819974 0.08189165 0.37520534 -0.0998269
-0.26006928 0.02254257 0.08043918 -0.062967606 -0.35279852 0.055625197 -0.14731279 0.00021214987

layers.2.bias f4 [128]
00000000: c3e6 dd3d 7dfd 7f3b 43b2 efbc cfd6 e0bd
00000010: 708c 8fbd 13ed a93e 5904 123e 2c1d 91bd
00000020: c378 b23d 38d9 86bd 6b50 873d 49db 593c
00000030: 8ce7 923d 474f a8be 1dd1 6c3e 9a03 9b3c
00000040: f475 afbd 32b0 4a3d af32 853e d013 1e3d
00000050: d0b5 433d 2ec1 babd 95e8 ad3e ad4f 5b3d
00000060: 4db2 343d 7ae4 843e 5805 9cbd 9320 52be
00000070: 3a15 ad3c 3934 20bd bd5e e93d 054d 7d3d
00000080: beb5 b43d a864 813d 1529 8f3e 69b6 913d
00000090: 67fe b73c 7d63 833d 1d12 6d3e 06b9 973d
000000a0: 5e12 c53e a025 283d a03e db3d c231 fb3c
000000b0: d081 9f3e 8815 e33e 1a85 9bbd 5abc 953d
000000c0: 3d6b a1bd 602a 83be 1a97 e73e cd66 273d
000000d0: 92c0 fe3c a6fd a23d 4e75 b7bd b1b2 cd3c
000000e0: 479f 56bd d21f 6e3d 54e1 3abd dcb4 c93e
000000f0: 0232 0fbe e2da 423d 7188 b43e d4dc e43e
00000100: 9245 8d3c e71a ca3d 1beb a43d cd55 c93d
00000110: bb01 4ebe 037f 1cbc 1b69 49be cbc1 e03c
00000120: 1228 383c 7795 6ebb 0927 8e3d c04f 9b3e
00000130: 2337 973e 7533 153e fdcc bfbc 6731 a6bc
00000140: 23ac d8bd b5fa 45bc 916d 05bd e930 e63e
00000150: aa23 bd3d 81f4 e03d d3e2 853d de0e 4e3e
00000160: fea8 003d a6bb 23be d36d 2eb9 e2f0 b13d
00000170: a386 9ebd df4a 02bb c53c 203d ede0 973e
00000180: 4c2c ea3d 7b32 3e3e 613b 1f3e a4bb c93e
00000190: a519 da3c 584d 853d 5b2f 243c 798b e6bd
000001a0: 9c76 ee3d 73e2 dc3b 6905 02bd 02dd 533e
000001b0: 88e8 2dbe 55fe bdbd e082 47be dbe0 8e3e
000001c0: af91 d33d 4c49 9f3e 8ef9 bebd b73c ed3e
000001d0: cf65 dabd 9763 613c 0fd5 ccbd a913 a13d
000001e0: ed79 16bc 0bca 50be e797 0ebd 6d79 9d3d
000001f0: 4956 8cbd d7b2 b6bd fb02 6fbe bdc9 af3e
0.1083503 0.0039061003 -0.029259806 -0.109784715 -0.07009208 0.33188686 0.14259471 -0.07085642
0.0871444 -0.065844 0.066071354 0.013296911 0.0717307 -0.32872984 0.23126645 0.018922616
-0.0856742 0.04948444 0.2601523 0.038593113 0.04778081 -0.09118877 0.33966509 0.05354278
0.044115353 0.25955564 -0.07618207 -0.20520239 0.021128286 -0.039112303 0.11395023 0.06184103
0.08823727 0.06318027 0.2796103 0.0711487 0.022460176 0.0641546 0.23151441 0.07408337
0.38490576 0.041051507 0.10705304 0.030663375 0.31153727 0.44352365 -0.075937465 0.07311316
-0.07881782 -0.25618267 0.4523247 0.040869523 0.031097684 0.07958536 -0.08957921 0.02510962
-0.052397992 0.058135815 -0.045625046 0.39395797 -0.1398392 0.047572024 0.35260347 0.44699728
0.017245088 0.098684125 0.08052655 0.09830818 -0.20117848 -0.009551766 -0.19669001 0.027436158
0.011240022 -0.0036405006 0.06941039 0.30334282 0.29534253 0.1457041 -0.023413176 -0.020287229
-0.105797075 -0.012083699 -0.032575194 0.4495919 0.09235318 0.109841354 0.06537404 0.20122859
0.031411164 -0.15989551 -0.00016634846 0.08688523 -0.07740524 -0.0019881052 0.039120454 0.29663792
0.1143423 0.18573944 0.15549995 0.3940097 0.026623556 0.06508893 0.010021056 -0.11257071
0.11643717 0.006740862 -0.03174344 0.20689777 -0.16983235 -0.092770256 -0.19483519 0.27905926
0.10330521 0.3111061 -0.093249425 0.46335384 -0.1066395 0.013756654 -0.10001575 0.07865078
-0.009184343 -0.20389573 -0.034812834 0.07689176 -0.06852395 -0.0892083 -0.2334098 0.34333602

layers.3.weight f4 [1, 128]
00000000: ed73 143e eef8 803e 3c52 213e 05ad 0d3f
00000010: 5678 6e3e e0bc 0bbf e201 0ebf 59c1 d9bb
00000020: f424 393e be2d a2bc 6a5b 4a3e 3a0f 283e
00000030: 49d9 2e3e 99c4 6b3f cf20 5fbe 7942 303e
00000040: d5f2 d4be 6e60 243e 981c ebbe f150 083e
00000050: 45f2 183e 96be 073f e988 2ebf 93db c5be
00000060: e65f 123e 18ac 44bf 997c 033f fcd4 0a3f
00000070: f54b c63d 4cd4 563e 0b2f 1b3e 9209 bebe
00000080: 317a 1b3e bbce 413e 4b8d 38bf b797 3b3e
00000090: 3080 c4be 0f87 2f3e 5f24 15bf 82ed 00bf
000000a0: f9ae 19bf f507 8a3e cbe8 f5be ad6f 1e3e
000000b0: 9bf2 aebe 470f 17bf 8c32 d8be 718d ed3d
000000c0: 60c8 dabc bce7 573f 777b 20bf ee85 203e
000000d0: be31 163e b843 213e dc13 febc 5be2 f13d
000000e0: 7484 483e 1fa5 e83d 5934 a3be 699c 29bf
000000f0: a4f5 94bb 7d55 733e d5b0 0bbf 84c5 67bf
00000100: e50c 173e 0ad8 103e 2a09 3d3e 9443 2f3e
00000110: 2f33 c9be 3ee3 7b3e da3b 16bf 4e0d 273e
00000120: 2f6b 163e bc66 89be b15a 263e 1ff3 b6be
00000130: 36c4 32bf d229 f0be 2a91 463e 703f 913e
00000140: e147 c8be 12d8 973e 271c 6f3e e2af 2dbf
00000150: 053d 463e 0456 e4be 8fbc 2e3e 5b11 bdbe
00000160: 855d 0f3e 6c80 25bf 9be4 883e 0d9e 053e
00000170: ff68 06bf 91e5 a33e 26fb c13d 9482 00bf
00000180: d546 0a3e a82a e8be b00d 97be 80cb 00bf
00000190: c7b7 9b3e b66f 383e 5bf8 13bf 9d1d 463b
000001a0: 8e72 29be 1b6a 16bf af43 2e3e e82b 32be
000001b0: 57d2 d9be c315 e9be efb7 dbbe 4632 cebe
000001c0: 7846 a63e 36af babe b966 15bd d62e 24bf
000001d0: e48e 483d 4f0a 193e 17e3 f43c 46d5 c1be
000001e0: 802e 373e 55df 203f 1f68 d6be 2107 f73d
000001f0: 0928 acbe 65a2 3cbe 869a 143f ba83 44bf
0.14497347 0.25189918 0.15754026 0.5534213 0.23288092 -0.54585075 -0.5547162 -0.0066453633
0.18080503 -0.019797202 0.19761434 0.16412058 0.17075075 0.9209686 -0.21789859 0.17212857
-0.41591516 0.1605241 -0.45920253 0.13312127 0.14936168 0.53025186 -0.6817766 -0.38644084
0.14294395 -0.76825094 0.51361996 0.5423124 0.096824564 0.20979422 0.15154664 -0.37116677
0.15183331 0.18926518 -0.72090596 0.18319593 -0.3837905 0.17141365 -0.5825862 -0.5036241
-0.6003261 0.26959196 -0.4802917 0.15472288 -0.34169468 -0.59007686 -0.42226064 0.115992434
-0.026706874 0.84337974 -0.6268839 0.1567609 0.14667413 0.15748489 -0.031015329 0.11810752
0.19581777 0.11359619 -0.31875876 -0.6625429 -0.004545884 0.2376308 -0.545667 -0.9053576
0.14751013 0.14144912 0.18460527 0.17115623 -0.39296862 0.24598405 -0.58685076 0.16313669
0.14689325 -0.26836193 0.16245534 -0.35732362 -0.69830644 -0.46906906 0.19391313 0.2836871
-0.3911734 0.29657036 0.23350583 -0.678465 0.19359215 -0.44596875 0.17064117 -0.36927304
0.14000519 -0.6464908 0.26736912 0.13048573 -0.5250396 0.32011083 0.09471731 -0.50199246
0.13503583 -0.45345044 -0.2950263 -0.50310516 0.30413648 0.18011364 -0.57800835 0.0030230053
-0.16547605 -0.58755654 0.17018007 -0.17399561 -0.4254329 -0.45524415 -0.42913768 -0.4027273
0.32475638 -0.364618 -0.036474917 -0.64133966 0.048964396 0.14945339 0.029893441 -0.37858027
0.17888832 0.6284078 -0.41876313 0.120619066 -0.33624294 -0.18421324 0.58048284 -0.767635
