new_models/base+wp_16849288/qf5_target_final.pth (torch, 186668 bytes, 7 tensors)

layers.0.weight f4 [128, 98]
0	0x3d644d15	0.055737574
1	0xbd2285ea	-0.03967849
2	0x3b9f11d9	0.0048544225
3	0xbc59b426	-0.01328758
4	0xbdec5199	-0.11539001
5	0x3d7596cd	0.059958268
6	0x3bd852c1	0.006601662
7	0x3ad0f6ca	0.001594269
8	0x3d444c47	0.047924306
9	0x3d300b51	0.042979542
10	0x3bd9adbe	0.006643026
11	0x3dc5435e	0.0963199
12	0xbe0c2144	-0.13684565
13	0x3de09bf3	0.10967245
14	0x3dd60810	0.104507565
15	0x3d79de15	0.06100281
16	0x3d72bb88	0.059260875
17	0x3c97d4d2	0.018534098
18	0xbd86642a	-0.065620735
19	0x3d997480	0.07492924
20	0xbd3546aa	-0.044256844
21	0xbe7337f3	-0.23751812
22	0xbe54c3b9	-0.20777787
23	0xbdfb757c	-0.12278268
24	0xbdb2773f	-0.08714151
25	0xbd0bec02	-0.03416062
26	0xbc94c89d	-0.018162066
27	0xbd81877f	-0.06324672
28	0xbcc8eefa	-0.024528015
29	0x3e26218d	0.16223736
30	0x3d06211b	0.032746416
31	0x3dab3917	0.083604984
32	0x3d807dfb	0.06274029
33	0xbba8dd51	-0.005153336
34	0xbcd4804e	-0.025940087
35	0xbe1e7d1c	-0.15477413
36	0xbdefc946	-0.11708312
37	0x3d3e2ce9	0.04642955
38	0xbe5487ad	-0.20754881
39	0xbe35a66d	-0.17739268
40	0xbe5621c9	-0.20911326
41	0xbe1f7860	-0.15573263
42	0xbe017813	-0.12643461
43	0xbe0d7150	-0.13812757
44	0xbda24e49	-0.07925088
45	0x3cc87991	0.02447203
46	0xbcc6bce4	-0.024259992
47	0xbdb162a8	-0.08661395
48	0x3c4ec226	0.012619531
49	0x3bf4d8a2	0.0074721137
50	0x3e32ac8b	0.17448632
51	0x3dde335a	0.10849638
52	0xbddab510	-0.10679066
53	0xbe465d61	-0.19371559
54	0xbe211e5f	-0.15734242
55	0xbe4ad46b	-0.19807594
56	0xbe7d1e43	-0.24718575
57	0xbe78261f	-0.24233292
58	0xbe352360	-0.17689276
59	0xbd9892f7	-0.07449906
60	0xbdf5a014	-0.11993423
61	0xbd043606	-0.032278083
62	0xbd239522	-0.039937146
63	0xbb43ac6c	-0.002985741
64	0x3e3d6a15	0.18497498
65	0x3d9a5121	0.07535005
66	0xbc2576e4	-0.0100991465
67	0x3d245ff0	0.040130556
68	0xbdfd42a3	-0.123662256
69	0x3e7b51a1	0.24542858
70	0x3dccf304	0.10007289
71	0x3ded6bb9	0.11592812
72	0xbd17183f	-0.036888357
73	0xbe15c527	-0.14625989
74	0x3d54cf0c	0.051955268
75	0x3dbe174d	0.09281788
76	0xbe64b41d	-0.22334333
77	0x3e51c55c	0.20485443
78	0x3e04332f	0.1291015
79	0xbd9f808c	-0.0778819
80	0xbe585fe5	-0.21130331
81	0xbd87ed39	-0.066370435
82	0xbc59415f	-0.013260215
83	0xbeaa2161	-0.3322859
84	0x3e9900df	0.29883477
85	0x3e47e29c	0.19520038
86	0xbc5f0d1c	-0.013613965
87	0xbe7dbf83	-0.24780087
88	0x3ce66309	0.028123396
89	0x3d96ae6a	0.073574856
90	0xbdb921d5	-0.09039656
91	0x3e4125a8	0.18862021
92	0x3e061a21	0.13095905
93	0x3e1a19e5	0.1504894
94	0xbd9601af	-0.0732454
95	0x3e2bd578	0.1678065
96	0x3e0d00b7	0.13769804
97	0x3e7fc92b	0.24979083
98	0x3c907d29	0.017637806
99	0xbd1c1184	-0.03810264
100	0x3da59859	0.08085699
101	0xbd3e4571	-0.046452943
102	0x3d99ed2a	0.075159386
103	0x3d67c4fa	0.056584336
104	0x3d8ce6dc	0.068799704
105	0x3d573c21	0.052547578
106	0xbce5f39d	-0.028070265
107	0x3dbec2da	0.09314509
108	0x3d9a499d	0.07533572
109	0xbdb2a0f5	-0.08722106
110	0x3c4d7638	0.012540393
111	0x3ad87ec9	0.0016517277
112	0x3d0b99dc	0.03408228
113	0x3cbeb9e5	0.023282
114	0xbd86e55b	-0.06586715
115	0x3dace7a7	0.08442622
116	0xbd84d6b1	-0.06486262
117	0xbd18a6a6	-0.037268303
118	0x3dcf7751	0.1013018
119	0xbc6c0295	-0.0144049125
120	0xbdb86d32	-0.09005202
121	0xbc594327	-0.013260639
122	0xbccfbf64	-0.025359817
123	0xbd730214	-0.059328154
124	0x3c8ae3fa	0.01695441
125	0x3d6f403a	0.05841086
126	0x3bb0724d	0.0053847195
127	0xbccf2c6d	-0.025289739
128	0x3d5d4ea8	0.05403009
129	0xbdf9f985	-0.12205795
130	0x3d91906b	0.07107624
131	0x3d4b2300	0.049593925
132	0xbda22b36	-0.07918398
133	0xbd965c16	-0.07341783
134	0xbd35d05b	-0.044388156
135	0xbdf44dcd	-0.11928902
136	0xbdf1818c	-0.11792287
137	0xbdd43d4c	-0.10363254
138	0x3c88eee1	0.016715469
139	0xbd9d8289	-0.07690913
140	0x3d30e1df	0.043184157
141	0x3de87fbe	0.1135249
142	0xbba72871	-0.0051012565
143	0x3d3376b7	0.043814387
144	0xbd3f5890	-0.04671532
145	0xbdd3e344	-0.10346082
146	0x3d904f81	0.07046414
147	0xbd33e208	-0.043916732
148	0x3d051e49	0.032499585
149	0xbca81228	-0.02051647
150	0xbddd5164	-0.1080654
151	0xbdc13a5a	-0.09434958
152	0xbb910f29	-0.004426856
153	0xbd173846	-0.0369189
154	0xbde15cef	-0.11004054
155	0xbe0e0f3a	-0.13872996
156	0xbe18048d	-0.14845486
157	0x3ca3dc8b	0.020002624
158	0xbc21e687	-0.009881622
159	0xbd839226	-0.0642436
160	0xbdf6a7d5	-0.1204373
161	0x3d96d049	0.07363946
162	0x3dade5c2	0.084910884
163	0xbb84e509	-0.0040556234
164	0x3a20b2af	0.00061301416
165	0xbc94491e	-0.018101271
166	0x3d2ab443	0.041675817
167	0xbde2dabe	-0.11076878
168	0xbda62e07	-0.08114248
169	0x3e305193	0.17218618
170	0x3cd87b52	0.026425991
171	0x3dbceb4c	0.09224567
172	0x3c886a53	0.016652262
173	0x3d8a68e4	0.067582875
174	0xbc2f0a9c	-0.010683682
175	0xbd8ae9eb	-0.067828976
176	0x3e47958b	0.1949064
177	0x3e378e29	0.17925324
178	0x3dabb650	0.08384383
179	0xbc6c89c9	-0.014437147
180	0xbc618ed5	-0.013766964
181	0x3e1cb495	0.15303262
182	0xbdcc8b1c	-0.099874705
183	0x3e4ef285	0.20209701
184	0x3cea3c21	0.028593125
185	0x3e07bb2b	0.13254993
186	0x3cd68d62	0.026190463
187	0x3e1c392e	0.15256187
188	0xbdf5bc3d	-0.11998794
189	0x3e285f73	0.16442661
190	0x3e80f823	0.25189313
191	0xbf1907ca	-0.5977751
192	0x3da3c1ed	0.07995973
193	0xbd058f64	-0.03260745
194	0xbd573841	-0.052543882
195	0xbddc8514	-0.1076757
196	0xbc94ab2e	-0.018148031
197	0x3ddd9424	0.10819271
198	0x3d5eea96	0.054422937
199	0x3d8ae3b4	0.06781712
200	0xbd91614b	-0.07098635
201	0xbcc7c20e	-0.024384525
202	0xbe2a20fc	-0.16614145
203	0xbdc97e49	-0.0983854
204	0x3df0b60b	0.11753472
205	0x3d8797c3	0.06620743
206	0xbda2a48b	-0.0794154
207	0xbe09ce01	-0.1345749
208	0xbe5d9d68	-0.21642077
209	0xbd145c70	-0.036220968
210	0xbd66c4b4	-0.056339934
211	0xbe32fb90	-0.17478776
212	0xbd6fd850	-0.0585559
213	0xbdca8869	-0.098892994
214	0x3d98ca1a	0.07460423
215	0x3dada8bd	0.0847945
216	0xbdc9528b	-0.09830197
217	0xbdbb714f	-0.09152471
218	0xbc82ce27	-0.015967442
219	0x3d4265b7	0.047460284
220	0xbe06854e	-0.13136789
221	0x3d125164	0.03572215
222	0x3e1249bc	0.1428594
223	0x3e10302a	0.14080873
224	0xbe6f828e	-0.23389646
225	0xbe629738	-0.22127998
226	0xbd18f258	-0.037340492
227	0xbe617fdc	-0.2202143
228	0xbd5595d5	-0.052144844
229	0xbd83bd6b	-0.06432613
230	0xbcf6b1bb	-0.030114045
231	0xbd9d1b67	-0.07671242
232	0x3d23132c	0.039813206
233	0x3d766b44	0.06016089
234	0x3c2ce377	0.010552279
235	0xbdc64f5a	-0.09683104
236	0x3c818bbc	0.0158137
237	0xbd0d6178	-0.03451678
238	0x3c222351	0.009896115
239	0x3cbe4cdb	0.023230007
240	0x3cc6a9e4	0.024250932
241	0x3dcf502b	0.10122713
242	0xbe17d74d	-0.14828224
243	0xbd1d7e26	-0.038450383
244	0xbe5c13aa	-0.21491876
245	0xbdf6de83	-0.120541595
246	0xbe7e0827	-0.24807797
247	0xbe2cbb0f	-0.16868232
248	0xbd9cff8f	-0.076659314
249	0xbb765630	-0.0037587993
250	0x3d7c64ec	0.061619684
251	0xbdb0cd2a	-0.08632882
252	0x3d862e9a	0.06551857
253	0xbd8be4a2	-0.068307176
254	0xbc5c18a9	-0.013433614
255	0xbd80eaf5	-0.062948145

layers.0.bias f4 [128]
0	0x3dc34078	0.09533781
1	0x3c41f521	0.011838228
2	0xbe0999ae	-0.1343753
3	0x3d8fd0f7	0.07022279
4	0x3e42f3dc	0.19038337
5	0xbdbb1848	-0.09135491
6	0x3d6c0e70	0.057630956
7	0x3e2096e4	0.1568256
8	0xbe3f2d03	-0.18669514
9	0xbca39059	-0.019966291
10	0xbcbb0ebf	-0.02283418
11	0xbe5cbe39	-0.21556939
12	0xbdb6c4cf	-0.08924257
13	0x3d122b6b	0.035685938
14	0xbe0ba184	-0.13635832
15	0x3e04527c	0.1292209
16	0xbdca4709	-0.0987683
17	0x3e724762	0.23660043
18	0xbe1817b5	-0.14852794
19	0x3c4543de	0.012040107
20	0x3e71fbb5	0.23631175
21	0xbbe32fff	-0.006933212
22	0x3de1ab14	0.11018959
23	0x3d68a8d0	0.056801617
24	0x3e1ed231	0.15509869
25	0xbcd96ff4	-0.026542641
26	0x3d1db477	0.038502183
27	0xbdb366f0	-0.08759868
28	0x3dcadffc	0.09906003
29	0x3e713712	0.23556164
30	0x3e8d0bed	0.2754816
31	0x3d19f00e	0.03758245
32	0xbe976ef2	-0.29576832
33	0xbdc4b1fa	-0.09604259
34	0x3e7cef8b	0.24700753
35	0xbe3044be	-0.17213723
36	0x3cc9685c	0.024585895
37	0xbd008071	-0.03137249
38	0x3e8e4813	0.27789363
39	0xbe4e8085	-0.20166214
40	0xbdd2b12a	-0.102876976
41	0xbcf0e1c8	-0.029404536
42	0x3d3aa1fd	0.04556464
43	0x3db6292d	0.088945724
44	0x3d5de96b	0.054177683
45	0xbd0f236e	-0.034945898
46	0x3e81bab2	0.2533775
47	0x3e5bed31	0.214772
48	0xbd9bc78c	-0.0760642
49	0xbcb31a33	-0.021863079
50	0x3cc46386	0.023973238
51	0xbc3db05d	-0.011577693
52	0xbe8b7578	-0.2723806
53	0xbdd4ef0b	-0.10397156
54	0x3de2addd	0.11068318
55	0xbdcefa0d	-0.10106287
56	0xbd60f727	-0.054923203
57	0x3e01e9e9	0.12686886
58	0x3c794d04	0.015216116
59	0x3cc0c8ad	0.02353319
60	0x3ec6aa6c	0.38801897
61	0x3e2f91b8	0.17145431
62	0x3d2604e8	0.040532023
63	0x3dc21210	0.094761014
64	0x3cb2a3a3	0.021806544
65	0xbe8a67e7	-0.27032396
66	0xbdcda9ad	-0.10042129
67	0xbe233fc0	-0.15942287
68	0x3dab82ec	0.08374581
69	0xbc785c78	-0.015158765
70	0xbd8d7eb1	-0.0690893
71	0x3db5ae1d	0.088711
72	0xbcc54642	-0.024081353
73	0x3e157682	0.14595988
74	0xbe833545	-0.2562658
75	0xbdd7999b	-0.10527345
76	0x3e5d522c	0.21613377
77	0x3de58e04	0.11208728
78	0x3c07454a	0.008256266
79	0x3e8748bf	0.26422688
80	0x3e862fad	0.2620825
81	0xbd5d2611	-0.05399138
82	0x3e5c2db7	0.21501814
83	0x3de6e54a	0.11274202
84	0x3dc39723	0.095503114
85	0x3e5249b6	0.20535931
86	0xbe14d4da	-0.14534321
87	0xbdaf5d0e	-0.08562671
88	0x3c9e2231	0.019303413
89	0x3d284e4d	0.0410903
90	0xbb75007b	-0.003738432
91	0x3ca5bcbe	0.0202316
92	0x3e7a96e9	0.2447163
93	0xbdfd85e1	-0.12379051
94	0x3e9583af	0.2920203
95	0x3d5bd013	0.053665232
96	0xbd9db6e4	-0.07700899
97	0xbde8cfa7	-0.113677315
98	0xbe2f4bcf	-0.17118762
99	0xbe037cae	-0.1284053
100	0x3d212f9b	0.03935204
101	0xbea4144f	-0.32046744
102	0xbdb0cca9	-0.08632786
103	0x3d75881d	0.05994426
104	0x3d942968	0.0723446
105	0xbd2e5d75	-0.042569596
106	0x3df8d476	0.12149899
107	0x3e9b3c42	0.3031941
108	0xbdbfb9a9	-0.09361584
109	0x3db57708	0.08860594
110	0x3d8ff4b4	0.07029095
111	0xbdf9d1e8	-0.121982396
112	0xbdaff79f	-0.08592152
113	0xbbca2148	-0.006168518
114	0xbdf8be1e	-0.12145637
115	0x3e10afc1	0.14129545
116	0x3e3e2547	0.18568908
117	0x3d8a83df	0.06763434
118	0x3de2e6db	0.110791884
119	0x3e74773a	0.23873606
120	0xbe2c0865	-0.16800077
121	0xbd946f9e	-0.07247852
122	0xbd1da7fe	-0.038490288
123	0x3e1d0b47	0.15336333
124	0x3c5659e0	0.013082951
125	0x3e069edd	0.13146539
126	0xbe1d14ae	-0.1533992
127	0x3e3b611d	0.18298765

layers.1.weight f4 [128, 128]
0	0x3ac564ba	0.0015059926
1	0x3dd64a65	0.104634084
2	0x3e894b4d	0.26815262
3	0x3dcaac31	0.09896124
4	0x3d84c510	0.06482899
5	0xbe1909ca	-0.1494514
6	0xbd8c02eb	-0.06836494
7	0xbdcac37d	-0.09900568
8	0xbe126549	-0.1429645
9	0xbc0f4fd5	-0.008747061
10	0xbd431fef	-0.047637876
11	0x3e1c1ad6	0.15244612
12	0xbda290cf	-0.07937776
13	0x3dc17835	0.09446756
14	0x3d482d54	0.048871353
15	0xbd446616	-0.04794892
16	0xbb58104f	-0.0032968705
17	0xbd90cb57	-0.07070034
18	0xbd2a61be	-0.04159712
19	0x3dc87128	0.09787208
20	0xbda1b6a0	-0.07896161
21	0xbde8d2c1	-0.11368323
22	0xbe56f07e	-0.20990178
23	0x3e7b742b	0.24556033
24	0xbd084e38	-0.03327772
25	0x3ce5ff73	0.02807591
26	0x3cdfe15b	0.027329138
27	0xbe237b6e	-0.15965053
28	0x3dc1cf00	0.0946331
29	0xbce1cb00	-0.027562618
30	0xbde2d959	-0.11076612
31	0x3c914bce	0.017736342
32	0xbe01e571	-0.12685181
33	0x3c896e0e	0.016776111
34	0xbe5a8a27	-0.21341763
35	0x3e055237	0.13019644
36	0x3d3f3b3b	0.046687346
37	0xbe2be80b	-0.16787736
38	0x3d9abf9e	0.07556079
39	0x3e1636c7	0.14669333
40	0x3dca41c8	0.09875828
41	0x3e555251	0.20832182
42	0x3dfcda49	0.12346322
43	0xbc8b1e3a	-0.016982187
44	0xbd1eb543	-0.038747083
45	0xbc852657	-0.016253633
46	0x3dcc6bba	0.09981485
47	0xbe8b0800	-0.2715454
48	0x3da40098	0.08007926
49	0x3d3d6d1d	0.046246637
50	0x3e563cdb	0.20921652
51	0xbe46a0e5	-0.19397314
52	0xbd86c520	-0.06580567
53	0xbe430c0b	-0.19047563
54	0x3d0e6f0d	0.034773875
55	0xbe090312	-0.13380077
56	0xbc3aa101	-0.011390925
57	0x3daceab4	0.084432036
58	0x3d3453cf	0.04402524
59	0x3c956896	0.018238347
60	0xbe060f01	-0.13091661
61	0xbe9940da	-0.2993229
62	0x3d35c2f1	0.044375364
63	0xbe19ebef	-0.15031408
64	0xbd93633c	-0.07196662
65	0x3d824805	0.06361393
66	0xbea05df5	-0.31321684
67	0xbda082fb	-0.078374825
68	0x3e3e693a	0.18594828
69	0x3d9fec7f	0.0780878
70	0x3b6815b7	0.0035413334
71	0xbd3dd103	-0.046341907
72	0xbdb39102	-0.087678924
73	0xbcd8ce67	-0.026465608
74	0x3c08300b	0.008312236
75	0xbeaaae02	-0.33335882
76	0x3e335c9d	0.17515798
77	0xbe3ab10e	-0.18231604
78	0xbe86bb75	-0.26314893
79	0xbdac5512	-0.084146634
80	0x3d548ae7	0.05189028
81	0x3de96801	0.1139679
82	0xbda158db	-0.07878276
83	0xbe0e293e	-0.1388292
84	0x3d967a00	0.073474884
85	0x3d8ff09b	0.07028314
86	0xbd362e2d	-0.04447763
87	0x3ce14267	0.027497483
88	0x3bc41c82	0.0059848437
89	0x3e130748	0.14358246
90	0xbd8651bb	-0.065585576
91	0xbd1c3861	-0.038139705
92	0x3c3d30d2	0.011547284
93	0x3e657277	0.22406946
94	0xbe0e9866	-0.13925323
95	0xbee2d586	-0.4430353
96	0xbc26a88d	-0.010172022
97	0xbd3c25ca	-0.045934476
98	0x3e2f0d1e	0.17094848
99	0xbde6a58e	-0.11262046
100	0xbd8f98c5	-0.0701156
101	0x3af8eb4b	0.0018991021
102	0xbe9dce51	-0.3082147
103	0xbdc12323	-0.0943053
104	0x3ddd2f63	0.10800054
105	0x3d495120	0.049149632
106	0x3e1ae31f	0.15125702
107	0xbcb1c7d2	-0.021701727
108	0xbecc118e	-0.39857143
109	0x3dca2919	0.0987112
110	0xbd570027	-0.05249038
111	0x3e026782	0.12734798
112	0x3d6d0a5c	0.057871208
113	0x3e5398d5	0.2066377
114	0x3c88d758	0.016704246
115	0x3dd948af	0.106095664
116	0xbd5343ed	-0.05157845
117	0x3d317927	0.04332843
118	0xbcb03fc5	-0.021514783
119	0xbe232751	-0.15932967
120	0xbda62ae8	-0.081136525
121	0x3da7c9fd	0.08192823
122	0xbe284916	-0.1643413
123	0x3c9f64f0	0.01945731
124	0xbd4e1e9f	-0.05032217
125	0x3cbb6c05	0.022878656
126	0xbdcd68af	-0.100297324
127	0xbd870cc2	-0.0659423
128	0x3c5891cd	0.013218355
129	0x3d3df646	0.046377443
130	0x3e93f3b5	0.2889687
131	0xbde0e7e9	-0.10981733
132	0xbe099a58	-0.13437784
133	0xbd85a5c6	-0.065257594
134	0xbd908f6e	-0.07058607
135	0x3d88bdde	0.06676839
136	0xbcaccd09	-0.021093862
137	0xbd946200	-0.072452545
138	0xbd082f8e	-0.033248477
139	0x3dee8a91	0.11647523
140	0x3cf12d0b	0.029440423
141	0x3c8007f3	0.01562879
142	0xbd5f9701	-0.054587368
143	0x3e061062	0.13092187
144	0xbd93aed6	-0.07211082
145	0x3d5d874f	0.05408412
146	0x3dc0243c	0.09381911
147	0x3c89bbdd	0.016813213
148	0xbe20ac35	-0.15690692
149	0xbb82aa5e	-0.0039875945
150	0xbdc996dd	-0.09843228
151	0x3c7e20d0	0.015510753
152	0x3da2aa31	0.07942618
153	0x3c54c4ca	0.012986371
154	0xbe4ec270	-0.2019136
155	0xbdda28f8	-0.106523454
156	0x3d1399f2	0.036035486
157	0xbe42042a	-0.18946901
158	0xbda4d743	-0.080488704
159	0xbca14c3c	-0.019689672
160	0x3c82f3f5	0.015985468
161	0xbdcaf181	-0.099093445
162	0x3d966848	0.07344109
163	0xbd14cdeb	-0.03632919
164	0xbc27f1a3	-0.010250482
165	0x3e1299f4	0.14316541
166	0x3b11413f	0.0022164134
167	0x3dd2e475	0.10297481
168	0x3dc5db38	0.09660953
169	0xbe0d1860	-0.1377883
170	0xbd556e47	-0.05210712
171	0xbdb34aa9	-0.08754475
172	0x3e8e0c99	0.27743986
173	0x3dbbc588	0.091685355
174	0xbcdafd8e	-0.026732232
175	0x3da32e9e	0.07967876
176	0x3d6cfd1e	0.05785858
177	0xbd9d76c3	-0.076886676
178	0x3e95629d	0.29176798
179	0xbe47054b	-0.19435613
180	0x3e0766c3	0.13222794
181	0xbe33d549	-0.1756183
182	0xbd8e878f	-0.069594495
183	0x3e096697	0.13418041
184	0x3da8079d	0.08204577
185	0x3d98d62c	0.07462725
186	0x3d334452	0.043766327
187	0xbd56ae17	-0.05241212
188	0xbd672eed	-0.056441236
189	0xbd8a0024	-0.06738308
190	0x3d4dc7f0	0.050239503
191	0x3e329efd	0.17443462
192	0xbcad7eee	-0.021178689
193	0x3c524603	0.012834075
194	0x3b4cdbce	0.0031258943
195	0x3c9a7076	0.018852454
196	0xbd796807	-0.060890224
197	0xbdac23b4	-0.08405247
198	0xbd8016b2	-0.06254329
199	0x3e1ace93	0.15117864
200	0xbe1008aa	-0.14065805
201	0xbe287f36	-0.16454777
202	0x3db4a5e3	0.08820703
203	0x3ca129bf	0.019673226
204	0xbc2096af	-0.009801551
205	0x3e03ccb7	0.12871061
206	0xbe2a499a	-0.1662964
207	0x3d73589b	0.059410673
208	0x3d077ef4	0.033080056
209	0xbd888897	-0.066666774
210	0xbd3295a7	-0.04359975
211	0xbca35116	-0.019936126
212	0x3dd5077c	0.10401818
213	0xbd4be7fe	-0.049781792
214	0xbe04b681	-0.12960245
215	0x3e4b2d38	0.19841468
216	0x3e04a41a	0.12953225
217	0x3dfd4894	0.12367359
218	0xbdafcac5	-0.08583597
219	0x3e20f687	0.15719043
220	0xbd57faa6	-0.05272927
221	0x3d71d5fd	0.059041966
222	0xbd06c639	-0.032903884
223	0xbe35f34d	-0.17768593
224	0xbd1e2996	-0.03861388
225	0x3d4b10f1	0.049576703
226	0x3ce8b4a6	0.028406452
227	0xbe1829e1	-0.14859726
228	0xbd0c1d17	-0.03420743
229	0xbdb0dae9	-0.08635504
230	0x3e03c8c1	0.1286955
231	0xbe0675bd	-0.13130851
232	0xbc1dc3cc	-0.009629201
233	0xbc994722	-0.018710677
234	0x3c8d0513	0.017214334
235	0xbda51755	-0.08061091
236	0xbe999c57	-0.3000209
237	0xbcabb649	-0.020960944
238	0x3df937bc	0.121688336
239	0xbe0468a3	-0.1293054
240	0xbcb9f07e	-0.022697683
241	0x3d243c3b	0.040096503
242	0xbd0802e8	-0.033205897
243	0xbdb32b99	-0.0874855
244	0x3ca4617e	0.02006602
245	0x3d16cbde	0.036815517
246	0xbe97dc6b	-0.29660353
247	0x3e2a65eb	0.16640441
248	0x3daf6ba5	0.085654534
249	0x3d9fdfdf	0.07806372
250	0xbdfb3cda	-0.12267466
251	0x3d69a77b	0.057044487
252	0x3da002b1	0.07813013
253	0xbc1b31b3	-0.009472298
254	0x3db93058	0.09042424
255	0x3e7a8b11	0.24467112

layers.1.bias f4 [128]
0	0x3df9a175	0.121889986
1	0xbde16c75	-0.11007015
2	0x3d60cedc	0.054884776
3	0x3e835187	0.25648138
4	0x3e0bba7d	0.13645358
5	0xbd9ee597	-0.077586345
6	0x3e7081de	0.2348704
7	0xbcae843d	-0.02130329
8	0x3de0f374	0.10983935
9	0x3e170bd8	0.14750612
10	0xbbd06800	-0.006360054
11	0xbe7b96d0	-0.24569249
12	0x3d5bb04f	0.053634938
13	0x3ddee8e9	0.10884268
14	0xbe118271	-0.14209916
15	0xbdb5c478	-0.08875364
16	0xba95f30d	-0.0011440233
17	0xbde0d089	-0.10977275
18	0x3e568b6b	0.20951621
19	0x3dbe978e	0.093062505
20	0xbdd748f2	-0.1051196
21	0x3ccf79a1	0.025326552
22	0xbd046bc4	-0.032329336
23	0x3e0b1f29	0.13586105
24	0x3a15b1f4	0.0005710416
25	0xbca33d39	-0.019926654
26	0xbc40a8e9	-0.011759021
27	0x3dffd9ac	0.124926895
28	0x3d900866	0.07032852
29	0xbd9d8636	-0.07691614
30	0xbc47dddd	-0.012198892
31	0x3da80bb4	0.08205357
32	0xbc1a8b1f	-0.009432583
33	0x3e1ff57c	0.15620989
34	0x3ca39da7	0.019972635
35	0xbd95d59c	-0.073161334
36	0xbb30389d	-0.0026889213
37	0xbe0fd973	-0.14047794
38	0x3e6e244f	0.23256038
39	0xbdb343bd	-0.087531544
40	0x3affd2e0	0.0019517802
41	0xbdae1a69	-0.08501131
42	0x3c8b74cd	0.017023468
43	0x3e72df25	0.23717935
44	0xbd64c163	-0.05584849
45	0x3d95d71d	0.0731642
46	0x3e163c58	0.14671457
47	0xbd82102d	-0.063507415
48	0x3d428ea6	0.04749932
49	0xbe17af34	-0.14812928
50	0x3da761e9	0.08172972
51	0x3e828add	0.2549657
52	0x3e1cc043	0.15307717
53	0xbc1de2ed	-0.009636623
54	0xbdedbb7b	-0.11608025
55	0xbd90b4a2	-0.07065703
56	0x3e8d69b5	0.2761971
57	0xbd5c9d20	-0.053860784
58	0xbda9cab1	-0.082906134
59	0x3c2a0d28	0.010379113
60	0x3dbf0c0c	0.0932847
61	0x3d7fcf95	0.062453825
62	0x3e3558fa	0.17709723
63	0x3e098cd3	0.13432626
64	0x3d8abb97	0.06774061
65	0x3e252afb	0.16129677
66	0x3e96de8b	0.29466662
67	0xbd6caa26	-0.057779454
68	0xbe20d850	-0.15707517
69	0x3e98fa5e	0.29878515
70	0xbe22f55e	-0.15913913
71	0xbdd4e749	-0.10395677
72	0x3d767c65	0.060177226
73	0x3cb5611f	0.022141038
74	0x3d41e72c	0.047339603
75	0x3e8ccbc3	0.27499208
76	0x3e2f9708	0.17147458
77	0x3e58cfa0	0.21172953
78	0x3dc9c26e	0.09851538
79	0xbc2d33f2	-0.010571467
80	0x3e3bb746	0.18331632
81	0x3cdb3514	0.026758708
82	0x3d52612d	0.051362205
83	0xbd26b08e	-0.04069572
84	0x3d15b477	0.036549058
85	0xbe5d1d50	-0.21593213
86	0x3d0af34a	0.033923425
87	0x3d855315	0.06509987
88	0xbcb2fa08	-0.02184774
89	0xbd3639a8	-0.04448858
90	0xbd8b8fc5	-0.06814531
91	0x3e50baeb	0.20383804
92	0x3e5da43a	0.21644679
93	0x3db8e1d2	0.09027447
94	0xbd929c87	-0.071587615
95	0x3e1e0906	0.1543313
96	0xbd16cde6	-0.036817454
97	0x3d6ebc4c	0.058285043
98	0x3defc349	0.117071696
99	0x3da62257	0.081120186
100	0x3cc5e3cb	0.024156472
101	0xbed03819	-0.406678
102	0xbd1451d2	-0.036210842
103	0x3e4f08f2	0.20218256
104	0x3d6ac29a	0.057314493
105	0x3e009d1c	0.12559932
106	0xbd1f31f9	-0.038866017
107	0x3dad9e96	0.084775135
108	0xbe2e324f	-0.17011379
109	0x3d98c868	0.074600995
110	0x3d157372	0.03648705
111	0xbd3048b4	-0.043038085
112	0x3ec50fce	0.3848862
113	0x3ed57cba	0.4169672
114	0xbcad6d0d	-0.021170164
115	0x3d1bc37b	0.03802822
116	0xbda6ba1a	-0.08140965
117	0xbb8ff6c7	-0.004393432
118	0x3d8263ba	0.063666776
119	0xbda9dbf6	-0.08293907
120	0x3cd4bc2b	0.025968632
121	0x3e0a2422	0.13490346
122	0x3e0e97f7	0.13925157
123	0x3e3a4c85	0.18193252
124	0x3e9fd5f5	0.31217924
125	0xbda918b7	-0.08256667
126	0xbcece619	-0.028918313
127	0xbcc19fe4	-0.023635812

layers.2.weight f4 [128, 128]
0	0xbd660a09	-0.056161914
1	0x3d2401a0	0.040040612
2	0xbe7ffe06	-0.24999246
3	0xbcb8600e	-0.02250674
4	0xbdb47b82	-0.0881262
5	0x3db5deb4	0.08880368
6	0xbaeada8f	-0.0017917919
7	0xbcf5dba2	-0.030011956
8	0x3d94315f	0.07235979
9	0x3d91069f	0.07081341
10	0x3b97c555	0.004631678
11	0x3d94b94d	0.07261906
12	0x3dc96f0d	0.098356344
13	0x3e10a39d	0.14124914
14	0x3dd62fe6	0.10458355
15	0xbd3edd60	-0.04659784
16	0xbe9d2b25	-0.3069698
17	0x3d5078c6	0.05089643
18	0x3df0c632	0.11756553
19	0x3e718368	0.23585284
20	0x3d6a1a23	0.057153832
21	0xbe89e950	-0.26935816
22	0x3dbd42a2	0.09241225
23	0xbcb80cfd	-0.02246713
24	0xbe0f3234	-0.13983995
25	0xbe5177d9	-0.20455875
26	0x3dd385a3	0.103282236
27	0xbd29c59a	-0.041448213
28	0x3bc0248a	0.005863731
29	0xbd1ae3fd	-0.037815083
30	0xbda94bf9	-0.08266444
31	0xbe08f2b7	-0.13373838
32	0x3e159a22	0.14609578
33	0x3cabf10b	0.020988962
34	0x3dbfd81b	0.09367391
35	0x3e2c7c19	0.16844214
36	0x3d43d5fe	0.0478115
37	0x3dc02aea	0.09383185
38	0x3bbb93b1	0.0057243933
39	0xbdd48e4f	-0.10378706
40	0x3daeb209	0.08530051
41	0x3d7b640d	0.061374713
42	0x3e028af5	0.1274832
43	0x3dbd8719	0.092542835
44	0x3d407789	0.046988998
45	0x3e274a59	0.16336955
46	0xbd828f6c	-0.06375012
47	0xbece329d	-0.4027299
48	0x3dd59862	0.10429455
49	0x3cdc291f	0.026875077
50	0xbc919864	-0.01777286
51	0x3d1113f9	0.035419438
52	0x3eaae5ce	0.33378452
53	0xbf0c5829	-0.5482202
54	0x3d99564b	0.07487162
55	0xbe848bcf	-0.25887915
56	0x3ed31e6c	0.41234148
57	0xbe6cd3b0	-0.23127627
58	0x3d8cdb60	0.0687778
59	0x3db9be65	0.09069518
60	0xbd2a56e5	-0.041586775
61	0x3d720dca	0.05909518
62	0x3e9c99bb	0.30586037
63	0xbbfba3b8	-0.007679429
64	0x3e6fb6b0	0.23409534
65	0x3d45fb69	0.048335467
66	0xbd382c98	-0.044964403
67	0x3d76fc34	0.060299113
68	0x3d86961b	0.06571599
69	0xbd3aeb75	-0.045634706
70	0xbf06372b	-0.5242793
71	0x3ddceca2	0.107873216
72	0x3e3c451f	0.18385743
73	0x3cf95745	0.030437121
74	0x3dfbee2b	0.12301286
75	0x3c9d52c5	0.019204507
76	0x3ddca40a	0.107734755
77	0x3d3ebaeb	0.046564978
78	0xbca4e1fa	-0.020127285
79	0x3d385a43	0.045007955
80	0x3e0676d4	0.13131267
81	0xbbe8b654	-0.0071018133
82	0x3d916485	0.07099251
83	0x3e262ba2	0.16227582
84	0x3e127d6e	0.1430566
85	0xbc1153c1	-0.008870066
86	0x3d0c0d3d	0.034192313
87	0xbc132332	-0.008980559
88	0x3e822198	0.25416255
89	0x3d4afe10	0.0495587
90	0x3d3efef7	0.046629872
91	0xbc4f8211	-0.012665288
92	0xbe1f7f07	-0.15575801
93	0xbe1e869d	-0.15481038
94	0xbdc8e2dc	-0.09808895
95	0xbe709f2c	-0.23498219
96	0x3d81ed5c	0.06344101
97	0x3e45ce2b	0.19316928
98	0x3daad0f3	0.08340635
99	0xbeb6f6f6	-0.3573529
100	0xbe925935	-0.28583685
101	0x3e4c2e6a	0.1993958
102	0xbc1d2c34	-0.009593058
103	0x3dad6e2d	0.0846828
104	0xbd8694b9	-0.06571335
105	0xbc8f71e0	-0.017510355
106	0xbea2d151	-0.3180032
107	0x3d1e1864	0.03859748
108	0x3d906a7f	0.070515625
109	0x3e18beeb	0.1491658
110	0x3e89529c	0.26820838
111	0x3df7a7e5	0.1209257
112	0x3d220b8f	0.039561804
113	0xbdadaaf0	-0.08479869
114	0xbd30822b	-0.043092888
115	0x3e037360	0.12836981
116	0xbe8a1400	-0.26968384
117	0x3d850094	0.06494251
118	0x3ee1a47f	0.44070813
119	0x3e8101c5	0.25196663
120	0xbe8d6dfb	-0.2762297
121	0x3d3d56d3	0.04622538
122	0xbd22c3e7	-0.03973761
123	0xbd5f90b1	-0.054581348
124	0xbe8ffbe5	-0.28121868
125	0x3dc2a171	0.09503449
126	0x3d59ab5b	0.053141933
127	0x3dba3a69	0.09093172
128	0x3cb8667f	0.022509811
129	0x3c3deb70	0.011591777
130	0xbeb3b329	-0.35097626
131	0x3d4cf3da	0.050037242
132	0x3c4f35fe	0.01264715
133	0x3c3c8042	0.011505188
134	0xbc2a4713	-0.010392922
135	0x3bff7618	0.0077960603
136	0x3d512476	0.051060162
137	0x3dc8049b	0.097665034
138	0x3d44ba68	0.048029333
139	0x3bbf1fca	0.005832647
140	0xbdd52a42	-0.10408451
141	0x3df3a095	0.11895863
142	0x3cea0bcb	0.028570076
143	0xbda326d7	-0.079663925
144	0xbecd75e2	-0.40129
145	0xbc016997	-0.00789871
146	0x3bb4578e	0.0055036014
147	0x3e0c6e87	0.13714038
148	0x3cf83e74	0.030303217
149	0xbd873899	-0.06602592
150	0x3de6a48b	0.11261853
151	0x3d9864d6	0.07441108
152	0xbe374840	-0.17898655
153	0xbe8ee42b	-0.27908453
154	0xbd97d3d9	-0.074134536
155	0xbd637ea7	-0.055540707
156	0x3d9d6281	0.07684804
157	0x3cfc755b	0.030817678
158	0xbd8f8a0c	-0.07008752
159	0x3bf91483	0.007601322
160	0x3ba21393	0.004946181
161	0x3d2f4fc5	0.042800684
162	0x3dbe9070	0.09304893
163	0x3e35db4b	0.17759435
164	0xbd8e0fb3	-0.06936588
165	0x3e164f82	0.14678767
166	0xbd87a1e1	-0.06622673
167	0xbe4cd155	-0.20001729
168	0xbcfcbf04	-0.030852802
169	0x3c197a20	0.009367496
170	0x3d3d60fa	0.046235062
171	0x3dcf98fe	0.10136603
172	0xbd7515db	-0.059835296
173	0xbce114d0	-0.027475744
174	0xbea0d5f7	-0.31413242
175	0xbf24d42a	-0.64386237
176	0x3d2c22a4	0.042025223
177	0x3da2b3af	0.07944428
178	0x3d92e02a	0.07171662
179	0xbcc9d7e7	-0.024639083
180	0x3e9ca94d	0.30597916
181	0xbebc163a	-0.36735708
182	0x3df02a76	0.11726849
183	0xbe5c52aa	-0.21515909
184	0x3eadb31a	0.33925706
185	0xbd99699f	-0.07490849
186	0xbca56598	-0.020190045
187	0xbd0ef0de	-0.034897678
188	0xbd2cc72c	-0.042182133
189	0x3dffbe29	0.12487442
190	0x3eaa4eaf	0.33263156
191	0xbda900ea	-0.082521275
192	0x3e6ad55d	0.22932954
193	0xbc6924c9	-0.014229962
194	0x3d23ee6a	0.04002229
195	0x3cb8e420	0.022569716
196	0x3d180839	0.037117217
197	0xbd51ea16	-0.051248632
198	0xbf07b817	-0.53015274
199	0x3e1a4404	0.15065008
200	0x3e0a0917	0.1348003
201	0x3e07265f	0.13198231
202	0xbc3b4262	-0.011429401
203	0x3dacb062	0.0843208
204	0xbcaae68b	-0.020861885
205	0xbe21dd1e	-0.15807006
206	0xbd277951	-0.04088718
207	0xbd4fe5f1	-0.0507564
208	0x3dec36fa	0.115339234
209	0x3e0ebccd	0.1393921
210	0x3e54f6a3	0.2079721
211	0x3de05080	0.10952854
212	0x3d6fe426	0.05856719
213	0x3d0e4b24	0.03473963
214	0xbd6a518d	-0.05720668
215	0xbd3de8c9	-0.04636458
216	0x3e7a1ff0	0.24426246
217	0xbd8b7d05	-0.06810955
218	0x3d369e6f	0.044584688
219	0x3d095a44	0.03353335
220	0xbe82b258	-0.2552669
221	0xbdc2bb14	-0.095083386
222	0xbedb2f6b	-0.42809615
223	0xbe455fc2	-0.1927481
224	0xbc6a46ab	-0.014299075
225	0x3e66f182	0.22553065
226	0xbc321714	-0.01086976
227	0xbe9b3aa9	-0.30318192
228	0xbed47fa4	-0.41503632
229	0x3e2c5b17	0.16831623
230	0x3e39fd50	0.18163037
231	0x3d91fa8f	0.071278684
232	0x3d508156	0.050904594
233	0xbe053a33	-0.13010482
234	0xbe8826a2	-0.26591974
235	0xbdabb71c	-0.08384535
236	0x3d08b4aa	0.03337542
237	0x3da0d703	0.0785351
238	0x3e6d4d6e	0.23174068
239	0xbca9e95f	-0.020741163
240	0xbcf2ddd0	-0.029646784
241	0x3e162ca7	0.14665471
242	0x3d5cc596	0.05389937
243	0x3e51ae49	0.20476641
244	0xbe867a4e	-0.26265186
245	0x3daa2058	0.0830695
246	0x3ec239ee	0.37934822
247	0xbdd247cb	-0.102676
248	0xbe86dfc6	-0.263426
249	0x3cbb82d6	0.022889536
250	0x3da2bc46	0.079460666
251	0xbd7d1ab1	-0.061793033
252	0xbeb5976d	-0.3546709
253	0x3d63d703	0.055624973
254	0xbe17720e	-0.14789602
255	0x3979b2e2	0.0002381313

layers.2.bias f4 [128]
0	0x3dde11c7	0.108432345
1	0x3b24092c	0.002502988
2	0xbcf299b4	-0.029614307
3	0xbde07348	-0.10959488
4	0xbd92887b	-0.07154938
5	0x3ea85ca7	0.32883188
6	0x3e0f166f	0.13973401
7	0xbd911cde	-0.07085584
8	0x3dab371f	0.08360123
9	0xbd86d8bd	-0.06584308
10	0x3d868032	0.0656742
11	0x3c5f407e	0.013626216
12	0x3d927cc5	0.07152704
13	0xbea88f3e	-0.32921785
14	0x3e6a226c	0.22864693
15	0x3c975636	0.018473726
16	0xbdb35598	-0.0875656
17	0x3d481dbc	0.048856482
18	0x3e84607f	0.2585487
19	0x3d1eb2c7	0.038744714
20	0x3d43ab2e	0.04777067
21	0xbdb35207	-0.0875588
22	0x3eade524	0.33963883
23	0x3d557f5f	0.052123424
24	0x3d308e5a	0.043104507
25	0x3e84755a	0.25870782
26	0xbd9b79c3	-0.075915836
27	0xbe518727	-0.20461713
28	0x3cae3afa	0.021268357
29	0xbd23a4ce	-0.039952092
30	0x3de9268c	0.11384305
31	0x3d7a526a	0.061113752
32	0x3db34fa8	0.087554276
33	0x3d7c9db5	0.06167384
34	0x3e8e6602	0.278122
35	0x3d90f652	0.07078232
36	0x3cad1965	0.021130273
37	0x3d7e611a	0.062104322
38	0x3e6b16d3	0.22957925
39	0x3d91da91	0.07121766
40	0x3ec38a99	0.3819168
41	0x3d258138	0.040406436
42	0x3dd6f584	0.10496047
43	0x3cee5b84	0.029096372
44	0x3e9e89ea	0.30964595
45	0x3ee1e670	0.44121122
46	0xbd9faa1b	-0.07796117
47	0x3d91de65	0.071224965
48	0xbda16b17	-0.07881754
49	0xbe813a95	-0.25240007
50	0x3ee6aba9	0.4505284
51	0x3d2647dd	0.040595878
52	0x3cf86477	0.030321343
53	0x3d9d8ac5	0.07692484
54	0xbdb77548	-0.089579165
55	0x3cd5eaa7	0.026112868
56	0xbd5a59e7	-0.053308394
57	0x3d6953a6	0.05696454
58	0xbd3fd832	-0.04683704
59	0x3ec9345c	0.3929776
60	0xbe0f3175	-0.1398371
61	0x3d3a1bb1	0.045436565
62	0x3eb3ac89	0.3509257
63	0x3ee49b0f	0.4464955
64	0x3c8b04aa	0.016969997
65	0x3dc8c255	0.09802691
66	0x3da4164e	0.08012067
67	0x3dc4d1f2	0.096103564
68	0xbe50fb84	-0.20408446
69	0xbc269c9e	-0.010169176
70	0xbe496503	-0.19667439
71	0x3ce40f35	0.027839283
72	0x3c0e9f4f	0.008704974
73	0xbbb765e4	-0.005596863
74	0x3d8bf20e	0.06833278
75	0x3e9a53c5	0.30142036
76	0x3e96bbec	0.29440248
77	0x3e126312	0.14295605
78	0xbcd18dea	-0.025580365
79	0xbcab5546	-0.020914685
80	0xbddaad22	-0.10677554
81	0xbc5841e8	-0.013199307
82	0xbd0b3be7	-0.033992674
83	0x3ee5497e	0.44782633
84	0x3dbaa785	0.09113983
85	0x3ddc894f	0.10768377
86	0x3d875c48	0.06609398
87	0x3e4ce1de	0.20008036
88	0x3cf78748	0.030215874
89	0xbe23d5d2	-0.15999535
90	0xbaeec022	-0.0018215219
91	0x3dadeeb5	0.084927954
92	0xbd98ca04	-0.074604064
93	0xbb846281	-0.004040063
94	0x3d217856	0.039421402
95	0x3e969ca3	0.2941638
96	0x3de56703	0.112012886
97	0x3e3ecdf2	0.1863325
98	0x3e1e8928	0.15482008
99	0x3ec89b3c	0.39180934
100	0x3ccb52ef	0.02481982
101	0x3d810a36	0.06300776
102	0x3c28816f	0.010284766
103	0xbde68b33	-0.11257019
104	0x3dea243e	0.11432694
105	0x3beb933d	0.007189183
106	0xbd07c0c4	-0.03314282
107	0x3e528121	0.20557071
108	0xbe2ea7be	-0.17056176
109	0xbdbb5690	-0.0914737
110	0xbe485514	-0.19563705
111	0x3e8e1d6a	0.27756816
112	0x3dcf3f42	0.10119487
113	0x3e9db5c6	0.30802745
114	0xbdb63692	-0.08897127
115	0x3eec5dc8	0.461653
116	0xbdda65d2	-0.10663952
117	0x3c51cc07	0.012804992
118	0xbdccd461	-0.100014456
119	0x3d9ec681	0.07752705
120	0xbc3d19c8	-0.011541791
121	0xbe50c5ae	-0.20387909
122	0xbd14e27a	-0.036348797
123	0x3d9e308d	0.07724104
124	0xbd8cb22d	-0.06869922
125	0xbdbab781	-0.09117032
126	0xbe6bc2e0	-0.23023558
127	0x3eae91ff	0.3409576

layers.3.weight f4 [1, 128]
0	0x3e14a367	0.14515458
1	0x3e80cb8f	0.25155303
2	0x3e211570	0.15730834
3	0x3f0da8f3	0.5533592
4	0x3e6ecd3c	0.23320478
5	0xbf0a8d40	-0.5412178
6	0xbf0b8610	-0.5450144
7	0xbbd9c0fa	-0.006645319
8	0x3e38d4da	0.18049946
9	0xbca22e66	-0.019797515
10	0x3e4a4bba	0.1975545
11	0x3e2816a7	0.16414891
12	0x3e2e8364	0.17042309
13	0x3f6a6088	0.91553545
14	0xbe5c4123	-0.21509223
15	0x3e2f9859	0.1714796
16	0xbed467d0	-0.41485453
17	0x3e24a244	0.16077524
18	0xbeea001b	-0.45703205
19	0x3e085f6d	0.13317652
20	0x3e198031	0.14990307
21	0x3f07751c	0.5291307
22	0xbf2de036	-0.67920244
23	0xbec61527	-0.38688013
24	0x3e127cf6	0.14305481
25	0xbf43b84c	-0.7645309
26	0x3f02e5d2	0.5113193
27	0x3f0a1caa	0.5394999
28	0x3dc6aac2	0.09700538
29	0x3e5832cf	0.21113132
30	0x3e1b0c32	0.15141371
31	0xbebd9dbb	-0.370344
32	0x3e1b6770	0.15176177
33	0x3e42151b	0.18953364
34	0xbf37d61c	-0.7181108
35	0x3e3b7e05	0.18309791
36	0xbec368a9	-0.38165787
37	0x3e2f8bd9	0.17143191
38	0xbf148291	-0.5801173
39	0xbf006a73	-0.5016243
40	0xbf18d0f4	-0.5969384
41	0x3e89da7d	0.26924506
42	0xbef3b491	-0.475987
43	0x3e1e4355	0.15455373
44	0xbead2f75	-0.3382527
45	0xbf165705	-0.5872653
46	0xbed838b0	-0.4223075
47	0x3dec8b3d	0.11549995
48	0xbcdac909	-0.02670719
49	0x3f572636	0.8404268
50	0xbf1fdd9d	-0.6244753
51	0x3e206ecc	0.15667266
52	0x3e167d5f	0.14696263
53	0x3e2150c7	0.1575347
54	0xbcfe1433	-0.031015491
55	0x3df1e290	0.118107915
56	0x3e485610	0.1956408
57	0x3de99b0b	0.11406525
58	0xbea2b2d1	-0.3177705
59	0xbf2943c3	-0.6611902
60	0xbb94f605	-0.0045459294
61	0x3e72ee58	0.23723733
62	0xbf0b4826	-0.54406965
63	0xbf664afa	-0.89958155
64	0x3e17517f	0.14777182
65	0x3e10bff5	0.14135726
66	0x3e3c90ee	0.18414661
67	0x3e2ee753	0.1708043
68	0xbec72318	-0.38893962
69	0x3e7c5a2a	0.2464377
70	0xbf152314	-0.5825665
71	0x3e26ea54	0.16300327
72	0x3e163957	0.14670311
73	0xbe87ab87	-0.26498052
74	0x3e262e29	0.16228546
75	0xbeb4dcd8	-0.3532474
76	0xbf31dee7	-0.69480747
77	0xbeee4c35	-0.46542516
78	0x3e47056a	0.19435659
79	0x3e91b69d	0.28459635
80	0xbec74833	-0.3892227
81	0x3e981518	0.29703593
82	0x3e6fb344	0.23408228
83	0xbf2c0b00	-0.67204285
84	0x3e468830	0.19387889
85	0xbee2dead	-0.44310513
86	0x3e2ea0bd	0.17053504
87	0xbebc3c81	-0.3676491
88	0x3e0f539e	0.13996741
89	0xbf23ebe2	-0.64031804
90	0x3e88cf7e	0.26720804
91	0x3e054c10	0.13017297
92	0xbf05e104	-0.5229647
93	0x3ea3acb4	0.319677
94	0x3dc2b240	0.09506655
95	0xbf003295	-0.5007718
96	0x3e0a9283	0.13532452
97	0xbee668af	-0.45001742
98	0xbe96e6ba	-0.29472905
99	0xbf0071e0	-0.5017376
100	0x3e9bb643	0.30412492
101	0x3e388b3a	0.1802186
102	0xbf136333	-0.5757324
103	0x3b461e68	0.0030230526
104	0xbe28cd88	-0.16484654
105	0xbf158e14	-0.5841992
106	0x3e2e1257	0.16999184
107	0xbe30d7e6	-0.17269859
108	0xbed66bc6	-0.418791
109	0xbee74afc	-0.45174396
110	0xbed75bbe	-0.4206218
111	0xbeccc303	-0.39992532
112	0x3ea59dd8	0.32346988
113	0xbeb95afa	-0.36202222
114	0xbd200841	-0.03907037
115	0xbf23b2e9	-0.6394487
116	0x3d488f68	0.048964888
117	0x3e1928b9	0.1495694
118	0x3cf4e3db	0.029893806
119	0xbec0a90a	-0.37628967
120	0x3e376da4	0.17912918
121	0x3f2104d1	0.62897974
122	0xbed10d2c	-0.40830362
123	0x3df79542	0.120890155
124	0xbeac6791	-0.33672765
125	0xbe39f20c	-0.1815874
126	0x3f13dcb4	0.5775864
127	0xbf4343e0	-0.76275444
