new_models/base+wp_16849288/qf5_best.pth (torch, 186572 bytes, 7 tensors)

layers.0.weight f4 [128, 98]
00000000: d4d3 bb3c 025b b8bc a200 ff3c 3481 9ab9
00000010: 1856 d9bd a613 be3d f0e2 c73b f48b 25bd
00000020: 9d7a 59ba 1ef0 f23c 7ef4 45bc 55b8 a63d
00000030: ca03 15be 8b29 d23d fc12 d33d 594f 943d
00000040: bed4 8d3d 66a0 b83b c912 5fbd 6c99 d13d
00000050: bcb2 60bc 3b88 31be 8de3 21be efbe bfbd
00000060: 5735 90bd 6c5c 15bd c38c 20bd 5785 99bd
00000070: a1cc 1cbd 1064 183e ecea f03c e200 b83d
00000080: ee4c 6a3d 34df acbb ebcc 49bd c333 eebd
00000090: d020 9dbd c5f7 b43d ff9c 0fbe 3e82 e1bd
000000a0: fb7f 1dbe 2d21 00be 3dfb dbbd b0d6 19be
000000b0: a500 a2bd d523 243c c80b 22bd 1242 b2bd
000000c0: f7fc 513c 56a0 3a3c 7205 2c3e d70d 343d
000000d0: 504e a1bd 6fa0 14be 5701 e3bd 3328 03be
000000e0: 01d3 38be 47c4 30be 9b5f f6bd 45a9 b7bc
000000f0: ee12 e2bd 23a9 cfbc 96e4 44bd cfdd bc3a
00000100: 970b 383e 8957 aa3d 51de 2ebb 17f0 523d
00000110: e7d5 03be 78f5 8f3e bba0 9f3d 2069 ef3c
00000120: d1e9 50bd 63d3 61be a8cc 0b3d a47c 663d
00000130: 8bb1 56be 7aad 413e b807 233d a979 7cbd
00000140: 6ec7 91be 4315 68bd a8cc 7cbd 9f55 90be
00000150: ac0e 943e 4327 c43d 35ff 93bc b685 a6be
00000160: 45a5 b23c dc47 2a3d 137a fcbd 0148 e63d
00000170: 85dd 253d 3e74 bb3d 7699 19be da12 1a3e
00000180: 7915 0a3e 2dc7 6d3e 5798 273d 1a87 0cbd
00000190: 4165 9a3d a775 32bd 773e 9e3d 0594 663d
000001a0: e502 6d3d 3c41 6b3d e81d 1fbd 4f60 aa3d
000001b0: df01 893d 0673 bcbd 9fc9 2e3c 8966 343c
000001c0: 2b27 1f3d 4eac 383d cd47 6fbd 67d8 9c3d
000001d0: ea85 9bbd 0eed 0dbd 1022 e93d 6158 1fbc
000001e0: 3087 a3bd e39a a0bc a032 e6bc 550d 95bd
000001f0: 7922 7a3b 9abd 273d d8b0 2e3b fb04 dabc
00000200: b54b 863d fc0d d4bd daba ac3d 7834 823d
00000210: 62dd a4bd 8fe0 86bd 367c 9bbc 2cc0 c8bd
00000220: bf9d bbbd 6230 b5bd 501f de3c dcc7 b9bd
00000230: ec87 ab3c 479b c43d 70cf 8fbc d63e 283d
00000240: 4089 38bd e486 cabd 236b ad3d e5aa f0bc
00000250: 992f 0d3d 5e6e 0f3a 0f8b a2bd 4a4f 8bbd
00000260: 15f8 203d 9af6 8c3c 1d7a 7abd 12c3 eabd
00000270: 0a1d 11be f99d 1f3c 61c4 85bc 095b 85bd
00000280: 71dc e1bd ea9d 903d de7a ab3d 486f 14bb
00000290: 75f1 67bb 53f2 babc efc9 0b3d 93d3 92bd
000002a0: 7b1c a5bd da3b 353e f256 933c 9520 a53d
000002b0: 1870 0ebd 24e2 5b3d 7157 d8bd 2ec8 b0bd
000002c0: 9698 4b3e b990 f43d 4e76 913d c8d9 0bbd
000002d0: 1506 d8bc ec11 213d 7406 5abd 2eeb 4e3e
000002e0: ceeb 03bd 5eb0 f23d 06c8 053d f986 163e
000002f0: 2ef5 0ebd 6e97 f53d 08f2 723e cc0d 07bf
00000300: aa73 863d 4ce0 303c 6dfd 6bbd 004a a2bd
00000310: f6ed dfbc 7882 dc3d da03 5f3d e2aa 853d
00000320: fd85 93bd 833e eabc ea08 32be 8ba2 f2bd
00000330: b044 ac3d 3f75 833d 7685 a2bd 62f9 05be
00000340: 60ab 57be d090 f3bc 7056 47bd cca3 2abe
00000350: ede4 4cbd bdfc dbbd 4199 923d 4d89 ab3d
00000360: 7799 cbbd 7670 babd b215 67bc a8a1 323d
00000370: e83f 0ebe 4e04 783c 4a2b dd3d a19d 123e
00000380: db69 6abe f560 62be 5ecf 07bd f522 5dbe
00000390: 63b0 42bd d327 70bd 5bfe 09bd d151 9ebd
000003a0: 7c3f 1d3d 3181 813d 38c3 893c 2389 b9bd
000003b0: a4aa b63c 0b2c 15bd f770 c63b 7afe 663c
000003c0: 08c1 3ebc 8107 5f3d 5362 4ebe ab29 bfbd
000003d0: 8da9 51be 7cb7 ddbd 1dcd 72be ff8e 29be
000003e0: 07cc a5bd 9acb 91bb e6b6 893d 9014 9dbd
000003f0: b869 9a3d 40e2 78bd a6dd 29bc 13e7 80bd
0.022928156 -0.022504333 0.031128231 -0.00029469433 -0.10612124 0.092810914 0.006100051 -0.040416673
-0.0008296164 0.029655512 -0.012082217 0.08140627 -0.14552227 0.1026183 0.10306355 0.07241697
0.06925343 0.0056343554 -0.054461274 0.10234341 -0.013714489 -0.17337124 -0.1580946 -0.093625896
-0.07041424 -0.036465093 -0.03919674 -0.07496136 -0.038281087 0.14881921 0.029408894 0.089845434
0.057202272 -0.0052756313 -0.04926769 -0.116309665 -0.07672274 0.08836321 -0.14024733 -0.1101117
-0.15380852 -0.12512656 -0.10741279 -0.15023303 -0.07910279 0.010018309 -0.039562017 -0.08704008
0.012816659 0.011390766 0.16798952 0.04395851 -0.07876265 -0.14514326 -0.1108424 -0.12808304
-0.18049242 -0.17262374 -0.12029954 -0.022419581 -0.11038767 -0.025349205 -0.04806956 0.0014409366
0.17973171 0.08317477 -0.0026682804 0.0514985 -0.12874566 0.28116965 0.07794329 0.029224932
-0.051004235 -0.22053294 0.034130722 0.05627121 -0.20966165 0.18913832 0.039802283 -0.06163946
-0.28472465 -0.0566609 -0.061718613 -0.28190324 0.28917444 0.09577801 -0.018066028 -0.32523888
0.021807322 0.041572437 -0.12327971 0.112442024 0.04049446 0.09153031 -0.14999947 0.15046254
0.13484754 0.23220511 0.040916767 -0.03430853 0.07538844 -0.043569233 0.07726758 0.056293506
0.05786409 0.05743526 -0.03884688 0.08319151 0.0668981 -0.092016265 0.010668187 0.011010774
0.038855713 0.045086198 -0.058418084 0.07658463 -0.075939015 -0.0346499 0.1138345 -0.009725661
-0.07984769 -0.019605106 -0.028100312 -0.072779335 0.003816752 0.040952303 0.00266557 -0.026613703
0.06557409 -0.1035423 0.084340766 0.06357664 -0.08050038 -0.065858 -0.018980127 -0.09802279
-0.09160947 -0.08847119 0.02711454 -0.09071323 0.020938836 0.09599929 -0.017554969 0.04107555
-0.045052767 -0.098890096 0.084677 -0.029378364 0.03446922 0.0005471463 -0.079366796 -0.068022326
0.03929909 0.017207433 -0.061151613 -0.11462988 -0.14171234 0.009742253 -0.016328992 -0.06511504
-0.11028374 0.0706137 0.083730444 -0.0022649337 -0.0035391722 -0.022820627 0.034128126 -0.07169261
-0.08062073 0.17698613 0.017985795 0.08062855 -0.03477487 0.05368246 -0.10563553 -0.08631931
0.19882426 0.11941666 0.07102643 -0.03414324 -0.026370088 0.039323732 -0.05322881 0.20206901
-0.032207303 0.118500456 0.03266146 0.14699925 -0.03490179 0.119917735 0.2372514 -0.5275543
0.0656503 0.010795664 -0.057614733 -0.07924271 -0.027335148 0.107670724 0.054447033 0.06526734
-0.072032906 -0.028594261 -0.17386213 -0.11847409 0.084115386 0.06418847 -0.07935612 -0.13083413
-0.21061468 -0.029732138 -0.048666418 -0.16664046 -0.05002301 -0.107415654 0.07158137 0.083757974
-0.099413805 -0.091034815 -0.014104294 0.0436112 -0.13891566 0.015137745 0.10799272 0.14317943
-0.22891943 -0.22107299 -0.033156745 -0.21595366 -0.047531497 -0.05863173 -0.033689838 -0.07730449
0.03839062 0.063234694 0.01681672 -0.0905936 0.022298165 -0.036418956 0.006055947 0.014098758
-0.011642702 0.054450516 -0.20154695 -0.093341194 -0.20474835 -0.108260125 -0.23711057 -0.16558455
-0.08095556 -0.00444932 0.06724338 -0.076699376 0.075396955 -0.060762644 -0.0103677865 -0.06294074

layers.0.bias f4 [128]
00000000: b1db af3d 789c 5d3c 8f35 07be f349 8a3d
00000010: 5f17 2d3e 30b4 9fbd d81b 6e3d 7c54 f33d
00000020: e732 14be 5ece e4ba ae76 78bc 43bd 3fbe
00000030: 83d9 a6bd 4f1f fa3c 2b0c ddbd fb49 db3d
00000040: a134 73bd 15dc 473e 1b97 0abe 4080 0dbd
00000050: 150d 523e 7bc3 a4ba d935 a83d 4b4d d83c
00000060: 3f07 053e 0514 38bd 0e63 5fbd f3bc 91bd
00000070: b31b b43d 36e2 693e 720a 7c3e 92e6 213d
00000080: 3ee7 73be 2da3 c6bd a14b 643e 89e4 2dbe
00000090: 4791 d23c 55cd 27bd 97f6 723e e9b2 1bbe
000000a0: 6bb1 d2bd 8649 1fbd 0bbe 033d 8f48 893d
000000b0: 88a4 ef3c ba46 4fbc fd0d 593e f620 673e
000000c0: 346a 96bd ace9 4dbd 2f85 123d dc32 26bc
000000d0: a18b 66be 61a8 c2bd 877a c53d 1874 8fbd
000000e0: ebf8 f8bc 10a5 df3d a104 173d 36f2 1cbc
000000f0: aacf ae3e c5a3 173e b6e7 3f3c c39b 943d
00000100: 018d bd3b 2eac 61be d6bc abbd 3cfc efbd
00000110: dde1 c13d f0e8 62bd 818d 92bd e5a9 9c3d
00000120: 1887 07bd 6ee4 ac3d cae3 54be b8cc 89bd
00000130: bdc1 603e ee4a c73d 931b 603c 16e8 613e
00000140: 4a2b 583e e643 9fbd 951a 2e3e b2e8 df3d
00000150: 74a8 4e3d 2b13 563e 8cdf f1bd eb4a 4dbd
00000160: c003 f53c a714 a73b f60f 21bc 5db6 2d3d
00000170: fc9d 3d3e 95ac d9bd 25e5 833e 5e53 813d
00000180: 823b 67bd 3052 f8bd 16ba 13be 63ff 08be
00000190: 4e2e 0f3d 64ee 8abe f13a b2bd a807 7e3d
000001a0: f5c6 673d b1d7 45bb 39fc e83d 697e 8d3e
000001b0: aa08 96bd 1c04 a43d e325 513d 009e fbbd
000001c0: 3195 7abd b38d 3dba 0600 c3bd 8c9f 193e
000001d0: f47f 153e 749a 133d 68e1 d73d b1ca 323e
000001e0: 997f e9bd 32c6 9cbd 933c fbbc c196 bc3d
000001f0: e79b 0f3d 687f c73d 0269 01be 6958 f63d
0.08586825 0.013526075 -0.13204025 0.06752386 0.16903447 -0.0779804 0.058132023 0.118813485
-0.14472543 -0.0017456522 -0.015165014 -0.18724541 -0.08146956 0.030532507 -0.107933365 0.1070747
-0.059376363 0.19517548 -0.13534205 -0.034546137 0.20512803 -0.0012570465 0.082133956 0.026404044
0.12991045 -0.044940967 -0.054537825 -0.07116117 0.08794346 0.22840199 0.2461336 0.03952653
-0.2381868 -0.09699092 0.22294475 -0.1698171 0.02570404 -0.040967304 0.23726879 -0.15204968
-0.10287746 -0.038888477 0.03216366 0.067032926 0.02925326 -0.01265114 0.21196742 0.22571167
-0.073444754 -0.050271675 0.035771545 -0.010143962 -0.22514202 -0.09504772 0.09642511 -0.07004565
-0.03039213 0.10920155 0.03686965 -0.009579232 0.3414281 0.14808567 0.011712959 0.07256272
0.0057846312 -0.22038338 -0.08385627 -0.11718032 0.09466908 -0.055397928 -0.07155896 0.07649592
-0.03308782 0.08442007 -0.2079002 -0.067285 0.21948905 0.097310886 0.013678449 0.2206119
0.21110263 -0.077766225 0.17002328 0.10933055 0.05045362 0.2090575 -0.11810216 -0.050120275
0.029909015 0.0050988975 -0.009830466 0.042410243 0.18517298 -0.106286205 0.2576076 0.06314729
-0.056453235 -0.12125051 -0.14426455 -0.13378672 0.03495627 -0.27135003 -0.087026484 0.06201902
0.056586225 -0.0030188377 0.11376233 0.27635506 -0.07325871 0.08008596 0.051061522 -0.122859955
-0.061177436 -0.00072308927 -0.09521489 0.15002269 0.14599591 0.03603597 0.1054104 0.17460133
-0.114012904 -0.0765499 -0.030668532 0.092084415 0.03506079 0.09741098 -0.12637714 0.12028582

layers.1.weight f4 [128, 128]
00000000: 672f e93a 9d1e ac3d f387 883e f2cc 223d
00000010: 0555 ac3d 87d6 29be d9d3 c8bc 90fa b7bd
00000020: 43b1 91bd 7ddb 493c df1b 6fbc 715b d83d
00000030: eae3 98bd f2c6 d23d 0bd9 933c a7f6 35bd
00000040: 1a3f aebc 6bc2 04bd fe08 99bd 2d32 2f3d
00000050: 9640 d2bd da60 76bd 4858 f6bd 34be 323e
00000060: 13df bebc 2028 613c c07a cd3c 8a19 b0bd
00000070: 7621 8b3d fd70 d9bd 7d00 a0bd 10e9 463c
00000080: cbfd 03be dbe3 883b d843 49be 91fb 1a3e
00000090: 8d85 863d 2831 fcbd ff5e fe3d a31c 063e
000000a0: 1241 ca3d f7dd 3a3e fb91 253e 5c3d 44bd
000000b0: fd69 99bd c7f0 803b 543b 1a3d 403c 6abe
000000c0: 817f 223d d038 fe3c 9ee0 673e 567c 06be
000000d0: 6bfb 81bd 1b32 06be c84d 1b3c 2519 c3bd
000000e0: 2a68 393c 56c7 b53d dd0c 343d bcb0 97bb
000000f0: 9c1a a8bd 3e65 65be ef42 643d 4435 e9bd
00000100: 84cb 85bd 6048 8b3d 66a8 6dbe 21bd 9bbd
00000110: dc8c de3c 3210 8d3d b2f8 59bb 17d6 91bd
00000120: 5d40 0fbd b027 3abd 7ba4 193c 66b2 64be
00000130: 73d5 143e 034c 08be 87f1 7bbe e70d fbbb
00000140: dae8 2d3d 9235 fa3d 3270 9a3c 2bd7 2cbe
00000150: ef8a 7c3c f554 553d cea9 43bd b5b6 a03c
00000160: 7c0b 98bc 8832 263e 737e 83bd 9ded 81bd
00000170: e863 9b3c 1b19 773e 0415 1ebe 25eb bebe
00000180: 7100 96bc 7674 1abe 2496 be3d 92c2 08be
00000190: 291f 68bd 4f74 cabc 5dd3 7dbe e013 05bd
000001a0: 9b4f 983d 3383 543d 137a c23d 02f6 d9bb
000001b0: 2427 d0be d6d3 c03d 9ec0 5fbd d599 0f3e
000001c0: 4256 29bd 83cd 1e3e 4207 ca3b 19e3 d7bc
000001d0: 3453 c9bd af43 613c 09ef 9abd f19d 0bbe
000001e0: 68ba afbd d83a 8c3d 38dd 0fbe 227c fb3c
000001f0: 759e 5ebd 9374 0dbd 6492 71bc 7da9 92bd
00000200: c6db a33d 547d 923a 7c35 963e fd33 d4bc
00000210: 6b32 c1bd dc52 bbbd 242a 09bd 7796 c43d
00000220: e3b4 fcbc b47e ecbc c9a3 8abc 1acc 403d
00000230: 7c7c 0c3c ab16 313c 04d8 21bd 26c9 353e
00000240: 2ea1 ffbd ccf5 cc3d 0eba cfbb 8464 303d
00000250: 6bcc a3bd 3534 05bd 37d7 aabd 8883 243d
00000260: afef e23d ddaa 9c3c be3e 66be 7564 b1bd
00000270: 4ea5 c63c 9fec 02be f8f1 053b d62f 0dbc
00000280: 1c2a bb3c 86d4 74bd 2333 e03c a948 f2bc
00000290: 1e12 a23c d83f f83d 8bd8 03bd 4fcb a53d
000002a0: 26db c53d 3168 d9bd 715f 85bd e237 9ebd
000002b0: a2b3 683e 98bb 823d c3a3 4dbd 7764 8c3d
000002c0: 8f92 26bc 6b29 91bc 72ca b43e c846 37be
000002d0: 316e 043e 64d6 2abe 7496 10be d642 d73d
000002e0: 9a7f ca3d 41bf 0d3c 34cb 9e3c a546 a7bd
000002f0: ecf3 debd c75f 01bd e8a0 6d3d 6d9e c73d
00000300: 3b4a 8b3d f20a f93b b756 3cbc b4ed 943d
00000310: f86b 3e3c fdb6 1c3d 5ffa 42bb 6a65 073e
00000320: 8d52 a6bd 9189 0bbe ad4d 8a3d 66bb a1bd
00000330: fd13 a23d 4386 303d a924 3cbe aac8 153e
00000340: 6eb9 923d 7797 ffbc 816a 66bd 308b 83bc
00000350: a300 803d 22b5 aebc a7f5 d5bd 32fc 0d3e
00000360: 30ca cc3d 9895 2b3e a1aa cebd af34 e63d
00000370: ec40 6abc cab9 f1bc 938e a3bc 95b4 39be
00000380: 59b3 adbb 1a66 393c e498 6b3c 71ec 18be
00000390: 23da fdbc fc70 89bd 4824 de3d 23e0 d2bd
000003a0: 1dc5 f3bc e37e bc3c a006 9e3d 8408 ddbd
000003b0: f56b a2be 3083 763c 4331 70bd b10d 98bd
000003c0: 7e74 1cbd 7ada b73d 8a6a dbbc 330a 08be
000003d0: 35c4 6b3c 7740 9c3c 710b 53be e4dd b13d
000003e0: 1ff9 553d 0784 503d 9fb5 e2bd fb58 143d
000003f0: fe89 083d be03 b23d c304 1e3c 617c 453e
0.0017790616 0.084042765 0.2666622 0.039746232 0.08414654 -0.16585742 -0.02451508 -0.08983338
-0.07113888 0.0123203965 -0.014594047 0.10564316 -0.07465346 0.10291852 0.01804783 -0.04442468
-0.021270324 -0.032411974 -0.07472418 0.04277246 -0.10266225 -0.06015096 -0.12028557 0.17455369
-0.02329973 0.013742477 0.025082946 -0.08598621 0.067934915 -0.10617254 -0.07812593 0.012140527
-0.12889783 0.004177553 -0.19654787 0.15135027 0.065684415 -0.12314063 0.12420463 0.13096862
0.098756924 0.18248735 0.16168968 -0.04791008 -0.07490919 0.003934953 0.037654236 -0.22874546
0.03967238 0.03103295 0.22644278 -0.13133368 -0.06346782 -0.13105051 0.009478994 -0.0952628
0.011316339 0.08875911 0.04395758 -0.0046292227 -0.082082 -0.22401902 0.055727895 -0.11387113
-0.06532958 0.06800914 -0.2320877 -0.07604433 0.027166776 0.06887855 -0.0033259806 -0.071209125
-0.03497349 -0.045448005 0.009377594 -0.22333679 0.1453455 -0.13310246 -0.24603854 -0.0076615694
0.042458393 0.12217249 0.018852327 -0.16878955 0.015413984 0.052082974 -0.04776936 0.019618372
-0.018560164 0.16230214 -0.06420603 -0.06344149 0.018968537 0.2413067 -0.15437704 -0.37288776
-0.018310757 -0.15083489 0.09305981 -0.13355473 -0.05667034 -0.024713663 -0.2478766 -0.032489657
0.074370585 0.051882934 0.0949594 -0.006651641 -0.40654862 0.094154045 -0.054627053 0.14023526
-0.041342027 0.15508084 0.006165416 -0.026353406 -0.09830323 0.013749047 -0.075651236 -0.13634469
-0.08580476 0.06847161 -0.14049232 0.03069884 -0.054350335 -0.034535002 -0.014744375 -0.071612336
0.08000903 0.0011176267 0.2933768 -0.025903696 -0.094334446 -0.091466635 -0.033487454 0.095990114
-0.030847972 -0.02886901 -0.016923802 0.047069646 0.008574601 0.010808627 -0.03951265 0.17752513
-0.124819145 0.100078195 -0.006339318 0.04306461 -0.07997974 -0.03252049 -0.0834183 0.0401645
0.11080872 0.019124443 -0.22484872 -0.08661739 0.024248745 -0.12785576 0.0020438414 -0.008617362
0.022847228 -0.05977299 0.027368134 -0.029575663 0.01978403 0.12121552 -0.032188933 0.08095419
0.0966094 -0.10615576 -0.06512345 -0.077255026 0.22724774 0.06383437 -0.050205003 0.068551
-0.010166778 -0.017719945 0.35310704 -0.17898095 0.1293266 -0.16683346 -0.14119893 0.10510795
0.09887619 0.0086515555 0.019384004 -0.08167771 -0.10886368 -0.03158548 0.05801478 0.09747014
0.06801268 0.0076001817 -0.011495284 0.07271901 0.011622421 0.03826045 -0.0029751284 0.1322228
-0.08121214 -0.13626696 0.06753097 -0.078970715 0.07913969 0.043096792 -0.1837336 0.14627329
0.07164274 -0.031200154 -0.056253914 -0.01605758 0.062501214 -0.021326605 -0.10447245 0.13865736
0.09999502 0.16756284 -0.10091139 0.11240517 -0.014297705 -0.029507536 -0.019965446 -0.18135293
-0.005300921 0.011315847 0.014379714 -0.14933945 -0.030987805 -0.06711003 0.10846764 -0.10296657
-0.029757077 0.023009723 0.07716107 -0.1079264 -0.3172299 0.015045926 -0.05864073 -0.074244864
-0.038197033 0.08977218 -0.0267842 -0.1328514 0.014390041 0.019073708 -0.20609833 0.086849004
0.052239534 0.05090716 -0.11069798 0.03621767 0.033334725 0.0869212 0.00964469 0.19285728

layers.1.bias f4 [128]
00000000: 86be d73d b6dd 74bd 31ec 9c3d 6cea 2c3e
00000010: b7c1 b93d 0bfc 9ebd ea99 5d3e 6d98 b4bb
00000020: d8bd 943d e3aa d93d 080c 0a3d 6edc 2abe
00000030: caea 583d c3c1 9b3d 1f47 dbbd 04c5 b5bd
00000040: 2d5a ff3c bd1a 18bd bbf1 273e 3428 9f3d
00000050: 4349 d7bd 77f6 8d3d b0ca 9cbb a02f f23d
00000060: 466e 9b3c f0c9 99bb 34e6 08bd f5c3 be3d
00000070: 57e2 743d 5886 9dbd c3a5 3f3c 87a8 ee3d
00000080: fac2 a6bc c919 ef3d 7d96 25bb cc0b aabd
00000090: e3c8 123c 35f5 00be 3751 4c3e 014c a1bd
000000a0: b4e0 52bb b7d3 86bd 17fa acba 6e41 343e
000000b0: cbc1 64bd 6c2e 303d 44ba 053e da98 02bd
000000c0: 7b2a 163d dd9a f0bd 4594 bc3d 90d5 393e
000000d0: 2c29 d53d 153c 393a fc69 8ebd b396 8abd
000000e0: b8bc 593e 5774 80bd 28e6 48bd 6ac5 7b3c
000000f0: 757c bd3d aabc 8a3d 350d 173e 9348 033e
00000100: fc20 f63c 5e45 0e3e c48f 613e c84b 70bd
00000110: 1d10 8ebd cd8b 7b3e e14c 05be 5f20 98bd
00000120: 6cb8 553d b831 c53c 987c 563d 03e3 593e
00000130: 7b06 ce3d fafe 3a3e 16d5 9a3d 5191 25ba
00000140: 8244 1b3e 1dda 253d 7fc8 983c 9d36 99bb
00000150: b336 103d d149 29be c65a c43c 704a 873d
00000160: c3f5 e5bc 093a 36bd 1f90 8bbd 71ea 333e
00000170: 36cd 283e 11ba d53d c317 62bd 8855 003e
00000180: 28ce 16bd 9aa7 2a3d 04b3 8d3d 7587 953d
00000190: 0315 083d d8f5 a9be 5512 1dbc b2dc 143e
000001a0: c574 5f3d 7635 cc3d 8162 02bd 35cd 553d
000001b0: 3f4b e7bd 58a0 153d e4f4 253d 4c81 2fbd
000001c0: fa15 9e3e df57 a83e 687c b73c 35fa eb3b
000001d0: 5bc2 89bd fa8f 0a3c b1c5 f43c cdd2 f4bc
000001e0: d510 a53c 710b 013e bc2c ab3d 542d 013e
000001f0: 5433 8d3e 2f19 a9bd 389a 5bbc dd9e 173b
0.10534386 -0.059781753 0.076622374 0.168863 0.09070151 -0.07762917 0.21640745 -0.0055113346
0.07262772 0.10628297 0.03370288 -0.1668565 0.052958287 0.076053165 -0.10706925 -0.088754684
0.031170929 -0.037134875 0.16400807 0.0777134 -0.105120204 0.06931775 -0.0047849044 0.1182549
0.01897348 -0.0046932623 -0.033422664 0.093147196 0.059786167 -0.0769164 0.0116972355 0.11653238
-0.020356644 0.1167484 -0.00252667 -0.08303031 0.008959028 -0.12593539 0.19952856 -0.07875825
-0.003217739 -0.0658335 -0.0013197091 0.17603084 -0.055848878 0.04301302 0.13059336 -0.03188405
0.036661606 -0.11748288 0.09207968 0.18147874 0.104082435 0.0007066143 -0.06953809 -0.06767025
0.21263397 -0.0627219 -0.04904762 0.015366891 0.09252254 0.06774266 0.14751132 0.12820654
0.030045025 0.13893649 0.22027498 -0.05866602 -0.06936667 0.24565049 -0.13017608 -0.07428049
0.05217783 0.02407156 0.052364916 0.21278004 0.1005983 0.18261328 0.07560174 -0.00063159043
0.15162852 0.040491212 0.018650291 -0.0046757 0.035208415 -0.16532065 0.023969065 0.06605995
-0.02807129 -0.04448894 -0.06814598 0.17569901 0.16484532 0.1043588 -0.055198442 0.12532628
-0.0368177 0.041663744 0.0691891 0.07301227 0.033223163 -0.33195376 -0.00958689 0.14537314
0.05455472 0.09971134 -0.031832222 0.052197654 -0.11293649 0.03652987 0.04051675 -0.042847916
0.30876142 0.3287954 0.022398189 0.007201458 -0.067265235 0.008457178 0.029879423 -0.029885674
0.020149628 0.12602021 0.08358142 0.12614948 0.27578223 -0.082567565 -0.013403468 0.0023135461

layers.2.weight f4 [128, 128]
00000000: a0a6 acbc 1b2c ac3c ee1f 91bc 4f5c debc
00000010: acd3 93bd b05b 893d bbf6 443d 91d1 12bd
00000020: e985 843d 3b52 7c3d 7114 2d3d 268e 453d
00000030: 23cc 863d 44bd 023e 0f8b b53d dfdd 3ebd
00000040: bbbb 98be c3c2 91bc 9afd e53d 2788 733e
00000050: a11a 6a3d 283b a3be 8d7d cf3d 918b 91bc
00000060: 2f1b 38be b234 88be d600 7f3d beb7 3dbd
00000070: 8c12 843c 5ce3 1abd 4af6 c4bd f4d4 363c
00000080: f260 0d3e 6e32 6e3d 8daf c83d 733e 103e
00000090: f9de 82bc b581 e93d 16f5 0a3d ae99 75bd
000000a0: cf27 173d d9f0 673d bb43 fd3d 77bf be3d
000000b0: 3978 403d 9593 063e f29a f7bc eccb e2be
000000c0: e800 d43d 546b f63b 1ca9 a1bc 7375 0d3d
000000d0: 3781 643e 04de f8be ed3d 9c3d 6497 80be
000000e0: e367 d93e 5f47 e9bd b00a 943d 1aa7 a53d
000000f0: 21aa acbc 7dda 6e3d c0c5 923e e7c6 09bd
00000100: bfbd 303e 137b 743d 9dec 2abd d017 783d
00000110: f5cf 723c 68d5 cfba fbbe c8be 1fad 8d3d
00000120: e9dc 2e3e 0071 9a3d bc93 db3d 29ab 813c
00000130: 65ab e53d aa69 4f3d fc12 de3c cd4b 363c
00000140: 9d90 113e f4c1 c4bc 3997 573b 07d1 0e3e
00000150: 00a0 033e 3684 91bd 0cd9 103d 59b9 853c
00000160: 1760 543e 03fe 4a3d 28fe 3e3d 7676 db3c
00000170: 6963 e7bd 65e4 82bd 4cfe 8abd d58e 5bbe
00000180: d0ec 813d 64f5 363e 119b 7c3d bd5b b0be
00000190: 08b9 5ebe 54e3 973e 4cbb 29bc d2fe a63d
000001a0: d257 4dbd 572c 403b ddbf 96be ea0e 2c3d
000001b0: 8abb 983d 88a7 b83d 4050 5f3e bc86 ea3d
000001c0: 0512 833d 9925 9bbd 6397 1fbd 638a 0a3e
000001d0: 3abd e9bd 0f03 8a3d c021 d23e 3b1e 623e
000001e0: e47e a0be de81 a13d 506b 1ebd c149 5abd
000001f0: 96e0 72be a1a1 c23d 74ed aa3b 5490 c93d
00000200: 8b51 3a3d 0b88 5b3c ba35 d8bd 7f0a 283d
00000210: d5e9 9a3d 0b2c 903b 1737 453c 2573 a7bc
00000220: e27d 863d da1d 923d 71ab 343d c513 01bd
00000230: 70b8 83bd 8515 cb3d 9aec be3c 4127 a3bd
00000240: a484 e1be 74e8 bebc 467f eaba 302e 1f3e
00000250: 1d3f f83c 3257 29be b877 ca3d af20 a23d
00000260: a19b 72be 9b8e 87be 1d9e 51bc eecc 30bd
00000270: 19f9 a93d 4475 fc3c 5bf5 41bd 094d 883d
00000280: 9954 1dbb a8a5 923d ccee da3d fec9 1d3e
00000290: a8e3 92bd a509 163e ce0a a1bd 5b6a 2bbe
000002a0: 1f43 aabc 6280 d53b d965 043d 0c0a cf3d
000002b0: 0915 75bd d553 79bd 8f6e 33be 3f01 16bf
000002c0: 81b2 a03c 0e7f 8e3d 0db4 6d3d c5f3 60bc
000002d0: bc73 223e 9ba9 b8be 7457 ee3d 6e9e 35be
000002e0: fb76 b33e 653f 84bd 4d59 c1bc 113f a13c
000002f0: c5bf a0bd da1b ee3d 0ff3 903e 14f4 b8bd
00000300: 28ff 3d3e 44d3 c3bc fb62 0d3d b254 073c
00000310: e4e4 bd3c 5a31 c2bc 5292 b4be e534 c73d
00000320: 1b44 023e 7a1d 223e 9f94 d73a d322 7b3d
00000330: 3532 0abd 72a1 d6bd 53be 1e3d 6f3e 2bbd
00000340: 3015 0f3e 7c47 f23d 5258 303e c1c2 e83d
00000350: 9793 393d 19ed 3d3d 729d 83bd e5ed 25bd
00000360: 38fd 683e 117d 8bbd 299e 363d 47da 3e3d
00000370: 0301 65be ee48 cb3c 5c21 c2be a750 2dbe
00000380: cf46 6abc ffea 4a3e e00e 98bc 1547 5abe
00000390: f1cb 9dbe 1c5b 2c3e e36f 233e 0c3e a83d
000003a0: 808c 903d 01c4 89bd 204e 8ebe 5ddc 8bbd
000003b0: 82c8 d33c cdf1 a43d 2886 303e 0709 95bc
000003c0: f62a 85bd a9a6 f53d 0bc9 2e3d 8aa4 453e
000003d0: 3f18 30be d40e 343d b446 c43e 1d98 7abd
000003e0: ae87 97be a150 613a 89f8 853d 2609 48bd
000003f0: 1012 b2be 3fd7 633d afee 04be a0b8 bebb
-0.021075547 0.021017125 -0.01771542 -0.027143626 -0.072181076 0.06706941 0.048086863 -0.03584439
0.06470854 0.06160186 0.042255823 0.048231266 0.06581905 0.12767512 0.08864414 -0.04659831
-0.29830727 -0.017793065 0.11230011 0.23782407 0.0571543 -0.3188107 0.10131369 -0.017766746
-0.1797912 -0.26602703 0.062256657 -0.04631781 0.016122125 -0.037814483 -0.096172884 0.01115917
0.13806513 0.058153562 0.09799109 0.14086322 -0.015975462 0.11401693 0.03392514 -0.059961013
0.0369032 0.056626175 0.12366434 0.09313863 0.046989653 0.13142236 -0.03022525 -0.44296205
0.10351735 0.0075201187 -0.019733958 0.034535836 0.22314917 -0.48606884 0.07628999 -0.25115502
0.42462072 -0.11390566 0.07228601 0.08088513 -0.021077218 0.058313835 0.28666496 -0.033636954
0.17259882 0.059687685 -0.04172956 0.060569584 0.014820089 -0.0015856447 -0.39208207 0.06917786
0.17076458 0.07541084 0.107215375 0.015828686 0.112143315 0.05063788 0.027108662 0.011126471
0.14215322 -0.024018265 0.0032896532 0.13946925 0.12854004 -0.07105295 0.035363242 0.016323732
0.2073978 0.04955865 0.0466291 0.026789885 -0.11298258 -0.06391219 -0.067867845 -0.21441205
0.063439965 0.17867047 0.06167132 -0.3444499 -0.21750271 0.29665625 -0.010359596 0.08154072
-0.05013258 0.0029323304 -0.29443255 0.04200641 0.07457645 0.09016329 0.21807957 0.1145148
0.06399921 -0.075755306 -0.038962733 0.13529353 -0.11413045 0.06738865 0.41041374 0.22081845
-0.3134681 0.07886098 -0.03867656 -0.053292993 -0.23718485 0.095034845 0.005216295 0.098419815
0.04548792 0.013399134 -0.105571225 0.041025635 0.07564131 0.0043997816 0.01203706 -0.020440647
0.06566979 0.071346 0.04410881 -0.031512994 -0.06431663 0.09916214 0.02330618 -0.079664715
-0.4404651 -0.023304202 -0.0017890714 0.15544963 0.030303532 -0.16537169 0.09886116 0.0791639
-0.2369218 -0.26475987 -0.012794045 -0.043164186 0.08299465 0.030817635 -0.04735313 0.06655318
-0.0024006723 0.07160503 0.10690078 0.15409085 -0.07172328 0.14652117 -0.07863389 -0.1673979
-0.020783959 0.0065155486 0.032323692 0.10109338 -0.059834514 -0.060870964 -0.17522644 -0.5859565
0.019616367 0.069578275 0.058033038 -0.013729994 0.15864462 -0.360669 0.11637774 -0.17736217
0.35051712 -0.06457404 -0.023602152 0.019683393 -0.07849077 0.11626406 0.2831044 -0.09030929
0.18554366 -0.02390445 0.034518223 0.008259939 0.023180433 -0.023705173 -0.35267884 0.09726886
0.12721293 0.15831557 0.0016447491 0.061312508 -0.033739287 -0.10480012 0.038755726 -0.04180759
0.13972926 0.11830041 0.17221192 0.11365271 0.04530677 0.046368692 -0.06426515 -0.040510077
0.22752845 -0.06810964 0.044584427 0.046594884 -0.22363667 0.024815049 -0.37916076 -0.16925298
-0.014299109 0.19816206 -0.01856178 -0.21316178 -0.30819657 0.1683163 0.1596065 0.082149595
0.07058048 -0.06726838 -0.2779398 -0.0682914 0.025852446 0.08053932 0.17238677 -0.018192781
-0.06502335 0.119946785 0.0426722 0.19301048 -0.17196749 0.043959454 0.38335192 -0.061180223
-0.29595703 0.00085950835 0.06541545 -0.04883685 -0.34779406 0.055625197 -0.12981676 -0.005820349

layers.2.bias f4 [128]
00000000: 523c af3d a072 debc 99ea c7bc 940b e7bd
00000010: 7094 c7bd 6f58 813e ce1c 363d 2c1d 91bd
00000020: 8905 473d 38d9 86bd 068c 2a3d c832 2bba
00000030: 983f 643d fdb7 86be fc42 413e 9235 433b
00000040: 4b52 a1bd d2e3 3a3d a7d0 5c3e bf28 373d
00000050: 8537 f53c 8045 c5bd 118b 863e 243c 3c3d
00000060: 3af4 c03c 9799 403e bc44 f5bd 0c7f 2bbe
00000070: 497e 803c 469d a6bd a569 a73d 6c91 813d
00000080: 5c0a 803d f75c 473d 63f3 653e 088e 533d
00000090: ca2c 2ebc 1d01 093d eb2a 1e3e bea7 713d
000000a0: c456 9f3e e084 243c ac79 923d 0f70 d83b
000000b0: 28f2 7a3e ba87 b33e 5277 99bd 507e 403d
000000c0: ea15 8cbd 4f4d 53be c7da bc3e ca71 ee3b
000000d0: 4d28 f23c ec85 2e3d 4e75 b7bd a467 4f3c
000000e0: 9de8 93bd c1ea 213d 7836 9fbd 39c1 a43e
000000f0: 6186 08be 1fba 983c dd27 8d3e ea8f bb3e
00000100: 3c8a 02bc ac78 9d3d 3af6 723d 9656 333d
00000110: 2e0e 1ebe ad95 63bd b6d7 1ebe 333c 843c
00000120: 20cf 95bc e608 10bd 0d22 213d 7128 7c3e
00000130: a21d 713e ab7d 553d 40e6 44bd ac23 59bd
00000140: faa7 92bd 0ad4 3cbd 4c37 10bd d098 b33e
00000150: ff6e 593d 7c51 8a3d 496e 0f3d fb09 193e
00000160: fe9d 363c 97dc f8bd 24f1 dfbc ec6c 7a3d
00000170: e824 24bd 9426 e8bc 9da3 ef3c 3e60 7b3e
00000180: f332 933d ebfc d93d 1d4a d63d 9f35 ab3e
00000190: ee69 b83a ea81 0a3d b703 033c 798b e6bd
000001a0: af0c 803d 1ec1 00bc fc6b 81bd 886d 203e
000001b0: e9c6 e2bd 7b27 15bd 2b20 04be 2f96 5c3e
000001c0: 647a 013d f58e 6c3e 9359 b7bd 53ac cf3e
000001d0: 0279 c0bd 1b5c 0c3b 0fd5 ccbd 5766 503d
000001e0: 7a05 2ebd e1a4 0bbe 00f0 86bd 660a 8f3d
000001f0: 12d1 6bbd 5875 94bd c29a 38be 7170 7b3e
0.08556427 -0.027154267 -0.024403857 -0.11281505 -0.09745109 0.25262782 0.044461064 -0.07085642
0.048589263 -0.065844 0.041637443 -0.00065306993 0.05572471 -0.26312247 0.18873209 0.002978657
-0.07877024 0.045627423 0.2156397 0.044716593 0.0299337 -0.09632397 0.26277974 0.045955792
0.023553956 0.1880859 -0.11976001 -0.16747683 0.015685217 -0.08135466 0.08174447 0.06326565
0.06251976 0.048672643 0.22456126 0.051649123 -0.010630796 0.033448327 0.1544606 0.058997862
0.31120884 0.0100414455 0.07152113 0.0066051553 0.24506438 0.3506449 -0.07493462 0.04699546
-0.06840117 -0.2063496 0.36885664 0.0072767483 0.029560233 0.042608187 -0.08957921 0.012658987
-0.07222102 0.03953052 -0.07774061 0.32178667 -0.13332511 0.018643437 0.27569476 0.36633235
-0.007967528 0.07689032 0.05931685 0.043783747 -0.15435097 -0.055562664 -0.15511975 0.016141986
-0.018287241 -0.035164736 0.039339114 0.24624802 0.2354646 0.0521218 -0.048071146 -0.053012535
-0.07160945 -0.046100654 -0.035208985 0.35077524 0.05308437 0.06753823 0.035017285 0.14945213
0.011146067 -0.12151449 -0.027336664 0.061139032 -0.04007426 -0.028338708 0.029252822 0.24548432
0.07187452 0.106439434 0.10463355 0.33439347 0.0014069655 0.033815302 0.007996491 -0.11257071
0.06252419 -0.007858543 -0.063194245 0.15666783 -0.11073095 -0.036414605 -0.12902896 0.21541665
0.03161086 0.23101409 -0.08952632 0.4056116 -0.093980804 0.0021417204 -0.10001575 0.05087885
-0.04248569 -0.13637115 -0.06588745 0.06984405 -0.05757243 -0.07248944 -0.18027785 0.24554612

layers.3.weight f4 [1, 128]
00000000: 24ee 0b3e ad5d 653e a9e3 1d3e 6b5b f93e
00000010: 8170 5a3e f3b2 cebe 71f6 8abe 59c1 d9bb
00000020: 4cab 283e be2d a2bc 9d97 3c3e 8314 223e
00000030: eae3 253e 989b 3b3f 67ea 29be a54a 1e3e
00000040: 06e5 bcbe 5178 233e f8fd c0be 3a49 093e
00000050: bf0c 1b3e 945d e93e 9e62 08bf 7ba5 98be
00000060: d02c 0d3e 4387 2cbf a313 dc3e 72d8 e23e
00000070: 6ec0 c63d 4ba9 3d3e 0135 0b3e d475 a1be
00000080: 00d5 103e 6b96 363e 3ef3 26bf 7831 313e
00000090: 9ed8 8fbe f564 1d3e f140 f1be 2bed d3be
000000a0: c7b1 f6be 0346 803e 9516 cabe be3a 163e
000000b0: d067 7dbe bccb f8be b484 bdbe 4ff2 de3d
000000c0: e61c b9bc 88e4 1b3f 98ed fbbe 46d9 0d3e
000000d0: 3cf1 143e 4c3b 113e dc13 febc 2557 e93d
000000e0: 0420 3d3e 7c73 e53d 130d 5fbe ea10 0ebf
000000f0: 2d97 c1bb 777a 513e 854e e3be 3042 31bf
00000100: 517d 153e 412d 0a3e 2cb7 283e 2220 1c3e
00000110: 3670 6bbe 2db8 4b3e 475e cebe 27c8 283e
00000120: 0c6f 043e b0e8 c7bd 610b 1c3e bf03 8dbe
00000130: 5823 16bf 2c2f a7be 99af 3e3e 07e6 763e
00000140: 4d4e 9fbe 3417 8a3e 1ece 5e3e 2c68 f6be
00000150: 002c 333e 42b2 c1be 3b02 133e 3430 8dbe
00000160: 0189 0a3e db2f e8be 09d2 753e f0e6 f83d
00000170: c554 d0be eb9e 953e 2b8c bf3d a342 e1be
00000180: 2503 e63d 7d68 a8be e994 5fbe d170 dcbe
00000190: 1cfe 873e fc14 253e 8cfa 05bf 9d1d 463b
000001a0: 5b08 0dbe bfc8 e4be 08a0 273e 6697 0fbe
000001b0: bbda 53be 5a40 b8be 1897 38be d8e6 b0be
000001c0: c18c 823e 819b 86be f687 1fbd 6512 09bf
000001d0: b363 763d 3ab6 153e 17e3 f43c e2a9 a0be
000001e0: 32b7 163e 8a40 0f3f 7940 30be f8e9 f43d
000001f0: 800d 8dbe bfb1 8abd 50b0 be3e cebf 0abf
0.13665062 0.22399016 0.15418877 0.4870256 0.2133198 -0.40370902 -0.27141145 -0.0066453633
0.16471595 -0.019797202 0.18417211 0.15828137 0.16200224 0.7328429 -0.16593324 0.15458162
-0.3689348 0.15963866 -0.37693763 0.1340684 0.15141581 0.45579207 -0.5327548 -0.29813752
0.13786626 -0.67393893 0.42983732 0.4430576 0.09704672 0.18521611 0.13594438 -0.31535208
0.14143753 0.17830817 -0.6521491 0.17304027 -0.28094953 0.15370543 -0.4711986 -0.41391882
-0.48182508 0.25053415 -0.39470354 0.14670846 -0.24746633 -0.48592937 -0.37015307 0.108860604
-0.022596788 0.60895586 -0.49204707 0.13852414 0.14545149 0.14182776 -0.031015329 0.113935746
0.18469244 0.112036675 -0.21782331 -0.5549456 -0.005907914 0.20456873 -0.44395843 -0.6924162
0.14598586 0.13493825 0.16476125 0.15246633 -0.22992024 0.19894476 -0.40306303 0.16482602
0.12932986 -0.097611785 0.15238716 -0.2754192 -0.5864768 -0.32653177 0.18621673 0.24111186
-0.31114426 0.26970828 0.21758315 -0.48126352 0.17497253 -0.37831312 0.1435632 -0.2757584
0.13528825 -0.4534901 0.24005903 0.12153423 -0.40689674 0.29222807 0.09352907 -0.43996152
0.112310685 -0.32892218 -0.21834148 -0.43054822 0.26561058 0.16121286 -0.5233543 0.0030230053
-0.13772719 -0.44684407 0.16369641 -0.14022598 -0.20688908 -0.35986596 -0.18026388 -0.3455112
0.25498012 -0.26290515 -0.03894802 -0.5354369 0.060153674 0.14620295 0.029893441 -0.3137961
0.14718321 0.55957854 -0.17212094 0.119586885 -0.27549362 -0.067721836 0.3724389 -0.5419892
